CybORG/CybORG/Models/meander_train/100000.pth (torch, 78579 bytes, 11 tensors)

actor.0.weight f4 [64, 62]
0	0x3e4b8f45	0.19878872
1	0xbea1d814	-0.31610167
2	0xbeb841c6	-0.3598768
3	0xbe999c0b	-0.30001864
4	0xbbc42cc0	-0.00598678
5	0x3ecb1df5	0.39671293
6	0x3ecc021c	0.3984536
7	0x3f4e906b	0.80689114
8	0xbc0de026	-0.008659398
9	0x3ea29552	0.31754547
10	0x3e18c587	0.149191
11	0x3f298351	0.66216
12	0x3df19ee6	0.117978856
13	0xbe76f1da	-0.24115697
14	0xbe2ab65c	-0.16671127
15	0xbe96c336	-0.2944581
16	0x3e19aeec	0.15008134
17	0x3e30885d	0.17239518
18	0xbdb05477	-0.086098604
19	0x3c0cf378	0.008602969
20	0xbd07b11b	-0.033127885
21	0x3d30c2c0	0.043154478
22	0xbcd61c86	-0.026136648
23	0x3e1ad515	0.15120347
24	0xbc0f946c	-0.008763414
25	0xbd9b5688	-0.07584864
26	0x3deb82cf	0.11499559
27	0xbe1b4bd0	-0.15165639
28	0xbee6d656	-0.450854
29	0x3d69d20a	0.057085074
30	0xbdbd4b1c	-0.092428416
31	0x3e90ce6d	0.2828249
32	0x3d710e88	0.05885175
33	0x3d7e78b1	0.06212682
34	0xbdb5b6b9	-0.08872742
35	0xbda803fe	-0.082038864
36	0xbf015462	-0.5051938
37	0xbea572c7	-0.3231413
38	0x3f10e3fa	0.56597865
39	0x3f035337	0.5129885
40	0x3d93f53d	0.0722451
41	0xbecaa2e4	-0.395774
42	0x3e091787	0.13387881
43	0xbdbba603	-0.091625236
44	0xbe5b0360	-0.21388006
45	0xbbbf49de	-0.005837663
46	0xbd950d3e	-0.07277916
47	0x3e35c999	0.17752685
48	0xbea3701c	-0.3192147
49	0xbe9d2027	-0.30688593
50	0x3efb08ad	0.49030057
51	0x3f1872fb	0.59550446
52	0x3e4899a4	0.19589859
53	0x3d9c1eb5	0.076230444
54	0x3d38a5b5	0.045079906
55	0x3ce564c1	0.028002145
56	0x3e4dcbab	0.20097224
57	0xbdc21cf2	-0.09478177
58	0xbdc316c1	-0.09525824
59	0xbd38b971	-0.045098726
60	0x3d2f370d	0.04277711
61	0x3cccb376	0.024987917
62	0x3db808c8	0.0898605
63	0xbe9eaf3b	-0.30993065
64	0xbe19ec52	-0.15031555
65	0xbe9a5d6a	-0.30149394
66	0x3d7c45dd	0.061590064
67	0x3e085f36	0.1331757
68	0x3dea4ef4	0.1144084
69	0x3ecc1037	0.3985612
70	0x3e807f86	0.25097293
71	0x3e9eb419	0.3099678
72	0x3e8a4dbd	0.27012435
73	0x3f5f5b19	0.8724838
74	0x3e8460d2	0.25855118
75	0x3c96d8a3	0.018413847
76	0x3eb86ae0	0.3601904
77	0xbe6751b2	-0.22589758
78	0x3e03f4df	0.1288638
79	0x3d1001b9	0.035157893
80	0xbdf265d5	-0.11835829
81	0x3da4fac9	0.08055646
82	0x3cd2ac85	0.02571703
83	0xbe3cbef2	-0.18432215
84	0x3cc2bb23	0.023770874
85	0xbd2058c3	-0.03914715
86	0xbc44866b	-0.011994938
87	0xbd92d5a4	-0.07169655
88	0x3d480b12	0.048838682
89	0xbdf44573	-0.11927309
90	0xbe3f7758	-0.1869787
91	0x3e85729b	0.26064
92	0xbce17f79	-0.027526604
93	0x3d273e57	0.040830936
94	0xbea61886	-0.32440585
95	0xbe2d29e4	-0.16910511
96	0x3d81deb6	0.06341307
97	0x3d8e30df	0.06942915
98	0xbea42059	-0.3205593
99	0xbe874a1d	-0.2642373
100	0x3ed9dbf6	0.4255063
101	0x3f16a15a	0.5883995
102	0x3d440166	0.047852896
103	0xbe43b6a5	-0.19112642
104	0xbee51697	-0.44743797
105	0xbf2b7a2a	-0.6698328
106	0xbe47b5bf	-0.19502924
107	0xbe32ad87	-0.17449008
108	0x3d318c4c	0.04334669
109	0xbd8725d7	-0.06599014
110	0xbdeb81a5	-0.11499337
111	0x3e8676c4	0.26262486
112	0xbe6670a1	-0.22503902
113	0xbe113e2b	-0.14183871
114	0x3daa721e	0.083225474
115	0xbdf2744c	-0.11838588
116	0xbcc7f83b	-0.024410358
117	0xbd9f1b63	-0.077688955
118	0x3e7e714c	0.24847907
119	0xbcbeee96	-0.023307126
120	0xbcfd0a84	-0.030888803
121	0xbd6ae2ca	-0.05734519
122	0xbe0257b0	-0.12728763
123	0xbc89f900	-0.016842365
124	0xbce4da83	-0.027936226
125	0xbe6ab77d	-0.22921558
126	0xbdc955c9	-0.09830815
127	0xbe0ce4ae	-0.1375911
128	0x3e83a19d	0.2570924
129	0xbe8e996e	-0.27851433
130	0xbeba7620	-0.36418247
131	0xbf1c0ae6	-0.6095413
132	0x3e249ff4	0.16076642
133	0xbe3f750a	-0.1869699
134	0x3e46fab0	0.19431567
135	0xbeb656b6	-0.3561303
136	0xbe2c1f5c	-0.16808838
137	0x3c5e31fd	0.013561723
138	0x3dd2d293	0.1029407
139	0xbdba49b4	-0.09096089
140	0x3dc072b5	0.09396879
141	0x3e21353a	0.1574296
142	0x3df6f05c	0.12057564
143	0x3c3b8da8	0.011447348
144	0xbe27b7de	-0.16378734
145	0xbdaff0e8	-0.08590871
146	0x3db119d4	0.086475044
147	0x3dff3c0f	0.12462627
148	0xbdab760a	-0.083721235
149	0xbd6b3b31	-0.057429496
150	0xbdf3695f	-0.11885332
151	0xbd4ef13a	-0.05052302
152	0xbeccb81d	-0.39984217
153	0x3d9c0794	0.07618633
154	0xb9c1ec41	-0.00036987851
155	0xbe244f20	-0.16045809
156	0x3e79c370	0.2439096
157	0xbb813f61	-0.003944323
158	0xbcdbf2b6	-0.026849132
159	0xbdc1fdce	-0.094722375
160	0xbda4ee11	-0.0805322
161	0xbd0e23b2	-0.03470201
162	0xbedb89e6	-0.42878646
163	0xbf1dd397	-0.61650985
164	0x3ddaff9b	0.10693284
165	0x3e29f78d	0.1659834
166	0xbe883caa	-0.26608783
167	0xbef57469	-0.47940376
168	0x3ef96f70	0.48717833
169	0x3eb5807c	0.35449588
170	0x3e69027c	0.22754854
171	0xbe97243f	-0.2951984
172	0x3eb2d972	0.34931523
173	0x3d858ca3	0.06520965
174	0xbe56955c	-0.20955414
175	0xbb180cba	-0.0023200945
176	0x3dee1848	0.11625725
177	0xbdaeba8e	-0.08531676
178	0x3d0b648e	0.034031443
179	0xbd7f6c1b	-0.062358957
180	0xbd77445f	-0.060367938
181	0x3c3a3d83	0.011367205
182	0x3e20223e	0.15638062
183	0x3b718e8a	0.0036858642
184	0x3e19b4c7	0.15010367
185	0x3e1103f2	0.14161661
186	0xbd1a31b0	-0.037645042
187	0xbb1a7f34	-0.0023574354
188	0x3ace8e2b	0.0015758922
189	0xbd977c5d	-0.07396767
190	0x3d23b1db	0.039964538
191	0x3efb4ae7	0.49080583
192	0x3e188413	0.14894132
193	0x3ef23869	0.47308663
194	0xbea99b33	-0.3312622
195	0xbe28ba8e	-0.16477415
196	0xbe391b6a	-0.18076864
197	0xbf19e2ab	-0.6011149
198	0xbe20f2a8	-0.15717566
199	0x3d01a939	0.031655524
200	0xbcc784ab	-0.024355253
201	0x3d8849a4	0.06654671
202	0xbe1e0c06	-0.15434274
203	0xbe00d6f8	-0.12582004
204	0xbd970724	-0.07374409
205	0x3d938e9b	0.07204934
206	0xbd7309af	-0.059335407
207	0x3dd8447e	0.10559939
208	0x3d3c1b05	0.045924205
209	0x3c1c0173	0.00952183
210	0xbd21d26b	-0.03950731
211	0xbcfc52cb	-0.030801198
212	0x3c828887	0.015934242
213	0xbd867628	-0.06565505
214	0xbe235d6b	-0.15953605
215	0x3e4dd024	0.2009893
216	0x3d26c2b0	0.040713012
217	0x3da55b68	0.08074075
218	0x3e640981	0.2226925
219	0x3d8cb10a	0.06869705
220	0xbc156984	-0.009119395
221	0x3bc079a5	0.005873876
222	0x3f26255f	0.64900774
223	0x3edc1b55	0.42989603
224	0xbec0761b	-0.37590107
225	0xbed148ce	-0.40875858
226	0xbc903cc3	-0.017607098
227	0x3d81e82f	0.06343114
228	0x3e2a4ba5	0.16630419
229	0x3f22fdaa	0.6366831
230	0x3d7bb042	0.06144739
231	0x3e50f5a4	0.20406204
232	0xbcea7dce	-0.028624441
233	0x3f0efc30	0.5585356
234	0xbdf1e9ff	-0.11812209
235	0xbe921491	-0.28531316
236	0x3ecb1abd	0.39668837
237	0x3ec34dc5	0.3814527
238	0xbe01c14c	-0.12671393
239	0x3d88ef56	0.06686275
240	0xbdacd200	-0.08438492
241	0xbb9013d4	-0.004396895
242	0x3d634bbe	0.055492155
243	0x3d837640	0.06419039
244	0x3e4168ac	0.18887585
245	0xbc680fe5	-0.014163946
246	0x3e47e4b3	0.19520836
247	0xbb9e84c5	-0.0048376047
248	0x3d825fd9	0.06365938
249	0x3e81c9fb	0.2534941
250	0xbd4c7231	-0.04991359
251	0x3e52b96c	0.20578545
252	0x3d09ee7f	0.033674713
253	0x3ea5a839	0.32354906
254	0x3e5c517a	0.21515456
255	0x3eca5af0	0.39522505

actor.0.bias f4 [64]
0	0xbd35748b	-0.044300597
1	0x3d42a12c	0.047516987
2	0x3c2e9912	0.010656612
3	0x3d7db3f4	0.061939195
4	0x3bbe56ea	0.005808701
5	0xbd4c72d4	-0.049914196
6	0x3d936755	0.071974434
7	0xbdaf0c59	-0.08547277
8	0x3d9fb92d	0.07798991
9	0xbcdb2489	-0.02675082
10	0x3c4973ab	0.012295644
11	0xbdd8165b	-0.10551139
12	0xbc5f72c4	-0.013638202
13	0x3de7d3da	0.11319704
14	0xbddcc17a	-0.1077909
15	0x3d0d7d8d	0.034543563
16	0xbe047fcd	-0.12939377
17	0xbd06eccd	-0.032940675
18	0xbd8fa6ed	-0.070142604
19	0xbdf0dc6e	-0.117607936
20	0xbdb92f33	-0.09042206
21	0xbd7acb5c	-0.061229095
22	0x3dec0abc	0.11525485
23	0xbe0653ea	-0.13117948
24	0x3c79ce5e	0.015246956
25	0x3e0088b1	0.12552144
26	0x3e28dfe6	0.1649166
27	0x3d9885b9	0.074473806
28	0x3d65aae9	0.056071196
29	0xbd5ff96a	-0.05468122
30	0xbd9b0339	-0.07568974
31	0x3e2caf75	0.16863807
32	0x3d905873	0.0704812
33	0xbe1a83da	-0.1508936
34	0x3dbad967	0.091234975
35	0xbdcf3344	-0.101172
36	0x3e580624	0.21096092
37	0x3dc28208	0.09497458
38	0x3bd329d4	0.0064441953
39	0xbe37d711	-0.17953135
40	0x3e085bef	0.1331632
41	0x3dd4d6ab	0.10392507
42	0x3b7dfbc3	0.0038754798
43	0x3ce955f9	0.028483378
44	0x3d0e4505	0.03473379
45	0x3e43865a	0.1909422
46	0xbad2b48d	-0.0016075537
47	0x3d91f48d	0.071267225
48	0x3e05548b	0.13020532
49	0xbd25a779	-0.040442917
50	0x3e3e12f5	0.18561919
51	0xbd35d487	-0.044392135
52	0xbe29b395	-0.16572411
53	0x3d32f576	0.04369112
54	0x3e24f898	0.16110456
55	0x3e1931f1	0.14960457
56	0x3dea6653	0.11445298
57	0x3d5263d5	0.05136474
58	0xbe02a26f	-0.12757276
59	0x3ca93b2d	0.0206581
60	0x3c960ae5	0.018315742
61	0xbd9ef78d	-0.0776206
62	0xbbf60996	-0.007508467
63	0xbdc226d3	-0.094800614

actor.2.weight f4 [64, 64]
0	0xbe1a79f3	-0.15085582
1	0xbe12251f	-0.14271973
2	0x3d60be7c	0.05486916
3	0xbde6ffce	-0.112792596
4	0x3c51f364	0.0128143765
5	0x3dc47425	0.09592465
6	0xbd0343b5	-0.032046992
7	0xbe0304f2	-0.12794855
8	0xbe161fd7	-0.14660583
9	0x3ca2d28a	0.019875783
10	0xbdce8b99	-0.1008522
11	0xbd65e8ab	-0.056130093
12	0xbcbd44ae	-0.023104038
13	0xbd68bf55	-0.056823093
14	0x3d15c327	0.036563065
15	0xbd1f1666	-0.03883972
16	0xbd944cc3	-0.07241204
17	0xbd323160	-0.04350412
18	0x3da0880e	0.0783845
19	0xbe0da6f2	-0.13833216
20	0x3c408d33	0.0117524145
21	0xbc904d46	-0.017614972
22	0xbcbc7a23	-0.023007458
23	0xbd51af98	-0.05119285
24	0xbddb3601	-0.1070366
25	0xbcb020d9	-0.021500038
26	0xbd9b793d	-0.07591484
27	0x3d25541a	0.04036341
28	0xbd81b678	-0.06333631
29	0x3ce694b1	0.028147073
30	0x3d94fa61	0.072743185
31	0x3d549788	0.051902324
32	0xbd0e8a53	-0.034799885
33	0x3d651adf	0.05593383
34	0xbdf14480	-0.117806435
35	0xbe07dcbb	-0.13267796
36	0xbccf8903	-0.025333887
37	0xbe062efe	-0.13103864
38	0xbe1b3e89	-0.15160574
39	0x3d76bebc	0.060240492
40	0x3de64197	0.11242979
41	0xbd506b4b	-0.050883573
42	0xbc99f3fe	-0.018793102
43	0xbd924ee8	-0.071439564
44	0xbba415d2	-0.005007484
45	0x3ce17f88	0.027526632
46	0xbc3ec5e8	-0.011643864
47	0x3dbbd6da	0.09171839
48	0xbdccf585	-0.10007767
49	0xbc925e6f	-0.017867295
50	0xbd4817e3	-0.048850905
51	0x3db881bc	0.0900912
52	0x3de22885	0.11042885
53	0x3c94a560	0.018145263
54	0x3de43dea	0.11144622
55	0xbd6a9f60	-0.057280898
56	0xbe78f300	-0.24311447
57	0xbdcdc21c	-0.10046789
58	0xbd03ee2e	-0.032209568
59	0xbdfdf94d	-0.12401066
60	0x3c26f581	0.010190369
61	0xbd54a49f	-0.051914807
62	0x3cb313c8	0.021860018
63	0xbe15ed3e	-0.14641282
64	0xbd020633	-0.031744193
65	0xbd9ca64d	-0.07648907
66	0xbdd59b21	-0.10429979
67	0x3d869b7f	0.06572627
68	0xbda35eb6	-0.07977049
69	0xbdd19cc5	-0.102349795
70	0xbdb19114	-0.086702496
71	0xbe1adb45	-0.15122707
72	0x3d621c7d	0.05520295
73	0x3d7a77c3	0.06114937
74	0x3c3d7b60	0.011565059
75	0xbba75057	-0.005106013
76	0xbe13caea	-0.14432874
77	0xbdec60be	-0.115418896
78	0xbe0b8b0e	-0.13627264
79	0xbe2c326d	-0.16816111
80	0xbe52c853	-0.2058423
81	0x3ddefdea	0.10888274
82	0x3cbb8aca	0.022893328
83	0xbcb7e569	-0.022448258
84	0xbe0cc7ed	-0.1374814
85	0xbd2ba072	-0.04190106
86	0xbd4cca13	-0.0499974
87	0xbdfa9a6d	-0.12236486
88	0x3d0211df	0.031755324
89	0x3d461faa	0.04837004
90	0xbe00e342	-0.12586692
91	0x3da826f7	0.08210557
92	0xbcc1d3f1	-0.023660632
93	0xbc380aaf	-0.011233016
94	0xbe38598a	-0.18002906
95	0xbd51f2a3	-0.051256787
96	0xbdf892c7	-0.121373706
97	0xbe4a13c0	-0.19734097
98	0xbdcbe4f8	-0.09955782
99	0xbd9a13fa	-0.075233415
100	0xbda61c1b	-0.081108294
101	0xbe1bc0ca	-0.15210262
102	0x3ce68a9b	0.028142264
103	0x3bd17e74	0.006393248
104	0xbe0dcbe1	-0.13847305
105	0xbc85024b	-0.016236445
106	0xbc57cd52	-0.013171511
107	0x3d84df2d	0.0648788
108	0xbde075dc	-0.1095998
109	0xbcc780ee	-0.02435347
110	0x3d98010c	0.07422075
111	0xbe318cb2	-0.17338827
112	0xbdf203cb	-0.1181713
113	0xbbfa775e	-0.007643624
114	0xbdde9eb9	-0.10870118
115	0xbc5df9c6	-0.01354832
116	0x3e330dfa	0.174858
117	0xbda520e6	-0.080629155
118	0xbe0c6ff0	-0.13714576
119	0x3da76afd	0.08174703
120	0xbdbb49b8	-0.0914492
121	0xbcb76456	-0.022386711
122	0xbc367c57	-0.011138043
123	0xbd6e1f1e	-0.058135144
124	0xbde4862e	-0.11158405
125	0xbd7208a7	-0.059090283
126	0x3c947f27	0.018127037
127	0xbdeec64f	-0.11658918
128	0xbdd5b3b6	-0.10434668
129	0xbd9e8c35	-0.07741586
130	0xbdb94b7f	-0.09047603
131	0xbcc6b66b	-0.024256906
132	0x3dcc2c10	0.09969342
133	0x3e8248a3	0.25446042
134	0xbdfe7cee	-0.12426172
135	0x3d9d00a1	0.076661356
136	0x3d10edf5	0.035383184
137	0xbcee526a	-0.029092032
138	0x3dba8d7c	0.09109017
139	0x3e0098d0	0.12558293
140	0xbc63facc	-0.013914775
141	0x3e4bfbe1	0.19920303
142	0xbd527084	-0.051376835
143	0xbdee154e	-0.11625157
144	0x3db43bde	0.08800481
145	0x3da5e100	0.08099556
146	0x3dd0027f	0.10156726
147	0x3d943adc	0.07237789
148	0xbe5b437a	-0.21412459
149	0xbcd18ad5	-0.025578896
150	0xbe01591a	-0.12631646
151	0x3dd67e2f	0.10473286
152	0xbba95169	-0.0051671756
153	0xbe0201a7	-0.12695943
154	0xbccb0daa	-0.024786789
155	0x3e033f03	0.12817006
156	0x3e96eaa5	0.29475895
157	0x3b87c13d	0.004142909
158	0x3e58fe20	0.21190691
159	0x3cdab887	0.026699318
160	0xbe134305	-0.14381035
161	0x3d9b1d7c	0.07573983
162	0xbd3e77e7	-0.046501067
163	0x3e5843cb	0.21119611
164	0xbeb52cf4	-0.3538586
165	0x3d0461a7	0.03231969
166	0x3d16574c	0.036704347
167	0xbdf9b271	-0.12192238
168	0x3dc4d3aa	0.09610684
169	0x3b58d0d3	0.0033083453
170	0xbe49e711	-0.19717051
171	0x3d9fadae	0.07796799
172	0xbe65ea1f	-0.22452591
173	0xbc912020	-0.017715514
174	0x3d4c2a4f	0.049845036
175	0x3e1bb37d	0.15205188
176	0x3e49571b	0.19662134
177	0x3d967a24	0.07347515
178	0xbea4972f	-0.32146594
179	0xbd7074aa	-0.05870501
180	0x3d95428b	0.07288083
181	0xbd5bdc6f	-0.05367702
182	0xbe6f4184	-0.23364836
183	0xbe13ebc1	-0.14445402
184	0xbdc15039	-0.094391294
185	0xbcd8c4ef	-0.026461093
186	0x3e17be06	0.14818582
187	0x3eb4e164	0.3532821
188	0x3d437c03	0.04772569
189	0xbdd6171c	-0.104536265
190	0x3df06e44	0.117397815
191	0xbe8209cb	-0.25398096
192	0x3d5c82c7	0.053835656
193	0x3d3ba1ec	0.045808718
194	0x3cefe33c	0.029283158
195	0x3e009d9c	0.12560123
196	0xbdd7b900	-0.10533333
197	0xbd084efa	-0.033278443
198	0xbdff7d7e	-0.124751076
199	0xbca80fdf	-0.02051538
200	0x3d488a25	0.04895987
201	0x3c3c8ed8	0.011508666
202	0xbe293262	-0.16523126
203	0xbdbcaee6	-0.09213047
204	0xbd8f999d	-0.07011721
205	0x3b437354	0.002982338
206	0xbd6ffc9c	-0.058590516
207	0xbe03ed41	-0.12883474
208	0xbd899f65	-0.06719855
209	0x3d280528	0.041020542
210	0x3d4f2ef4	0.050581887
211	0x3e032ef3	0.12810878
212	0xb9c22838	-0.0003703253
213	0x3c8dde3d	0.017317886
214	0xbda51816	-0.08061235
215	0xbc90afcb	-0.01766195
216	0x3b863846	0.004096064
217	0x3d7cdf2d	0.061736275
218	0x3ce1c627	0.027560307
219	0xbdcf34c2	-0.10117485
220	0xbe20c058	-0.15698373
221	0xbe232ad2	-0.15934303
222	0xbdbfba20	-0.093616724
223	0xbcc2cafe	-0.023778435
224	0x3db9c18f	0.090701215
225	0xbd59b7e5	-0.05315389
226	0x3c515ff3	0.012779224
227	0xbb700250	-0.0036622472
228	0xbe21a004	-0.15783697
229	0xbe0af507	-0.13570033
230	0x3ca52054	0.020157017
231	0x3d7e4e9d	0.06208669
232	0xbdb6169b	-0.088910304
233	0xbd151f35	-0.036406714
234	0xbe13ad2c	-0.14421529
235	0xbcca1951	-0.024670275
236	0x3d0feba8	0.03513685
237	0xbc01daa1	-0.00792566
238	0xbd6fe765	-0.058570284
239	0x3cbeba83	0.023282295
240	0xbd3cd020	-0.04609692
241	0x3d5e2e6b	0.054243486
242	0xbdd85160	-0.10562396
243	0xbdf8ca3a	-0.12147947
244	0xbdd581a4	-0.104251176
245	0xbdd37156	-0.103243515
246	0x3db3064b	0.08741435
247	0xbdeb7ba1	-0.1149819
248	0xbe18c816	-0.14920077
249	0x3b29919e	0.0025874148
250	0xbdf09e54	-0.11748949
251	0xbcce1121	-0.025154652
252	0xbbae5c0b	-0.005321031
253	0xbd80d810	-0.06291211
254	0x3d310b95	0.043223936
255	0x3d8eacb0	0.06966531

actor.2.bias f4 [64]
0	0xbd6bc89c	-0.057564363
1	0xbc694ac4	-0.014239017
2	0x3ab33ebf	0.0013675316
3	0xbe32a31a	-0.17445031
4	0x3e0ca8f2	0.13736323
5	0x3ddfae18	0.109218776
6	0xbdcb3ce3	-0.099237226
7	0x3bf42daa	0.0074517326
8	0xbda2f69f	-0.079571955
9	0x3daaf4cd	0.08347473
10	0xbdb6b045	-0.089203395
11	0x3e3479d0	0.17624593
12	0xbdba9ff6	-0.091125414
13	0xbdc04821	-0.093887575
14	0x3d7c3eec	0.061583444
15	0xbcee2676	-0.029071074
16	0x3c877325	0.016534397
17	0x3d8d49cd	0.06898842
18	0x3d139b7d	0.036036957
19	0x3d66141b	0.056171518
20	0xbdbe8624	-0.09302929
21	0xbc829621	-0.015940728
22	0x3d6cfd22	0.057858594
23	0x3de8a6ef	0.11359965
24	0x3e59dcb3	0.21275596
25	0xbb9c9126	-0.004778045
26	0x3e33ce86	0.17559251
27	0xbda0f82a	-0.078598335
28	0xbe844dcf	-0.25840613
29	0x3dd6b131	0.10483015
30	0xbc19792d	-0.009367269
31	0x3d243273	0.040087175
32	0xbd7a3623	-0.061086785
33	0x3d10c2e7	0.035342123
34	0xbcf646b3	-0.030063009
35	0x3d359a92	0.044336863
36	0x3b974fcd	0.0046176673
37	0x3c857163	0.016289419
38	0x3df0ff7a	0.11767478
39	0x3d301c86	0.042995952
40	0x3ded0838	0.11573833
41	0xbe29d407	-0.16584788
42	0xbaf558c9	-0.0018718477
43	0xbd5ddbcb	-0.05416469
44	0x3df54a7e	0.11977099
45	0x3d4cd4cd	0.05000763
46	0xbdfe3af2	-0.12413587
47	0xbd4f5525	-0.05061831
48	0x3a0e740c	0.00054341624
49	0x3d64d734	0.055869296
50	0x3db09497	0.08622091
51	0xbd0d0bc0	-0.034435034
52	0xbdbdffed	-0.092773296
53	0xbe0a17e0	-0.1348567
54	0x3d27e805	0.040992755
55	0x3e08b92c	0.13351887
56	0xbdbe719d	-0.09299014
57	0x3da9a6c3	0.082837604
58	0xbc441efb	-0.011970277
59	0x3cd805af	0.026369898
60	0x3d58f9a0	0.052972436
61	0x3d2bb604	0.04192163
62	0xbcb8cd26	-0.02255876
63	0xbd615acc	-0.05501823

actor.4.weight f4 [36, 64]
0	0x3c1a0a23	0.009401831
1	0x3cde2c5a	0.027120758
2	0xbdc3f263	-0.09567716
3	0xbd94e982	-0.072711006
4	0xbed126fa	-0.4085005
5	0xbf2caa57	-0.6744742
6	0x3eee067e	0.46489328
7	0x3ee939d4	0.45551932
8	0xbd7f48cc	-0.062325284
9	0x3dde72fe	0.10861777
10	0xbdcc16ec	-0.099653095
11	0x3ec2c313	0.38039455
12	0xbe9b68f6	-0.30353516
13	0xbca5785f	-0.020198999
14	0xbe521bca	-0.20518413
15	0x3cbf07e4	0.023319192
16	0x3f2156d7	0.6302313
17	0xbef86326	-0.48513144
18	0x3e05a8b2	0.13052633
19	0x3eab675f	0.33477303
20	0xbcfb423e	-0.030671235
21	0xbf2845d5	-0.65731555
22	0xbe9a539d	-0.30141917
23	0xbea32e64	-0.3187133
24	0xbf42d268	-0.76102304
25	0xbd85b062	-0.06527783
26	0x3d59221b	0.05301104
27	0x3db0159b	0.08597871
28	0x3ce62425	0.028093407
29	0xbf87cea8	-1.0609941
30	0x3ed45599	0.41471556
31	0xbf25ec9d	-0.6481417
32	0xbf4d21c0	-0.80129623
33	0xbf20a057	-0.6274466
34	0x3d8056fd	0.06266592
35	0x3db4aa76	0.08821575
36	0xbdd9a6d5	-0.10627524
37	0x3e385f27	0.18005048
38	0x3eb78ba2	0.3584872
39	0xbf3a5306	-0.72782934
40	0xbea2395e	-0.31684393
41	0xbd9656b7	-0.07340758
42	0xbf6653f1	-0.89971834
43	0xbf46096e	-0.7735814
44	0xbd9c8f4d	-0.0764452
45	0x3eb21d96	0.34788197
46	0x3b59ff2c	0.0033263667
47	0x3eae45b5	0.34037557
48	0xbe579e20	-0.21056414
49	0x3e4377d1	0.19088675
50	0xbf845505	-1.0338446
51	0xbf2805a8	-0.6563363
52	0x3dda5281	0.106602676
53	0xbc8c6efe	-0.017142769
54	0x3ec041c4	0.37550175
55	0x3e97293c	0.29523647
56	0xbf80682f	-1.0031794
57	0xbde34084	-0.1109629
58	0xbf11c24a	-0.56937087
59	0xbf83c514	-1.0294518
60	0xbf7408d3	-0.95325965
61	0x3d655674	0.05599065
62	0x3ab19fba	0.001355163
63	0xbdf040c1	-0.11731101
64	0xbdc3705b	-0.095429145
65	0x3dd585cf	0.104259126
66	0xbe807361	-0.25088027
67	0x3ca9eda9	0.020743208
68	0xbed6a7b0	-0.4192481
69	0xbf338f50	-0.7014055
70	0x3ea6744b	0.325106
71	0x3e79682a	0.24356142
72	0xbcfab0e9	-0.030601935
73	0x3e873faa	0.2641576
74	0x3d196c31	0.037456695
75	0x3eab27df	0.33428857
76	0x3ec04d65	0.37559047
77	0xbdcde607	-0.1005364
78	0x3eb172f0	0.34658003
79	0x3c81f887	0.015865577
80	0xbe8abe1d	-0.2709817
81	0x3dedd4fd	0.1161289
82	0xbf49dae4	-0.78849626
83	0xbf177576	-0.59163606
84	0xbd11aa08	-0.035562545
85	0x3eee7bd1	0.4657884
86	0xbe83ac40	-0.25717354
87	0xbf979179	-1.184127
88	0xbf9c0879	-1.2190086
89	0x3dedb7c9	0.1160732
90	0xbd8c032d	-0.06836543
91	0x3dc3c931	0.095598586
92	0x3f2c344b	0.6726729
93	0xbf1c0002	-0.6093751
94	0xbefd273e	-0.49444002
95	0xbf863f59	-1.0488082
96	0xbe176ca9	-0.14787544
97	0xbf75591e	-0.9583911
98	0x3e1224fd	0.14271922
99	0xbf56e42e	-0.83941925
100	0x3f49e3d8	0.78863287
101	0xbdf80ac4	-0.121114284
102	0x3ec48411	0.3838201
103	0xbf8863bc	-1.0655437
104	0x3ed3c524	0.41361344
105	0x3cd1f6ba	0.025630344
106	0xbf3dd2c6	-0.7414974
107	0xbf522b75	-0.8209756
108	0x3deb5a49	0.1149183
109	0xbef14662	-0.4712401
110	0xbd325050	-0.043533623
111	0x3e7e8251	0.248544
112	0xbf597085	-0.84937316
113	0x3d8a5485	0.06754402
114	0x3e0e82f6	0.13917145
115	0xbfaa4e5a	-1.3305161
116	0xbd5405d0	-0.051763356
117	0x3ca59bd9	0.020215916
118	0xbf36cbf7	-0.71404976
119	0xbeec87d9	-0.46197394
120	0xbf024e91	-0.5090113
121	0x3d1bd0a0	0.038040757
122	0xbf634f5f	-0.88792986
123	0x3ec202f3	0.37892875
124	0xbedc47f7	-0.43023655
125	0xbf1b4ae7	-0.60661167
126	0x3daa4634	0.083141714
127	0xbd492f73	-0.049117517
128	0x3dfd3a1f	0.12364601
129	0xbb364fb8	-0.0027818512
130	0x3d69fe9a	0.057127573
131	0xbddbf829	-0.10740692
132	0xbf91a703	-1.1379093
133	0x3d968569	0.07349665
134	0x3bbd2a00	0.005772829
135	0xbd302243	-0.043001425
136	0x3cf39315	0.02973322
137	0xbf2cf284	-0.6755755
138	0x3cceb572	0.025233004
139	0x3ee68287	0.4502146
140	0x3eca5fb9	0.39526156
141	0xbcc03089	-0.023460643
142	0xbed14175	-0.40870252
143	0xbd90e9bf	-0.070758335
144	0xbe8d5e6f	-0.2761111
145	0xbe299935	-0.1656235
146	0xbd4c8455	-0.04993089
147	0x3ea9745d	0.3309659
148	0x3efcd0ab	0.4937795
149	0xbf27c9ec	-0.65542483
150	0x3dbfdeef	0.09368693
151	0xbf7fe850	-0.99963856
152	0xbf8f81bd	-1.1211468
153	0x3d9fee71	0.07809151
154	0x3df1453a	0.11780782
155	0x3d9dc1bf	0.0770297
156	0x3f025472	0.50910103
157	0xbf4b95ea	-0.79525626
158	0x3ece4a01	0.40290835
159	0xbf54db11	-0.8314677
160	0xbe4f9c32	-0.20274428
161	0xbea61775	-0.3243977
162	0x3e072002	0.13195804
163	0xbe2fd528	-0.17171156
164	0xbe3f73b9	-0.18696488
165	0xbead22b1	-0.3381553
166	0x3e0c27d7	0.13687073
167	0xbee05ebd	-0.4382228
168	0x3ee0e8ff	0.43927762
169	0x3c1cd15d	0.0095714005
170	0xbf8228a8	-1.0168657
171	0xbdc42a95	-0.095784344
172	0x3e49945c	0.19685501
173	0xbde8984d	-0.11357174
174	0x3e2bdad9	0.16782703
175	0xbebad54f	-0.36490867
176	0x3ebbf963	0.36713704
177	0x3ea8c2e9	0.32961205
178	0xbf766df1	-0.9626151
179	0x3e3d424e	0.18482324
180	0x3e81e864	0.25372612
181	0xbcc14eed	-0.023597205
182	0xbf4bbce6	-0.7958511
183	0x3efe8849	0.49713352
184	0xbf55d4ba	-0.8352772
185	0xbdc7aa85	-0.09749321
186	0xbf3c7687	-0.7361836
187	0xbf58bd17	-0.8466353
188	0xbf692cda	-0.91084063
189	0x3e4abf84	0.1979962
190	0x3d50c74b	0.05097131
191	0xbd95e7bb	-0.0731959
192	0x3df538e0	0.11973739
193	0x3cd23f1f	0.025664864
194	0xbf1fc4d3	-0.62409705
195	0xbcfbbe5f	-0.030730424
196	0xbe7d0bc7	-0.24711524
197	0x3e1b6dcc	0.15178603
198	0x3e8771b0	0.26453924
199	0x3eaf181d	0.34198084
200	0xbde10900	-0.10988045
201	0x3e6c0f0a	0.23052612
202	0x3d44f614	0.04808624
203	0x3eb71a01	0.35762027
204	0xbe80f61e	-0.25187773
205	0xbd9027d0	-0.07038844
206	0xbeb8c3f0	-0.36086988
207	0x3d96b8aa	0.073594406
208	0x3d15083d	0.03638481
209	0xbf139789	-0.576531
210	0xbecb59f8	-0.39717078
211	0x3dadcb46	0.08486037
212	0xbf21dd0f	-0.63227934
213	0xbef94913	-0.48688564
214	0xbef9ec00	-0.48812866
215	0xbe71b945	-0.23605831
216	0xbecccea1	-0.40001395
217	0xbe5ee890	-0.21768403
218	0x3d57010c	0.052491233
219	0x3d16580d	0.036705066
220	0x3dd47f45	0.10375837
221	0xbe926d53	-0.28599033
222	0x3e8743e6	0.2641899
223	0xbeb21973	-0.3478504
224	0xbf002c98	-0.50068045
225	0xbed1de03	-0.40989694
226	0xbd9adfe5	-0.07562236
227	0xbf16b1bb	-0.58864945
228	0xbe47b33c	-0.19501966
229	0xbf0bf1d7	-0.54665893
230	0x3e202f5b	0.15643065
231	0xbe234f5f	-0.15948246
232	0xbec44fb1	-0.3834205
233	0x3d9142ad	0.070927955
234	0xbe176291	-0.14783694
235	0xbcb8bd85	-0.022551307
236	0x3e22b3cd	0.15888901
237	0xbddaf055	-0.10690371
238	0x3e240008	0.16015637
239	0xbed47c32	-0.41501004
240	0xbf3d5ceb	-0.73969907
241	0xbeeb4d37	-0.45957348
242	0xbf24ee29	-0.64425904
243	0xbf6725ec	-0.9029224
244	0xbe8fb947	-0.28071043
245	0x3d98f8cc	0.07469329
246	0xbe1faa99	-0.15592422
247	0xbe68235b	-0.22669737
248	0xbe33a823	-0.17544608
249	0xbda88496	-0.08228414
250	0xbd85d329	-0.06534416
251	0xbeec07c8	-0.46099687
252	0xbf1da8a9	-0.6158548
253	0xbebd0a27	-0.36921808
254	0xbdc909cc	-0.09816322
255	0xbc946b64	-0.018117614

actor.4.bias f4 [36]
0	0xbe8bb08d	-0.27283135
1	0xbecf5a86	-0.4049875
2	0xbec7e113	-0.39038906
3	0x3e0c9276	0.13727745
4	0x3e18443b	0.14869778
5	0xbdb5b3cf	-0.088721864
6	0x3d2d6525	0.042332787
7	0x3d89cb14	0.06728187
8	0xbc0f198c	-0.008734118
9	0x3bb879ab	0.0056297383
10	0xbc8087aa	-0.01568969
11	0x3d5f9cf2	0.054593034
12	0x3e044af5	0.12919219
13	0x3e6fc67b	0.23415558
14	0x3e88d6eb	0.2672647
15	0x3dd688ec	0.104753345
16	0x3bc259b4	0.0059311036
17	0xbe11b2e9	-0.14228405
18	0x3c7a459f	0.015275388
19	0x3c307325	0.01076964
20	0xbed1727b	-0.40907654
21	0x3c52a170	0.0128558725
22	0xbc5a9c85	-0.013342981
23	0xbd82fad7	-0.063955
24	0x3dfb2c02	0.12264253
25	0x3d9d1e72	0.076718226
26	0x3e33fa41	0.17575933
27	0xbdab00ce	-0.08349763
28	0x3d1c3051	0.038132016
29	0x3d13da81	0.036097053
30	0x3e51146f	0.20417951
31	0xbe35ec8f	-0.17766021
32	0x3ce160bc	0.027511947
33	0x3e39aa43	0.18131356
34	0x3ea8e7de	0.329894
35	0x3e148049	0.14502062

critic.0.weight f4 [64, 62]
0	0x3d549a7e	0.051905148
1	0x3d5bb4dc	0.053639278
2	0xbdc0f184	-0.094210654
3	0xbcde2af5	-0.027120093
4	0xbd636cf5	-0.05552383
5	0xbcdda3a5	-0.02705557
6	0xbc06ecf5	-0.008235206
7	0x3bac9973	0.005267316
8	0xbd99bf73	-0.07507219
9	0xbca91594	-0.020640172
10	0xbd983583	-0.074320816
11	0xbd06fdd1	-0.032956902
12	0xbda77acc	-0.081777185
13	0xbd87de16	-0.066341564
14	0xbde2475f	-0.11048769
15	0xbdde02f9	-0.10840411
16	0xbc0910fe	-0.008365868
17	0xbddd20ab	-0.107972465
18	0xbdf7fe13	-0.12109008
19	0x3d8a6a63	0.06758573
20	0xbdbb4a0c	-0.09144983
21	0x3db6177c	0.08891198
22	0x3c1010d6	0.0087930765
23	0xbd4bb9b7	-0.04973766
24	0x3dac393c	0.08409354
25	0xbde81cda	-0.11333628
26	0x3d7934c0	0.060841322
27	0x3d834cb8	0.06411117
28	0x3da1ca73	0.07899942
29	0xbdf2ddf7	-0.11858743
30	0xbc29b877	-0.010358921
31	0xbcdd3398	-0.02700214
32	0xbdc0fbf2	-0.09423055
33	0x3db1a39a	0.08673783
34	0xbcb73252	-0.022362862
35	0x3d8a1a88	0.06743342
36	0xbd8c0d16	-0.068384334
37	0xbd66b474	-0.056324437
38	0x3ce2830f	0.027650384
39	0xbbb5a4ff	-0.0055433507
40	0x3d9510c4	0.072785884
41	0x3d5de969	0.054177675
42	0x3dd0bafa	0.10191913
43	0xbdddb5d1	-0.10825694
44	0x3ceb1533	0.028696632
45	0x3dc12f61	0.09432865
46	0xbd95d47c	-0.07315919
47	0xbdc9f523	-0.09861209
48	0x3dffed73	0.12496462
49	0xbdd9d0fe	-0.10635565
50	0xbda2ab58	-0.079428375
51	0xbddc125c	-0.10745689
52	0x3c95b1bf	0.018273233
53	0x3c3856d9	0.011251175
54	0xbe0499fa	-0.12949362
55	0x3d545c52	0.051845856
56	0x3c4b16f1	0.012395606
57	0x3ccccb07	0.024999155
58	0xbe11c093	-0.14233617
59	0xbe095e7c	-0.13414949
60	0xbdfaaebb	-0.122403584
61	0xbd8fa195	-0.07013241
62	0xbe21217d	-0.15735431
63	0xbc2b4a48	-0.010454722
64	0xbe2d93e4	-0.16950947
65	0xbd070e76	-0.032972775
66	0x3e159542	0.14607719
67	0x3aecbfe0	0.0018062554
68	0x3da30d5f	0.07961535
69	0xbde2fbc4	-0.11083177
70	0xbea62f95	-0.32458177
71	0xbe1efd9e	-0.15526435
72	0xbce5939d	-0.028024489
73	0x3e27ee5b	0.16399519
74	0xbbeeaf1f	-0.0072840597
75	0x3ebc000e	0.36718792
76	0x3e6c89c4	0.23099428
77	0x3ee7b888	0.45257974
78	0x3e025f3c	0.12731642
79	0x3e18c0a7	0.14917241
80	0x3d8b91bf	0.06814908
81	0xbcce1383	-0.025155788
82	0xbd09adb4	-0.03361292
83	0xbe00a42d	-0.12562628
84	0x3d88dae2	0.066823736
85	0xbca5e62f	-0.020251362
86	0x3c43e3f7	0.0119562065
87	0x3b5c9db0	0.0033663325
88	0x3da7fc15	0.08202378
89	0xbc8bf0f9	-0.017082678
90	0x3e3f8aef	0.18705343
91	0x3f19310d	0.5984047
92	0x3ea6b0c3	0.32556733
93	0x3f4c70ec	0.79859805
94	0xbe0608e4	-0.13089329
95	0xbebaf34e	-0.36513752
96	0x3db6e9b5	0.08931295
97	0x3d4b87b5	0.049689967
98	0x3dbfbf77	0.09362691
99	0xbe8335f3	-0.25627097
100	0xbc83cf85	-0.016090164
101	0x3e808254	0.25099432
102	0xbe6e0386	-0.23243532
103	0x3d3882c4	0.045046583
104	0x3e0bd01b	0.13653605
105	0xbe47b142	-0.19501212
106	0x3d34d7bf	0.044151064
107	0xbe40ac77	-0.1881579
108	0xbe5bd3bf	-0.21467493
109	0x3e516d26	0.20451793
110	0x3e98cbd9	0.29843023
111	0xbd791660	-0.060812354
112	0xbe2855f9	-0.16439046
113	0xbd1375b9	-0.03600094
114	0xbb811c27	-0.0039401236
115	0xbe1df397	-0.15424953
116	0xbe43765c	-0.1908812
117	0xbd9572fa	-0.07297321
118	0x3dde7275	0.10861675
119	0x3cddbb60	0.027066886
120	0x3d5ce092	0.053925104
121	0xbb54c02d	-0.0032463179
122	0xbd34d803	-0.044151317
123	0x3d1c6997	0.038186636
124	0xbcd64322	-0.026155058
125	0x3e8798c8	0.2648375
126	0x3d32a54e	0.043614678
127	0x3e397717	0.18111835
128	0xbdaa821f	-0.083256
129	0x3d2c5dbc	0.04208158
130	0xbc87a217	-0.016556783
131	0x3d5dfd9f	0.05419695
132	0xbd1fd4ee	-0.039021425
133	0xbd114a0e	-0.035471015
134	0x3ed3264c	0.41240156
135	0x3d8dda0e	0.06926356
136	0x3e7f3278	0.24921596
137	0x3ed556c4	0.4166776
138	0x3ddf324d	0.10898266
139	0x3e622243	0.22083382
140	0xbddc7880	-0.10765171
141	0xbde193cc	-0.11014518
142	0x3df274de	0.11838697
143	0xbe114868	-0.14187777
144	0x3d5f8699	0.05457172
145	0xbd377191	-0.04478604
146	0x3cbc58ce	0.022991564
147	0x3dee6afc	0.116414994
148	0xbd57bc03	-0.052669536
149	0xbcb8b37d	-0.022546524
150	0x3d5737c4	0.052543417
151	0xbd110aee	-0.035410814
152	0xbdb58aef	-0.0886439
153	0xbc95a738	-0.018268213
154	0xbd3cdb93	-0.04610784
155	0xbd2f720c	-0.042833373
156	0xbd5f1b8d	-0.054469634
157	0x3d8b4bcb	0.06801566
158	0x3c4969fd	0.012293336
159	0xbd3b6a73	-0.045755815
160	0xbe5013af	-0.20320009
161	0xbe2bc322	-0.16773656
162	0x3b1f7577	0.002433149
163	0x3ece02a7	0.402364
164	0xbe176933	-0.14786224
165	0xbe4c455f	-0.19948338
166	0x3d8028f3	0.062578104
167	0xbcc52b4f	-0.024068503
168	0x3e3d9381	0.185133
169	0xbe004763	-0.12527232
170	0xbe157d17	-0.14598499
171	0x3d8bc441	0.06824542
172	0xbe7407a0	-0.23831034
173	0xbd0b5f6d	-0.034026552
174	0xbe17a2c7	-0.14808188
175	0x3e0dd1d5	0.13849576
176	0x3e1ff8dc	0.15622276
177	0x3e45fe5d	0.19335313
178	0x3d83fb5e	0.06444429
179	0x3c3a9c5a	0.011389816
180	0xbebaba85	-0.36470428
181	0xbda5770e	-0.080793485
182	0xbdf300f9	-0.1186542
183	0x3d9049d5	0.07045332
184	0xbbc9d979	-0.006159958
185	0xbd953ab2	-0.07286586
186	0xbe085481	-0.13313486
187	0xbe19eff9	-0.15032949
188	0xbd06f6c5	-0.03295018
189	0x3dcf74d9	0.10129709
190	0x3b3f65a1	0.0029204863
191	0xbd527433	-0.051380347
192	0xbd7bdd31	-0.06149024
193	0x3d4aef95	0.04954489
194	0x3d5bf39c	0.05369912
195	0xbdebae50	-0.11507857
196	0xbddb1894	-0.10698047
197	0xbd16072e	-0.03662794
198	0xbcebf3b8	-0.028802738
199	0xbd981735	-0.074263014
200	0xbce08d26	-0.027411055
201	0xbdf22218	-0.11822909
202	0xbda394e0	-0.0798738
203	0xbdfae2e3	-0.122503065
204	0xbdabc982	-0.08388044
205	0x3c8b4ac1	0.017003419
206	0xbcbc10c7	-0.022957219
207	0x3d3a1fda	0.045440532
208	0xbdbd03d5	-0.092292465
209	0x3cac01cb	0.020996949
210	0x3db1d1c4	0.08682588
211	0x3dac2232	0.0840496
212	0xbbb6094c	-0.0055553075
213	0xbde38f39	-0.11111302
214	0x3c43b96a	0.011946062
215	0xbe256ddd	-0.16155191
216	0xbdabf863	-0.083969854
217	0xbde8d1cc	-0.113681406
218	0xbdb3348c	-0.08750257
219	0xbcc53f27	-0.024077965
220	0xbcf4dd5b	-0.029890707
221	0xbe02856e	-0.12746212
222	0xbb161065	-0.0022897955
223	0x3d4885c9	0.048955712
224	0xbe27d225	-0.16388758
225	0xbd099160	-0.033585906
226	0x3d0cb401	0.034351353
227	0xbd89f69d	-0.06736491
228	0x3e001297	0.12507091
229	0x3e15088f	0.14554046
230	0x3d091710	0.03346926
231	0xbd0ddbbd	-0.034633387
232	0x3cb86b6a	0.022512157
233	0x3d973a0a	0.07384117
234	0xbd91bebd	-0.071164586
235	0xbdb169e1	-0.08662773
236	0xbe0e6273	-0.13904743
237	0xbe448ae2	-0.19193605
238	0x3d82ca77	0.06386273
239	0xbd3421a3	-0.04397739
240	0xbd89fd15	-0.06737725
241	0xbcf4e4ff	-0.02989435
242	0xbe0ec026	-0.13940486
243	0xbdafcc64	-0.08583906
244	0xbe0d696d	-0.13809748
245	0xbd3ca454	-0.046055153
246	0xbceda919	-0.029011296
247	0xbdd378f0	-0.10325801
248	0x3d4d413d	0.050111044
249	0x3ce7daf6	0.02830265
250	0xbe23a5e1	-0.15981247
251	0xbe769d6d	-0.2408349
252	0x3db0fd34	0.08642045
253	0xbe23ef54	-0.16009265
254	0xbd597465	-0.053089518
255	0xbcad89c3	-0.021183854

critic.0.bias f4 [64]
0	0xbe10870e	-0.1411402
1	0xbc2e572a	-0.010640899
2	0xbdd921a4	-0.106021196
3	0xbbb1aa01	-0.0054218774
4	0xbd9ebe81	-0.077511795
5	0x3d806582	0.06269361
6	0xbd9feacb	-0.07808455
7	0xbe7f778f	-0.24947952
8	0xbe002f12	-0.12517956
9	0x3c7bdd3c	0.015372571
10	0xbdbf75e6	-0.09348659
11	0xbd5b653e	-0.05356335
12	0xbe0df483	-0.13862805
13	0xbe168c04	-0.14701849
14	0xbd912894	-0.07087818
15	0xbdc2d9d0	-0.09514201
16	0xbe1ecd79	-0.15508069
17	0xbcba5210	-0.022744209
18	0xbd9be7d5	-0.07612578
19	0x3da9c230	0.082889915
20	0xbdcf2276	-0.10113995
21	0xbc7d5707	-0.0154626435
22	0xbcb789f4	-0.022404648
23	0xbbad901b	-0.0052967197
24	0xbccd0b85	-0.025029907
25	0xbe0f451d	-0.13991208
26	0xbe0a5833	-0.13510208
27	0xbd42e44e	-0.04758101
28	0xbd2ab37c	-0.041675076
29	0x3d545dbe	0.051847212
30	0x3eaf08c9	0.3418639
31	0x3db8d824	0.090256006
32	0xbe0d876b	-0.13821189
33	0xbc052919	-0.008127474
34	0xbdd680d1	-0.104737885
35	0xbc256821	-0.010095627
36	0xbca77359	-0.020440744
37	0x3e047ca6	0.12938175
38	0xbd87e78f	-0.06635963
39	0xbbfa48c9	-0.007638071
40	0xbe03e8b7	-0.12881742
41	0xbcca8974	-0.024723746
42	0xbdb02053	-0.08599915
43	0xbe19a9cb	-0.15006177
44	0xbe0496d5	-0.12948163
45	0xbdb3e297	-0.08783453
46	0xbd064cf0	-0.032788217
47	0x3d0caf42	0.034346826
48	0x3e83c5d2	0.25736862
49	0xbd881470	-0.06644523
50	0xbcb871ec	-0.02251526
51	0xbdff1fb1	-0.124572165
52	0x3e04d547	0.12971984
53	0xbdc938d4	-0.09825292
54	0xbdf6c3e2	-0.120490804
55	0xbe4184f2	-0.18898371
56	0xbd994f71	-0.07485855
57	0x3db69141	0.08914424
58	0xbe3757c0	-0.17904568
59	0xbcd9354d	-0.026514674
60	0x3e303aff	0.17210005
61	0xbdac17ce	-0.08402978
62	0xbe0fd2f5	-0.14045317
63	0xbe2ffe8b	-0.17186944

critic.2.weight f4 [64, 64]
0	0xbcb7030b	-0.022340318
1	0x3e14f0f3	0.1454504
2	0x3d0d2506	0.034459136
3	0x3c6a6c78	0.0143080875
4	0xbe30734b	-0.17231481
5	0x3cca7240	0.024712682
6	0x3b54d452	0.0032475186
7	0x3e2df20d	0.16986866
8	0x3e2bdd39	0.16783608
9	0xbe506f2d	-0.2035491
10	0x3debf2cf	0.115209214
11	0x3ea7321e	0.32655424
12	0xbdb79734	-0.089643866
13	0x3ec33987	0.38129827
14	0xbb749d80	-0.0037325323
15	0x3daa44d3	0.083139084
16	0x3d8a5922	0.06755282
17	0x3e291fdd	0.16516061
18	0xbd3c9017	-0.046035852
19	0x3eb77006	0.35827655
20	0x3d0d17a6	0.03444638
21	0xbe066a2b	-0.13126437
22	0x3d8db68f	0.06919586
23	0x3d52caa4	0.051462784
24	0xbdf5b2d2	-0.11996998
25	0x3dc0836f	0.09400069
26	0xbdb00957	-0.085955314
27	0x3dd02192	0.10162653
28	0x3e049abc	0.12949651
29	0x3e4cfdc8	0.20018685
30	0x3e98cdc6	0.29844493
31	0xbe29c1ed	-0.16577883
32	0x3ce5160b	0.027964612
33	0xbd767169	-0.06016675
34	0x3da7c89d	0.08192561
35	0x3a75956d	0.00093682745
36	0xbd907eea	-0.07055457
37	0x3cc37d79	0.023863541
38	0x3d8a0026	0.067383096
39	0xbdeb72c1	-0.11496497
40	0xbd8bc827	-0.068252854
41	0x3e15825b	0.14600508
42	0x3e9b2529	0.30301788
43	0xbe037243	-0.12836556
44	0xbd1acc5c	-0.03779255
45	0xbdb442c1	-0.08801795
46	0x3dacf714	0.08445564
47	0xbe1698dc	-0.14706749
48	0x3ea5e096	0.32397908
49	0x3dff5073	0.12466516
50	0xbd7c9009	-0.0616608
51	0x3dbb9871	0.09159935
52	0xbded928d	-0.11600218
53	0xbdd36efe	-0.103239045
54	0x3dce8a27	0.10084944
55	0x3ebf6e9e	0.37389082
56	0xbd41eb94	-0.047343805
57	0x3ebd265f	0.36943337
58	0xbbc4d4cf	-0.006006814
59	0xbcb01592	-0.02149466
60	0xbd8bcd66	-0.06826286
61	0x3e4cd98d	0.20004864
62	0x3f0ee225	0.5581382
63	0xbddbb9a6	-0.10728769
64	0xbd11a6a5	-0.035559315
65	0x3c14883a	0.009065682
66	0xbc1a679d	-0.009424117
67	0xbcbe2949	-0.023213046
68	0xbdeedb72	-0.116629496
69	0xbd9eed9c	-0.07760164
70	0xbdb497fb	-0.088180505
71	0x3df0109e	0.117219195
72	0xbd566e3d	-0.052351225
73	0xbe002121	-0.12512638
74	0xbdc4857f	-0.09595775
75	0xbe0b13f3	-0.13581829
76	0xbd0c8795	-0.03430899
77	0xbd959808	-0.07304388
78	0xbde37a5f	-0.11107325
79	0xbd523aed	-0.051325727
80	0x3da14f15	0.07876412
81	0xbde1d6a4	-0.110272676
82	0xbc5512a5	-0.0130049335
83	0x3dab9409	0.08377845
84	0x3d82224d	0.063541986
85	0xbd81c569	-0.06336481
86	0x3d5c150d	0.053731013
87	0xbd3e9b8e	-0.046535067
88	0xbdb3a3c9	-0.08771474
89	0xbdde6e80	-0.1086092
90	0xbdadad0f	-0.08480274
91	0x3d15e185	0.036592025
92	0xbbdda3cf	-0.0067639123
93	0xbe00bad3	-0.12571268
94	0xbd90521f	-0.07046913
95	0xbd876700	-0.066114426
96	0x3d668384	0.056277767
97	0x3ceced89	0.02892186
98	0x3c965ba4	0.018354245
99	0xbd312805	-0.043251056
100	0xbc5f91d0	-0.013645604
101	0x3d58bcac	0.052914307
102	0x3d2230b1	0.039597217
103	0xbd33cd10	-0.043896735
104	0x3e0b86fe	0.13625714
105	0x3d9dd3c0	0.07706404
106	0x387004af	5.722482e-05
107	0x3d3ffad7	0.04687008
108	0x3d927ec6	0.07153086
109	0xbd08c505	-0.033391017
110	0x3ca8de79	0.020613896
111	0xbdbc3b3b	-0.09190985
112	0xbd3ba827	-0.04581466
113	0xbba633e2	-0.005072103
114	0xbdefea10	-0.11714566
115	0x3dcf1c63	0.10112836
116	0xbe059aee	-0.13047382
117	0xbdce1061	-0.10061718
118	0xbccfc998	-0.025364682
119	0x3d87e27e	0.06634997
120	0xbda0ceb5	-0.07851926
121	0xbd50e962	-0.05100382
122	0x3d7c2289	0.061556373
123	0xbdecb4a4	-0.11557892
124	0x3de22439	0.11042065
125	0x3cdc985b	0.026928117
126	0x3bf199a0	0.00737305
127	0xbc025af7	-0.007956258
128	0x3d6ad444	0.05733134
129	0xbdae7a6b	-0.08519443
130	0xbc8d0818	-0.017215773
131	0x3dc45c12	0.095878735
132	0xbd3131e6	-0.043260477
133	0xbccf91b0	-0.025338024
134	0x3c97e573	0.018542027
135	0xbce4928e	-0.027901914
136	0xbdd01905	-0.10161022
137	0xbcd53d43	-0.026030188
138	0xbd7254cd	-0.059162904
139	0xbe38dfd8	-0.1805414
140	0xbc8de466	-0.017320823
141	0xbd9ee2f8	-0.077581346
142	0x3d52766d	0.05138247
143	0xbd23a5ad	-0.039952923
144	0xbdd00eba	-0.10159059
145	0x3e257c14	0.16160613
146	0xbba48ce7	-0.0050216797
147	0xbd7e6042	-0.062103517
148	0x3c864585	0.016390571
149	0x3d4a7647	0.049429204
150	0x3da87869	0.082260914
151	0x3dabf36a	0.08396037
152	0xbd72dd49	-0.059293065
153	0x3d1f379d	0.038871396
154	0x3d47ce52	0.048780747
155	0xbde45558	-0.111490905
156	0x3d3b579b	0.045737844
157	0xbe038332	-0.12843016
158	0x3db97fdb	0.090575896
159	0xbe0ef9bd	-0.13962455
160	0x3d244aca	0.040110387
161	0xbd46cb3b	-0.04853366
162	0x3c9698fe	0.0183835
163	0xbd087cd4	-0.03332217
164	0x3c0e3186	0.0086787995
165	0xbd7dc904	-0.06195928
166	0x3b889497	0.004168104
167	0xbd8d685b	-0.0690467
168	0x3d701e64	0.058622733
169	0x3c7830d5	0.015148361
170	0xbcfeb5ba	-0.031092513
171	0xbd858436	-0.06519358
172	0x3aa07dc8	0.0012244517
173	0xbe04c9fb	-0.12967674
174	0x3b4eee81	0.0031575265
175	0x3d60bb42	0.054866083
176	0x3d0b671f	0.03403389
177	0xbd463731	-0.04839248
178	0x3cb6d68b	0.022319099
179	0x3d8186b4	0.06324521
180	0x3c50dc95	0.012747903
181	0xbc9b541b	-0.018961003
182	0x3d092495	0.033482153
183	0xbcce1894	-0.025158204
184	0xbb52bc01	-0.0032155516
185	0xbd48e416	-0.049045645
186	0xbde25e0a	-0.11053093
187	0xbdcd8e8e	-0.10036956
188	0xbd5d02a3	-0.053957593
189	0xbdb92080	-0.09039402
190	0x3daa6b7e	0.08321284
191	0xbe48aa3c	-0.1959619
192	0xbb8ca990	-0.0042926744
193	0xbd9ee206	-0.07757954
194	0xbe53562f	-0.20638345
195	0xbdac8929	-0.08424599
196	0xbd15e5b2	-0.036596008
197	0xbe7d86ab	-0.24758403
198	0x3c2ffdd4	0.01074167
199	0xbd139036	-0.036026202
200	0x3e2362a2	0.15955594
201	0xbe6f787c	-0.23385805
202	0x3e4ca6f0	0.19985557
203	0x3d47f1fc	0.04881476
204	0x3d8f3e8d	0.069943525
205	0x3e2563a9	0.16151299
206	0x3e0a7a0c	0.1352312
207	0x3e71bdd1	0.23607565
208	0x3d3cb336	0.046069346
209	0x3c83265d	0.016009504
210	0xbdd9b8b8	-0.106309354
211	0x3e9dff9a	0.3085907
212	0x3e427824	0.18991143
213	0x3dd5207a	0.10406585
214	0xbda507cc	-0.08058128
215	0xbd87bef9	-0.06628222
216	0xbd928a05	-0.071552314
217	0x3d8e3147	0.06942993
218	0x3d7185e3	0.058965575
219	0x3e7fc412	0.24977139
220	0x3e815a0f	0.25264022
221	0x3db15191	0.08658136
222	0x3eeb9448	0.46011567
223	0xbdb0105a	-0.08596869
224	0x3d785e78	0.060636967
225	0x3e09e10d	0.13464756
226	0x3c91cec3	0.017798787
227	0xbda1862f	-0.078869216
228	0x3d71fd94	0.05907972
229	0xbeae44a0	-0.34036732
230	0xbd9e5ce6	-0.07732563
231	0x3c9255a0	0.017863095
232	0xbd86e23c	-0.065861195
233	0xbd6fa7eb	-0.05850975
234	0x3e4edf2c	0.20202321
235	0xbd88639c	-0.06659624
236	0xbd519214	-0.0511647
237	0x3e009a8f	0.1255896
238	0xbd4178fc	-0.04723452
239	0xbe84485a	-0.2583645
240	0x3e302533	0.1720169
241	0x3e162e88	0.14666188
242	0xbd0647cb	-0.03278331
243	0xbdb029b7	-0.086017065
244	0x3d48ef4e	0.049056344
245	0x3b4f7c9e	0.003165997
246	0xbd9e6b58	-0.07735318
247	0x3f177952	0.59169495
248	0xbe565226	-0.20929775
249	0x3ec6eff2	0.3885494
250	0xbc87de3c	-0.016585462
251	0xbebf3468	-0.3734467
252	0xbe52a7c7	-0.20571814
253	0x3e064fec	0.13116425
254	0x3f15327c	0.5828016
255	0x3d1f3968	0.038873106

critic.2.bias f4 [64]
0	0x3ce0f24b	0.027459284
1	0xbdcbce90	-0.09951508
2	0xbd548e42	-0.05189348
3	0xbc2b5f32	-0.010459708
4	0xbdce1c75	-0.100640215
5	0xbd905c14	-0.070488125
6	0xbd8fb565	-0.0701702
7	0xbe26ee15	-0.16301759
8	0xbde4f04a	-0.11178644
9	0xbddd8901	-0.10817147
10	0xbd7166f0	-0.05893606
11	0x3c064a53	0.008196431
12	0xbbdef5b9	-0.0068041948
13	0x3bcb5c64	0.006206082
14	0xbdb9b27c	-0.09067246
15	0xbdde1f91	-0.108458646
16	0xbe121e53	-0.1426938
17	0xbe29e2a4	-0.16590363
18	0x3dc6dc33	0.097099684
19	0xbdf395f2	-0.11893834
20	0xba719d2f	-0.00092168426
21	0x3bce77dd	0.00630091
22	0xbd1cbda8	-0.038266808
23	0xbe43c1cf	-0.19116901
24	0xb8e92b08	-0.00011118321
25	0xbe30c9df	-0.17264508
26	0xbdb54eea	-0.08852942
27	0xbdef7b0e	-0.11693393
28	0xbcd44387	-0.025911106
29	0xbd65b6a7	-0.056082394
30	0xbdb3957a	-0.08768745
31	0x3bee6ba4	0.0072760154
32	0xbe029b8c	-0.12754649
33	0xbdfa50f9	-0.122224756
34	0x3c80bdca	0.015715498
35	0xbd6eb5be	-0.05827879
36	0xbdb4f846	-0.08836417
37	0xbe273f2e	-0.16332695
38	0xbd93d403	-0.072181724
39	0xbd9bdf97	-0.07611006
40	0xbe30ce73	-0.17266254
41	0xbdfb8715	-0.12281624
42	0xbd88f093	-0.06686511
43	0xbc9efd7f	-0.019407986
44	0xbded12ac	-0.11575827
45	0x3e6cf10f	0.23138832
46	0xbe13c054	-0.14428836
47	0xbd19ea73	-0.037577104
48	0xbd7ce637	-0.061742987
49	0xbd4dd546	-0.05025222
50	0x3d19795f	0.037469264
51	0xbdcfe808	-0.10151678
52	0xbd7d3a3e	-0.061823122
53	0xbe47c3f6	-0.19508347
54	0xbda6214e	-0.08111821
55	0xbda2c401	-0.07947541
56	0xbd62c4ab	-0.05536334
57	0xbbe62383	-0.0070232763
58	0xbc3188b2	-0.010835813
59	0xbd7f7ef7	-0.062376942
60	0xbdf15f92	-0.11785807
61	0xbd1ebf99	-0.03875694
62	0xbe190c64	-0.14946133
63	0xbdfaf629	-0.122539826

critic.4.weight f4 [1, 64]
0	0xbdcbf22a	-0.099582985
1	0x3c04bab8	0.008101158
2	0x3cfa5073	0.03055594
3	0xbdbb1bbf	-0.091361515
4	0xbd90aea1	-0.07064558
5	0xbebf0d55	-0.3731486
6	0x3bd63bb0	0.006537877
7	0x3dae5bd5	0.08513609
8	0x3c750059	0.014953696
9	0xbef26f2b	-0.4735044
10	0x3c1faa66	0.009745216
11	0x3c895c5d	0.016767675
12	0xbc8f16a4	-0.01746685
13	0x3c95abd3	0.018270409
14	0xbc1a2834	-0.009408999
15	0xbd0f4942	-0.034981973
16	0x3d3ae89e	0.045631997
17	0xbe9d5fd2	-0.30737168
18	0x3cc3af7e	0.023887392
19	0x3d61fe6a	0.05517427
20	0x3c9206ac	0.017825447
21	0xbd3b5850	-0.04573852
22	0xbe03cae6	-0.12870368
23	0xbcdfc13e	-0.027313825
24	0x3c91e885	0.01781107
25	0xbd14c247	-0.03631809
26	0x3c626f94	0.013820548
27	0xbe9fa10b	-0.31177554
28	0xbc3b6ec0	-0.011439979
29	0xbc05abbf	-0.008158623
30	0x3c86c78c	0.016452573
31	0x3ca2ec70	0.019888133
32	0x3d518297	0.05114993
33	0x3d808aba	0.0627646
34	0x3c1b6498	0.009484433
35	0x3bfee01f	0.007778182
36	0x3bd1d0bd	0.0064030574
37	0xbe9faffa	-0.31188947
38	0xbe1fdaea	-0.15610853
39	0xb98d4ca1	-0.0002695071
40	0xbcc9809d	-0.02459746
41	0x3d2a87f7	0.041633572
42	0x3d69f910	0.05712229
43	0x3c7b7c7e	0.0153495055
44	0xbcdd6296	-0.027024549
45	0x3dc37e91	0.09545625
46	0x3c4f79d1	0.012663321
47	0x3d03f260	0.03221357
48	0xbd231801	-0.039817814
49	0xba778c5a	-0.0009443216
50	0xbdd2a31b	-0.10285016
51	0x3db0868b	0.08619412
52	0x3d8a8330	0.06763303
53	0xbeb8bee2	-0.36083132
54	0x3b38f9c9	0.0028225055
55	0xbedb9721	-0.4288874
56	0xbd7ee859	-0.062233303
57	0x3cced201	0.025246622
58	0xbe14cb91	-0.1453078
59	0xbe943ed6	-0.2895419
60	0xbd18723e	-0.037218325
61	0x3bc884cc	0.0061193462
62	0xbd8132f6	-0.06308548
63	0xbcd6638e	-0.026170518
