CybORG/CybORG/Models/meander_train/10000.pth (torch, 78565 bytes, 11 tensors)

actor.0.weight f4 [64, 62]
00000000: f9b0 9a3d 4250 1d3d a801 a5bd 9f6b 28be
00000010: ba64 a93c 788e 6b3e 3b61 8b3e 065d f43e
00000020: 9a2d 92bc b276 693e bde3 1b3d b801 803e
00000030: 8b5c 3ebd 56e8 58be 3049 30be e71d 47be
00000040: 99de 1b3e 0389 303e 7754 b0bd abf3 0c3c
00000050: c816 bebb c906 303d 861c d6bc e94d 1a3e
00000060: f285 d43a 3cfd 7ebd cf82 eb3d bbb0 19be
00000070: e6ce 7abe 0426 f7bd 47ac 04be 1f2e bb3d
00000080: 614c fdbc 9e7e 59bd b9b6 b5bd 1c3d 82bd
00000090: 55c2 7bbe c673 73bd 3597 d93d c04e 933d
000000a0: 11c3 083d 004b ae3d a878 dd3b 0536 dfbb
000000b0: 9891 a2bd 1f1a 473d c2ba da3d 7e56 c23d
000000c0: 9f65 2cbe 8f62 0bbe 9c90 a33d 732f 183e
000000d0: 29b9 d63d 3372 953d 3d5b 113e cc88 09bd
000000e0: a021 05bd 585f 59bd 4f95 45bd 9c34 4cbc
000000f0: 8f63 c63d 14e8 b13d 8bbf abbd 819d 1dbc
00000100: 8f62 b93d 3d06 36bd 232a a33c ba62 183e
00000110: 1ed4 123e 7026 8a3e 2cfe 23bd abb7 ad3d
00000120: c6f2 623e f4b6 d03e 47f9 203e df8e f63d
00000130: 0c87 773d 95eb 73bc 876e f83d 1a04 103d
00000140: d565 f2bd 25fb a43d cd9a 4f3d 70cf 3cbe
00000150: 23bb c23c b81d 21bd f452 e2bc e3d5 92bd
00000160: 120b 483d 4d1b f3bd f042 c83b 2362 173d
00000170: fe1b 8f3d a868 043e 1710 a8bd 4a4f 04be
00000180: b6de 813d 95a9 193d 24d7 12be 72da c5bd
00000190: 162c c53d 0173 033e 2037 edbb 1abe d73d
000001a0: b328 0cbe 2c0e b5bd 363c eabd 3b57 5dbc
000001b0: fea2 a1bc 5764 bd3b 3211 7fbe ca78 7ebc
000001c0: 956e 15be 7ec3 d63d dab7 093e d28f ebbd
000001d0: cbff c33b 383b 4a3d 494f e43c 90ed 273d
000001e0: 8d38 4c3d 0dce 533b 2eeb 79bd fde5 783d
000001f0: 801f f3bd ac0f c1bd 5b3e cdbd 3192 cabc
00000200: db6f 18bb b17b 51be 73f2 90be 73fd afbe
00000210: 87ed 44bd be88 aa3b 0a07 7e3e 30f4 f93c
00000220: 1cfc 623c 046d dd3d a5c9 1abd 59e2 183e
00000230: 16dc c03d 0035 213e 5cf0 f63d 3e8e 3b3c
00000240: 080e 3bbe 92c2 afbd d419 b13d 56f7 fe3d
00000250: ea4a f9bd 9ff0 8ebd 5f69 f3bd 9c74 3ebd
00000260: be8a 63bb 0bbb aa3d fd14 033e 6454 96bd
00000270: 2132 913e 6746 08bd b6f2 dbbc f2a2 3bbd
00000280: d076 b33d ffd4 0dbc c5dd 13be 0050 04be
00000290: 1c98 113d 754c b6bd 0bd1 e5bd cee9 9cbd
000002a0: 3cfd e93d f067 533d a51f 893d 7582 fcbd
000002b0: 6cc0 6f3e 2f85 acbc 70c6 3abe ea74 d43d
000002c0: 853b 3fbc a730 4dbd 5f7d d13d beca d3bd
000002d0: 6066 343c 40ee 923d 367e 3e3e 804a b73d
000002e0: 975e 203e 3c45 163e f183 1abe 84a0 27be
000002f0: 862b 12be 1541 11ba bbf5 383e 2754 933e
00000300: f9dc 0b3d dcdc 8b3e 042b 07be b77b 6bbd
00000310: d7b6 44be 81bb 39be 8421 86bd 07bb eebd
00000320: c84d 103c c1a0 47bd 7268 d3bd f8d6 00be
00000330: 2407 97bd 8c8e 933d 0ce8 7bbd ac5e d83d
00000340: 051b 3c3d 2d7b 1a3c 3aa3 21bd 0a5c 0dbd
00000350: 8788 823c ea61 98bd 8c57 a6bc 3466 0d3e
00000360: b38d 6d3d 355c f2bd 47f1 c23d 5423 d8bd
00000370: 8469 15bc c26a 0b3e 903f 883e 24d7 de3d
00000380: 5563 bdbd 2e56 d23b fb30 413c f8eb 8c3d
00000390: 2db9 93bd 0a94 663d d0b9 45bc 90e5 343c
000003a0: a1dc 87bd 7e51 c33d 0a1a cfbd 03fa 80be
000003b0: cfc3 9f3d 9df2 c9bd 0b74 c1bd e42c 663d
000003c0: de10 90bc c4a2 ad3d f9ac 19bd cfdc 2c3d
000003d0: d929 083e 4186 8dbd a197 1a3e 6979 8ebd
000003e0: f450 e2bd e59e 21be c882 5e3c 965c 97bc
000003f0: bb46 833e c4ff 0e3e 7cac 163e be3c 803e
0.07553286 0.038406618 -0.080569565 -0.16447304 0.020677913 0.23003566 0.27222618 0.4772722
-0.01784401 0.22799185 0.038058985 0.2500131 -0.046474975 -0.21182379 -0.17215419 -0.19445
0.15221633 0.17239766 -0.086098604 0.008603017 -0.0058010556 0.04297522 -0.026136648 0.15068783
0.0016214235 -0.062253222 0.11499559 -0.15008824 -0.24492988 -0.12067798 -0.12956344 0.09139656
-0.03092021 -0.053099267 -0.08872742 -0.06359312 -0.2458585 -0.059436582 0.106245436 0.07192755
0.033389155 0.08510399 0.006758768 -0.0068118596 -0.07937926 0.048608895 0.106801525 0.09489153
-0.1683564 -0.13611816 0.079865664 0.1486185 0.10484535 0.072971724 0.14194961 -0.033577725
-0.03250277 -0.053069443 -0.048238095 -0.012463715 0.09686958 0.086868435 -0.08386143 -0.009620071
0.09052002 -0.044439543 0.019917553 0.14881411 0.14338729 0.2698245 -0.04003732 0.084822975
0.22162923 0.40764582 0.15720092 0.12038969 0.060431525 -0.01488771 0.121304564 0.03516016
-0.11835829 0.080557145 0.05068474 -0.18438506 0.023770874 -0.039334983 -0.027627446 -0.07169702
0.048838682 -0.118704416 0.006111495 0.036958825 0.06987761 0.12930548 -0.08206194 -0.12920871
0.06341307 0.03751524 -0.14339882 -0.09660806 0.09627549 0.1283684 -0.0072392374 0.10534306
-0.136874 -0.08840594 -0.114372656 -0.013509567 -0.019731041 0.0057797837 -0.24908903 -0.015531728
-0.14592965 0.10486506 0.1344904 -0.11502041 0.0059814206 0.04937288 0.027869837 0.04099804
0.04985862 0.003231886 -0.0610153 0.06076621 -0.118712425 -0.09426817 -0.10021659 -0.024727913
-0.002326003 -0.20457341 -0.28309974 -0.34373054 -0.048078086 0.005204289 0.24807373 0.030511945
0.013854053 0.10811809 -0.03778996 0.14930095 0.09416978 0.15742874 0.12057564 0.011447487
-0.18267071 -0.08582033 0.086475044 0.12449519 -0.12172492 -0.069794886 -0.11885332 -0.046497926
-0.0034720148 0.08336457 0.12800975 -0.07340315 0.28358558 -0.033270266 -0.026849132 -0.045809694
0.08762896 -0.008656739 -0.14440067 -0.12921143 0.035545453 -0.08901302 -0.112215124 -0.07661782
0.11425254 0.051612794 0.06695489 -0.1232957 0.23413247 -0.0210596 -0.1823976 0.10373862
-0.011671905 -0.050095227 0.10228991 -0.103414044 0.011010736 0.07174349 0.18602833 0.089497566
0.15661083 0.14674848 -0.15089394 -0.16369826 -0.14274415 -0.0005541009 0.18062489 0.2877514
0.034146283 0.2731694 -0.13200003 -0.05749103 -0.19210373 -0.18137933 -0.06549361 -0.116567664
0.008807607 -0.04873729 -0.10322656 -0.12582004 -0.07374409 0.07204923 -0.061500594 0.10564932
0.045924205 0.009428781 -0.039462306 -0.034511603 0.015934242 -0.074405506 -0.020305417 0.13808519
0.057996463 -0.11833993 0.09518676 -0.10553613 -0.009119395 0.13614944 0.26610994 0.108808786
-0.09247462 0.006418965 0.011791463 0.06880945 -0.07213054 0.056293525 -0.012068227 0.01104106
-0.066338785 0.09537028 -0.101123884 -0.25190744 0.078010194 -0.09860728 -0.094459616 0.056195155
-0.017586168 0.08478311 -0.037518475 0.042202767 0.13297214 -0.069103725 0.15096904 -0.06956751
-0.11050597 -0.1578327 0.013580985 -0.018476766 0.256399 0.13964754 0.14714235 0.25046343

actor.0.bias f4 [64]
00000000: 3bfe 273c 750b 963d ff72 f43d c9df a33c
00000010: 82a8 31bc 2855 4bbd 6b67 f03d 5d6d 8dbd
00000020: 5e29 a43d 089f 713c 4300 c73d 3924 cfbd
00000030: 1736 eb3d c222 c53d d5cc d6bd a3f4 f73d
00000040: d0aa 8dbd cdec 06bd cd42 8dbd 6a80 51bd
00000050: 431a 91bd cc3b 69bd 9ea9 b23c 07ba dcbd
00000060: d59f 913c 5afb 8b3d 98ad b43d 1b55 de3d
00000070: f90f fc3d 7077 99bb f606 99bc 9dbd ed3d
00000080: 27ef 903d fbfb 0abd 3958 1d3e 3163 9ebd
00000090: 0344 083e 50ae 813d 0c07 b9bb 11d7 37be
000000a0: 2924 493e 591b 313e 0f7c 8a3d 5b88 8dbc
000000b0: f8b0 ef3d 1a5b 763e c56e 69bd ce1a e33d
000000c0: 403c 103e 1a1e cd3c 93af 9e3d 658f 3bbd
000000d0: 3664 fdbd 9362 e43d f312 4a3e 9aa2 0a3e
000000e0: fe6c f33d 81c2 3f3d d030 d2bd bbd0 273d
000000f0: f71d ca3c 83ae c8bc eb61 873b 260a 233b
0.010253484 0.07326404 0.11935996 0.02000417 -0.010843398 -0.04964176 0.117384754 -0.06905625
0.08015703 0.014747389 0.09716847 -0.10114331 0.11484926 0.0962577 -0.10488287 0.121072076
-0.069173455 -0.032940675 -0.06897507 -0.051147856 -0.07085087 -0.056941792 0.021809395 -0.107776694
0.01777641 0.06835051 0.08822173 0.10856076 0.12307734 -0.0046834275 -0.018680077 0.116084315
0.07076865 -0.033931714 0.15365686 -0.07733763 0.13307194 0.063320756 -0.005646592 -0.17953135
0.196427 0.17295589 0.067619435 -0.017276933 0.11703676 0.2405819 -0.056990404 0.11089097
0.14085484 0.025038768 0.07748332 -0.04579105 -0.12372629 0.11151614 0.19733791 0.1353859
0.11886023 0.046816353 -0.102632165 0.040970545 0.024672491 -0.024497276 0.004131546 0.0024877875

actor.2.weight f4 [64, 64]
00000000: f379 1abe 1f25 12be 7fbe 603d ceff e6bd
00000010: 64f3 513c 2574 c43d b543 03bd f204 03be
00000020: d71f 16be 92d2 a23c 998b cebd abe8 65bd
00000030: a444 bdbc 55bf 68bd 27c3 153d 6616 1fbd
00000040: c34c 94bd 6031 32bd 0e88 a03d f2a6 0dbe
00000050: 338d 403c 464d 90bc 237a bcbc 98af 51bd
00000060: 0136 dbbd d820 b0bc 3d79 9bbd 1a54 253d
00000070: 78b6 81bd b194 e63c 61fa 943d 8897 543d
00000080: 538a 0ebd df1a 653d 8044 f1bd bbdc 07be
00000090: 0389 cfbc fe2e 06be 893e 1bbe bcbe 763d
000000a0: 9741 e63d 4b6b 50bd fef3 99bc e74e 92bd
000000b0: 9e15 a4bb 9a7f e13c e8c5 3ebc dad6 bb3d
000000c0: 85f5 ccbd 6f5e 92bc d917 48bd bc81 b83d
000000d0: 8528 e23d 64a5 943c ea3d e43d 5d9f 6abd
000000e0: 00f3 78be 1cc2 cdbd 2eee 03bd 4df9 fdbd
000000f0: 81f5 263c 9fa4 54bd c813 b33c 3eed 15be
00000100: 9dcd 943d acd0 09bd eebc 9bbd 5cbb 903d
00000110: 50ce 2dbc 1719 1fbd 05fb 4abc 8124 53bd
00000120: 5269 e23d ce55 a73d 99ac 3b3d dcd7 263d
00000130: 275c cbbd 74b0 80bd 8646 d2bd 273e e6bd
00000140: 838a 0cbe eafd de3d 3808 a73d 8106 983d
00000150: 4942 65bd 9c84 573d 0426 36bd 46f2 37bd
00000160: 675d af3d 35c7 403d 72dc b7bd d8d6 eb3d
00000170: d187 04bc 9622 033d 7210 f8bd 1965 923b
00000180: 2146 b7bd 7d41 04be 3594 a5bd 224f 77bc
00000190: 988e 9bbd a9be bbbd 58e7 a93d 747e d13b
000001a0: eb76 9bbd d7ce b33b 0128 203c 69df 633d
000001b0: c0e6 44bb 934d 563c eec5 823c 5990 e7bd
000001c0: c6b3 33bd a58a 653d 8b0e c9bd 765e 223d
000001d0: ed17 103e 3e9b b3bd 6ed7 c5bd 5cb3 153e
000001e0: 93de 04bd 8650 143d 5baf 773c d089 373c
000001f0: e6c1 56bd 2a25 c2bb 28ec b63d 4675 44bd
00000200: 04b3 18bd 854b e53d 797a 71bd d3d0 e33c
00000210: 7da7 db3d 7e38 263e af47 033d c6d9 fc3c
00000220: d4c6 cb3d 1bc6 2ebd 5b05 0f3c 9e29 143d
00000230: 68ee 7d3d dae0 2c3e 9630 cc3d a752 363b
00000240: 495d 2a3d 00e1 a53d cc55 5a3e 8718 2e3d
00000250: e5d3 133d 3712 6e3d ec68 82bb 323f dc3d
00000260: 36af b93b f983 94bd 87f2 1b3e 335b c7bc
00000270: b77a 253e 0ea4 643a 098a 423e 9a07 f83d
00000280: 312e 3dbc 3db0 273e 13d8 d4bd 0013 833d
00000290: a30d 79bd d9d8 b13d c859 613d 71b2 f9bd
000002a0: 3f53 993d 51c0 9b3c 3b0e 46bd 7a13 ca3d
000002b0: 2090 bbbd d138 80bd 7a56 683d f1e2 053d
000002c0: 88e5 023e cb5a e53d 5287 c4bc a1e5 06bd
000002d0: 8177 43bc bfcc 57bd 4ffb 11be a133 19be
000002e0: 941e cabd a345 d43d bb42 583e ce84 133e
000002f0: 1886 ffbc 06f4 563e 437d 903b b83e 80bd
00000300: e595 833d eea1 3b3d 2d7b 333d 0f73 113e
00000310: f341 c4bd 378e d8bc 7e7d ffbd b3a2 12bc
00000320: 278a 483d c1c4 913c 6232 29be e6ae bcbd
00000330: 9d99 8fbd b273 433b 9512 47bd 2804 fbbd
00000340: 659f 89bd 2805 283d f22e 4f3d c7ab 103e
00000350: 6c09 503c ace6 ec3c 1618 a5bd c4af 90bc
00000360: 3e38 863b 9a3d 9e3d 2fc6 e13c c234 cfbd
00000370: 58c0 20be d22a 23be 20ba bfbd feca c2bc
00000380: f7cb d53d e4b7 59bd 0260 513c 1605 063b
00000390: 04a0 21be 6d00 04be 7c0f 053d 9d4e 7e3d
000003a0: 460b a3bd 4684 d9bc 2cad 13be 5119 cabc
000003b0: af29 373d d1a7 cf3b 65e7 6fbd 88ba be3c
000003c0: 9e7d 28bd 29ad 8c3d 640c c8bd 2026 d7bd
000003d0: a481 d5bd 5671 d3bd 77e2 d13d 248f d5bd
000003e0: ec21 08be 71c2 303c 4db2 dabd 3b4f 85bc
000003f0: dc5b aebb e456 47bd df81 603d b0ac 8e3d
-0.15085582 -0.14271973 0.05486917 -0.112792596 0.0128143765 0.09592465 -0.032046992 -0.12794855
-0.14660583 0.019875798 -0.1008522 -0.056130093 -0.02310402 -0.056823093 0.036563065 -0.03883972
-0.07241204 -0.04350412 0.0783845 -0.13833216 0.0117524145 -0.017614972 -0.023007458 -0.05119285
-0.1070366 -0.021500036 -0.07591484 0.04036341 -0.06333631 0.028147073 0.072743185 0.051902324
-0.034799885 0.05593383 -0.117806435 -0.13267796 -0.025333887 -0.13103864 -0.15160574 0.060240492
0.11242979 -0.050883573 -0.018793102 -0.07143956 -0.00500746 0.027526665 -0.011643864 0.09171839
-0.10007767 -0.017867295 -0.048850868 0.0900912 0.11042885 0.01814527 0.11144622 -0.057280887
-0.24311447 -0.10046789 -0.032209568 -0.12401066 0.010190369 -0.051914807 0.021860018 -0.14641282
0.0726578 -0.03364627 -0.07604395 0.07066986 -0.010608271 -0.038842287 -0.012388949 -0.051548485
0.110552445 0.08170663 0.0458189 0.040733203 -0.09929686 -0.06283656 -0.102673575 -0.11242323
-0.13724713 0.10888274 0.081558645 0.074231155 -0.055971418 0.0526167 -0.04446985 -0.044908784
0.08562737 0.04706498 -0.089775935 0.115155876 -0.008089022 0.032015406 -0.12112512 0.004467618
-0.08948923 -0.12915607 -0.08084909 -0.01509455 -0.07595557 -0.09167225 0.082960784 0.006393248
-0.07591041 0.0054873037 0.009775163 0.055632982 -0.0030044764 0.013080019 0.01596352 -0.11306829
-0.043872617 0.056040425 -0.09817227 0.039640866 0.14071627 -0.087698445 -0.096602306 0.14619201
-0.032438826 0.036209606 0.015117492 0.011202291 -0.05243101 -0.0059248405 0.08931762 -0.047963403
-0.037280098 0.11196045 -0.05895469 0.027809536 0.10725305 0.16232488 0.032050785 0.030865561
0.09950033 -0.042669397 0.008729304 0.0361725 0.06199494 0.16882649 0.099702045 0.002782026
0.04159287 0.08099556 0.21321791 0.04250386 0.03609075 0.05812284 -0.003979793 0.10754241
0.0056666387 -0.07251734 0.15229236 -0.02433548 0.16160093 0.0008721956 0.18997969 0.12110825
-0.011546657 0.16375823 -0.103927754 0.06400108 -0.06080402 0.086839385 0.055017263 -0.12192238
0.07486581 0.019012602 -0.048353415 0.09866996 -0.09158349 -0.06260837 0.056723095 0.03268713
0.12782872 0.11198958 -0.023990307 -0.032933835 -0.011930347 -0.052685495 -0.14256023 -0.14961101
-0.098691136 0.10364845 0.21119206 0.1440613 -0.03119187 0.20991525 0.0044094636 -0.06261963
0.064250745 0.045808725 0.04381864 0.14204048 -0.09582891 -0.026435 -0.124751076 -0.008949923
0.048959877 0.017794015 -0.16523126 -0.09213047 -0.07011721 0.0029823598 -0.048601706 -0.12256652
-0.06719855 0.041020542 0.05058188 0.14128028 0.012697559 0.028918587 -0.08061235 -0.017661937
0.00409606 0.07726593 0.027560322 -0.10117485 -0.15698373 -0.15934303 -0.093616724 -0.023778435
0.10439294 -0.053153887 0.012779238 0.0020449809 -0.15783697 -0.12890787 0.03248547 0.06208669
-0.079611346 -0.02655233 -0.14421529 -0.024670275 0.044717487 0.006337144 -0.058570284 0.023282304
-0.041135423 0.06868965 -0.09767988 -0.10505319 -0.104251176 -0.103243515 0.10248273 -0.104276925
-0.1329419 0.010788546 -0.106785394 -0.016273132 -0.005321009 -0.04866685 0.054811355 0.06966531

actor.2.bias f4 [64]
00000000: 9cc8 6bbd 4933 7a3c 0a9c 2a3d cc71 23be
00000010: 6a3e 023e e657 2b3e 0877 89bd d5b4 823d
00000020: 9ff6 a2bd ef0c cf3d 04b0 b6bd a603 b13d
00000030: 7146 6bbd b1dd a5bd f4ee 953d 8060 7d3c
00000040: 4b18 38bc a85c c73d 91cb 4a3d 9dd1 a43d
00000050: 575d 77bd 3729 643d 13f7 0e3d 51ff dd3d
00000060: 67a2 1d3e 568c 103d 52f3 c73d 103f 94bd
00000070: ed4c c9bd b281 5d3d 2e88 083d d63f 5a3d
00000080: 63ca bdbd 7bdc 93bc b346 f6bc 9430 923d
00000090: c4f9 203d 892c 273d 4709 c43d 56ad 5f3d
000000a0: 39a8 f23d 9b7f 1bbe f43f c53d 688e 80bc
000000b0: 3b96 4f3d 16a1 0abb 9d9b d3bd 363a 6d3c
000000c0: b130 f63c 52ca ba3d b1da aa3d 99fb 15bd
000000d0: 6de2 29bd dfaa d3bd f703 a83c c46c cc3d
000000e0: 947e 503d c3a6 a93d 3dc8 d83d ff38 a83d
000000f0: 1704 d73b 55a5 d43d bf5c c43c 6a73 95bc
-0.057564363 0.015271016 0.041652717 -0.15961379 0.12719122 0.1673275 -0.067121565 0.06382147
-0.079571955 0.10109889 -0.08920291 0.08643274 -0.057440225 -0.08098925 0.07320967 0.015464902
-0.011236261 0.0973447 0.049510542 0.08047793 -0.06039175 0.055703368 0.034903597 0.10839713
0.15393983 0.035290085 0.097632065 -0.07238591 -0.098291256 0.054078765 0.033332996 0.053283535
-0.09267118 -0.01804947 -0.030063009 0.07138172 0.039300695 0.040813956 0.09572082 0.054608665
0.11848492 -0.15185396 0.09631339 -0.015692905 0.05068038 -0.0021153144 -0.10332415 0.014479211
0.030052515 0.09120621 0.08342493 -0.036616895 -0.041475702 -0.103353254 0.020509703 0.09981683
0.050901964 0.082837604 0.105850674 0.08213996 0.006561767 0.10383097 0.023970006 -0.01824351

actor.4.weight f4 [36, 64]
00000000: 230a 1a3c bfc9 e03c e875 273e 82e9 94bd
00000010: c93a bcbd 5199 cbbe e8f8 663e bbc0 723e
00000020: cc48 7fbd 016c e13d 0a17 ccbd 97c6 2f3e
00000030: 15a3 82bd 5f78 a5bc 33e5 883d fe65 bebb
00000040: c308 b23e 95f3 b5bd 413f 303e 7a47 723e
00000050: 5d59 293d e776 5cbe d709 7f3c c6f3 3ebd
00000060: c477 7ebe 17ee f43b 62c4 023d 2019 b03d
00000070: 1e95 d9bd 6ebf 91be 43a7 8c3e 488b 13be
00000080: 0f02 f5bd 0dc0 09bd fd56 803d 4eb8 353e
00000090: 02c3 41bd fc06 143e 25e5 243e a4fc 8bbe
000000a0: b639 b3bd 2fea 54bd 715c 98be e4e4 a0be
000000b0: 3269 cabd f873 793e f804 083d 7329 5a3e
000000c0: cf9d 4d3d 7a14 173e 2731 67be 2a91 f2bd
000000d0: 7156 973d 6645 8abc d5f7 a73e 38b0 8d3e
000000e0: 34ef c2be 8440 e3bd 8b91 4dbe 25f6 35be
000000f0: 853b d2be b35b a13d 448c eb38 6406 80bd
00000100: 5b70 c3bd 06ea ae3d 8400 223e a9ed a93c
00000110: 870f 333d f0f7 01be 4c45 f03d a865 8e3d
00000120: e9b0 fabc 732c 433e eb6c 193d 827a 0e3e
00000130: 252d 6b3e 07e6 cdbd fedf 8d3e 4391 ae3c
00000140: a380 50be 5036 4e3e ba99 1cbe 5e1b c8bd
00000150: 99c5 ce3d 7f51 a13e 40b6 6fbb 66fc d3bd
00000160: 7589 0ebe cd99 813d 36ba 4abc 2bc8 c33d
00000170: 2787 733e 1366 a3bd 24a5 2dbe 9734 35be
00000180: 575d e93d d73f abbd fd24 123e 1563 40be
00000190: 3d9c ae3e 4fbb 173e e181 693e 9343 8dbe
000001a0: eaa1 293e 3755 62bc 168c a0bd f944 91be
000001b0: 3b05 df3d 5019 193d 8529 54bd 9f26 123e
000001c0: 992f 80bd caa5 e23d f904 1d3e ee4a 8abe
000001d0: 1bba f73d 50f5 0e3d a213 2cbd fdcc debd
000001e0: efc6 90bd a0d0 1b3d d5f7 33be f6e8 8b3e
000001f0: 7287 7b3d 759a d33d f592 a93d 14ab 82bc
00000200: 1f3a fd3d 2fc5 cd3b 6ff1 5c3e 29f8 dbbd
00000210: e190 88be d5b5 103d 4f4d b23c e9d1 23be
00000220: 1593 f33c 51b1 16be a8b6 ce3c 9966 173e
00000230: d031 853e 8930 c0bc 1123 7cbd 9fe8 bebd
00000240: 9236 91be e9a9 f23d c245 bb3d e739 0d3e
00000250: f682 b23e e73c ecbd 11b6 303e f024 62be
00000260: cd28 47be 34bc a03d 0a50 6e3d bfc1 9d3d
00000270: c870 643e d7b2 05be f6b8 093e be08 45be
00000280: 0bb1 d33d 8b7f d93c 0220 073e d5fb c83d
00000290: d9e6 a8bc 2910 7ebc 7ba9 dd3d d1fb 05be
000002a0: 5f2d 3b3e abb7 1c3c 6a3d c2be a70d 94bd
000002b0: 73a3 92bd 1923 313d 5915 c53d be0f 23bc
000002c0: 9532 b63e dbb2 693e b5ee 3fbe 9922 7f3e
000002d0: edad 2d3e 8fc0 77bd 76f7 90be 3919 943e
000002e0: 7421 73be 85aa c7bd 7fa7 a4be 4372 fbbd
000002f0: f343 83bd 0b07 3b3e 7ca4 513c 8cf2 9ebd
00000300: e038 f53d ea76 bb3c 3101 88bd 32bf fbbc
00000310: 3a8d bd3c 8ddc 563d 22b0 513d 73a2 c63c
00000320: 0009 e1bd a079 ea3d b1f6 443d ee7a cd3c
00000330: f6b8 313d d027 90bd 51f1 27bd 4d60 993d
00000340: 0b59 60be d7ef 7a3b ed76 3dbe 299d 833b
00000350: 2f30 1bbd e337 99bd 5cb6 ddbd 3978 a83d
00000360: c4cf 37bd 3068 c2bd 86bd 58bd 0d58 163d
00000370: 6cb9 ab3d b073 443d 2767 063e 8e74 17be
00000380: 6862 063e a71a 1e3e e5df 9abd 5731 31be
00000390: 7865 49be ac9d bf3c de47 ecbc 3a83 09bd
000003a0: 1c8d 75bc 6446 913d f94a fc3b 6693 90bd
000003b0: 471a 69bd c66e c93d 689b 9c3d 47b2 3ebe
000003c0: 22e4 edbd f9ff a53d c629 56be 1fb2 2bbe
000003d0: 24d1 143e 59eb 973d 1bdc 03be 3004 b13c
000003e0: b13e 843d 9684 a8bd c807 6bbb 250a c4bd
000003f0: 9212 56be 69c0 143e a64d c9bd d8ce fcbc
0.009401831 0.02743995 0.16353571 -0.072711006 -0.091909 -0.3976541 0.22555888 0.23706333
-0.062325284 0.11006928 -0.09965332 0.171656 -0.06378762 -0.020198999 0.06684341 -0.0058104983
0.3477231 -0.0888435 0.1721163 0.23660079 0.04134499 -0.21529733 0.015566311 -0.0466192
-0.24850374 0.0074746716 0.031925566 0.08598542 -0.10624145 -0.28466362 0.2747136 -0.144086
-0.11963283 -0.03363042 0.06266592 0.17746088 -0.047305115 0.1445579 0.16103037 -0.27341187
-0.08751242 -0.051981147 -0.29758027 -0.3142463 -0.09883346 0.24360645 0.033207864 0.21304874
0.050199326 0.14753905 -0.22577344 -0.11844094 0.07389534 -0.016878795 0.32806268 0.27673507
-0.38073123 -0.1109629 -0.20075051 -0.17769678 -0.41061035 0.07878818 0.000112318 -0.06251219
-0.095429145 0.0854073 0.15820509 0.020743208 0.04371598 -0.12692237 0.11731967 0.06952983
-0.030601935 0.19059925 0.037457388 0.1391392 0.2296644 -0.1005364 0.27709955 0.0213095
-0.20361571 0.20137906 -0.15293017 -0.09770845 0.100962825 0.3150749 -0.0036577135 -0.103508756
-0.13919623 0.06328163 -0.012373498 0.095596634 0.23782025 -0.079784535 -0.16957527 -0.17695843
0.11394756 -0.08361786 0.14271922 -0.18787797 0.34103575 0.14817546 0.22803451 -0.27590618
0.16565672 -0.013814262 -0.07839219 -0.28372934 0.108896695 0.037377656 -0.05179741 0.14272545
-0.062590785 0.11066778 0.15333928 -0.27010292 0.12096044 0.034901917 -0.04201091 -0.10878942
-0.070691936 0.038040757 -0.17575009 0.27326173 0.061408468 0.10332195 0.08279983 -0.015950717
0.12364601 0.0062796096 0.21576475 -0.10740692 -0.26673034 0.03532966 0.02176538 -0.15998043
0.02973322 -0.14716078 0.025233582 0.14785232 0.26014566 -0.023460643 -0.06155688 -0.09321713
-0.28361946 0.11848814 0.091441646 0.13791619 0.3486554 -0.11535054 0.17256953 -0.22084403
-0.19449158 0.07848397 0.0581818 0.0770297 0.22308648 -0.13056503 0.13449463 -0.19241616
0.10336503 0.026550075 0.13195804 0.09813658 -0.02061789 -0.015506783 0.108233415 -0.13084342
0.18279026 0.009565274 -0.3793748 -0.072291665 -0.07160082 0.043246362 0.09623212 -0.009952484
0.35585466 0.22822134 -0.18743403 0.24915542 0.16960879 -0.060486373 -0.28313798 0.28925493
-0.2374323 -0.09749321 -0.3215904 -0.12277653 -0.06409445 0.18264405 0.012795564 -0.07761106
0.11973739 0.022883851 -0.06640852 -0.030730817 0.023138631 0.052456427 0.051193364 0.024247384
-0.10988045 0.114489794 0.048086826 0.025083032 0.043389283 -0.07038844 -0.04100162 0.07489071
-0.21908967 0.0038289928 -0.18502398 0.0040165377 -0.03788775 -0.07481363 -0.10825798 0.08226056
-0.044875875 -0.094925284 -0.05291512 0.036705066 0.08384976 0.04796189 0.13125287 -0.14790556
0.13123477 0.15439855 -0.07562236 -0.17303978 -0.19667614 0.023390613 -0.028842863 -0.033572413
-0.014987256 0.07093504 0.007699367 -0.07059364 -0.056909826 0.098355815 0.07646829 -0.18622695
-0.116157785 0.081054635 -0.20914373 -0.16767167 0.14532906 0.07417936 -0.12876932 0.021608442
0.0645727 -0.08228414 -0.0035862792 -0.095722474 -0.20905522 0.14526524 -0.098292634 -0.03086035

actor.4.bias f4 [36]
00000000: 9a05 60bd 40ae e83d c311 6dbd d115 a9bd
00000010: d878 da3d 9598 23be f781 f53c 8996 fa3d
00000020: dbe1 d1bc 5832 f8bd ab99 0cbe 7705 1abd
00000030: ca14 76bb 5e47 c93d 815e b53d c451 91bc
00000040: 727f 49bd 6b2d a2bd 2309 203d 9c2a 9b3d
00000050: 8a00 53be 628c 033d 1238 413d f431 d6bd
00000060: d755 b33d 2c74 d7bc 0139 e63d 2c96 acbd
00000070: 108e 453d d42f 243d 4f21 403d ff8d 7dbd
00000080: 6d79 a9bd 0257 f03d b5f7 ba3d 7261 2a3e
-0.054692842 0.113613605 -0.057878267 -0.08256114 0.1066758 -0.15976174 0.029969199 0.122357436
-0.025620392 -0.12118977 -0.13730495 -0.037602868 -0.0037549012 0.09828065 0.08855916 -0.017739184
-0.049193807 -0.07918819 0.039071213 0.075764865 -0.20605674 0.0321163 0.047172613 -0.104587466
0.08756607 -0.026300512 0.112413414 -0.084270805 0.048231184 0.040084675 0.046906766 -0.061902996
-0.08275113 0.117353454 0.091292776 0.16638735

critic.0.weight f4 [64, 62]
00000000: 7e9a 543d dcb4 5b3d 84f1 c0bd f52a debc
00000010: f56c 63bd a5a3 ddbc f5ec 06bc 7399 ac3b
00000020: 73bf 99bd 9415 a9bc 8335 98bd d1fd 06bd
00000030: cc7a a7bd 16de 87bd 5f47 e2bd f902 debd
00000040: fe10 09bc ab20 ddbd 13fe f7bd 636a 8a3d
00000050: 0c4a bbbd 7c17 b63d d610 103c b7b9 4bbd
00000060: 3c39 ac3d da1c e8bd c034 793d b84c 833d
00000070: 73ca a13d f7dd f2bd 77b8 29bc 9833 ddbc
00000080: f2fb c0bd 9aa3 b13d 5232 b7bc 881a 8a3d
00000090: 160d 8cbd 74b4 66bd 0f83 e23c ffa4 b5bb
000000a0: c410 953d 69e9 5d3d faba d03d d1b5 ddbd
000000b0: 3315 eb3c 612f c13d 7cd4 95bd 23f5 c9bd
000000c0: 73ed ff3d fed0 d9bd 58ab a2bd 5c12 dcbd
000000d0: bfb1 953c d956 383c fa99 04be 525c 543d
000000e0: f116 4b3c 07cb cc3c 93c0 11be 7c5e 09be
000000f0: bbae fabd 95a1 8fbd 3951 08be 1528 1b3d
00000100: 6971 92bd d47b 55bd 2879 8b3d ed4b 63bc
00000110: b219 963d c896 c3bc 90d7 23bd 6a7d e1bd
00000120: 9fbb d63c 00c3 483e 294d a2bd ea3a 873d
00000130: f477 323e 736a 0c3e 3f94 e03d 7dc0 183e
00000140: bf91 8b3d 5a14 cebc 3209 4dbd d2b4 00be
00000150: e2da 883d 6520 a0bc b90a 823c 7a4c f73b
00000160: 15fc a73d 5aaa 2ebc d78b 583e d78d c93e
00000170: 7412 883e 6445 a63e 0efc 513d 9438 a6bd
00000180: b5e9 b63d 5aed 783d 3903 873d 1b18 e0bc
00000190: 52b8 103e b3b4 453e 0c4d 71bc fb48 87bd
000001a0: 9a36 cdbc bb34 59bd c2fd 85bd a1da 01be
000001b0: 64db 923d c2e0 8a3d 23c9 443e 87f2 ed3c
000001c0: 25ca 06bc 2b86 5f3d 5749 c13c 1602 9bbd
000001d0: 8606 9dbd 5d49 003c eae2 153e 8f1c a63d
000001e0: 415f 6d3d f445 d63d e253 bc3b 7f12 933d
000001f0: 3b3c ffbc 445e 1c3e 5c56 96bc 892c 2a3d
00000200: 7720 02be 21bf 06bd 5d1a 4d3c 8a37 39bc
00000210: ed9b 853c eea0 183d 05b5 393e 0379 d23d
00000220: 5e80 0a3e c0b3 263e 44ef c7bc ce7f 7bbd
00000230: 8078 dcbd cc93 e1bd de74 f23d 6848 11be
00000240: 9986 5f3d 9171 37bd ce58 bc3c fc6a ee3d
00000250: 03bc 57bd 7db3 b8bc c437 573d ee0a 11bd
00000260: a74f 2dbd b24a 283b 3d7e b5bd 23fa 9539
00000270: 6078 51bd 8e84 5d3d fd69 493c 1bbe debd
00000280: be8a 8ebd 885b 41bc 2bbd 08be 1632 513e
00000290: 0a3e 54be 94bf 6bbd 53f9 d53d 0bec 5dbd
000002a0: 2a42 ba3c b1f8 c9bd aa69 35bd 3ee8 e4bc
000002b0: 0975 1fbe 58e4 463d 77ee eebd 92cc ec3d
000002c0: b03c 883d 600d 383d 3309 bd3c 805a ad3d
000002d0: fbcd 52be 8fbc f0bc e124 99bd 82a0 3f3d
000002e0: b3a8 d83c fce3 bdbc 3954 08be f9ef 19be
000002f0: cef5 06bd 7060 cf3d 2b67 3f3b 2075 52bd
00000300: 33de 7bbd 77f1 4a3d 78f7 5b3d 02af ebbd
00000310: 2618 dbbd 0807 16bd 9fe8 ebbc c816 98bd
00000320: c88e e0bc 9121 f2bd 3f94 a3bd 54e2 fabd
00000330: 82c9 abbd 394c 8b3c e50e bcbc da1f 3a3d
00000340: d503 bdbd cb01 ac3c 5fd2 b13d 3222 ac3d
00000350: 4c09 b6bb 398f e3bd 96cf 433c 6f6d 25be
00000360: f6f7 abbd 5fcf e8bd d433 b3bd 403d c5bc
00000370: 5bdd f4bc 8c84 02be 320f 16bb d085 483d
00000380: 25d2 27be 0490 09bd 54b5 0c3d f9f5 89bd
00000390: c809 003e 50ff 143e 1017 093d 53d9 0dbd
000003a0: f271 b83c 3f24 973d 3abe 91bd 5069 b1bd
000003b0: 1162 0ebe 9a8a 44be caaf 823d cc3c 34bd
000003c0: 8008 8abd 2c0f f5bc 90be 0ebe 49db afbd
000003d0: 1c71 0dbe 76c0 3cbd 2fe7 edbc bd88 d3bd
000003e0: a766 fd3c f25e 673d e1a5 23be c321 2ebe
000003f0: 752d ec3c 5e86 33be 6574 59bd 7308 adbb
0.051905148 0.053639278 -0.094210654 -0.027120093 -0.05552383 -0.02705557 -0.008235206 0.005267316
-0.07507219 -0.020640172 -0.074320816 -0.032956902 -0.081777185 -0.066341564 -0.11048769 -0.10840411
-0.008365868 -0.107972465 -0.12109008 0.06758573 -0.09144983 0.08891198 0.0087930765 -0.04973766
0.08409354 -0.11333628 0.060841322 0.06411117 0.07899942 -0.11858743 -0.010358921 -0.02700214
-0.09423055 0.08673783 -0.022362862 0.06743342 -0.068384334 -0.056324437 0.027650384 -0.0055433507
0.072785884 0.054177675 0.10191913 -0.10825694 0.028696632 0.09432865 -0.07315919 -0.09861209
0.12496462 -0.10635565 -0.079428375 -0.10745689 0.018273233 0.011251175 -0.12949362 0.051845856
0.012395606 0.024999155 -0.14233617 -0.13414949 -0.122403584 -0.07013241 -0.13312234 0.037880022
-0.071505375 -0.052120045 0.06810218 -0.013873083 0.0732912 -0.023875609 -0.0400005 -0.11010249
0.026212512 0.19605637 -0.079248734 0.06603034 0.17428571 0.13712482 0.10965776 0.14917178
0.06814908 -0.025156189 -0.050057597 -0.12568977 0.066823736 -0.019546697 0.015874254 0.0075469585
0.08202378 -0.010660732 0.21147095 0.39366028 0.2657658 0.32474816 0.05126577 -0.0811626
0.08931295 0.06077323 0.065924115 -0.027355244 0.14132813 0.19307213 -0.014727842 -0.06605717
-0.02505045 -0.053028803 -0.06542541 -0.12681057 0.07170752 0.067811504 0.19217353 0.02904631
-0.008226906 0.054571312 0.023594541 -0.07568757 -0.0766726 0.007829991 0.14637342 0.08110916
0.05795217 0.10462561 0.0057473043 0.07181262 -0.03115665 0.15270334 -0.018351726 0.04154638
-0.12707697 -0.03289712 0.0125184925 -0.011304745 0.016309703 0.03726285 0.1813546 0.102769874
0.1352553 0.16279507 -0.024406083 -0.06140118 -0.10765171 -0.11014518 0.11838697 -0.14187777
0.05457172 -0.04478604 0.022991564 0.116414994 -0.052669536 -0.022546524 0.052543417 -0.035410814
-0.04231229 0.0025679288 -0.08861969 0.0002860586 -0.05114019 0.054081492 0.012293336 -0.108761035
-0.06960057 -0.011801608 -0.13353412 0.20429263 -0.20726791 -0.05755575 0.104479454 -0.054180186
0.022736628 -0.09861887 -0.044290222 -0.027942773 -0.15571989 0.04855761 -0.11666577 0.11562456
0.066522 0.04493463 0.023075676 0.08464527 -0.20586388 -0.029386787 -0.07477737 0.04678393
0.02644763 -0.02318 -0.13313378 -0.15032949 -0.03294926 0.10125816 0.002920578 -0.05138123
-0.061491203 0.049546685 0.0537028 -0.115079895 -0.10697965 -0.0366278 -0.028797446 -0.0742622
-0.027411833 -0.118228085 -0.0798726 -0.122502 -0.08388044 0.01700412 -0.022956321 0.045440532
-0.092292465 0.020996949 0.08682703 0.0840496 -0.0055553075 -0.11111302 0.011951348 -0.16155027
-0.08396904 -0.11367678 -0.0875012 -0.024077058 -0.029890707 -0.12745875 -0.002289724 0.04895574
-0.16388758 -0.03358461 0.034352615 -0.06736369 0.12503731 0.14550519 0.03346926 -0.034631085
0.02251527 0.0737996 -0.07116361 -0.08662665 -0.13904597 -0.19193497 0.06381185 -0.044003293
-0.067399025 -0.029914461 -0.13939881 -0.08586747 -0.13812679 -0.046081983 -0.029040901 -0.10328815
0.030932738 0.05648703 -0.15981247 -0.17005067 0.02883027 -0.17531726 -0.053089518 -0.0052805482

critic.0.bias f4 [64]
00000000: 0e87 10be 8c9b ab3d 0cf4 62bd 76c4 b0bb
00000010: 6273 ac3b 18dc 5b3d 539d bc3c ffb2 9fbd
00000020: ab56 23be a8ca d0bc 4a8e 93bd 022b 80bb
00000030: 1d05 7ebd 7e4a cdbd b0dd 8a3d c216 b2bc
00000040: 81ad 9ebd 024a 843d 8af4 4ebd 3bc6 cf3c
00000050: 5cfc 3dbc 6e4e 26bd eb3e acbc c405 7e3d
00000060: 6998 a8bc b395 83bd f3fe b9bd 142c c13c
00000070: a4bc 763d e1f0 da3c 46fe c03d b3bc 913d
00000080: 6b87 0dbe 89a4 4c3c dcf5 e4bc 5bac 8c3d
00000090: 395a ee3c a4f4 2f3e 441c 43bd fd1d bc3d
000000a0: b7e8 03be 2c57 463b a039 e6bd 54a3 d1bb
000000b0: d596 04be d839 a2bd f35e b73b 414d d63d
000000c0: 2e7d 053d 9ca8 033d 188e bf3d db97 e5bd
000000d0: 1883 ff3d d11f fbbd d800 7cbd 2dc8 32be
000000e0: cec1 563c 7928 eabb 24a6 17be 5f84 983d
000000f0: 9083 303e 2c59 b5bd bf4c 01be 5bd8 33bd
-0.1411402 0.083792776 -0.055408522 -0.0053945137 0.005262778 0.053676695 0.023024237 -0.07797813
-0.1595103 -0.025487259 -0.07204874 -0.003911377 -0.062016595 -0.10023974 0.06780565 -0.021739367
-0.07747937 0.06459428 -0.05052618 0.025363078 -0.011595812 -0.04060214 -0.021026095 0.062017217
-0.020580487 -0.06425037 -0.09081831 0.023580588 0.060238495 0.026726188 0.09423499 0.0711607
-0.13821189 0.0124904 -0.027949266 0.06868812 0.029095756 0.17183167 -0.047634378 0.09185407
-0.12881742 0.003026436 -0.1124146 -0.006397644 -0.12948163 -0.07921189 0.0055960356 0.10463954
0.032590084 0.03214322 0.09353274 -0.11210605 0.12476176 -0.12261928 -0.061524242 -0.17459174
0.01310773 -0.007145938 -0.14809471 0.07447123 0.17237687 -0.08854899 -0.12626933 -0.043907505

critic.2.weight f4 [64, 64]
00000000: 0b03 b7bc f7f2 3a3e c52a 5f3d 867b 6a3c
00000010: bc9b 11be 1226 e1bc 3af1 fbbb 1075 223e
00000020: 6e37 3dbc 8222 3ebd 7cdf 913d a852 5a3e
00000030: 4dc2 edbc 8d1d 8f3e 5cf7 83bd c7bc d53d
00000040: 3232 c53d 7c95 2a3c 43d3 eabc 5f0d 5f3d
00000050: 5ee3 faba 273e 69bd 746c 8a3d 3154 703d
00000060: dde9 f7bd 7955 083d cae5 76bd 586a d23d
00000070: d6ac 573c 5d47 473e e1a0 dfbd a1ea f3bd
00000080: 0b16 e53c 4e87 5cbd 2aa1 963c 1e02 c1bc
00000090: 5d17 c8bd 6bc0 023e ed69 9b3d 45bf b1bd
000000a0: 27c8 8bbd 5e2d e13d 72d3 b03d 7782 b5bd
000000b0: 5ccc 1abd 123c afbd d421 733d 8490 79bd
000000c0: 6251 f53d 7203 9a3d ab77 ddbd 9ecf b63d
000000d0: dd9b 28bd 937d 43bd 96d3 dd3b 756b 223e
000000e0: 8b5f 5d3d 0f41 9c3c 0a17 ebbc c635 ce3c
000000f0: 7823 9dbd ebf2 b73d 12d3 5f3e ebdb 90bd
00000100: a5a6 11bd 2585 223c 9d67 1abc 4929 bebc
00000110: 72db eebd 0ddd 81bd 5d8d a3bd 7059 f13d
00000120: 3d6e 56bd 759f d1bd 7f85 c4bd 000f ecbd
00000130: 9587 0cbd 991b 5ebd 8427 d8bd ed3a 52bd
00000140: 154f a13d a4d6 e1bd a512 55bc c360 ec3d
00000150: 4d22 823d bd6b f5ba 0d15 5c3d 93af 5bbd
00000160: c9a3 b3bd 08df bbbd b2a9 adbd d736 9f3d
00000170: fc92 c5bb 9ba7 e8bd 1f52 90bd a3cd c2bc
00000180: 8483 663d 89ed ec3c d8f4 a73c 0528 31bd
00000190: 1ca6 3abc de57 a13d b130 223d f299 2cbd
000001a0: fe86 0b3e 59b7 a23d 8ca6 083d 492e 483d
000001b0: c67e 923d 05c5 08bd dcfa be3c caa3 43bd
000001c0: 27a8 3bbd e233 a6bb 9a10 f2bd 631c cf3d
000001d0: 5721 bbbd 6110 cebd 98c9 cfbc 7ee2 873d
000001e0: b5ce a0bd 0fa4 ccbb 8922 7c3d b0f1 eabd
000001f0: 714e d13d 6a03 4f3d cfe2 e03c e2cc afbb
00000200: 44d4 6a3d fb0f a1bd 1808 8dbc 7b5e c43d
00000210: 1e14 04bd e524 9dbb 5f80 593d 5e8c e8bc
00000220: 0510 d1bd dcbd d3bc d962 72bd 630e 39be
00000230: 6c7e 98bc 7512 33bd 4037 5d3d e260 22bd
00000240: ba0e d0bd 9c43 2f3e 4adb b3bb a61b 6ebd
00000250: 5244 863c fb3c 8e3d 6978 a83d 97de bf3d
00000260: 5954 6fbd 9741 1f3d 6690 473d a6e2 e4bd
00000270: 9057 403d 7fa1 eabd c358 1d3e e8d4 d6bd
00000280: ca4a 243d 5c4e 45bd 0c6d b13c 2a4d 97bc
00000290: f4ed 523c 0023 3abd 3784 903a a43f 88bd
000002a0: 641e 703d 656c 8c3c 0622 d8bc 4c75 78bd
000002b0: c87d a03a fbc9 04be 9ba6 a63b 822c c03d
000002c0: 5509 5c3d 409d 44bd bc0d 0d3d b486 813d
000002d0: d207 5f3d cfa2 99bc ccb4 093d 78df ccbc
000002e0: bfc5 e7ba e22d 22bd 0a5e e2bd 2c97 c7bd
000002f0: 0068 a63c d4c4 b8bd d18b ae3d e6db 47be
00000300: 90a9 8cbb 6595 8a3d 017d d23c c384 acbd
00000310: 294f 183b f7ec c2bd 921d cd3d 4695 bb3c
00000320: 66ff 3fbc 3cfd c8bd 6ff4 113e 0ccf 8d3d
00000330: f0b3 f23d d2f6 853d 7f9c ac3d 6fd0 853e
00000340: b343 943d abc2 f0bd af71 9dbd 4d8a 663d
00000350: c3eb e53d 4a1c e83d 813a acbd 9725 0b3d
00000360: cf86 9abd b23e 28bd 3968 4d3d 45cf d53d
00000370: 075d ee3d 3495 cf3d e718 86bc d68b e2bd
00000380: 785e 783d 2cf6 113e 9e67 e8bc b5aa dabd
00000390: 5f4c 683d 9115 89bd 92f4 75bd 3176 0e3d
000003a0: 3ce2 86bd 52ff c53d b38c d43c 8d0a ca3d
000003b0: 1492 51bd cc16 033e 362d 95bd 8851 d9bd
000003c0: dfd9 c0bd fb19 a33d ae3e 2abd 5820 d6bd
000003d0: 201a 763d a519 d13d 21d9 88ba 4ebe aa3e
000003e0: dd7e 933c ef43 9e3d 6046 1dbd 3a55 8abd
000003f0: ebe4 96bd 1960 073e 2d57 633e b26e f73d
-0.022340318 0.18256746 0.054484148 0.014311677 -0.14219564 -0.027483974 -0.0076886686 0.15864968
-0.01154886 -0.046419628 0.071227044 0.21320593 -0.029023314 0.27952233 -0.064436644 0.10436397
0.096287146 0.010411616 -0.02866519 0.05445611 -0.0019141247 -0.05694404 0.06758967 0.05867404
-0.12105153 0.033284638 -0.060277738 0.1027419 0.013163766 0.19460817 -0.10919357 -0.11909986
0.027964612 -0.053839974 0.018387396 -0.02356058 -0.09770081 0.12768714 0.07588563 -0.0867906
-0.068252854 0.10994981 0.0863408 -0.08862775 -0.03779255 -0.085563794 0.059358433 -0.060928836
0.11978413 0.075201884 -0.108138405 0.089263186 -0.041164268 -0.04772718 0.006769608 0.15861304
0.054046195 0.019073991 -0.02869751 0.025172126 -0.07672781 0.0898188 0.2185786 -0.07073196
-0.035559315 0.009919439 -0.009424117 -0.023213046 -0.116629496 -0.0634099 -0.07985947 0.11784637
-0.052351225 -0.10235492 -0.09595775 -0.115262985 -0.03430899 -0.054225538 -0.10554412 -0.051325727
0.07876412 -0.110272676 -0.0130049335 0.11541893 0.063541986 -0.0018724125 0.053731013 -0.053634237
-0.08771474 -0.09173399 -0.084796324 0.07774132 -0.006029485 -0.11360093 -0.07046913 -0.023779696
0.056277767 0.02892186 0.020502493 -0.043251056 -0.011392143 0.078780875 0.039597217 -0.042139
0.13625714 0.07945127 0.033361956 0.048872266 0.07153086 -0.033391017 0.023312978 -0.047763623
-0.04581466 -0.005072103 -0.11819573 0.10112836 -0.091372184 -0.10061718 -0.025364682 0.06634997
-0.07851926 -0.0062451432 0.061556373 -0.114718795 0.1022004 0.050540365 0.0274519 -0.005365
0.05733134 -0.07864376 -0.017215773 0.09588333 -0.032245748 -0.004795658 0.05310094 -0.028387245
-0.102081336 -0.025847368 -0.0591763 -0.18071894 -0.01861497 -0.043718774 0.05400777 -0.039643176
-0.10159059 0.17115635 -0.005488788 -0.058131836 0.01639 0.06945225 0.082260914 0.093686275
-0.05843005 0.03888091 0.048721693 -0.11176042 0.046958506 -0.11456584 0.15365891 -0.104898274
0.040110387 -0.048170432 0.021658443 -0.018469412 0.012874115 -0.045443535 0.0011025731 -0.066527635
0.058622733 0.01714153 -0.026383411 -0.060658738 0.0012244517 -0.12967674 0.005085779 0.09383489
0.053719837 -0.048001528 0.034436926 0.06324521 0.054450817 -0.018754391 0.033619687 -0.025008902
-0.0017682834 -0.03959454 -0.11053093 -0.097456306 0.020313263 -0.09021917 0.085227616 -0.19517478
-0.0042926744 0.06766776 0.025694372 -0.0842376 0.0023240543 -0.09517854 0.10015406 0.022898328
-0.011718607 -0.098139256 0.142534 0.06924257 0.118507266 0.06541218 0.08428287 0.26135585
0.07239475 -0.1175588 -0.07687699 0.056284238 0.112266086 0.11333521 -0.08409596 0.033971395
-0.07545244 -0.041075416 0.050148223 0.10439924 0.11638837 0.1013588 -0.016369296 -0.11061828
0.060636967 0.14254063 -0.028369721 -0.10677091 0.05671346 -0.066935666 -0.060047694 0.034780685
-0.065861195 0.09667839 0.025945997 0.09865294 -0.0511647 0.12801665 -0.07284014 -0.10611254
-0.094165556 0.0796394 -0.041563682 -0.10455388 0.06008351 0.102099694 -0.0010440686 0.33348316
0.018004829 0.07727801 -0.038397193 -0.06754537 -0.073678814 0.13220252 0.22201224 0.1208166

critic.2.bias f4 [64]
00000000: 80d1 bb3d dfed 6ebd d78c 82bb dc27 843a
00000010: efac 9cbd 63ac 76bd 6753 5cbd 7162 e5bd
00000020: 4981 2abd 781b 42bd 21fe c93d 4bc2 ed3d
00000030: 7155 583d 93b7 d73d 8d85 d2bc 9557 4cba
00000040: eef1 72bd 2de3 d6bd acb5 0f3e d5ea 243d
00000050: 1e6a b93d eefb 393d 54fc b5bc 5df5 14be
00000060: fb50 d93d 32a8 cdbd 4f89 87bd bd48 80bd
00000070: 04f0 003d ee5b d83d 9377 c83c c6aa 5bbb
00000080: 546c e0bc 18f3 1bbd 6ada c93d 7e42 3c3d
00000090: 02e6 5bbd 9c44 2dbd 5359 39bd d24d 843d
000000a0: 1e6a ee3d 04ab d5bd d6e5 c2bc bdcc 563d
000000b0: 14c1 c3bc 5f07 4c3e 1c51 d8bd 9547 333c
000000c0: e7c3 043c 845a 803d 8f7a c43d 08e8 cfbd
000000d0: 3e3a 7dbd fc91 bdbd 2d5d a73d 669f 8bbb
000000e0: f31c 073e 46c7 273e 2319 45bd 36a6 103d
000000f0: 925f f1bd 8776 e33d 97b8 d3bd 67f5 d2bd
0.09170818 -0.05833232 -0.0039840746 0.001008268 -0.07650172 -0.060222995 -0.053790476 -0.11200417
-0.041627202 -0.047389477 0.09862924 0.11609324 0.05281586 0.10533061 -0.025698448 -0.0007795033
-0.059312753 -0.10492549 0.14034146 0.040263016 0.09053443 0.045406274 -0.022215046 -0.14546724
0.10611149 -0.10041846 -0.066179864 -0.06263874 0.031478897 0.10564409 0.02447108 -0.0033518537
-0.027395405 -0.03807363 0.09856112 0.04596185 -0.05368615 -0.04230176 -0.0452512 0.064601555
0.11641334 -0.10433009 -0.023791235 0.052441347 -0.023895778 0.19924687 -0.105623454 0.010942359
0.008103347 0.062672645 0.09593689 -0.10151678 -0.061823122 -0.0925636 0.08172069 -0.004260945
0.13194637 0.1638461 -0.048119675 0.03531476 -0.11785807 0.11106592 -0.10337942 -0.10300713

critic.4.weight f4 [1, 64]
00000000: bf28 27be 7fba 263d 5026 173d 8233 bebd
00000010: 0dc6 d7bd 7863 05be 6cbd a43c db92 cb3d
00000020: a21b d13c 5735 39be 7578 ab3d 00c8 5a3d
00000030: c005 b3b9 c1e6 563d 622a b7bc d0f1 0fbc
00000040: 223b 60bc cf2c 5dbd c741 e3ba bbf6 983b
00000050: 5afa ce3b fc96 673b b580 30be c598 963c
00000060: 1d9c 283c 435a 94bd 6510 60bb 6889 efbd
00000070: a6af e8bb 0556 353c 814b b73c 876a ab3c
00000080: 7e4e 703d 29b3 d03d 4eee 8bbd 1626 b43b
00000090: 053f 1b3c 63f5 fdbd 11a9 55be a9e5 bc3d
000000a0: eb9d 40bd 02e0 843d 1467 b43d 7585 e53c
000000b0: 4e7b debb 38db 383e 689c c13c 7e6a 153d
000000c0: f091 97bd d07c 953c d1e2 10be 8b86 b03d
000000d0: 3083 8a3d f56c c0bd 2bd0 46bd 1cb7 11be
000000e0: fa0c f53b 2eaa a43d 2f0d 24be b3ab 9cbd
000000f0: 3e72 18bd adc0 a93d d74c adbd 85c3 e0bd
-0.16324137 0.0407052 0.036901772 -0.09287168 -0.10535822 -0.13026226 0.020109855 0.0994012
0.025525872 -0.18086754 0.08372585 0.05341339 -0.00034145825 0.052466158 -0.022359077 -0.00878568
-0.013685973 -0.05399781 -0.0017338329 0.0046680844 0.0063164653 0.0035337796 -0.17236598 0.018383393
0.010291127 -0.072437786 -0.003418946 -0.1169613 -0.007101017 0.011067872 0.02237487 0.02092482
0.058668606 0.10190422 -0.068325624 0.0054977043 0.009475474 -0.124003194 -0.20865275 0.09223492
-0.047025602 0.064880386 0.08808723 0.028017739 -0.0067896014 0.18052375 0.02363415 0.036478512
-0.07400882 0.018247992 -0.14149024 0.08619412 0.06763303 -0.09395782 -0.04853837 -0.14230007
0.0074783536 0.08040272 -0.16020654 -0.076499365 -0.037218325 0.08288703 -0.08461922 -0.109747924
