CybORG/CybORG/Models/meander_train/20000.pth (torch, 78565 bytes, 11 tensors)

actor.0.weight f4 [64, 62]
00000000: 8eff 2f3e f9bc 193d da82 27bd 6bfd 3cbe
00000010: b6bb 3abc 1cb2 3b3e 4f54 b23e 9e4f 153f
00000020: 8098 82bd 0cab 8d3e 13f8 863b 15a6 a73e
00000030: 17b0 15bd a9f4 4ebe cab7 29be 4c16 6bbe
00000040: ecae 193e 5d88 303e 7754 b0bd 78f3 0c3c
00000050: 1bb1 07bd c0c2 303d 861c d6bc 15d5 1a3e
00000060: 6c94 0fbc 8856 9bbd cf82 eb3d d04b 1bbe
00000070: 37c9 97be ec1a efbd 4c55 e3bd 48d6 de3d
00000080: 0dff 9ebd 2a82 84bd b9b6 b5bd 2553 6ebd
00000090: 40c1 3abe 9904 6d3a 4ecb 8c3e d8d3 2b3e
000000a0: e0d6 4a3d 1ff5 2cbd dbc0 11bd 22cd 01bd
000000b0: cb25 50be 900a fc3c 835e 543d 839b 123e
000000c0: cc7b 69be 2b8e 43be 56d4 2d3e 4ed4 853e
000000d0: 4ded 183e 2de1 ab3d 410e 1c3e 2c27 83bd
000000e0: 05e2 66bb 3356 74bd db34 53bd 9292 40bc
000000f0: 97ce b43d 20cb a93d 0b4e 693d fff3 103d
00000100: f9a5 c03d f043 50bd 7340 02bd 6075 003e
00000110: ac05 ca3d 3e67 b23e 164c b0bd d2b8 cf3d
00000120: 1e86 523e 0996 f23e e0ad 323e 18dc b33d
00000130: b374 c13d 7e09 83bc dff4 033e b901 103d
00000140: d565 f2bd c9fa a43d 85ac d23c f2be 3cbe
00000150: 23bb c23c c358 20bd 6b86 44bc a4d5 92bd
00000160: 120b 483d 7345 f4bd 4f9b 7abc e29f 8c3d
00000170: 11d3 4f3d 1148 a93d 6335 b1bd 6ce7 2dbe
00000180: b6de 813d 0d1a 983d 2bc8 88be c6e4 3bbe
00000190: f08d 443e 4547 4c3e 652c bc3c cde2 1dbd
000001a0: bd20 22be a434 5ebe 9335 e1bd 0e73 7fbd
000001b0: 0ed8 04bd e09a 293c f29b 90be bcf3 71bc
000001c0: 1e13 4abe 4a40 103d a5f8 533e 9067 91bd
000001d0: 1257 983c d573 4b3d 46ce 263d 3224 7c3d
000001e0: 5b28 853d 589b bc3c dfa6 29bd 41b6 a53d
000001f0: e2a4 e7bd 4a59 39bd cef3 7cbd 4f36 a43c
00000200: 8c23 cb3c 07c9 5ebe 5285 b8be 3680 fdbe
00000210: 5985 5dbd 35ba 9dbc f767 633e bbe2 2bbd
00000220: 1c6d 353d 8ad4 8a3d e233 713c 3154 1d3e
00000230: b572 c03d 3a35 213e 5cf0 f63d a88d 3b3c
00000240: deb7 27be e8f0 afbd d419 b13d 0f3c ff3d
00000250: 0a76 abbd 313b 6bbd 5f69 f3bd 3af1 4ebd
00000260: e7e0 bfbd d041 ab3d cf8c e03d 8d6c c0bd
00000270: 36c6 933e 0b69 583c b6f2 dbbc 4383 34bd
00000280: 68e9 2b3d 8414 43bd de5b 92be fefb 74be
00000290: 8315 5b3c b883 b53c 03f3 34be ca6a 4bbe
000002a0: 6ba2 513e f572 5c3d f9ef ad3d 1acb 1fbe
000002b0: 2c65 733e 8fc4 46bd 27db 0dbe 45ed ea3d
000002c0: f98a ee3c 8f0f 6abd 90b4 9d3d 8865 f7bc
000002d0: 48ae bc3c 8c5b 9a3d a092 483e 0d6a a93d
000002e0: 63c5 2e3e 169d 243e 342b cfbd 7a11 3cbe
000002f0: 976a 7dbb 00bd eebc b8f7 7a3e b33b 9b3e
00000300: 1bc8 273e 7cac d73e 66e4 d6bd a674 e9bd
00000310: bdc1 83be 2cd0 bbbe 85b6 08be 2d7f eabd
00000320: 5485 3b3c 0f74 edbd 060c 1ebe f8d6 00be
00000330: 2407 97bd 9b8e 933d af09 73bd 7e44 d83d
00000340: 051b 3c3d 7301 1c3c 6bd2 21bd cb52 fcbc
00000350: 8788 823c 2876 86bd 5e53 9dbd 5596 003e
00000360: 5b13 3f3c 327e 2abe efd2 303e de95 98bb
00000370: 8469 15bc 4a35 e53d cdad 8f3e 8dfd e03d
00000380: 1fb4 6ebe 2372 24be 486f 22bd 4fce bc37
00000390: 0158 23bc 1c1a 743e bfc8 01bd 8ccf 3a3d
000003a0: 5659 babd 695a 453e 17e2 22bd 9d7d fabd
000003b0: 7ab5 8c3d 3136 a83c a90d aebd f6f5 603d
000003c0: 167c e1bc ddbb a53d eeb4 6abd ceea 363d
000003d0: 2927 193e 2279 42bd a521 223e 1694 7ebd
000003e0: bc88 d7bb 9b0f b0bd b82f 1ebd 3224 89bc
000003f0: 4832 2a3e c403 dd3d 9145 4d3e 3711 983e
0.1718733 0.037533734 -0.040896274 -0.18456046 -0.011397293 0.18329662 0.34829947 0.5832461
-0.06376743 0.2766956 0.004118928 0.32743898 -0.036544885 -0.20210518 -0.16574016 -0.22957724
0.15008134 0.17239518 -0.086098604 0.008602969 -0.033127885 0.043154478 -0.026136648 0.15120347
-0.008763414 -0.07584864 0.11499559 -0.15165639 -0.29645702 -0.11675057 -0.111002535 0.10880715
-0.07763491 -0.06470139 -0.08872742 -0.05818476 -0.18237782 0.00090415176 0.2749886 0.1678003
0.049521327 -0.042225953 -0.035584312 -0.03168977 -0.20326917 0.030766755 0.051847946 0.14317136
-0.22801131 -0.19097202 0.16975531 0.26138538 0.14934273 0.08392558 0.15239812 -0.06403956
-0.0035229933 -0.05965252 -0.05156408 -0.011753695 0.088284664 0.08290696 0.056959193 0.035388943
0.09406657 -0.05084604 -0.031799745 0.12544775 0.09864363 0.34844393 -0.08608262 0.101426736
0.20558974 0.47380093 0.1744914 0.08782214 0.09446087 -0.015995737 0.1288638 0.035157893
-0.11835829 0.08055646 0.02571703 -0.18432215 0.023770874 -0.03914715 -0.011994938 -0.07169655
0.048838682 -0.11927309 -0.0152958175 0.06866433 0.050738398 0.08265699 -0.08652761 -0.16982812
0.06341307 0.07426844 -0.26715216 -0.18348989 0.1919477 0.19949062 0.022970388 -0.038546372
-0.15832801 -0.21699768 -0.109965466 -0.062365584 -0.03243261 0.0103518665 -0.28243977 -0.014767583
-0.19733855 0.03521756 0.20700319 -0.07099831 0.018596206 0.049671013 0.04072406 0.061557956
0.06501838 0.023023292 -0.041418906 0.08091403 -0.11310746 -0.04525117 -0.061755948 0.020045428
0.024797224 -0.21756373 -0.36039215 -0.4951188 -0.05408225 -0.01925383 0.22207628 -0.041964274
0.044293508 0.0677882 0.0147218425 0.15364148 0.09396879 0.1574296 0.12057564 0.011447348
-0.16378734 -0.08590871 0.086475044 0.12462627 -0.083721235 -0.057429496 -0.11885332 -0.05052302
-0.093690686 0.08362162 0.10964357 -0.093957044 0.2886216 0.013208638 -0.026849132 -0.044070493
0.04197064 -0.047626987 -0.28585714 -0.23924252 0.013371828 0.022157535 -0.17670827 -0.19864956
0.20472114 0.05382057 0.08493037 -0.15604821 0.23769063 -0.048527297 -0.13853131 0.11471037
0.029119002 -0.057143744 0.07700455 -0.030199781 0.023032323 0.075369924 0.19587183 0.08272181
0.17067485 0.16075549 -0.10115662 -0.18366042 -0.0038668269 -0.029142857 0.2450856 0.30318984
0.16384928 0.42123783 -0.10492782 -0.11399202 -0.25733748 -0.3668226 -0.13350876 -0.11450038
0.011445362 -0.11594402 -0.15434274 -0.12582004 -0.07374409 0.07204934 -0.059335407 0.10559939
0.045924205 0.00952183 -0.03950731 -0.030801198 0.015934242 -0.06565505 -0.07681917 0.12557347
0.01166233 -0.16649702 0.17267965 -0.0046565374 -0.009119395 0.11191805 0.28062287 0.10985861
-0.23310898 -0.16059165 -0.039656907 2.2507416e-05 -0.009969712 0.23838085 -0.031685587 0.04560809
-0.09099071 0.1927277 -0.039766397 -0.1223099 0.068705514 0.020533653 -0.08498699 0.054922067
-0.02752499 0.08092473 -0.057301454 0.04465752 0.14956345 -0.047478803 0.15833147 -0.062152945
-0.0065775793 -0.085967265 -0.038619727 -0.016740892 0.16620743 0.10791734 0.20046069 0.29700634

actor.0.bias f4 [64]
00000000: 1e1a 213c b766 e83d ae3e f83d 275c 0f3d
00000010: 2d0d 183b 4604 1cbd 95ae ef3d 86bb 5ebd
00000020: 4cff bb3d 50dd 103d 2ce0 de3d 4ffb afbd
00000030: e034 d93d 34ef f33d a3cd aebd 8b6f e83d
00000040: b7b5 9ebd cdec 06bd ea23 82bd ce4e cfbc
00000050: c184 8abd 9089 5bbd 9c44 693d 490c d4bd
00000060: ae5b 2d3d 5b71 f13d 3251 fc3d 9bfe 253e
00000070: 1583 0e3e a4d2 243d 3c43 37ba a9f1 0e3e
00000080: 0ac1 ce3d dc47 86bb 886f 1b3e b5c1 95bd
00000090: fe92 1e3e f8ae a33d 1f8b 803c 11d7 37be
000000a0: 7aca 4d3e 0ca0 3a3e 64e6 9e3d 6801 623d
000000b0: a4b9 de3d 6b5d 783e 0e17 61bd cbbb 043e
000000c0: d691 053e 68c0 4c3d 7bf7 993d 6771 21bd
000000d0: 93b3 29be 957d f93d 55e8 4e3e 1c05 0b3e
000000e0: a7f9 e23d dedb 923d 2415 aabd 81b5 913d
000000f0: 3385 aa3c 38ab 15bd 17c3 143d 747a 7e3c
0.009832887 0.11347716 0.1212133 0.034999993 0.0023201213 -0.038090013 0.11703221 -0.054378055
0.091795534 0.03536731 0.10882601 -0.08592855 0.10605788 0.11910859 -0.08535316 0.113494
-0.07749503 -0.032940675 -0.06354506 -0.025306132 -0.06763602 -0.053597987 0.056950197 -0.10353906
0.04232376 0.11789199 0.12320174 0.16210406 0.13917191 0.040239945 -0.00069909147 0.13959374
0.10095413 -0.004097922 0.15179265 -0.07312337 0.1548576 0.07992357 0.015691338 -0.17953135
0.2009677 0.18225116 0.07758787 0.055177122 0.10875252 0.24254386 -0.054953627 0.12962262
0.13043913 0.04998818 0.07517906 -0.03941479 -0.16572408 0.12182156 0.20205815 0.13576168
0.11082774 0.071708426 -0.083048135 0.07114697 0.020815467 -0.03654024 0.036318865 0.015532125

actor.2.weight f4 [64, 64]
00000000: f379 1abe 1f25 12be 7cbe 603d ceff e6bd
00000010: 64f3 513c 2574 c43d b543 03bd f204 03be
00000020: d71f 16be 8ad2 a23c 998b cebd abe8 65bd
00000030: ae44 bdbc 55bf 68bd 27c3 153d 6616 1fbd
00000040: c34c 94bd 6031 32bd 0e88 a03d f2a6 0dbe
00000050: 338d 403c 464d 90bc 237a bcbc 98af 51bd
00000060: 0136 dbbd d920 b0bc 3d79 9bbd 1a54 253d
00000070: 78b6 81bd b194 e63c 61fa 943d 8897 543d
00000080: 538a 0ebd df1a 653d 8044 f1bd bbdc 07be
00000090: 0389 cfbc fe2e 06be 893e 1bbe bcbe 763d
000000a0: 9741 e63d 4b6b 50bd fef3 99bc e84e 92bd
000000b0: d215 a4bb 887f e13c e8c5 3ebc dad6 bb3d
000000c0: 85f5 ccbd 6f5e 92bc e317 48bd bc81 b83d
000000d0: 8528 e23d 60a5 943c ea3d e43d 609f 6abd
000000e0: 00f3 78be 1cc2 cdbd 2eee 03bd 4df9 fdbd
000000f0: 81f5 263c 9fa4 54bd c813 b33c 3eed 15be
00000100: a3be 253c 5537 1cbd 7b58 b4bd 7256 ad3d
00000110: b084 34bd 6e38 5bbd 4cec d2bc 7de0 b4bd
00000120: a9d4 cc3d df33 ad3d 14f4 0e3d b86c 763d
00000130: c087 f7bd b3f4 83bd 0c8c e3bd 1563 15be
00000140: 2b5f 1cbe eafd de3d e859 853d 8584 273d
00000150: 2377 b6bd e9b2 6d3c aadc 34bd 928b 93bd
00000160: c27b a53d a3a7 883d 2cf7 a3bd 88cb 003e
00000170: 3b3a 88ba 20eb e03c c2b4 03be bac7 a43c
00000180: 4bb0 aabd 7481 01be a8d4 a2bd c0d6 19bd
00000190: 60de 6abd 4d0d f3bd 4ffd 933d 747e d13b
000001a0: 9e83 9ebd a1ab 32bb a5b8 863a bc7d ba3d
000001b0: b2da 59bd 4f2b 8fbb eec5 823c 2896 00be
000001c0: 2ae9 8dbd 3ca4 0e3d 56f1 b9bd 3056 f63b
000001d0: fa0d 333e 63c8 82bd ddc7 e2bd 8c64 ef3d
000001e0: dcf1 91bd 8b8e d43c f547 bc3b 850c 9dbb
000001f0: 2ffc 82bd ddb9 a5bd a189 983d fcae 98bd
00000200: 6bee 27bd 0d02 a53d bfae 34bd d855 843d
00000210: cae0 ea3d 3e84 6d3e 2693 013d 9c96 a63d
00000220: f245 3e3e 336b cbbc 35ef 093d 326c ea3d
00000230: 34d3 883d e1cd 523e ec72 b03d 089e ef3b
00000240: 609c a03d 00e1 a53d 7ab4 573e 047f 963d
00000250: f49c f0bc 261d 813d 8fb6 c63c 4d41 2c3e
00000260: 079b 7e3d d355 e8bd 1561 223e 799b 783d
00000270: 20cb 6f3e ebb5 e23b 35da 443e 5137 e43d
00000280: e6b1 acbc 10f4 693e 1698 4cbd 199d 093e
00000290: 62c6 15be 56cc fd3d 31d1 ae3d 71b2 f9bd
000002a0: fa55 0b3e 5294 003d e1b7 61bd db74 213e
000002b0: 9278 c0bd 258b b2bc 63ca 6b3d e518 7b3d
000002c0: 742b 333e d969 063e 1372 51bd 6f79 a4bc
000002d0: 8b42 953d bc32 6fbd a296 26be 9325 13be
000002e0: 5fbc 9abd 0890 e83d 0671 7b3e 09ce 7a3e
000002f0: 8871 da3c d4eb 1c3e 9b2d 9d3d e9f4 e7bd
00000300: e595 833d eca1 3b3d 297b 333d 0f73 113e
00000310: f341 c4bd 3f8e d8bc 7e7d ffbd c6a2 12bc
00000320: 258a 483d bcc4 913c 6232 29be e6ae bcbd
00000330: 9d99 8fbd 5473 433b 9512 47bd 2804 fbbd
00000340: 659f 89bd 2805 283d f42e 4f3d c7ab 103e
00000350: 5b09 503c a6e6 ec3c 1618 a5bd cbaf 90bc
00000360: 4638 863b 9a3d 9e3d 27c6 e13c c234 cfbd
00000370: 58c0 20be d22a 23be 20ba bfbd feca c2bc
00000380: f7cb d53d e5b7 59bd f35f 513c f104 063b
00000390: 04a0 21be 6d00 04be 7a0f 053d 9d4e 7e3d
000003a0: 460b a3bd 5084 d9bc 2cad 13be 5119 cabc
000003b0: ae29 373d b6a7 cf3b 65e7 6fbd 83ba be3c
000003c0: 9e7d 28bd 29ad 8c3d 640c c8bd 2026 d7bd
000003d0: a481 d5bd 5671 d3bd 77e2 d13d 248f d5bd
000003e0: ec21 08be 71c2 303c 4db2 dabd 434f 85bc
000003f0: 0b5c aebb e556 47bd de81 603d b0ac 8e3d
-0.15085582 -0.14271973 0.05486916 -0.112792596 0.0128143765 0.09592465 -0.032046992 -0.12794855
-0.14660583 0.019875783 -0.1008522 -0.056130093 -0.023104038 -0.056823093 0.036563065 -0.03883972
-0.07241204 -0.04350412 0.0783845 -0.13833216 0.0117524145 -0.017614972 -0.023007458 -0.05119285
-0.1070366 -0.021500038 -0.07591484 0.04036341 -0.06333631 0.028147073 0.072743185 0.051902324
-0.034799885 0.05593383 -0.117806435 -0.13267796 -0.025333887 -0.13103864 -0.15160574 0.060240492
0.11242979 -0.050883573 -0.018793102 -0.071439564 -0.005007484 0.027526632 -0.011643864 0.09171839
-0.10007767 -0.017867295 -0.048850905 0.0900912 0.11042885 0.018145263 0.11144622 -0.057280898
-0.24311447 -0.10046789 -0.032209568 -0.12401066 0.010190369 -0.051914807 0.021860018 -0.14641282
0.010116252 -0.038138706 -0.08805939 0.08463754 -0.044071853 -0.053520612 -0.02574744 -0.0883188
0.10001499 0.08457159 0.03490074 0.060162276 -0.12086439 -0.06443157 -0.11110696 -0.14588578
-0.15270679 0.10888274 0.06511289 0.040897865 -0.08909442 0.014507988 -0.044155754 -0.07204355
0.080802456 0.06672599 -0.08006129 0.12577641 -0.0010393331 0.027455866 -0.12861922 0.020114768
-0.083344065 -0.12647039 -0.07950717 -0.037558317 -0.05734098 -0.11867771 0.07226049 0.006393248
-0.07739948 -0.0027262943 0.0010278417 0.09106013 -0.05318708 -0.0043691765 0.01596352 -0.1255728
-0.06929238 0.034824595 -0.09079234 0.0075175986 0.174858 -0.06385877 -0.11073277 0.116891
-0.07126209 0.025946876 0.0057458826 -0.004792752 -0.063957565 -0.08092091 0.07448126 -0.074552506
-0.040998857 0.08057032 -0.044111963 0.06461686 0.11468656 0.23194978 0.031634472 0.08134195
0.1858137 -0.02483139 0.03367539 0.11446418 0.06680909 0.20586349 0.086156696 0.00731254
0.07842326 0.08099556 0.2106494 0.07348445 -0.029371716 0.06304388 0.024256973 0.16821785
0.062159564 -0.11344495 0.15857346 0.060695145 0.2341733 0.006918659 0.19223864 0.11143363
-0.021080922 0.22847009 -0.049949728 0.13438834 -0.14626458 0.123924896 0.08535994 -0.12192238
0.13607016 0.03139145 -0.055107 0.15767233 -0.09397997 -0.021794865 0.057566058 0.06130304
0.17497045 0.13126315 -0.05113418 -0.020077435 0.07288083 -0.058397993 -0.162684 -0.14369802
-0.0755546 0.11355597 0.24554834 0.24492659 0.026665464 0.15324336 0.07674714 -0.1132601
0.064250745 0.045808718 0.043818627 0.14204048 -0.09582891 -0.026435016 -0.124751076 -0.008949941
0.04895987 0.017794006 -0.16523126 -0.09213047 -0.07011721 0.002982338 -0.048601706 -0.12256652
-0.06719855 0.041020542 0.050581887 0.14128028 0.012697543 0.028918575 -0.08061235 -0.01766195
0.004096064 0.07726593 0.027560307 -0.10117485 -0.15698373 -0.15934303 -0.093616724 -0.023778435
0.10439294 -0.05315389 0.012779224 0.0020449723 -0.15783697 -0.12890787 0.032485463 0.06208669
-0.079611346 -0.02655235 -0.14421529 -0.024670275 0.044717483 0.0063371314 -0.058570284 0.023282295
-0.041135423 0.06868965 -0.09767988 -0.10505319 -0.104251176 -0.103243515 0.10248273 -0.104276925
-0.1329419 0.010788546 -0.106785394 -0.016273146 -0.005321031 -0.048666853 0.05481135 0.06966531

actor.2.bias f4 [64]
00000000: 9cc8 6bbd a0cf 9b3c 9603 943d cc71 23be
00000010: 9129 153e 94af 363e 3e37 62bd 46f3 8b3d
00000020: 9ff6 a2bd ac49 d43d 45b0 b6bd 3d07 da3d
00000030: 47ce 4fbd b1dd a5bd e633 bc3d 8060 7d3c
00000040: 9b21 cebb 0a4d de3d 44af 833d 8ad7 c13d
00000050: 2b0b 33bd d118 3a3d 7a0f 723d 81eb 0e3e
00000060: ba5f 313e 1033 9b3d 52f3 c73d 103f 94bd
00000070: d311 f9bd 9fbb 833d 99a0 273d b47f 8a3d
00000080: 0e52 71bd c563 a23c b346 f6bc 11b8 9b3d
00000090: 3def 293d 4823 2c3d 8867 f73d b922 813d
000000a0: c882 dd3d 1be3 1ebe 05f4 c23d 1528 51ba
000000b0: 3b96 4f3d 41ff 8d3c d2d7 d3bd 286c 913c
000000c0: 8a2c 0d3d 541c cc3d d1a1 d23d ecd2 95bc
000000d0: 8cd6 dabc dfaa d3bd a0a8 303d e64a c93d
000000e0: 6425 a13d c3a6 a93d 7fa7 023e 17f5 ca3d
000000f0: 803a 063d 1419 0b3e bf5c c43c 6a73 95bc
-0.057564363 0.019019902 0.072272465 -0.15961379 0.14566638 0.17840415 -0.055228464 0.0683351
-0.079571955 0.10365614 -0.089203395 0.10645912 -0.05073383 -0.08098925 0.09189586 0.015464902
-0.006290627 0.10854538 0.06429914 0.09464939 -0.043711822 0.045433823 0.05909679 0.13957025
0.17321673 0.07578099 0.097632065 -0.07238591 -0.12161603 0.0643227 0.040924642 0.06762639
-0.058916144 0.019822964 -0.030063009 0.07603467 0.04148792 0.042025834 0.12080294 0.06305451
0.1081596 -0.15516321 0.09519199 -0.000797869 0.05068038 0.017333629 -0.10343899 0.017751768
0.034466304 0.09966341 0.1028477 -0.018289052 -0.026713632 -0.103353254 0.043129563 0.09828739
0.0786846 0.082837604 0.12759207 0.099100284 0.032770634 0.13583785 0.023970006 -0.01824351

actor.4.weight f4 [36, 64]
00000000: 230a 1a3c 3604 fe3c b581 173e 82e9 94bd
00000010: fe4d 03be 6a3a efbe dc86 883e e0aa 7e3e
00000020: cc48 7fbd f19f da3d ec16 ccbd 2a5f 473e
00000030: 1e05 febd 5f78 a5bc a205 f53b fe65 bebb
00000040: 3f8a c23e 82b0 f2bd 5a21 223e 571b 823e
00000050: b591 263d ada3 6dbe 71da 15bd 6447 16bd
00000060: 11a3 86be c97b 04bd 62c4 023d 2019 b03d
00000070: 5501 e0bd 694e e7be d02e 993e 129c 4fbe
00000080: 24b8 39be c800 94bd fd56 803d 2874 243e
00000090: b3cb a2bd bd65 443e 40c1 373e 0594 c3be
000000a0: 181a bdbd 98eb 54bd 35be c3be f287 d5be
000000b0: 3269 cabd 36f3 903e e1ae 073d 206d 623e
000000c0: 8651 413d b27c 263e 68da aabe 384c 36be
000000d0: 0ebe a93d 6645 8abc 7aeb ad3e 43b6 913e
000000e0: 4b28 06bf 8440 e3bd 9996 8abe f384 acbe
000000f0: 6c89 f2be 4ce6 c73d 3f8c eb38 6406 80bd
00000100: 5b70 c3bd 0aaa d73d fa62 093e a9ed a93c
00000110: f725 4abb a39b 8dbe cd31 f43d 1c0c 203d
00000120: e9b0 fabc b220 3f3e 316c 193d 4da4 013e
00000130: 40c9 733e 07e6 cdbd 38c4 7c3e 4391 ae3c
00000140: 4372 9fbe 55a3 633e fc18 8fbe 15f1 43be
00000150: a02a da3d 9736 b33e 3c09 acbd 1ba3 87be
00000160: 82ff 8bbe a880 653d 36ba 4abc 2bc8 c33d
00000170: eafc 8f3e 14e8 4bbe f50b 86be fbfd 9dbe
00000180: ec89 d03d 74da c7bd fd24 123e 0425 a2be
00000190: d56b cd3e a5b6 223e 6ad2 6e3e 28b5 e9be
000001a0: 56b7 373e e40f 62bc 568b 2abe 2a64 01bf
000001b0: 3b05 df3d a13e 59bd e530 54bd 54e0 f13d
000001c0: 0b87 cabd b9f5 cc3d 7af7 143e 6eba c5be
000001d0: f1c5 d63d 50f5 0e3d 433d 2dbe da28 3ebe
000001e0: 152f 28be a0d0 1b3d 2a64 aabe ff01 873e
000001f0: db11 c3ba 0e86 a53d f592 a93d 14ab 82bc
00000200: 1f3a fd3d 9dc3 e03b cd99 473e 29f8 dbbd
00000210: 64cd c7be 0815 b2bb ad0d 553c 5bb0 66be
00000220: 1593 f33c e23c 38be 72b5 ce3c d552 2b3e
00000230: d710 8f3e 8930 c0bc e370 13be 9fe8 bebd
00000240: 7ed8 b2be d2a1 fc3d 087f a93c 33fa 183e
00000250: 8da5 cc3e 7d8b 0dbe 9beb 0d3e c04a bfbe
00000260: ad47 b0be 1dc3 003e 0a50 6e3d bfc1 9d3d
00000270: a2cd 933e 098a 83be 3671 033e c95d aabe
00000280: d6e7 ab3d 900d 2e3d 0220 073e 932e 903c
00000290: 3745 a3bc b9f5 40bd c1f3 e13d 2a44 70be
000002a0: f2e6 603e 79d1 1c3c 7ece 04bf 32e0 58be
000002b0: 73a3 92bd 8885 9b3c 87dc c43d 99cc c5bd
000002c0: 4124 bb3e cca6 843e b24a a6be efb5 753e
000002d0: c13d 453e 8fc0 77bd 3c63 d5be ccef 973e
000002e0: cb31 c7be 85aa c7bd ccf6 f8be b5c9 6fbe
000002f0: 58af 56be 603e 393e 7ca4 513c 8cf2 9ebd
00000300: e038 f53d f243 c03c ccd3 0dbe 3cbf fbbc
00000310: 7169 fdbc fe0a 5f3c 708c 383d f895 b5bb
00000320: 0009 e1bd 8883 e73d 14f6 443d 929e c13c
00000330: c763 973b d027 90bd 543a e1bd 4d60 993d
00000340: 1777 82be f225 1cbd 600c 8fbe a799 88bc
00000350: 0e84 8abd 20ce cbbd 11c3 6dbe c174 9a3b
00000360: 016c f1bd 66ed 20be 86bd 58bd 0d58 163d
00000370: fadc d63d fc1a 86bc 9ead ef3d fdf0 66be
00000380: 7d2d 983d 19b0 043e e5df 9abd fef6 84be
00000390: d98a 68be aab2 eebb cbb9 42bd 0e1b b7bd
000003a0: 67b1 78bc ad42 913d b288 6bbd fd2c 16be
000003b0: 471a 69bd e5c9 e13d 349b 9c3d 2a08 8ebe
000003c0: ac08 28be f6f5 903d a3c1 b6be ebf3 7cbe
000003d0: 55b1 183e 59eb 973d a450 6fbe 5c20 27bc
000003e0: 1373 0abd 9684 a8bd 476d a6bd 53f3 54be
000003f0: ee4a 9fbe c07b ec3d a64d c9bd d8ce fcbc
0.009401831 0.031007867 0.14795573 -0.072711006 -0.1282272 -0.46724254 0.2666539 0.24869871
-0.062325284 0.10675038 -0.099653095 0.19469896 -0.1240332 -0.020198999 0.007477478 -0.0058104983
0.37996098 -0.118500724 0.15833035 0.25411484 0.0406663 -0.23206969 -0.036585275 -0.036689177
-0.26296285 -0.032344613 0.031925566 0.08598542 -0.10937754 -0.4517701 0.29918528 -0.2027438
-0.1813665 -0.072267115 0.06266592 0.16059935 -0.07949009 0.19179435 0.17944813 -0.38198867
-0.092334926 -0.051982492 -0.38231054 -0.4170528 -0.09883346 0.28310555 0.033125762 0.2211194
0.047196887 0.16258505 -0.33369756 -0.17802513 0.08288203 -0.016878795 0.33968717 0.28459367
-0.5240523 -0.1109629 -0.27068022 -0.33695182 -0.4737047 0.097607225 0.00011231796 -0.06251219
-0.095429145 0.10530479 0.13416663 0.020743208 -0.0030845383 -0.27657804 0.11923561 0.03907405
-0.030601935 0.18664816 0.037456695 0.12660332 0.2380724 -0.1005364 0.24684227 0.0213095
-0.31141862 0.22230275 -0.2794875 -0.19134934 0.10652661 0.35002586 -0.08400199 -0.26491627
-0.27343374 0.0560309 -0.012373498 0.095596634 0.28122646 -0.1991275 -0.26180997 -0.30857834
0.101825565 -0.097584635 0.14271922 -0.31668866 0.40121332 0.15889986 0.23322454 -0.45646024
0.17941031 -0.013797734 -0.16654715 -0.50543463 0.108896695 -0.053038243 -0.051804442 0.11810365
-0.09889039 0.100078054 0.1454753 -0.38618797 0.10486973 0.034901917 -0.169179 -0.18570271
-0.1642421 0.038040757 -0.33279544 0.2636871 -0.0014882641 0.080822095 0.08279983 -0.015950717
0.12364601 0.0068592564 0.19492264 -0.10740692 -0.39023888 -0.005434636 0.013003749 -0.22528212
0.02973322 -0.17991975 0.025233004 0.16730817 0.27942535 -0.023460643 -0.14398532 -0.09321713
-0.34930795 0.12335552 0.020690456 0.14939193 0.39970055 -0.13822742 0.13859408 -0.37361717
-0.34429684 0.1257443 0.0581818 0.0770297 0.28867823 -0.2569125 0.12836155 -0.33274677
0.083938286 0.042493403 0.13195804 0.017600333 -0.019930465 -0.04710934 0.110328205 -0.23463503
0.21963099 0.009571427 -0.5187758 -0.21179274 -0.07160082 0.018984571 0.09612375 -0.096581645
0.36551097 0.25908506 -0.32478863 0.23995183 0.19261838 -0.060486373 -0.41677272 0.29675138
-0.38905177 -0.09749321 -0.4862579 -0.23416789 -0.20965326 0.180902 0.012795564 -0.07761106
0.11973739 0.023469899 -0.13850325 -0.030730836 -0.030934067 0.013613461 0.045055807 -0.0055415593
-0.10988045 0.113043845 0.04808624 0.023635183 0.0046200487 -0.07038844 -0.10997453 0.07489071
-0.25481483 -0.038122125 -0.2793913 -0.01667483 -0.06763469 -0.099514246 -0.23218943 0.004713625
-0.11788178 -0.1571556 -0.05291512 0.036705066 0.10491367 -0.016370289 0.11703037 -0.22552867
0.07430551 0.12957801 -0.07562236 -0.2596969 -0.22709216 -0.007284482 -0.047540467 -0.08940707
-0.015179015 0.070927955 -0.05750341 -0.14665599 -0.056909826 0.110248365 0.0764679 -0.27740604
-0.16409558 0.07078163 -0.35694608 -0.24702422 0.14911397 0.07417936 -0.23370606 -0.010200586
-0.03380115 -0.08228414 -0.08126312 -0.20795946 -0.31111854 0.11547041 -0.098292634 -0.03086035

actor.4.bias f4 [36]
00000000: 7725 9cbd 7cdf 873d 1474 ecbd 1cd4 04be
00000010: 84d5 b23d 2973 b2bd c225 1b3d 1596 053e
00000020: 1b0c debc 57e7 c5bd 619c debd 92dc 81bd
00000030: 100c a63d 26e7 bf3d 657b d43d 0473 b3bb
00000040: 58fa 16bd 6ddc 4ebd 5049 443c 0da2 943d
00000050: 90a1 80be fa25 2b3d 2cda 703d 185c 77bd
00000060: 9554 e33d b7e9 f63a 8204 283e 231f dfbd
00000070: 89a2 083d 1766 833d a27f 873d 7666 b7bd
00000080: f6c5 0fbd d947 153e 555c 873c e0ea 263e
-0.07624333 0.06634423 -0.11545578 -0.12971538 0.08732131 -0.08713371 0.037877806 0.13045533
-0.027105382 -0.09663265 -0.10869671 -0.063408986 0.081077695 0.0937026 0.10375098 -0.0054763574
-0.03685984 -0.050503183 0.01198037 0.07257471 -0.25123262 0.041784264 0.058801815 -0.06039056
0.11100117 0.0018837963 0.1640797 -0.10894611 0.03335813 0.064159565 0.06616141 -0.0895509
-0.0351009 0.14578189 0.01652352 0.16300535

critic.0.weight f4 [64, 62]
00000000: 7e9a 543d dcb4 5b3d 84f1 c0bd f52a debc
00000010: f56c 63bd a5a3 ddbc f5ec 06bc 7399 ac3b
00000020: 73bf 99bd 9415 a9bc 8335 98bd d1fd 06bd
00000030: cc7a a7bd 16de 87bd 5f47 e2bd f902 debd
00000040: fe10 09bc ab20 ddbd 13fe f7bd 636a 8a3d
00000050: 0c4a bbbd 7c17 b63d d610 103c b7b9 4bbd
00000060: 3c39 ac3d da1c e8bd c034 793d b84c 833d
00000070: 73ca a13d f7dd f2bd 77b8 29bc 9833 ddbc
00000080: f2fb c0bd 9aa3 b13d 5232 b7bc 881a 8a3d
00000090: 160d 8cbd 74b4 66bd 0f83 e23c ffa4 b5bb
000000a0: c410 953d 69e9 5d3d faba d03d d1b5 ddbd
000000b0: 3315 eb3c 612f c13d 7cd4 95bd 23f5 c9bd
000000c0: 73ed ff3d fed0 d9bd 58ab a2bd 5c12 dcbd
000000d0: bfb1 953c d956 383c fa99 04be 525c 543d
000000e0: f116 4b3c 07cb cc3c 93c0 11be 7c5e 09be
000000f0: bbae fabd 95a1 8fbd cd71 06be e88f 523d
00000100: 8c44 5dbc 201c 6abd da1c 523d 6774 3a3d
00000110: f72d 043e 0795 cabc 6982 e6bc 66b9 a0bd
00000120: d427 e6bd 4349 3c3e 633d d3bd 6ec9 003e
00000130: c149 f33d 808f 203e 3c5f 023e a7c0 183e
00000140: bf91 8b3d 8313 cebc b4ad 09bd 2da4 00be
00000150: e2da 883d 2fe6 a5bc f7e3 433c b09d 5c3b
00000160: 15fc a73d f9f0 8bbc 6b4a 183e ca91 0c3f
00000170: 9fe1 9e3e 11c9 043f 9324 313d 14c6 babd
00000180: b5e9 b63d 4c2a 9a3c 0796 e23d 6cc4 00bd
00000190: 9e7d 2a3e c48d 363e 5864 54bd d082 a6bd
000001a0: 2efe ed3c 76ea 243c 561f ddbc 9906 17be
000001b0: e730 a93d 373f bb3d 06ba 453e a0b4 8fbc
000001c0: d3b8 1b3d 23c4 bc3d 3ea8 1c3d 192a c0bd
000001d0: 55fc d2bd c9c3 46bc c24a 0d3e 0690 963d
000001e0: 7c1d 863d 3f8d ca3d 6e92 8eba 964b 893d
000001f0: ecd3 00bd 336c 113e efa8 74bc 6edb 233d
00000200: c7d4 d5bd 76ef a4bc 674a bd3c ace3 79bc
00000210: ccc5 c03b 2bf6 c2bb ee66 263e baa6 843d
00000220: 9902 f83d 723a 363e 21be 40bd 6362 34bd
00000230: 8078 dcbd cc93 e1bd de74 f23d 6848 11be
00000240: 9986 5f3d 9171 37bd ce58 bc3c fc6a ee3d
00000250: 03bc 57bd 7db3 b8bc c437 573d ee0a 11bd
00000260: a74f 2dbd b64a 283b 3d7e b5bd 3bee 3ebc
00000270: d375 bfbd eb42 3f3c fd69 493c 94d7 04be
00000280: 29e2 e9bd 6488 66bd 16f7 1fbe 89b8 3b3e
00000290: ffe8 7cbe 0210 3cbd 919d cc3d f012 47bd
000002a0: 9e2a b6bc 0719 11be 15df 3fbd 51dd 6cbd
000002b0: 8987 46be 0d1f 2b3c 4331 d8bd 9962 173e
000002c0: a115 8c3d b53d 923c cf0c ef3a c9e1 5e3d
000002d0: 589b 77be cf67 8cbd 53e4 e7bd cd44 743c
000002e0: 7b94 75bc 86fc 80bd 8154 08be f9ef 19be
000002f0: c5f6 06bd d974 cf3d a165 3f3b 3374 52bd
00000300: 31dd 7bbd 95ef 4a3d 9cf3 5b3d 50ae ebbd
00000310: 9418 dbbd 2e07 16bd b8f3 ebbc 3517 98bd
00000320: 268d e0bc 1822 f2bd e094 a3bd e3e2 fabd
00000330: 82c9 abbd c14a 8b3c c710 bcbc da1f 3a3d
00000340: d503 bdbd cb01 ac3c c4d1 b13d 3222 ac3d
00000350: 4c09 b6bb 398f e3bd 6ab9 433c dd6d 25be
00000360: 63f8 abbd ccd1 e8bd 8c34 b3bd 273f c5bc
00000370: 5bdd f4bc 6e85 02be 6510 16bb c985 483d
00000380: 25d2 27be 6091 09bd 01b4 0c3d 9df6 89bd
00000390: 9712 003e 8f08 153e 1017 093d bddb 0dbd
000003a0: 6a6b b83c 0a3a 973d bdbe 91bd e169 b1bd
000003b0: 7362 0ebe e28a 44be 77ca 823d a321 34bd
000003c0: 15fd 89bd ffe4 f4bc 26c0 0ebe 64cc afbd
000003d0: 6d69 0dbe 54a4 3cbd 19a9 edbc f078 d3bd
000003e0: c5d4 4c3d f362 eb3c e1a5 23be c864 49be
000003f0: cb49 e13c 3851 3dbe 6574 59bd f361 47bd
0.051905148 0.053639278 -0.094210654 -0.027120093 -0.05552383 -0.02705557 -0.008235206 0.005267316
-0.07507219 -0.020640172 -0.074320816 -0.032956902 -0.081777185 -0.066341564 -0.11048769 -0.10840411
-0.008365868 -0.107972465 -0.12109008 0.06758573 -0.09144983 0.08891198 0.0087930765 -0.04973766
0.08409354 -0.11333628 0.060841322 0.06411117 0.07899942 -0.11858743 -0.010358921 -0.02700214
-0.09423055 0.08673783 -0.022362862 0.06743342 -0.068384334 -0.056324437 0.027650384 -0.0055433507
0.072785884 0.054177675 0.10191913 -0.10825694 0.028696632 0.09432865 -0.07315919 -0.09861209
0.12496462 -0.10635565 -0.079428375 -0.10745689 0.018273233 0.011251175 -0.12949362 0.051845856
0.012395606 0.024999155 -0.14233617 -0.13414949 -0.122403584 -0.07013241 -0.13129349 0.05140677
-0.013505112 -0.05715573 0.051297046 0.045521166 0.12908159 -0.024729265 -0.028138356 -0.07847862
-0.11238065 0.18387322 -0.10314443 0.1257684 0.11879302 0.15679741 0.12731642 0.14917241
0.06814908 -0.025155788 -0.03361292 -0.12562628 0.066823736 -0.020251362 0.0119562065 0.0033663325
0.08202378 -0.017082678 0.14872138 0.54909956 0.3103151 0.51869303 0.04324777 -0.09119812
0.08931295 0.018818997 0.11063772 -0.031437322 0.16649482 0.17827517 -0.051853508 -0.08130419
0.029051866 0.0100656655 -0.026992481 -0.1474861 0.082612805 0.09142917 0.19309244 -0.017542183
0.03801806 0.092170976 0.038246386 -0.093830295 -0.10302035 -0.01213164 0.13798049 0.07351689
0.065485924 0.09890222 -0.001087738 0.0670387 -0.031452104 0.14201431 -0.014932855 0.040004186
-0.10440975 -0.020133715 0.023106767 -0.015252035 0.005882954 -0.0059497557 0.16250202 0.06477113
0.121098705 0.17795733 -0.04705632 -0.04403914 -0.10765171 -0.11014518 0.11838697 -0.14187777
0.05457172 -0.04478604 0.022991564 0.116414994 -0.052669536 -0.022546524 0.052543417 -0.035410814
-0.04231229 0.0025679297 -0.08861969 -0.011653478 -0.09348645 0.011673669 0.012293336 -0.12972862
-0.1142009 -0.056282416 -0.156216 0.18332113 -0.24698256 -0.045913704 0.09990991 -0.048602045
-0.022237118 -0.14169703 -0.046843607 -0.05782825 -0.1938764 0.010444415 -0.10556271 0.14783706
0.06840063 0.01785169 0.001823807 0.054414544 -0.24180353 -0.068557374 -0.11322846 0.0149089815
-0.014989014 -0.06298165 -0.13313486 -0.15032949 -0.03295018 0.10129709 0.0029204863 -0.051380347
-0.06149024 0.04954489 0.05369912 -0.11507857 -0.10698047 -0.03662794 -0.028802738 -0.074263014
-0.027411055 -0.11822909 -0.0798738 -0.122503065 -0.08388044 0.017003419 -0.022957219 0.045440532
-0.092292465 0.020996949 0.08682588 0.0840496 -0.0055553075 -0.11111302 0.011946062 -0.16155191
-0.083969854 -0.113681406 -0.08750257 -0.024077965 -0.029890707 -0.12746212 -0.0022897955 0.048955712
-0.16388758 -0.033585906 0.034351353 -0.06736491 0.12507091 0.14554046 0.03346926 -0.034633387
0.022512157 0.07384117 -0.071164586 -0.08662773 -0.13904743 -0.19193605 0.06386273 -0.04397739
-0.06737725 -0.02989435 -0.13940486 -0.08583906 -0.13809748 -0.046055153 -0.029011296 -0.10325801
0.0500076 0.028733706 -0.15981247 -0.19667351 0.027501008 -0.18488014 -0.053089518 -0.048677396

critic.0.bias f4 [64]
00000000: 0e87 10be 2dbb b73d 52ed c0bd 01aa b1bb
00000010: 0474 ecbc c806 ec3d 31fb 153d 278a e0bd
00000020: 012a 20be 2ec3 2fbd 4b33 71bd 995c b239
00000030: 3513 75bd 8a74 96bd 29e6 d6ba d7e1 1fbd
00000040: 6887 a0bd c0f5 06bd 0de3 9bbd bc75 9e3d
00000050: 0285 b0bc d154 05bd cb72 b7bc 1dde eb3c
00000060: 850b cdbc 2a87 8fbd 6351 dcbd b5a6 67ba
00000070: f647 063b 6729 553d ccbd 603e 1045 923d
00000080: 6b87 0dbe c833 523c fdcc 9abc 7eec e03c
00000090: f70b 293d d88e 1b3e f849 5cbd 81c9 a03d
000000a0: b7e8 03be e043 16bd 3ad7 99bd 12db 5bbb
000000b0: d596 04be d839 a2bd 3420 81bc e0d9 8d3d
000000c0: f116 413e 7b39 5db9 4cf2 8f3d b11f ffbd
000000d0: 839f 063e f2ae bbbd 2dff 9cbd 3fdb 2cbe
000000e0: 3abd 91bc 14e1 013d feda 1bbe 26c3 603d
000000f0: defb 4b3e 3072 85bd da1e cabd a2aa 6abd
-0.1411402 0.08971248 -0.09420265 -0.0054218774 -0.028863914 0.11524731 0.036616508 -0.109638505
-0.15641023 -0.042910747 -0.058886807 0.00034019796 -0.05983277 -0.07346447 -0.0016395497 -0.039033737
-0.07838327 -0.03294921 -0.07611666 0.077373 -0.021547798 -0.03255159 -0.022393605 0.028792435
-0.025029907 -0.070082024 -0.10757711 -0.0008836792 0.002048967 0.052041437 0.21947402 0.07142079
-0.13821189 0.012829728 -0.018896574 0.027456518 0.041271176 0.1519121 -0.05378148 0.07850934
-0.12881742 -0.036685824 -0.07511754 -0.0033547324 -0.12948163 -0.07921189 -0.015762426 0.06926322
0.18856408 -0.00021097616 0.07028636 -0.124572165 0.13146786 -0.091642275 -0.076658584 -0.16880511
-0.017790426 0.03170879 -0.15220258 0.054873608 0.19920298 -0.0651592 -0.09869166 -0.057291634

critic.2.weight f4 [64, 64]
00000000: 0b03 b7bc fd38 533e 64cd f63c 786c 6a3c
00000010: 0f41 22be 53c0 363d 4e91 333d 6749 513e
00000020: 699c a13c 94b3 a0bd 3796 fe3d 8fd3 843e
00000030: d029 86bd 9994 bc3e 874c 72bb 351d 243e
00000040: d65d 9e3d 6777 993d 1595 3cbd 011f fb3d
00000050: 041b 4f3c bb4f 44bd c3b5 8d3d 2ba9 b23d
00000060: d2b2 f5bd 15e4 803d f3ff b0bd 77be 383e
00000070: 414c 673c 0e9a 573e c84f 173e 3d6d c9bd
00000080: 0b16 e53c 306a 47bd 1aa4 1a3d 8aea d9bb
00000090: efbb a5bd 6f0a 063e ed6d 903d f954 aabd
000000a0: 27c8 8bbd 7289 203e 2515 3e3e 7bf6 6ebd
000000b0: 5ccc 1abd 123c afbd 5379 873d 4bc9 96bd
000000c0: 1e05 663e c173 c53d 57ab 90bd 7198 bb3d
000000d0: 49e8 d4bc c9ed 1cbd 0b8e 873d ae82 8f3e
000000e0: 61da 6e3c 22fa e73c 1ade 2cbd 7c2b 013d
000000f0: c763 6b3c 6013 4f3e 2484 c93e f0f9 3abd
00000100: a5a6 11bd 20d8 c73b 9d67 1abc 4929 bebc
00000110: 72db eebd 145b 84bd 5597 b4bd a410 f03d
00000120: 3d6e 56bd 7d43 d2bd 7f85 c4bd 14f4 efbd
00000130: 9587 0cbd ebbd 5dbd 5f7a e3bd ed3a 52bd
00000140: 154f a13d a4d6 e1bd a512 55bc 6d5a e33d
00000150: 4d22 823d 8168 d4bc 0d15 5c3d 2e2b 6ebd
00000160: c9a3 b3bd 08df bbbd 0fad adbd d736 9f3d
00000170: 2aa2 ddbb 9ba7 e8bd 1f52 90bd 099e f9bc
00000180: 8483 663d 89ed ec3c 8c5c 963c 0528 31bd
00000190: 7290 5fbc 9fc0 8f3d b130 223d e7cc 33bd
000001a0: fe86 0b3e 8621 9e3d 9980 043d 22fb 3f3d
000001b0: c67e 923d 05c5 08bd 0ddf a83c c774 50bd
000001c0: 27a8 3bbd e233 a6bb 10ea efbd 631c cf3d
000001d0: c6d7 d3bd 6110 cebd 98c9 cfbc 7ee2 873d
000001e0: b5ce a0bd 0123 62bc 8922 7c3d 99b4 ecbd
000001f0: 211a c23d 6a03 4f3d d6a8 e03c 425a 02bc
00000200: 44d4 6a3d 7b95 a3bd 1808 8dbc 125c c43d
00000210: ed87 30bd c39c c6ba 9420 573d 5936 e4bc
00000220: ea18 d0bd 8043 cbbc cd54 72bd c5df 38be
00000230: 66e4 8dbc 0181 4dbd 6381 523d ada5 23bd
00000240: ba0e d0bd 89b9 3c3e 8684 a4bb a7fb 75bd
00000250: 8545 863c 4dbe 9c3d 6978 a83d 3d4f ac3d
00000260: 49dd 72bd 9d37 1f3d 52ce 473d 5855 e4bd
00000270: 685e 3b3d 502d e8bd 6c1a 013e 7c01 e0bd
00000280: ca4a 243d 28bb 46bd abf6 963c ba3a 07bd
00000290: 2e9f 4e3c 34fe 68bd 6394 883b ff27 8abd
000002a0: 641e 703d cb4e 7d3c cc57 c7bc 1abd 69bd
000002b0: c87d a03a fbc9 04be 81ee 4e3b 7094 b73d
000002c0: ead0 133d 03b5 45bd 8fef b93c b486 813d
000002d0: 73b4 503d 3d50 9abc 9524 093d 7b08 cdbc
000002e0: 01bc 52bb 7d18 47bd 0a5e e2bd 0160 cdbd
000002f0: abb7 7b3c 8020 b9bd aa3d b13d 00a7 48be
00000300: 90a9 8cbb 9053 d53d e8b7 b53c 2989 acbd
00000310: c4e3 08bc dcdc f6bd bfbf 183e 9212 873d
00000320: a08e 3c3d c91f f0bd 1b9e 503e 6e86 ef3d
00000330: 0158 d53d fe06 293e d94d 0d3e fd76 a53e
00000340: c785 903d 81ea 65bd 40bc d9bd 85b4 0b3e
00000350: 5c62 eb3d 506e d13d 6309 a5bd 5c3c 613d
00000360: 058a 92bd f509 a9bc 48a7 6f3d 3729 4e3e
00000370: e175 113e 70e2 103e a96d ab3e 197d a9bd
00000380: 785e 783d d21a 193e 12b2 473c 8e07 aebd
00000390: 4f78 9a3d a86f 17bd bb88 8fbd fc5c 5d3d
000003a0: 3ce2 86bd 9b68 163e 003b 0f3e 3076 e33d
000003b0: 1492 51bd cc16 033e 74f2 89bd fc5e 01be
000003c0: 7e7e e43d 2c06 e93d b334 19bc b729 b0bd
000003d0: 9432 9f3d 591a ef3d 8b90 993d 886a f33e
000003e0: 7a33 07bd e13f f73d f2c9 91bd ddcf 44bd
000003f0: 8b4e 29bd c506 853e 8c15 dd3e fa71 0d3e
-0.022340318 0.20627208 0.030127235 0.0143080875 -0.1584513 0.04461701 0.043839745 0.20438157
0.019727902 -0.07846752 0.12430995 0.25942656 -0.06550944 0.3683212 -0.0036971883 0.16026767
0.077327415 0.07493477 -0.046040613 0.12261773 0.012640718 -0.0479276 0.06919434 0.087236725
-0.11996998 0.06293503 -0.086425684 0.18041407 0.014117301 0.21054861 0.14776528 -0.09835289
0.027964612 -0.048685253 0.037754156 -0.0066502737 -0.08092486 0.13089918 0.07052217 -0.083169885
-0.068252854 0.15677431 0.18562753 -0.05834053 -0.03779255 -0.085563794 0.06614938 -0.07362612
0.2246289 0.09641219 -0.070639305 0.09159935 -0.025989668 -0.038312707 0.066188894 0.28029388
0.014578433 0.028317515 -0.042204 0.03153561 0.0143670505 0.20222235 0.39358628 -0.045648515
-0.035559315 0.006098762 -0.009424117 -0.023213046 -0.116629496 -0.06462684 -0.08817927 0.11721924
-0.052351225 -0.102667786 -0.09595775 -0.11716476 -0.03430899 -0.054136198 -0.11107325 -0.051325727
0.07876412 -0.110272676 -0.0130049335 0.11101232 0.063541986 -0.025928738 0.053731013 -0.058146648
-0.08771474 -0.09173399 -0.08480274 0.07774132 -0.006763716 -0.11360093 -0.07046913 -0.030470865
0.056277767 0.02892186 0.018354677 -0.043251056 -0.013645278 0.070191614 0.039597217 -0.043896582
0.13625714 0.07721238 0.032349203 0.04687036 0.07153086 -0.033391017 0.020614171 -0.050892618
-0.04581466 -0.005072103 -0.11714566 0.10112836 -0.1034389 -0.10061718 -0.025364682 0.06634997
-0.07851926 -0.013802291 0.061556373 -0.11557884 0.0947764 0.050540365 0.027424257 -0.007956089
0.05733134 -0.079874955 -0.017215773 0.095878735 -0.04309838 -0.001515292 0.052521303 -0.027857946
-0.10161002 -0.02481246 -0.059162904 -0.18054111 -0.017320823 -0.050171856 0.051392924 -0.039952923
-0.10159059 0.18430151 -0.005020681 -0.060054448 0.016390571 0.076534845 0.082260914 0.08413551
-0.059293065 0.038871396 0.048780747 -0.111490905 0.04574433 -0.11336768 0.12607735 -0.10937783
0.040110387 -0.04851833 0.018428167 -0.03301499 0.012611194 -0.056883052 0.0041680797 -0.0674591
0.058622733 0.01546068 -0.024333857 -0.057065107 0.0012244517 -0.12967674 0.0031575265 0.08963859
0.036087908 -0.04826833 0.022697238 0.06324521 0.05095334 -0.018837089 0.033482153 -0.025028458
-0.0032155516 -0.04860734 -0.11053093 -0.10028077 0.015363614 -0.09039402 0.086543396 -0.19594955
-0.0042926744 0.10416329 0.02218242 -0.08424599 -0.008355085 -0.12053844 0.14916895 0.06595339
0.046034455 -0.117248125 0.20372812 0.11695562 0.10417176 0.16506574 0.13799228 0.32317343
0.07056766 -0.056131843 -0.10631609 0.13643081 0.1149337 0.102261186 -0.08058431 0.054989204
-0.071552314 -0.02063463 0.05850914 0.2013291 0.14205123 0.14148879 0.33482102 -0.082758136
0.060636967 0.14951637 0.012188451 -0.08497535 0.07542478 -0.036971718 -0.07008501 0.054043755
-0.065861195 0.14688341 0.1398735 0.11106527 -0.0511647 0.12801665 -0.067356974 -0.1263389
0.11156939 0.1137813 -0.009350943 -0.086017065 0.07773319 0.11674947 0.074982725 0.47542214
-0.033008076 0.12072731 -0.07118596 -0.048049796 -0.04133467 0.25981727 0.431805 0.1381301

critic.2.bias f4 [64]
00000000: 4a61 063e fdc9 79bd e028 59bc 9e84 3e3d
00000010: 91a6 9ebd 974f ddbd 6753 5cbd 1057 f9bd
00000020: 9bb5 84bd a931 82bd a111 cb3d 36af 953d
00000030: 8ce2 273d 97f6 3a3d 3811 ebbc 3ab2 cbbb
00000040: 8674 7fbd b7ba 1ebe 1f10 e93d cb9a 4a3d
00000050: 6da5 f73d aaec aa3d 7ffc efbb 0eb5 16be
00000060: e8b7 9e3d f713 e0bd 4f89 87bd f637 f4bd
00000070: 8cf3 de3d f25c af3d d17b fcbc afbb 33bc
00000080: 4dd1 13bd da13 76bd 08dc f03d 3dc7 50bc
00000090: 3fd2 75bd 94d8 d6bd 3468 dcbc df73 8e3d
000000a0: 6b60 f63d 7750 e4bd 65ab 4abd f38c b23c
000000b0: f085 c9bc a301 513e 1c51 d8bd e8a8 fabb
000000c0: 52f7 123d d6f0 f73c 76a4 b13d 08e8 cfbd
000000d0: 3e3a 7dbd 3544 06be e726 d13d 31ba cebb
000000e0: 7957 9d3d 481d 283e 8fff 21bd 986a 4ebd
000000f0: 925f f1bd 73fa ee3d ce1a f7bd 67f5 d2bd
0.1312305 -0.060983647 -0.013254374 0.046513192 -0.07746614 -0.10806196 -0.053790476 -0.12174809
-0.06479951 -0.06357128 0.09915472 0.073088095 0.040987536 0.045645323 -0.028694734 -0.0062163146
-0.062366985 -0.15500914 0.11380028 0.04946403 0.12092099 0.08345921 -0.007323801 -0.14717504
0.07749921 -0.10941308 -0.066179864 -0.11924736 0.10886297 0.0856265 -0.030820759 -0.01097004
-0.036088277 -0.060077526 0.11760718 -0.012742815 -0.06001496 -0.10490528 -0.026905157 0.069556944
0.12030109 -0.1114816 -0.04947986 0.021795725 -0.0246 0.2041078 -0.105623454 -0.0076495297
0.035880394 0.030266207 0.086739466 -0.10151678 -0.061823122 -0.13111956 0.10212498 -0.006308817
0.076827 0.1641742 -0.03955036 -0.050394624 -0.11785807 0.11668863 -0.120656595 -0.10300713

critic.4.weight f4 [1, 64]
00000000: 8c5d 5bbe 6ce6 253d 016b 0a3d e601 23be
00000010: 02ac d5bd 4655 82be 6cbd a43c aba0 bc3d
00000020: 277a a93a e7ef b4be 32ea a63d b17d 2e3b
00000030: e7d9 28ba 73c1 f73c d2e1 a9bc b036 dd3c
00000040: 5017 57bc ff48 56be 46a8 6cbc 131f b1bc
00000050: 552e 37bd 5e26 2e3d f224 53be c6c6 8b3c
00000060: 13f4 73bc 8518 8ebd 2a11 60bb 9bb7 71be
00000070: 336d 063d eb82 9d3c 6f40 273c 46fa a23c
00000080: 6a4f 763d 1f83 873d bc13 35bc 1f48 6d39
00000090: a1d5 963b ce03 57be 3afc 7ebe 665e aa3d
000000a0: ee0e 81bd 52e2 783d 6ad5 7f3d 1f47 ab3c
000000b0: 9234 d0bb f47e 353e 689c c13c 9931 083d
000000c0: 9d0d fcbd 2d5e 993b a61c 25be 8b86 b03d
000000d0: 3083 8a3d 819f 81be 9de4 85bd a3eb a0be
000000e0: 0feb 40bc 37b8 8b3d 8cd9 40be db40 4ebe
000000f0: 3e72 18bd 5b88 953d c463 a1bd 85c3 e0bd
-0.21422404 0.04050295 0.033793453 -0.15918693 -0.104331985 -0.25455683 0.020109855 0.092103325
0.0012930081 -0.3533928 0.08150138 0.002662521 -0.00064411614 0.030243611 -0.020737562 0.027003616
-0.013128117 -0.20926283 -0.014444416 -0.021621263 -0.04472192 0.04251706 -0.20619562 0.017062556
-0.014889735 -0.069382705 -0.0034189918 -0.23605196 0.032818984 0.019227466 0.010208233 0.01989473
0.06013433 0.06616806 -0.011052068 0.00022628948 0.0046031033 -0.20997545 -0.24900904 0.08318786
-0.06301676 0.06076271 0.062459387 0.020907937 -0.006353923 0.1772421 0.02363415 0.033250425
-0.12307284 0.004680416 -0.1612421 0.08619412 0.06763303 -0.25317004 -0.06537745 -0.31429777
-0.011774792 0.068222456 -0.18832988 -0.20141928 -0.037218325 0.07301398 -0.07880357 -0.109747924
