CybORG/CybORG/Models/meander_train/30000.pth (torch, 78565 bytes, 11 tensors)

actor.0.weight f4 [64, 62]
000000 63 1e e0 3d cd 9e da bd bd 39 ba bd 32 e5 74 be
       0.10943296 -0.1067482 -0.09093044 -0.23915556
000010 2d 3c 8a bb 4d 7e 2a 3e 30 38 ad 3e 0a ca 1e 3f
       -0.0042185993 0.16649742 0.3383193 0.6202704
000020 b6 00 aa bd 8f bf 7e 3e 4d 15 47 3d 84 a3 c7 3e
       -0.08300917 0.24877761 0.0486043 0.3899194
000030 2e c2 82 3b e4 54 3a be 01 d3 54 be 91 68 8f be
       0.003990433 -0.18196446 -0.20783617 -0.28009465
000040 ec ae 19 3e 5d 88 30 3e 77 54 b0 bd 78 f3 0c 3c
       0.15008134 0.17239518 -0.086098604 0.008602969
000050 1b b1 07 bd c0 c2 30 3d 86 1c d6 bc 15 d5 1a 3e
       -0.033127885 0.043154478 -0.026136648 0.15120347
000060 6c 94 0f bc 88 56 9b bd cf 82 eb 3d d0 4b 1b be
       -0.008763414 -0.07584864 0.11499559 -0.15165639
000070 71 a5 a7 be 6e f6 05 be 40 4c 2f be 24 bd 3a 3d
       -0.3274341 -0.13082287 -0.17118931 0.045590535
000080 fc e6 46 bc 11 7f 04 bd b9 b6 b5 bd d5 31 56 bd
       -0.012140032 -0.032347742 -0.08872742 -0.052293617
000090 8b 3d 73 be 16 37 6f bd a7 f0 c8 3e f2 c3 87 3e
       -0.23753946 -0.058402143 0.39246103 0.26516682
0000a0 d8 d8 95 3d 9c 88 ca bd a3 64 5e 3c 3e 84 70 bd
       0.0731675 -0.098893374 0.013573798 -0.058719866
0000b0 ff 14 94 be fe 45 86 bd 05 7f 2f 3d 1c c6 2d 3e
       -0.2892227 -0.06556319 0.042845745 0.16970104
0000c0 b4 e2 6e be 28 f5 4e be fa 14 6a 3e c8 ec be 3e
       -0.23328668 -0.20210707 0.22859564 0.37290025
0000d0 e4 52 3c 3e d8 36 bf 3d fe 8f 21 3e bd 38 5f bd
       0.18390995 0.093366325 0.15777585 -0.05449747
0000e0 23 97 2d 3d b7 05 55 bd a8 c6 28 bd df a2 b6 3b
       0.042380463 -0.052007403 -0.04120508 0.005573615
0000f0 84 57 be 3d c5 eb b5 3d 62 06 f8 3b aa 18 95 bd
       0.09294036 0.0888286 0.0075691203 -0.07280095
000100 a4 a4 b4 3c 86 85 f2 bd 7f 3b 1b 3d 32 5d a6 3d
       0.022051163 -0.11841874 0.037898537 0.08123244
000110 f0 5c aa 3d 0d 2f b7 3e dc 11 9a bd f1 7a da 3d
       0.08318508 0.35778084 -0.07522938 0.106679805
000120 ee f3 4e 3e ca 41 0e 3f e6 2d 37 3e f0 a7 a9 3d
       0.2021024 0.55569136 0.17888603 0.08283985
000130 a8 5d f2 3d 9a c9 bc bd df f4 03 3e b9 01 10 3d
       0.1183427 -0.0921814 0.1288638 0.035157893
000140 d5 65 f2 bd c9 fa a4 3d 85 ac d2 3c f2 be 3c be
       -0.11835829 0.08055646 0.02571703 -0.18432215
000150 23 bb c2 3c c3 58 20 bd 6b 86 44 bc a4 d5 92 bd
       0.023770874 -0.03914715 -0.011994938 -0.07169655
000160 12 0b 48 3d 73 45 f4 bd 13 75 93 bd d8 fc 76 3d
       0.048838682 -0.11927309 -0.072000645 0.060299724
000170 59 a1 ec bb 6b e0 5a bd ec a7 0a be 5c 63 90 be
       -0.0072213826 -0.053436678 -0.1354062 -0.28200805
000180 b6 de 81 3d 33 71 a9 3d 70 27 ad be 4c 12 90 be
       0.06341307 0.08273544 -0.3381915 -0.2813896
000190 1d b1 8c 3e ec ef 98 3e c1 62 22 bd 58 fc 7b bc
       0.27478877 0.29870546 -0.03964496 -0.015379988
0001a0 a0 04 54 be 5e a9 c3 be 57 2f 7b be 5f 7d 42 be
       -0.2070489 -0.38215154 -0.24529777 -0.18993138
0001b0 57 c0 28 3b 6a 36 ff bc 3a 53 8c be 23 df 88 3d
       0.002574941 -0.031153876 -0.27407247 0.06683185
0001c0 ba 38 51 be e3 ee 0c 3b 6a be 4d 3e 8e 70 74 bd
       -0.20431796 0.0021504692 0.20092168 -0.059677653
0001d0 a7 20 2c 3d 05 6e db 3c 73 65 a3 3d eb 6b 85 3d
       0.042023327 0.02678586 0.07978334 0.06514724
0001e0 0d cc 92 3d 09 ec 59 3c 7f 23 2b bd 41 1a 9b 3d
       0.07167826 0.013300904 -0.0417819 0.07573367
0001f0 70 f6 81 bc 26 96 48 3d a4 b4 56 bd 97 ed af bb
       -0.01586458 0.048971318 -0.052418366 -0.005368899
000200 c6 fa cf ba 42 22 82 be 20 76 ba be a5 fa 12 bf
       -0.0015867583 -0.25416762 -0.36418247 -0.57413703
000210 76 f1 ed 3c 2f ba 3e 3d 6b 55 0f 3e c4 11 db bd
       0.029045802 0.046564277 0.13997428 -0.10696748
000220 32 bf 92 3d 83 50 89 bc a9 ab d5 ba 6e de 14 3c
       0.07165374 -0.016762024 -0.0016301769 0.0090862345
000230 b5 72 c0 3d 3a 35 21 3e 5c f0 f6 3d a8 8d 3b 3c
       0.09396879 0.1574296 0.12057564 0.011447348
000240 de b7 27 be e8 f0 af bd d4 19 b1 3d 0f 3c ff 3d
       -0.16378734 -0.08590871 0.086475044 0.12462627
000250 0a 76 ab bd 31 3b 6b bd 5f 69 f3 bd 3a f1 4e bd
       -0.083721235 -0.057429496 -0.11885332 -0.05052302
000260 10 e5 f0 bd 2f d9 05 3e 96 e3 e7 3d 10 07 0c be
       -0.1176244 0.1307113 0.113227054 -0.13674569
000270 d3 04 86 3e 38 58 7c 3c b6 f2 db bc 49 da 02 bd
       0.26175556 0.015401892 -0.026849132 -0.031946454
000280 9c da 19 3d d1 89 e8 bc c0 d8 dc be cc 22 99 be
       0.037561998 -0.028386028 -0.43134117 -0.2990936
000290 6a 0d b0 bb 87 67 e2 3d f2 d3 87 be 33 74 99 be
       -0.005372693 0.110549025 -0.2652889 -0.29971465
0002a0 f3 d7 9f 3e 3c c3 07 3e fd dd 1b 3d ac 68 63 be
       0.31219444 0.1325807 0.0380535 -0.22207898
0002b0 29 61 68 3e f5 22 9b bc 60 5b e8 bd 71 9a fe 3d
       0.22693314 -0.018937567 -0.113455534 0.12431801
0002c0 16 35 be bb 87 26 58 bd ce 4e 9b 3d 45 61 8a bd
       -0.005804668 -0.052771118 0.0758339 -0.06756834
0002d0 0d d3 71 3d cc 06 8b 3d 3e da 41 3e 7f 74 4b 3d
       0.059039164 0.06788406 0.18930909 0.049671646
0002e0 e2 91 2d 3e b2 3a 19 3e 97 79 f2 bd 17 0b 1e be
       0.16950181 0.14963797 -0.11839598 -0.15433918
0002f0 e6 df 05 bd 6b 00 c9 bb c4 ee 32 3e f7 b0 b3 3e
       -0.03268423 -0.006134083 0.17473894 0.3509595
000300 db 29 28 3e de 29 f4 3e c4 b5 0b be 6e b6 f9 bd
       0.16422217 0.47688192 -0.13643557 -0.12192999
000310 71 c5 49 be d1 f9 f2 be e5 9e 53 be 3f 1f 8b bd
       -0.19704224 -0.4745622 -0.20666082 -0.06793069
000320 0b df 86 bd a8 53 c2 bd 06 0c 1e be f8 d6 00 be
       -0.06585511 -0.094886124 -0.15434274 -0.12582004
000330 24 07 97 bd 9b 8e 93 3d af 09 73 bd 7e 44 d8 3d
       -0.07374409 0.07204934 -0.059335407 0.10559939
000340 05 1b 3c 3d 73 01 1c 3c 6b d2 21 bd cb 52 fc bc
       0.045924205 0.00952183 -0.03950731 -0.030801198
000350 87 88 82 3c 28 76 86 bd 8d 18 ce bd 24 b2 11 3e
       0.015934242 -0.06565505 -0.100632764 0.14228112
000360 c1 0c a4 bc 62 3b c6 bd de 6d 99 3e 54 7a e6 3d
       -0.020025613 -0.09679295 0.29966635 0.11253801
000370 84 69 15 bc 80 c4 bf 3d 05 82 92 3e f8 1d 20 3e
       -0.009119395 0.09363651 0.28614822 0.15636432
000380 9f ad a8 be 53 02 73 be 9b 68 c7 bc 31 50 b1 bd
       -0.32944962 -0.23731355 -0.024341872 -0.086578734
000390 1a 26 2b 3b 0e 8c a0 3e 55 34 2c bd bc f3 3b bd
       0.002611524 0.31356853 -0.042042095 -0.04588674
0003a0 a7 d1 07 be 82 ab 99 3e c3 34 de 3c 55 c4 ae bd
       -0.1326357 0.30013663 0.027124768 -0.08533541
0003b0 dc 8c 05 3e 19 a0 51 3e 51 ce da bd 0a aa 54 3d
       0.13042015 0.20471229 -0.10683883 0.051919974
0003c0 d8 63 36 bd b9 33 81 3d 41 2c 68 bd 01 31 0f 3d
       -0.044528812 0.063086934 -0.05668283 0.034958843
0003d0 c8 43 0c 3e 75 f9 4b bd f2 ce 1b 3e 19 ad 92 bd
       0.13697731 -0.049798448 0.15215662 -0.07161922
0003e0 e1 22 99 bd f0 87 df bd 4c ae db bd 4b aa ba 3c
       -0.07477356 -0.109146 -0.10726604 0.02278628
0003f0 db 9d d6 3d c5 45 0d 3e 62 a1 4e 3e 22 16 9c 3e
       0.10479327 0.13796146 0.2017875 0.30485636

actor.0.bias f4 [64]
000000 6c 42 8a 3c 91 83 ee 3d d8 6a f0 3d f2 08 f6 3c
       0.016877376 0.11646188 0.11739129 0.030033562
000010 bb 4f 7f bc 42 79 0d bd 27 58 d4 3d 52 e3 2e bd
       -0.015582974 -0.03453947 0.10368376 -0.04269726
000020 21 6c ae 3d ed 77 2d 3d 33 c5 e5 3d 62 c4 c2 bd
       0.08516718 0.0423507 0.112192534 -0.09510113
000030 e1 d1 d5 3d 02 12 05 3e ed 82 a7 bd 3e 84 dd 3d
       0.10440422 0.1299515 -0.08179269 0.10816239
000040 16 9f a1 bd cd ec 06 bd 14 89 86 bd 9f ce 33 bd
       -0.07891671 -0.032940675 -0.06569114 -0.04389822
000050 bf cb 9b bd 1b 30 6c bd 67 23 53 3d 28 f2 c4 bd
       -0.07607221 -0.057663064 0.051547434 -0.096165
000060 6d ba 4e 3d 56 87 ff 3d 2f 25 fe 3d ba 67 27 3e
       0.05047076 0.12476985 0.12409436 0.16348162
000070 e6 f2 09 3e eb bf 46 3d f7 fe 8c ba b5 bd 01 3e
       0.13471565 0.04852287 -0.0010757138 0.12670024
000080 13 10 ce 3d 2e 29 62 3b 49 fb 21 3e 89 b6 83 bd
       0.1006166 0.0034509408 0.15818514 -0.064313
000090 ac f5 2d 3e 73 4c 93 3d d9 94 e9 3c 11 d7 37 be
       0.16988248 0.07192316 0.028513359 -0.17953135
0000a0 92 a9 4f 3e dd 06 3a 3e fd 92 8d 3d 01 ec 7f 3d
       0.2027953 0.1816668 0.069128014 0.06248093
0000b0 95 5b e3 3d 7e 9d 7a 3e 0d 21 a5 bc 3c 1c f7 3d
       0.11101452 0.24474141 -0.020157361 0.12065932
0000c0 5d 6d ed 3d 3d 7f 75 3d c0 56 a3 3d 31 62 44 bd
       0.11593125 0.059935797 0.079755306 -0.047945205
0000d0 95 b3 29 be d3 0a 03 3e f1 b8 55 3e 75 fa 14 3e
       -0.16572411 0.12797098 0.20871331 0.14548667
0000e0 bd 4a f5 3d fb 80 92 3d b0 a7 a6 bd b5 28 84 3d
       0.11977146 0.07153507 -0.081374526 0.06453077
0000f0 e4 2f df 3c 82 34 8d bc 0d 33 f8 3c 97 25 f2 3c
       0.027244516 -0.017236952 0.03029778 0.02955894

actor.2.weight f4 [64, 64]
000000 f3 79 1a be 1f 25 12 be 7c be 60 3d ce ff e6 bd
       -0.15085582 -0.14271973 0.05486916 -0.112792596
000010 64 f3 51 3c 25 74 c4 3d b5 43 03 bd f2 04 03 be
       0.0128143765 0.09592465 -0.032046992 -0.12794855
000020 d7 1f 16 be 8a d2 a2 3c 99 8b ce bd ab e8 65 bd
       -0.14660583 0.019875783 -0.1008522 -0.056130093
000030 ae 44 bd bc 55 bf 68 bd 27 c3 15 3d 66 16 1f bd
       -0.023104038 -0.056823093 0.036563065 -0.03883972
000040 c3 4c 94 bd 60 31 32 bd 0e 88 a0 3d f2 a6 0d be
       -0.07241204 -0.04350412 0.0783845 -0.13833216
000050 33 8d 40 3c 46 4d 90 bc 23 7a bc bc 98 af 51 bd
       0.0117524145 -0.017614972 -0.023007458 -0.05119285
000060 01 36 db bd d9 20 b0 bc 3d 79 9b bd 1a 54 25 3d
       -0.1070366 -0.021500038 -0.07591484 0.04036341
000070 78 b6 81 bd b1 94 e6 3c 61 fa 94 3d 88 97 54 3d
       -0.06333631 0.028147073 0.072743185 0.051902324
000080 53 8a 0e bd df 1a 65 3d 80 44 f1 bd bb dc 07 be
       -0.034799885 0.05593383 -0.117806435 -0.13267796
000090 03 89 cf bc fe 2e 06 be 89 3e 1b be bc be 76 3d
       -0.025333887 -0.13103864 -0.15160574 0.060240492
0000a0 97 41 e6 3d 4b 6b 50 bd fe f3 99 bc e8 4e 92 bd
       0.11242979 -0.050883573 -0.018793102 -0.071439564
0000b0 d2 15 a4 bb 88 7f e1 3c e8 c5 3e bc da d6 bb 3d
       -0.005007484 0.027526632 -0.011643864 0.09171839
0000c0 85 f5 cc bd 6f 5e 92 bc e3 17 48 bd bc 81 b8 3d
       -0.10007767 -0.017867295 -0.048850905 0.0900912
0000d0 85 28 e2 3d 60 a5 94 3c ea 3d e4 3d 60 9f 6a bd
       0.11042885 0.018145263 0.11144622 -0.057280898
0000e0 00 f3 78 be 1c c2 cd bd 2e ee 03 bd 4d f9 fd bd
       -0.24311447 -0.10046789 -0.032209568 -0.12401066
0000f0 81 f5 26 3c 9f a4 54 bd c8 13 b3 3c 3e ed 15 be
       0.010190369 -0.051914807 0.021860018 -0.14641282
000100 a3 be 25 3c 55 37 1c bd 7b 58 b4 bd 72 56 ad 3d
       0.010116252 -0.038138706 -0.08805939 0.08463754
000110 b0 84 34 bd 6e 38 5b bd 4c ec d2 bc 7d e0 b4 bd
       -0.044071853 -0.053520612 -0.02574744 -0.0883188
000120 a9 d4 cc 3d df 33 ad 3d 14 f4 0e 3d b8 6c 76 3d
       0.10001499 0.08457159 0.03490074 0.060162276
000130 c0 87 f7 bd b3 f4 83 bd 0c 8c e3 bd 15 63 15 be
       -0.12086439 -0.06443157 -0.11110696 -0.14588578
000140 2b 5f 1c be ea fd de 3d e8 59 85 3d 85 84 27 3d
       -0.15270679 0.10888274 0.06511289 0.040897865
000150 23 77 b6 bd e9 b2 6d 3c aa dc 34 bd 92 8b 93 bd
       -0.08909442 0.014507988 -0.044155754 -0.07204355
000160 c2 7b a5 3d a3 a7 88 3d 2c f7 a3 bd 88 cb 00 3e
       0.080802456 0.06672599 -0.08006129 0.12577641
000170 3b 3a 88 ba 20 eb e0 3c c2 b4 03 be ba c7 a4 3c
       -0.0010393331 0.027455866 -0.12861922 0.020114768
000180 4b b0 aa bd 74 81 01 be a8 d4 a2 bd c0 d6 19 bd
       -0.083344065 -0.12647039 -0.07950717 -0.037558317
000190 60 de 6a bd 4d 0d f3 bd 4f fd 93 3d 74 7e d1 3b
       -0.05734098 -0.11867771 0.07226049 0.006393248
0001a0 9e 83 9e bd a1 ab 32 bb a5 b8 86 3a bc 7d ba 3d
       -0.07739948 -0.0027262943 0.0010278417 0.09106013
0001b0 b2 da 59 bd 4f 2b 8f bb ee c5 82 3c 28 96 00 be
       -0.05318708 -0.0043691765 0.01596352 -0.1255728
0001c0 2a e9 8d bd 3c a4 0e 3d 56 f1 b9 bd 30 56 f6 3b
       -0.06929238 0.034824595 -0.09079234 0.0075175986
0001d0 fa 0d 33 3e 63 c8 82 bd dd c7 e2 bd 8c 64 ef 3d
       0.174858 -0.06385877 -0.11073277 0.116891
0001e0 dc f1 91 bd 8b 8e d4 3c f5 47 bc 3b 85 0c 9d bb
       -0.07126209 0.025946876 0.0057458826 -0.004792752
0001f0 2f fc 82 bd dd b9 a5 bd a1 89 98 3d fc ae 98 bd
       -0.063957565 -0.08092091 0.07448126 -0.074552506
000200 f3 99 65 bd 00 0c 97 3d e8 40 75 bd f2 24 4f 3d
       -0.05605502 0.07375336 -0.059876353 0.050572343
000210 43 c7 d7 3d b3 b7 8f 3e 33 c4 a1 3c f2 90 a4 3d
       0.10536053 0.2806984 0.019746875 0.080354586
000220 4d 54 76 3e 31 36 a2 bc c9 7d c7 3c cf 1a 0a 3e
       0.24055596 -0.019801231 0.024351971 0.13486789
000230 30 6b 27 3d a0 d8 6e 3e bf d1 ae 3d 6e fb 02 39
       0.040873706 0.23324823 0.085361 0.00012491431
000240 f3 ef e3 3d 00 e1 a5 3d 26 a1 3b 3e fe 7c 9f 3d
       0.11129751 0.08099556 0.18323192 0.07787512
000250 01 9b dc bd 53 9a 65 3d 4f 2a 53 3d f0 2e 50 3e
       -0.10771752 0.05605538 0.05155402 0.20330405
000260 bc 1c 95 3d 42 52 0d be cc e0 10 3e 30 a1 b8 3d
       0.07280871 -0.1380091 0.14148253 0.09015119
000270 c4 a9 8e 3e 77 61 c1 3b e4 4c 62 3e fd 31 ba 3d
       0.27863896 0.0059015113 0.22099644 0.09091566
000280 ab 84 0c bd 56 a8 71 3e 19 83 85 bd 60 c8 3a 3e
       -0.03430621 0.23599371 -0.065191455 0.182405
000290 4c 88 56 be a7 ff 07 3e ce 8d 56 3d 71 b2 f9 bd
       -0.2095043 0.13281117 0.05238133 -0.12192238
0002a0 8c b0 02 3e 13 81 df 3c 45 89 83 bd c8 b6 2c 3e
       0.1276266 0.027283227 -0.064226665 0.168666
0002b0 71 bd eb bd 0c 8f e0 bc 70 54 90 3d e4 83 99 3d
       -0.115107425 -0.02741196 0.07047355 0.07495859
0002c0 ef 5e 4f 3e a0 b7 05 3e f0 2a ae bd 1c 27 0f bd
       0.20251058 0.13058329 -0.085042834 -0.034949407
0002d0 8b 42 95 3d be 86 74 bd 31 73 49 be 45 8d 37 be
       0.07288083 -0.059698813 -0.19672848 -0.17924984
0002e0 2e 45 a5 bd 82 9c 0a 3e 4b 0c 75 3e 1f 40 8b 3e
       -0.080698356 0.13536265 0.2393047 0.27197358
0002f0 4f 5d 51 3d 67 1c e4 3d 1e 27 9e 3d 3a f8 28 be
       0.051114377 0.1113823 0.07722305 -0.16500941
000300 e5 95 83 3d ec a1 3b 3d 29 7b 33 3d 0f 73 11 3e
       0.064250745 0.045808718 0.043818627 0.14204048
000310 f3 41 c4 bd 3f 8e d8 bc 7e 7d ff bd c6 a2 12 bc
       -0.09582891 -0.026435016 -0.124751076 -0.008949941
000320 25 8a 48 3d bc c4 91 3c 62 32 29 be e6 ae bc bd
       0.04895987 0.017794006 -0.16523126 -0.09213047
000330 9d 99 8f bd 54 73 43 3b 95 12 47 bd 28 04 fb bd
       -0.07011721 0.002982338 -0.048601706 -0.12256652
000340 65 9f 89 bd 28 05 28 3d f4 2e 4f 3d c7 ab 10 3e
       -0.06719855 0.041020542 0.050581887 0.14128028
000350 5b 09 50 3c a6 e6 ec 3c 16 18 a5 bd cb af 90 bc
       0.012697543 0.028918575 -0.08061235 -0.01766195
000360 46 38 86 3b 9a 3d 9e 3d 27 c6 e1 3c c2 34 cf bd
       0.004096064 0.07726593 0.027560307 -0.10117485
000370 58 c0 20 be d2 2a 23 be 20 ba bf bd fe ca c2 bc
       -0.15698373 -0.15934303 -0.093616724 -0.023778435
000380 f7 cb d5 3d e5 b7 59 bd f3 5f 51 3c f1 04 06 3b
       0.10439294 -0.05315389 0.012779224 0.0020449723
000390 04 a0 21 be 6d 00 04 be 7a 0f 05 3d 9d 4e 7e 3d
       -0.15783697 -0.12890787 0.032485463 0.06208669
0003a0 46 0b a3 bd 50 84 d9 bc 2c ad 13 be 51 19 ca bc
       -0.079611346 -0.02655235 -0.14421529 -0.024670275
0003b0 ae 29 37 3d b6 a7 cf 3b 65 e7 6f bd 83 ba be 3c
       0.044717483 0.0063371314 -0.058570284 0.023282295
0003c0 9e 7d 28 bd 29 ad 8c 3d 64 0c c8 bd 20 26 d7 bd
       -0.041135423 0.06868965 -0.09767988 -0.10505319
0003d0 a4 81 d5 bd 56 71 d3 bd 77 e2 d1 3d 24 8f d5 bd
       -0.104251176 -0.103243515 0.10248273 -0.104276925
0003e0 ec 21 08 be 71 c2 30 3c 4d b2 da bd 43 4f 85 bc
       -0.1329419 0.010788546 -0.106785394 -0.016273146
0003f0 0b 5c ae bb e5 56 47 bd de 81 60 3d b0 ac 8e 3d
       -0.005321031 -0.048666853 0.05481135 0.06966531

actor.2.bias f4 [64]
000000 9c c8 6b bd a0 cf 9b 3c c7 80 8c 3d cc 71 23 be
       -0.057564363 0.019019902 0.068605 -0.15961379
000010 e6 2f 1a 3e 90 09 37 3e 98 25 eb bc 23 1b 77 3d
       0.15057334 0.17874742 -0.02870445 0.060328614
000020 9f f6 a2 bd 39 11 f2 3d 45 b0 b6 bd 82 64 f1 3d
       -0.079571955 0.11819691 -0.089203395 0.117867485
000030 1a fe 70 bd b1 dd a5 bd 0e 2b e1 3d 80 60 7d 3c
       -0.05883608 -0.08098925 0.1099454 0.015464902
000040 af ec ea bb 89 bf e3 3d 01 ed a4 3d a8 f0 c9 3d
       -0.007169328 0.11120517 0.080530174 0.09860355
000050 f3 3e 41 bd f5 cd 6c 3d 34 f9 6c 3d 7e f1 12 3e
       -0.047179174 0.057813603 0.057854846 0.14349934
000060 e9 09 42 3e 7b 4a 98 3d 52 f3 c7 3d 10 3f 94 bd
       0.18949093 0.07436081 0.097632065 -0.07238591
000070 4f 60 11 be 15 b4 8e 3d 40 09 1e 3d 50 62 9f 3d
       -0.14196895 0.06967942 0.03858304 0.077824235
000080 2c 86 4c bd 49 5c 01 3d b3 46 f6 bc 90 2b b4 3d
       -0.049932644 0.03158215 -0.030063009 0.087973714
000090 8f 47 54 3b 60 9c 5f 3d 93 0a 01 3e ad cf 96 3d
       0.0032391285 0.05459249 0.1260169 0.0736383
0000a0 5a b9 f4 3d 1b e3 1e be 73 4b ac 3d c5 b0 ce 3c
       0.119494155 -0.15516321 0.08412828 0.025230775
0000b0 3b 96 4f 3d e8 7b 2c 3c d2 d7 d3 bd 83 a1 dc 3c
       0.05068038 0.010527588 -0.10343899 0.026932484
0000c0 76 7b 7c 3c ee 81 cf 3d a2 8c d3 3d 4e 0d dd bc
       0.015410295 0.10132204 0.10329558 -0.026983883
0000d0 b8 39 08 bd df aa d3 bd 40 cf 6e 3d 8a 2c d3 3d
       -0.03325817 -0.103353254 0.058303118 0.103112295
0000e0 d3 f8 b7 3d c3 a6 a9 3d 2b 48 fb 3d e9 ff b5 3d
       0.08983006 0.082837604 0.12269624 0.088867016
0000f0 2a b0 14 3d ca 2d fc 3d bf 5c c4 3c 6a 73 95 bc
       0.036300816 0.12313421 0.023970006 -0.01824351

actor.4.weight f4 [36, 64]
000000 23 0a 1a 3c 36 04 fe 3c 3b 3d 20 3e 82 e9 94 bd
       0.009401831 0.031007867 0.15648358 -0.072711006
000010 83 1d e1 bd 67 6e fb be 93 0f 9a 3e 19 e4 8d 3e
       -0.10991957 -0.49107668 0.30090007 0.27713087
000020 cc 48 7f bd e9 b1 05 3e ec 16 cc bd c9 01 68 3e
       -0.062325284 0.13056149 -0.099653095 0.22656931
000030 84 8d 21 be 5f 78 a5 bc 2c d5 1c bb fe 65 be bb
       -0.1577664 -0.020198999 -0.0023930771 -0.0058104983
000040 c0 68 cf 3e 4d 3e f7 bd 0e a3 23 3e 43 ed 8c 3e
       0.40509605 -0.1207243 0.15980169 0.27524766
000050 fd 15 99 3d 85 2e a8 be 89 2f 9b bd 13 81 f5 bc
       0.07474897 -0.32847992 -0.07577426 -0.029968774
000060 44 e5 91 be 7d 9e 59 bd 62 c4 02 3d 20 19 b0 3d
       -0.28495228 -0.05312966 0.031925566 0.08598542
000070 85 87 e7 bd 46 55 06 bf 50 95 a1 3e f4 23 70 be
       -0.11305145 -0.52473867 0.3155923 -0.23451215
000080 33 38 87 be 4f ef 44 be fd 56 80 3d b7 f9 1a 3e
       -0.26410064 -0.19231914 0.06266592 0.15134321
000090 d5 65 92 bd 62 8a 75 3e 41 5f 5a 3e c0 f1 ef be
       -0.07148329 0.2397857 0.21325399 -0.46864128
0000a0 05 50 de bd 98 eb 54 bd 6c 89 e7 be e7 47 fe be
       -0.10855106 -0.051982492 -0.45222032 -0.49664232
0000b0 32 69 ca bd 5d dd 9c 3e e1 ae 07 3d 66 57 75 3e
       -0.09883346 0.30637637 0.033125762 0.23959121
0000c0 8a a7 5b 3d da 9e 4d 3e 4c 08 df be 37 39 52 be
       0.053626575 0.20080128 -0.43561018 -0.20529638
0000d0 e7 cf f2 3d 66 45 8a bc 88 05 b7 3e 98 d7 99 3e
       0.118560605 -0.016878795 0.35746408 0.30047297
0000e0 ea 2f 1d bf 84 40 e3 bd a1 86 98 be 59 60 e2 be
       -0.61401236 -0.1109629 -0.29790214 -0.44214132
0000f0 33 2c 04 bf d1 f6 fb 3d 3f 8c eb 38 64 06 80 bd
       -0.5162994 0.12302936 0.00011231796 -0.06251219
000100 5b 70 c3 bd 0a aa d7 3d e1 61 fe 3d a9 ed a9 3c
       -0.095429145 0.10530479 0.12421013 0.020743208
000110 06 0d 34 bd bc 08 ce be 1f 09 14 3e 0f 83 4d 3d
       -0.043957733 -0.4024104 0.14456604 0.050173815
000120 e9 b0 fa bc 59 a2 4f 3e 31 6c 19 3d d3 26 13 3e
       -0.030601935 0.20276774 0.037456695 0.14370279
000130 0b 8a 83 3e 07 e6 cd bd ff 3c 8c 3e 43 91 ae 3c
       0.25691256 -0.1005364 0.27390286 0.0213095
000140 c7 00 b8 be 6e 7e 6a 3e b3 22 ac be 1b 34 89 be
       -0.35938093 0.22899792 -0.33620223 -0.26797566
000150 8b 23 bb 3d 92 16 c5 3e 08 f7 c0 bd de 49 c8 be
       0.09137639 0.38493782 -0.094221175 -0.39118856
000160 d9 7a d3 be 58 51 ac 3d 36 ba 4a bc 2b c8 c3 3d
       -0.41304663 0.084139526 -0.012373498 0.095596634
000170 3b 75 b0 3e 68 65 8e be c2 f9 a5 be 1a f4 e1 be
       0.3446444 -0.27811742 -0.32417113 -0.44131547
000180 9b f6 c7 3d 5b 79 5d be fd 24 12 3e 69 3c b5 be
       0.09763833 -0.21628325 0.14271922 -0.35397652
000190 8d 0b ed 3e f0 aa 22 3e 79 27 88 3e 57 f2 1f bf
       0.46297875 0.1588552 0.26592615 -0.62479156
0001a0 c1 4c 51 3e e4 0f 62 bc 7a f2 6f be df f5 26 bf
       0.20439436 -0.013797734 -0.23432341 -0.6521892
0001b0 3b 05 df 3d 30 b3 bb bd e5 30 54 bd ac 7a 15 3e
       0.108896695 -0.09165037 -0.051804442 0.14597577
0001c0 93 31 28 be 8d 4f e1 3d 06 ad 29 3e 6e 81 08 bf
       -0.16425161 0.11001501 0.1656991 -0.53322494
0001d0 08 82 fb 3d 50 f5 0e 3d 6b 9b 63 be d8 f9 6b be
       0.12280661 0.034901917 -0.22227256 -0.23044527
0001e0 1c e1 77 be a0 d0 1b 3d 59 df e3 be 68 a5 93 3e
       -0.24206966 0.038040757 -0.44506338 0.28837132
0001f0 2a 9d 27 bd 71 c7 30 3d f5 92 a9 3d 14 ab 82 bc
       -0.040921368 0.043158952 0.08279983 -0.015950717
000200 1f 3a fd 3d 9d c3 e0 3b 34 c9 23 3e 29 f8 db bd
       0.12364601 0.0068592564 0.15994722 -0.10740692
000210 b9 35 f0 be d4 67 eb bc fc fb 21 bd 4a ec 83 be
       -0.46915987 -0.028736033 -0.03954695 -0.25766212
000220 15 93 f3 3c a9 c6 7e be 72 b5 ce 3c 66 93 39 3e
       0.02973322 -0.2488047 0.025233004 0.18122634
000230 43 48 8a 3e 89 30 c0 bc 52 b9 50 be 9f e8 be bd
       0.27008256 -0.023460643 -0.20383194 -0.09321713
000240 29 51 c1 be 48 03 b3 3d 82 95 31 bd 65 e1 0e 3e
       -0.37757233 0.0874086 -0.043355472 0.13953169
000250 c7 72 cc 3e 12 22 37 be 6a c0 b5 3d e2 6f e8 be
       0.39931318 -0.1788409 0.08874591 -0.4539786
000260 85 f9 df be b1 ca b3 3d 0a 50 6e 3d bf c1 9d 3d
       -0.43745056 0.08778895 0.0581818 0.0770297
000270 d0 44 aa 3e 97 70 ab be d1 4a ed 3d 28 53 df be
       0.33255625 -0.33484337 0.11586536 -0.4361813
000280 e4 dc 2f 3d 70 a6 3a bd 02 20 07 3e e9 40 89 bd
       0.042935267 -0.045568883 0.13195804 -0.06701834
000290 9e 9d 46 bd aa d4 89 bd 43 6c bd 3d 28 42 9d be
       -0.04849016 -0.067300156 0.09249165 -0.30714536
0002a0 92 38 71 3e 79 d1 1c 3c 09 c0 17 bf 65 28 a1 be
       0.23556736 0.009571427 -0.592774 -0.3147613
0002b0 73 a3 92 bd 11 98 ff bc 87 dc c4 3d 40 2e 35 be
       -0.07160082 -0.03120044 0.09612375 -0.17693424
0002c0 04 6c b5 3e e2 86 86 3e 46 5a d6 be 21 b0 5a 3e
       0.35433972 0.26274782 -0.41865748 0.2135625
0002d0 80 bd 4f 3e 8f c0 77 bd a4 5c 05 bf 7e b1 92 3e
       0.20287132 -0.060486373 -0.52094483 0.2865104
0002e0 6e 5f f5 be 85 aa c7 bd 9e 51 13 bf b1 6e 9d be
       -0.4792437 -0.09749321 -0.5754641 -0.30748513
0002f0 d1 c0 89 be 3d d9 2d 3e 7c a4 51 3c 8c f2 9e bd
       -0.2690492 0.16977401 0.012795564 -0.07761106
000300 e0 38 f5 3d f2 43 c0 3c 2a e1 06 be 3c bf fb bc
       0.11973739 0.023469899 -0.13171831 -0.030730836
000310 0a 79 83 bc e4 04 c9 3c f1 1c 82 3d 39 7a cc bb
       -0.016048927 0.024538465 0.063531764 -0.006240156
000320 00 09 e1 bd e9 54 0a 3e 14 f6 44 3d 97 6a 38 3d
       -0.10988045 0.13508953 0.04808624 0.045023527
000330 54 03 80 3c d0 27 90 bd d2 76 b7 bd 4d 60 99 3d
       0.015626587 -0.07038844 -0.0895821 0.07489071
000340 a3 42 69 be 4d 35 01 bd 9f 2f 86 be 50 a0 27 3b
       -0.22779326 -0.031544972 -0.26208207 0.0025577731
000350 92 eb 55 bd 95 c9 a8 bd 2a 36 6a be aa bd 32 3c
       -0.05222661 -0.08241574 -0.22872224 0.010909477
000360 f8 8c e0 bd 71 c0 36 be 86 bd 58 bd 0d 58 16 3d
       -0.10964388 -0.17846848 -0.05291512 0.036705066
000370 64 2e d1 3d 43 66 ad bb f8 d8 02 3e b4 53 62 be
       0.102139264 -0.0052917316 0.1277808 -0.22102243
000380 09 7a 9a 3d f3 d5 01 3e e5 df 9a bd 77 8d 84 be
       0.075428076 0.12679271 -0.07562236 -0.2588918
000390 05 74 6a be 55 34 76 3c 18 61 11 bd 9c ef 9e bd
       -0.2289582 0.015027125 -0.035492986 -0.077605456
0003a0 94 20 72 bb ad 42 91 3d 54 1c 55 bd c5 ed 0c be
       -0.0036945688 0.070927955 -0.05202897 -0.13762577
0003b0 47 1a 69 bd cf 61 f2 3d 34 9b 9c 3d d3 b8 89 be
       -0.056909826 0.11835062 0.0764679 -0.26898822
0003c0 63 64 26 be 3b 28 a8 3d 1e 86 b3 be 57 74 7b be
       -0.16249232 0.08210798 -0.3506326 -0.24556099
0003d0 a9 c7 25 3e 59 eb 97 3d 0a c7 57 be df cb 1a 3c
       0.16189446 0.07417936 -0.21072021 0.009448021
0003e0 34 a8 a3 bc 96 84 a8 bd 55 04 8e bd cf 42 4e be
       -0.019977666 -0.08228414 -0.0693442 -0.20142673
0003f0 02 d4 99 be bb c5 fe 3d a6 4d c9 bd d8 ce fc bc
       -0.30044562 0.12440058 -0.098292634 -0.03086035

actor.4.bias f4 [36]
000000 41 78 c1 bd ba e9 01 3d cc 54 29 be be be da bd
       -0.09446765 0.03171704 -0.16536254 -0.106809124
000010 98 0b 53 3d ad bc a9 bd 2a 6d bb 3c 1e 57 14 3e
       0.05152473 -0.0828794 0.022879202 0.14486358
000020 28 2e 46 bd ad d3 b9 bd 9f 2b dc bd b5 01 98 bd
       -0.04838386 -0.09073577 -0.107505076 -0.074222006
000030 e1 65 c5 3d de 18 1a 3e 8e 87 01 3e 26 22 77 39
       0.096385725 0.15048549 0.12649366 0.00023568477
000040 52 3a d2 bc a8 4f 53 bd c3 d3 03 bb cd 00 9b 3d
       -0.025662575 -0.051589638 -0.0020115233 0.07568512
000050 be f5 99 be 92 df 9f 3c 05 fb 0e 3d ae 4e 3a bd
       -0.300703 0.019515786 0.03490736 -0.04548519
000060 87 08 ee 3d dc 73 d9 ba ee 0f 46 3e 0b 1c e5 bd
       0.1162272 -0.0016590315 0.19342014 -0.111869894
000070 db 74 09 3d 58 8c 87 3d 93 9c cc 3d 82 c3 81 bd
       0.033558708 0.06618565 0.09990802 -0.06336118
000080 ad dc 9b bc 91 1b 06 3e b1 f6 94 3d 5a fb 10 3e
       -0.019026125 0.13096453 0.07273615 0.14158383

critic.0.weight f4 [64, 62]
000000 7e 9a 54 3d dc b4 5b 3d 84 f1 c0 bd f5 2a de bc
       0.051905148 0.053639278 -0.094210654 -0.027120093
000010 f5 6c 63 bd a5 a3 dd bc f5 ec 06 bc 73 99 ac 3b
       -0.05552383 -0.02705557 -0.008235206 0.005267316
000020 73 bf 99 bd 94 15 a9 bc 83 35 98 bd d1 fd 06 bd
       -0.07507219 -0.020640172 -0.074320816 -0.032956902
000030 cc 7a a7 bd 16 de 87 bd 5f 47 e2 bd f9 02 de bd
       -0.081777185 -0.066341564 -0.11048769 -0.10840411
000040 fe 10 09 bc ab 20 dd bd 13 fe f7 bd 63 6a 8a 3d
       -0.008365868 -0.107972465 -0.12109008 0.06758573
000050 0c 4a bb bd 7c 17 b6 3d d6 10 10 3c b7 b9 4b bd
       -0.09144983 0.08891198 0.0087930765 -0.04973766
000060 3c 39 ac 3d da 1c e8 bd c0 34 79 3d b8 4c 83 3d
       0.08409354 -0.11333628 0.060841322 0.06411117
000070 73 ca a1 3d f7 dd f2 bd 77 b8 29 bc 98 33 dd bc
       0.07899942 -0.11858743 -0.010358921 -0.02700214
000080 f2 fb c0 bd 9a a3 b1 3d 52 32 b7 bc 88 1a 8a 3d
       -0.09423055 0.08673783 -0.022362862 0.06743342
000090 16 0d 8c bd 74 b4 66 bd 0f 83 e2 3c ff a4 b5 bb
       -0.068384334 -0.056324437 0.027650384 -0.0055433507
0000a0 c4 10 95 3d 69 e9 5d 3d fa ba d0 3d d1 b5 dd bd
       0.072785884 0.054177675 0.10191913 -0.10825694
0000b0 33 15 eb 3c 61 2f c1 3d 7c d4 95 bd 23 f5 c9 bd
       0.028696632 0.09432865 -0.07315919 -0.09861209
0000c0 73 ed ff 3d fe d0 d9 bd 58 ab a2 bd 5c 12 dc bd
       0.12496462 -0.10635565 -0.079428375 -0.10745689
0000d0 bf b1 95 3c d9 56 38 3c fa 99 04 be 52 5c 54 3d
       0.018273233 0.011251175 -0.12949362 0.051845856
0000e0 f1 16 4b 3c 07 cb cc 3c 93 c0 11 be 7c 5e 09 be
       0.012395606 0.024999155 -0.14233617 -0.13414949
0000f0 bb ae fa bd 95 a1 8f bd 44 7b 07 be a4 23 25 bc
       -0.122403584 -0.07013241 -0.13230616 -0.010079298
000100 d5 8d ac bc 5b c4 49 bc 21 91 83 3d 9c c1 ba 3d
       -0.021063725 -0.012314881 0.064241655 0.09118959
000110 24 7b 06 3e b5 12 ee bc 8e a3 fd bc 10 1b 54 bd
       0.13132912 -0.029061655 -0.030961778 -0.05178362
000120 f7 65 f6 bd 66 2e 5c 3e 9e d4 be bd 29 d7 33 3e
       -0.12031167 0.21502075 -0.09317897 0.17562546
000130 f8 85 26 3e 6d 21 65 3e 3c 5f 02 3e a7 c0 18 3e
       0.16262043 0.22376032 0.12731642 0.14917241
000140 bf 91 8b 3d 83 13 ce bc b4 ad 09 bd 2d a4 00 be
       0.06814908 -0.025155788 -0.03361292 -0.12562628
000150 e2 da 88 3d 2f e6 a5 bc f7 e3 43 3c b0 9d 5c 3b
       0.066823736 -0.020251362 0.0119562065 0.0033663325
000160 15 fc a7 3d f9 f0 8b bc 94 60 2f 3e 0d 44 1b 3f
       0.08202378 -0.017082678 0.17126685 0.6065071
000170 45 45 2e 3e 3f 47 12 3f bb 28 7a 3d 04 d4 9f bd
       0.17018612 0.5713996 0.061074 -0.07804111
000180 b5 e9 b6 3d a0 d9 e2 3c 8d 30 f3 3d f5 69 8b bd
       0.08931295 0.027691662 0.11874495 -0.06807319
000190 f8 5c 2f 3e 5f 5c 6b 3e ce 53 dc bd 67 df cc bd
       0.17125309 0.22984456 -0.10758172 -0.10003548
0001a0 12 ba 8f 3d 25 8b 81 3c 0f 5d b2 3c b7 08 01 be
       0.07017912 0.01581342 0.02177289 -0.1260098
0001b0 de 5c b0 3d a8 7c cf 3d ed 78 63 3e e8 6c 8c bc
       0.08611463 0.10131198 0.22214098 -0.017141774
0001c0 69 f9 26 3d 03 3c b1 3d 9d 05 8d 3d 31 85 0e be
       0.0407652 0.086540245 0.06885836 -0.13917996
0001d0 68 9f e0 bd b3 16 e1 bb 29 5f 24 3e a8 a3 82 3d
       -0.10967904 -0.006869161 0.16051926 0.06378871
0001e0 34 bf 81 3d 63 26 a3 3d 0e ad 9d bb c9 8c 3a 3d
       0.06335297 0.07966306 -0.0048118895 0.04554442
0001f0 fa b4 f9 bc aa 7f 0e 3e e9 3c cb 3c 27 03 ab 3c
       -0.030481804 0.13915887 0.024809318 0.020875527
000200 a4 b6 b2 bd 6f c1 dd bc 7b 4e bd 3c fd 32 a1 bc
       -0.08726242 -0.027069775 0.023108711 -0.019677633
000210 13 9b b9 bc d0 97 6b 3b 80 78 1f 3e e3 b9 91 3d
       -0.022656953 0.0035948642 0.15573311 0.07115533
000220 c7 26 f5 3d f0 c4 48 3e 78 c8 3e bd 25 ea a2 bc
       0.11970287 0.19606376 -0.0465779 -0.01988704
000230 80 78 dc bd cc 93 e1 bd de 74 f2 3d 68 48 11 be
       -0.10765171 -0.11014518 0.11838697 -0.14187777
000240 99 86 5f 3d 91 71 37 bd ce 58 bc 3c fc 6a ee 3d
       0.05457172 -0.04478604 0.022991564 0.116414994
000250 03 bc 57 bd 7d b3 b8 bc c4 37 57 3d ee 0a 11 bd
       -0.052669536 -0.022546524 0.052543417 -0.035410814
000260 a7 4f 2d bd b6 4a 28 3b 3d 7e b5 bd cd 41 3f bc
       -0.04231229 0.0025679297 -0.08861969 -0.011673403
000270 2d c5 bc bd bf e9 54 3c fd 69 49 3c db 90 d7 bd
       -0.09217296 0.012995183 0.012293336 -0.10525676
000280 e8 5d 04 be f1 10 92 bd 4a b8 0f be 33 2b 48 3e
       -0.12926447 -0.071321376 -0.14035144 0.19547729
000290 1b 13 7b be 02 10 3c bd b8 47 be 3d 91 f9 2e bd
       -0.24519007 -0.045913704 0.09291023 -0.042718474
0002a0 b6 3a a1 bc bb 24 0d be 93 55 42 bd 27 cb 6f bd
       -0.019681316 -0.13783543 -0.04744489 -0.05854335
0002b0 a2 d6 3c be df 2c a3 3c e0 30 d3 bd e2 81 3a 3e
       -0.18441251 0.019918857 -0.103120565 0.18213609
0002c0 c1 ee b9 3d de 25 ae 3c 3c 3c 81 bc 49 46 50 3c
       0.09078742 0.02125829 -0.015775792 0.01271207
0002d0 84 43 46 be ad 2c a8 bd 70 9f 01 be 1d ab 15 3d
       -0.19361693 -0.08211646 -0.12658477 0.03654014
0002e0 16 03 e6 bc c0 58 9c bd 81 54 08 be f9 ef 19 be
       -0.028077643 -0.07634115 -0.13313486 -0.15032949
0002f0 c5 f6 06 bd d9 74 cf 3d a1 65 3f 3b 33 74 52 bd
       -0.03295018 0.10129709 0.0029204863 -0.051380347
000300 31 dd 7b bd 95 ef 4a 3d 9c f3 5b 3d 50 ae eb bd
       -0.06149024 0.04954489 0.05369912 -0.11507857
000310 94 18 db bd 2e 07 16 bd b8 f3 eb bc 35 17 98 bd
       -0.10698047 -0.03662794 -0.028802738 -0.074263014
000320 26 8d e0 bc 18 22 f2 bd e0 94 a3 bd e3 e2 fa bd
       -0.027411055 -0.11822909 -0.0798738 -0.122503065
000330 82 c9 ab bd c1 4a 8b 3c c7 10 bc bc da 1f 3a 3d
       -0.08388044 0.017003419 -0.022957219 0.045440532
000340 d5 03 bd bd cb 01 ac 3c c4 d1 b1 3d 32 22 ac 3d
       -0.092292465 0.020996949 0.08682588 0.0840496
000350 4c 09 b6 bb 39 8f e3 bd 6a b9 43 3c dd 6d 25 be
       -0.0055553075 -0.11111302 0.011946062 -0.16155191
000360 63 f8 ab bd cc d1 e8 bd 8c 34 b3 bd 27 3f c5 bc
       -0.083969854 -0.113681406 -0.08750257 -0.024077965
000370 5b dd f4 bc 6e 85 02 be 65 10 16 bb c9 85 48 3d
       -0.029890707 -0.12746212 -0.0022897955 0.048955712
000380 25 d2 27 be 60 91 09 bd 01 b4 0c 3d 9d f6 89 bd
       -0.16388758 -0.033585906 0.034351353 -0.06736491
000390 97 12 00 3e 8f 08 15 3e 10 17 09 3d bd db 0d bd
       0.12507091 0.14554046 0.03346926 -0.034633387
0003a0 6a 6b b8 3c 0a 3a 97 3d bd be 91 bd e1 69 b1 bd
       0.022512157 0.07384117 -0.071164586 -0.08662773
0003b0 73 62 0e be e2 8a 44 be 77 ca 82 3d a3 21 34 bd
       -0.13904743 -0.19193605 0.06386273 -0.04397739
0003c0 15 fd 89 bd ff e4 f4 bc 26 c0 0e be 64 cc af bd
       -0.06737725 -0.02989435 -0.13940486 -0.08583906
0003d0 6d 69 0d be 54 a4 3c bd 19 a9 ed bc f0 78 d3 bd
       -0.13809748 -0.046055153 -0.029011296 -0.10325801
0003e0 3d 41 4d 3d f6 da e7 3c e1 a5 23 be 75 d1 49 be
       0.050111044 0.02830265 -0.15981247 -0.19708808
0003f0 67 a0 13 3d e9 f8 47 be 65 74 59 bd ef 82 77 bd
       0.036041643 -0.19528545 -0.053089518 -0.060427602

critic.0.bias f4 [64]
000000 0e 87 10 be 4c 28 9e 3d 20 4a dc bd 01 aa b1 bb
       -0.1411402 0.0772253 -0.10756326 -0.0054218774
000010 fe 15 ec bc 53 f9 d2 3d b6 22 08 3d 4f a7 0f be
       -0.02881908 0.10301461 0.033236228 -0.14028667
000020 80 f6 1f be 6d 52 54 bd 67 a1 97 bd 97 83 46 bb
       -0.15621376 -0.05183642 -0.07403832 -0.0030290836
000030 18 2c e7 bc 1f 8e b0 bd 9a 7d a7 bb fa b9 cc bc
       -0.028219268 -0.086208574 -0.0051114084 -0.024991024
000040 86 7e a8 bd 57 8b 33 bd d5 e7 9b bd c7 3a a8 3d
       -0.082272574 -0.043834057 -0.07612578 0.08214336
000050 d0 19 41 bd 36 03 50 bd f4 89 b7 bc 75 f4 e9 3b
       -0.047143757 -0.050784312 -0.022404648 0.0071397373
000060 85 0b cd bc 53 b0 8e bd 30 3b da bd 3a 03 b0 bc
       -0.025029907 -0.06967225 -0.1065582 -0.021485914
000070 ee b2 29 3d 49 e7 52 3d db 9b 77 3e db 0c 54 3d
       0.041430406 0.051490102 0.24180548 0.051770072
000080 6b 87 0d be 29 f6 44 3c 4a 8c d3 3c 7c 55 b2 3c
       -0.13821189 0.01202158 0.025823731 0.021769278
000090 c9 db 95 3c 60 55 bb 3d 67 99 63 bd 32 9c 74 3d
       0.018293278 0.09147143 -0.055566218 0.059719272
0000a0 b7 e8 03 be 67 ca 78 bd 3f a0 b2 bd 90 3f c7 bc
       -0.12881742 -0.0607399 -0.08721971 -0.024322301
0000b0 d5 96 04 be d8 39 a2 bd 9c 7a 9b bc 57 e0 82 3d
       -0.12948163 -0.07921189 -0.018979363 0.06390446
0000c0 c7 c5 3b 3e 51 e1 91 3c b4 1e 3b 3d b1 1f ff bd
       0.18337165 0.017807635 0.045683578 -0.124572165
0000d0 03 a5 d5 3d f6 99 d2 bd b2 fb aa bd f4 e2 3d be
       0.10431864 -0.10283272 -0.08348788 -0.18543607
0000e0 60 ab 85 bc 5f f4 0f 3d 35 f3 2b be 33 1c 04 3d
       -0.01631707 0.03514516 -0.16791995 0.032253455
0000f0 93 f6 39 3e a7 3a 7e bd 22 39 d1 bd 8c f3 a0 bd
       0.18160467 -0.062067654 -0.10215975 -0.07858953

critic.2.weight f4 [64, 64]
000000 0b 03 b7 bc db 56 5d 3e 67 5f 86 3a 78 6c 6a 3c
       -0.022340318 0.21615164 0.0010251821 0.0143080875
000010 d3 30 2a be f3 4b e8 3c 50 91 33 3d 86 c1 3b 3e
       -0.16620187 0.028356528 0.043839753 0.18335542
000020 97 5e 1f 3d 99 a6 b7 bd 2f 83 f5 3d 47 35 86 3e
       0.038908567 -0.08967323 0.11987912 0.26212522
000030 41 bb 2f bd 9a 50 c2 3e 95 a3 e5 bb eb 59 d3 3d
       -0.04290319 0.3795212 -0.007008026 0.10319885
000040 50 68 64 3d 25 c4 a4 3d 17 90 3c bd 15 fd 34 3e
       0.055763543 0.08045224 -0.046035852 0.17674668
000050 e1 c8 af 3c c7 05 91 bd 8f b6 8d 3d 7e 9e 8e 3d
       0.021458091 -0.0708118 0.06919586 0.06963824
000060 d2 b2 f5 bd c1 fc aa 3d cf 6a a8 bd 02 46 0f 3e
       -0.11996998 0.0834899 -0.08223497 0.1399155
000070 b8 65 2f 3d a6 9c 71 3e e4 a4 38 3e de 19 d5 bd
       0.042821616 0.23594913 0.18031651 -0.104053244
000080 0b 16 e5 3c c7 78 44 bd a2 e9 16 3d 24 03 0f bc
       0.027964612 -0.047966745 0.036843903 -0.008728776
000090 37 ec b5 bd 50 a2 cf 3d fa cc 8e 3d 1c 69 c1 bd
       -0.08882945 0.101383805 0.0697269 -0.09443876
0000a0 27 c8 8b bd f1 6f 18 3e 8d 01 33 3e 8a c6 ab bd
       -0.068252854 0.14886452 0.1748106 -0.08387478
0000b0 5c cc 1a bd 12 3c af bd c2 84 98 3d 3c 28 e5 bd
       -0.03779255 -0.085563794 0.074471965 -0.11189315
0000c0 2e 12 71 3e 17 b3 d2 3d 61 29 4d bd 71 98 bb 3d
       0.23542091 0.10288065 -0.05008829 0.09159935
0000d0 52 28 2a bd 51 f2 7a bc d7 e5 0c 3d 89 50 82 3e
       -0.04154236 -0.015316562 0.03439888 0.25452068
0000e0 45 42 8c 3b 20 53 a2 3d 6a 1e 97 bc 85 a0 2f 3d
       0.004280361 0.07926011 -0.01844712 0.042877693
0000f0 9c 20 cd 3b ef 86 55 3e 04 46 e2 3e 96 7c 5e bd
       0.006259991 0.20852254 0.44194043 -0.054318033
000100 a5 a6 11 bd 60 d3 c7 3b 9d 67 1a bc 49 29 be bc
       -0.035559315 0.006098196 -0.009424117 -0.023213046
000110 72 db ee bd 23 5b 84 bd fb 97 b4 bd 9e 10 f0 3d
       -0.116629496 -0.064626954 -0.088180505 0.117219195
000120 3d 6e 56 bd 7d 43 d2 bd 7f 85 c4 bd 14 f4 ef bd
       -0.052351225 -0.102667786 -0.09595775 -0.11716476
000130 95 87 0c bd eb bd 5d bd 5f 7a e3 bd ed 3a 52 bd
       -0.03430899 -0.054136198 -0.11107325 -0.051325727
000140 15 4f a1 3d a4 d6 e1 bd a5 12 55 bc 1f 5a e3 3d
       0.07876412 -0.110272676 -0.0130049335 0.111011736
000150 4d 22 82 3d e6 71 d4 bc 0d 15 5c 3d 2e 2b 6e bd
       0.063541986 -0.025933217 0.053731013 -0.058146648
000160 c9 a3 b3 bd 08 df bb bd 0f ad ad bd d7 36 9f 3d
       -0.08771474 -0.09173399 -0.08480274 0.07774132
000170 cf a3 dd bb 9b a7 e8 bd 1f 52 90 bd bd 9f f9 bc
       -0.0067639123 -0.11360093 -0.07046913 -0.030471677
000180 84 83 66 3d 89 ed ec 3c a4 5b 96 3c 05 28 31 bd
       0.056277767 0.02892186 0.018354245 -0.043251056
000190 d0 91 5f bc f2 bf 8f 3d b1 30 22 3d 10 cd 33 bd
       -0.013645604 0.070190325 0.039597217 -0.043896735
0001a0 fe 86 0b 3e 58 21 9e 3d 74 80 04 3d d7 fa 3f 3d
       0.13625714 0.077212036 0.032349065 0.04687008
0001b0 c6 7e 92 3d 05 c5 08 bd 79 de a8 3c 4a 75 50 bd
       0.07153086 -0.033391017 0.020613896 -0.050893106
0001c0 27 a8 3b bd e2 33 a6 bb 10 ea ef bd 63 1c cf 3d
       -0.04581466 -0.005072103 -0.11714566 0.10112836
0001d0 9d d8 d3 bd 61 10 ce bd 98 c9 cf bc 7e e2 87 3d
       -0.1034405 -0.10061718 -0.025364682 0.06634997
0001e0 b5 ce a0 bd ff 27 62 bc 89 22 7c 3d a4 b4 ec bd
       -0.07851926 -0.013803481 0.061556373 -0.11557892
0001f0 7b 19 c2 3d 6a 03 4f 3d d6 a8 e0 3c f7 5a 02 bc
       0.09477516 0.050540365 0.027424257 -0.007956258
000200 44 d4 6a 3d b1 53 ad bd 18 08 8d bc 12 5c c4 3d
       0.05733134 -0.084632285 -0.017215773 0.095878735
000210 e6 31 31 bd ed 2b c8 bc 3d 07 2e 3d 8e 92 e4 bc
       -0.043260477 -0.024435008 0.04248737 -0.027901914
000220 05 19 d0 bd 43 3d d5 bc cd 54 72 bd d8 df 38 be
       -0.10161022 -0.026030188 -0.059162904 -0.1805414
000230 66 e4 8d bc 2d fb 4d bd 6d 76 52 3d ad a5 23 bd
       -0.017320823 -0.050288368 0.05138247 -0.039952923
000240 ba 0e d0 bd 14 7c 25 3e e7 8c a4 bb 42 60 7e bd
       -0.10159059 0.16160613 -0.0050216797 -0.062103517
000250 85 45 86 3c ff 4e 65 3d 69 78 a8 3d 6a f3 ab 3d
       0.016390571 0.05598354 0.082260914 0.08396037
000260 49 dd 72 bd 9d 37 1f 3d 52 ce 47 3d 58 55 e4 bd
       -0.059293065 0.038871396 0.048780747 -0.111490905
000270 9b 57 3b 3d ba 00 f3 bd db 7f b9 3d e2 7d f3 bd
       0.045737844 -0.11865373 0.090575896 -0.118892446
000280 ca 4a 24 3d 3b cb 46 bd fe 98 96 3c d4 7c 08 bd
       0.040110387 -0.04853366 0.0183835 -0.03332217
000290 86 31 0e 3c fb 88 6a bd 97 94 88 3b 5b 68 8d bd
       0.0086787995 -0.05725954 0.004168104 -0.0690467
0002a0 64 1e 70 3d d5 30 78 3c ba b5 fe bc d7 0a 85 bd
       0.058622733 0.015148361 -0.031092513 -0.06496208
0002b0 c8 7d a0 3a fb c9 04 be 81 ee 4e 3b 49 0c b7 3d
       0.0012244517 -0.12967674 0.0031575265 0.0893789
0002c0 1f 67 0b 3d 42 be 45 bd 8b d6 b6 3c b4 86 81 3d
       0.03403389 -0.048277147 0.022319099 0.06324521
0002d0 f1 d3 43 3d 3d 50 9a bc 95 24 09 3d 94 18 ce bc
       0.047809545 -0.018837089 0.033482153 -0.025158204
0002e0 01 bc 52 bb 16 e4 48 bd 0a 5e e2 bd 8e 8e cd bd
       -0.0032155516 -0.049045645 -0.11053093 -0.10036956
0002f0 48 9b 84 bc 80 20 b9 bd 7e 6b aa 3d 3c aa 48 be
       -0.016187325 -0.09039402 0.08321284 -0.1959619
000300 90 a9 8c bb db f9 e5 3d c4 12 bd bb 29 89 ac bd
       -0.0042926744 0.11229297 -0.0057700593 -0.08424599
000310 cd ac 8f bc 2a 8c ec bd a4 49 19 3e 8c e6 39 3d
       -0.017538453 -0.11550172 0.14969498 0.045385882
000320 97 d8 8d 3d 8d a9 fb bd 3d c2 4a 3e cc d0 f7 3d
       0.06926077 -0.122881986 0.19800659 0.12100372
000330 fc 99 04 3e 77 a1 35 3e e6 0d 08 3e ea da 85 3e
       0.12949365 0.17737375 0.13286552 0.2614358
000340 6f e2 78 3d d5 0e 56 bd b8 b8 d9 bd 34 e7 2e 3e
       0.06076282 -0.05226024 -0.106309354 0.17080384
000350 54 1a f8 3d 91 5c f3 3d cc 07 a5 bd 13 1b 11 3d
       0.12114397 0.1188289 -0.08058128 0.03542621
000360 05 8a 92 bd 94 3d be b9 24 e1 7f 3d a6 9a 15 3e
       -0.071552314 -0.00036285503 0.06247057 0.14609775
000370 30 27 2a 3e 70 dd 1f 3e b7 a1 bb 3e f9 34 b7 bd
       0.16616511 0.15611815 0.36646816 -0.089456506
000380 78 5e 78 3d 26 0e 1a 3e bd b7 3a 3c d6 3e b4 bd
       0.060636967 0.1504446 0.011396346 -0.088010475
000390 f0 ab 86 3d ca ae 3f bd 14 4b 93 bd c1 28 2a 3d
       0.06575763 -0.04679755 -0.071920544 0.041542772
0003a0 3c e2 86 bd 32 4e 22 3e 1f 8a ff 3d 25 3a c7 3d
       -0.065861195 0.15850142 0.124775164 0.09727887
0003b0 14 92 51 bd cc 16 03 3e 7c bf 6e bd 80 ff 27 be
       -0.0511647 0.12801665 -0.058288082 -0.1640606
0003c0 26 d1 f3 3d c5 cf 01 3e f1 a6 2c 3c b7 29 b0 bd
       0.11905126 0.12676914 0.010537849 -0.086017065
0003d0 7b 5d 99 3d 41 7f 0e 3e f3 1f a2 3c 12 b2 e5 3e
       0.07488533 0.13915731 0.019790625 0.4486242
0003e0 48 c9 bd bd 65 39 30 3e 4e 0e f0 bc 4e 80 25 bd
       -0.09266907 0.17209394 -0.029303696 -0.040405564
0003f0 59 bc 1e bd e7 4c 72 3e 92 18 f6 3e ae 29 fb 3d
       -0.03875384 0.23662148 0.4806562 0.12263809

critic.2.bias f4 [64]
000000 00 c7 f6 3d 67 ca 79 bd f0 fe ab bc 9a 2d 0e 3d
       0.12049675 -0.06098404 -0.020995587 0.034711458
000010 91 a6 9e bd 32 0f f5 bd 45 6c 4c bd 7d db 12 be
       -0.07746614 -0.11965789 -0.04990794 -0.1434154
000020 46 a6 87 bd 41 ce 98 bd b5 9d 9e 3d ef e0 80 3d
       -0.06623511 -0.07461215 0.07744924 0.06292903
000030 19 0c 0a 3d 88 33 0c 3d 51 b3 25 bd 8b 1b a8 bd
       0.033702943 0.03422883 -0.040454213 -0.082083784
000040 f7 e8 a9 bd 7c 79 2b be af bf d1 3d ea 51 44 3d
       -0.08296388 -0.16745561 0.10241639 0.04792968
000050 ef 0e d3 3d f4 13 08 3d 3c 29 7b 3b 0b b7 16 be
       0.10305583 0.033222154 0.0038324138 -0.14718263
000060 9f 9d a3 3d 82 c7 e6 bd 5d f9 87 bd c8 1b ed bd
       0.07989048 -0.11268522 -0.06639359 -0.115775645
000070 2a 57 7d 3d fd 41 00 3d e9 b6 1b bd ad f6 7f bc
       0.061850704 0.03131293 -0.038016234 -0.015622777
000080 c1 c0 28 bd 70 71 a2 bd b3 38 98 3d c6 19 00 bd
       -0.04119945 -0.07931793 0.074326895 -0.03127458
000090 81 2d 76 bd 2d 9b fc bd f5 bc 18 bd 8e 34 53 3d
       -0.06010199 -0.12334285 -0.03728958 0.051563792
0000a0 9f e6 fd 3d 2e ee df bd 14 e8 34 bd 69 99 b5 3c
       0.12397503 -0.10934101 -0.04416664 0.022167878
0000b0 87 d7 1f 3d 3c de 3e 3e 1c 51 d8 bd 72 a9 fa bb
       0.039023902 0.18639463 -0.105623454 -0.007649594
0000c0 47 24 43 3d 0c b4 b3 3c 09 7d 88 3d 08 e8 cf bd
       0.04764202 0.021936439 0.066644736 -0.10151678
0000d0 3e 3a 7d bd 2d 81 11 be 2c 4c cc 3d d8 8a c6 bc
       -0.061823122 -0.14209433 0.09975466 -0.024236128
0000e0 1d 64 49 3d 81 15 12 3e 91 22 21 bd 93 8a 8a bd
       0.04916774 0.14266016 -0.039339606 -0.06764712
0000f0 92 5f f1 bd 91 3a b5 3d 6a 3a 01 be 67 f5 d2 bd
       -0.11785807 0.08849061 -0.1261994 -0.10300713

critic.4.weight f4 [1, 64]
000000 15 8e 4d be 6c e6 25 3d af 35 08 3d 06 ec 16 be
       -0.20073731 0.04050295 0.03325432 -0.14738473
000010 02 ac d5 bd 76 02 84 be a0 d6 93 3c 25 4a b8 3d
       -0.104331985 -0.25783128 0.018046677 0.08998517
000020 8d d0 75 3b a0 e2 b4 be b2 54 43 3d 89 d7 d5 bb
       0.003750834 -0.3532915 0.047688194 -0.006525938
000030 e2 2a 62 ba 88 1f e8 3c a6 c3 1d bc 17 cd 40 3c
       -0.0008627606 0.028335348 -0.009629166 0.011767647
000040 0f 7e 5a bc 04 a6 59 be ec c7 9b 3c 7a 8d c7 bc
       -0.013335719 -0.21254736 0.019016229 -0.024359453
000050 21 67 23 3c 5b ce 82 3c c9 42 48 be 3a c5 8b 3c
       0.009973318 0.015967539 -0.19556727 0.017061818
000060 45 24 d3 bc 6d 70 8d bd f0 d4 51 bb 58 24 64 be
       -0.02577413 -0.06906209 -0.003201779 -0.22279489
000070 b8 99 aa 3b 00 37 a0 bc 9f f6 1e 3c b7 c5 99 3c
       0.005206313 -0.019557476 0.009702354 0.018771036
000080 2f 86 75 3d 24 50 84 3d ba 08 13 3c 78 37 86 3a
       0.05994242 0.06460598 0.008974249 0.001023992
000090 5d 45 93 3b 26 fa 5b be 80 83 72 be 63 bd 3d 3d
       0.0044943527 -0.21482143 -0.23682976 0.04632319
0000a0 d2 31 12 bd 9b ec 56 3d 9a 4b 7a 3d 4a 35 db 3c
       -0.035692044 0.05247174 0.061107256 0.026758809
0000b0 d3 43 0e bc 93 17 1a 3e 68 9c c1 3c 99 31 08 3d
       -0.008683163 0.15048055 0.02363415 0.033250425
0000c0 17 99 ea bd 2a 73 d0 ba e5 52 1a be 8b 86 b0 3d
       -0.11454981 -0.0015903462 -0.15070684 0.08619412
0000d0 30 83 8a 3d 5f ee 82 be fe 1f 08 bd 83 15 a1 be
       0.06763303 -0.25572488 -0.033233635 -0.31461725
0000e0 47 ad 38 3c 25 5e 37 3d c1 8c 2f be ca a6 4c be
       0.011271781 0.044767518 -0.17143537 -0.199855
0000f0 3e 72 18 bd 5e fd 25 3d b0 a9 9b bd 85 c3 e0 bd
       -0.037218325 0.040524833 -0.07600725 -0.109747924
