CybORG/CybORG/Models/meander_train/40000.pth (torch, 78565 bytes, 11 tensors)

actor.0.weight f4 [64, 62]
000000 52 67 a2 3d 1a a5 81 be 0d cd cb bd 88 dc 9c be
       0.07929863 -0.25321275 -0.0995122 -0.30637002
000010 1a ee 89 bd 67 a1 17 3e 30 38 ad 3e b3 2b 21 3f
       -0.067348674 0.14807664 0.3383193 0.62957305
000020 45 30 1f bd a8 58 83 3e 41 04 ec 3d a7 ec e7 3e
       -0.038864393 0.25653577 0.11524249 0.4529774
000030 5a f1 f8 3c 85 c8 e3 bd 3c 20 6b be 0a 7c 85 be
       0.030388523 -0.111222304 -0.22961515 -0.26071197
000040 ec ae 19 3e 5d 88 30 3e 77 54 b0 bd 78 f3 0c 3c
       0.15008134 0.17239518 -0.086098604 0.008602969
000050 1b b1 07 bd c0 c2 30 3d 86 1c d6 bc 15 d5 1a 3e
       -0.033127885 0.043154478 -0.026136648 0.15120347
000060 6c 94 0f bc 88 56 9b bd cf 82 eb 3d d0 4b 1b be
       -0.008763414 -0.07584864 0.11499559 -0.15165639
000070 15 c9 e6 be 3e 4f 12 be e4 89 38 be dd 7f f7 3d
       -0.45075288 -0.14288041 -0.18021351 0.12084935
000080 c7 d5 2f bd 18 77 70 bc b9 b6 b5 bd 8b 2f 5d bd
       -0.042928483 -0.014676832 -0.08872742 -0.05400042
000090 4f d5 ae be 5a 2f 2b be 2f 88 c8 3e ed 0c 9e 3e
       -0.34147117 -0.16717282 0.391664 0.30869237
0000a0 9c f6 19 3e 19 10 d9 bd e6 a2 d9 3c a6 e9 0a 3c
       0.1503548 -0.105987735 0.026566934 0.008478558
0000b0 6e 4b a9 be aa a1 f7 bd e2 3f cf 3d b2 43 24 3e
       -0.3306536 -0.12091382 0.101196066 0.16041449
0000c0 22 0e 9e be 77 3c 90 be 06 b4 93 3e d3 c4 d3 3e
       -0.30870157 -0.2817113 0.28848284 0.41361102
0000d0 e2 1e 44 3e 6d af 8c 3d a5 a2 24 3e 2d 44 56 bd
       0.19152406 0.06869397 0.16077669 -0.05231111
0000e0 1f e4 58 3d 39 8c 7d bd 64 fc 28 bd 3a 36 ae 3c
       0.05295193 -0.061901305 -0.041256323 0.021266092
0000f0 e1 22 b7 3d 1c 23 ac 3d d3 6d 31 bb be f3 65 be
       0.089421995 0.08405134 -0.0027073517 -0.22456262
000100 2d 51 e6 3c 48 f8 70 be f4 c5 1e 3d dc 42 94 3d
       0.02811488 -0.23532212 0.038763 0.07239315
000110 f0 5c aa 3d 53 18 c6 3e 5c b4 9f 3c 41 9d fb 3d
       0.08318508 0.38690433 0.019495182 0.12285853
000120 d2 9c 84 3e fd e5 1e 3f c6 53 80 3e 0e a6 d6 3d
       0.25900894 0.62069684 0.25063914 0.10480891
000130 8c 04 f5 3d d1 91 05 be df f4 03 3e b9 01 10 3d
       0.11963758 -0.13043906 0.1288638 0.035157893
000140 d5 65 f2 bd c9 fa a4 3d 85 ac d2 3c f2 be 3c be
       -0.11835829 0.08055646 0.02571703 -0.18432215
000150 23 bb c2 3c c3 58 20 bd 6b 86 44 bc a4 d5 92 bd
       0.023770874 -0.03914715 -0.011994938 -0.07169655
000160 12 0b 48 3d 73 45 f4 bd 13 8e c1 bd 00 79 ad 3d
       0.048838682 -0.11927309 -0.09450927 0.084703445
000170 01 51 d9 bc 98 b0 b9 bc 63 fb 5e be 49 de 52 be
       -0.026527883 -0.022667214 -0.21775584 -0.20592608
000180 b6 de 81 3d e5 54 b2 3d e3 b7 d9 be c0 6b bb be
       0.06341307 0.087075986 -0.42523107 -0.36605644
000190 bb 02 81 3e c1 ab c0 3e 56 a2 29 3d 30 73 ae bd
       0.25197396 0.37631038 0.04141458 -0.08518064
0001a0 f7 27 91 be d4 c6 be be 6a ab 7b be f3 27 35 be
       -0.28350803 -0.3726107 -0.24577108 -0.1769102
0001b0 db 94 03 3e f9 f1 14 bd 73 b8 8e be c4 f5 9e 3d
       0.12849753 -0.036363576 -0.278751 0.0776172
0001c0 b4 b5 79 be 63 fd 94 bd 5b 30 3f 3e 44 a7 93 bd
       -0.2438572 -0.07274892 0.1867079 -0.07209638
0001d0 7f 95 4f 3d 9b 2b 9f bc a2 6a 09 3e 02 a4 3e 3d
       0.05067968 -0.019429972 0.13419583 0.04654313
0001e0 8a 32 85 3d e5 08 62 3c b1 ef 55 bd 55 0b 80 3d
       0.0650378 0.013796066 -0.05223054 0.062521614
0001f0 79 53 f3 3d 40 9b e9 3d 2c 8c e4 bd 13 36 9d bd
       0.118811555 0.11406565 -0.11159548 -0.076763295
000200 74 15 0a 3c 20 4a 82 be 20 76 ba be ac ff 17 bf
       0.008427966 -0.25447178 -0.36418247 -0.593745
000210 fd 15 81 3d 3a e9 4d 3c 42 ef 4e 3e 81 2d 2f be
       0.06303022 0.012567813 0.20208457 -0.17107202
000220 05 e2 08 bd 9d 72 99 bd cc 92 1b bb 11 a7 2e bd
       -0.033418674 -0.07492564 -0.002373862 -0.042639796
000230 b5 72 c0 3d 3a 35 21 3e 5c f0 f6 3d a8 8d 3b 3c
       0.09396879 0.1574296 0.12057564 0.011447348
000240 de b7 27 be e8 f0 af bd d4 19 b1 3d 0f 3c ff 3d
       -0.16378734 -0.08590871 0.086475044 0.12462627
000250 0a 76 ab bd 31 3b 6b bd 5f 69 f3 bd 3a f1 4e bd
       -0.083721235 -0.057429496 -0.11885332 -0.05052302
000260 e7 12 1a be fb 7b 24 3e 90 c9 9a 3d 1b 92 4e be
       -0.15046273 0.1606292 0.07557976 -0.20172922
000270 e1 89 a9 3e 95 66 b7 3b b6 f2 db bc ea 50 5f bd
       0.33113006 0.0055969455 -0.026849132 -0.054520525
000280 0f b3 9a 3b 4f f3 8e bd 07 d4 de be d1 73 bd be
       0.0047210525 -0.06980001 -0.4352114 -0.37002423
000290 23 ac 26 3c c2 a3 39 3e cb 20 a3 be 73 a9 b2 be
       0.0101728765 0.18128875 -0.31860957 -0.34894904
0002a0 f3 c7 b7 3e 54 36 58 3e 79 b7 35 3d 2b 83 69 be
       0.35894737 0.21114475 0.044364426 -0.22803943
0002b0 7f ad 56 3e 92 b4 75 3c ef 78 24 be ba 73 08 3e
       0.20964621 0.014996665 -0.16061758 0.13325396
0002c0 94 e6 d5 bc 1f d0 38 bd e3 61 93 3d 6d fe 05 be
       -0.026110925 -0.045120355 0.07196405 -0.13085337
0002d0 fd 1a 31 bd 69 77 8a 3d 04 a4 34 3e 9b bc f3 3c
       -0.04323863 0.06761057 0.17640692 0.02975302
0002e0 0a ca 1d 3e 62 22 07 3e e3 60 07 be 90 c5 62 bd
       0.15409103 0.1319671 -0.13220553 -0.05536419
0002f0 6d dc 70 bd af a5 f0 3b ba d8 bf 3d 02 7e cf 3e
       -0.058803964 0.00734397 0.09367509 0.40525824
000300 db 29 28 3e 7a c1 f6 3e 4d 41 5f be 99 22 73 bd
       0.16422217 0.48194486 -0.21802254 -0.059359167
000310 f0 35 43 be 76 09 f0 be 70 e1 92 be db 5d c3 bc
       -0.19063544 -0.46882218 -0.2868762 -0.023848465
000320 9c b2 81 bd 8a 22 16 bd 06 0c 1e be f8 d6 00 be
       -0.06332895 -0.036654033 -0.15434274 -0.12582004
000330 24 07 97 bd 9b 8e 93 3d af 09 73 bd 7e 44 d8 3d
       -0.07374409 0.07204934 -0.059335407 0.10559939
000340 05 1b 3c 3d 73 01 1c 3c 6b d2 21 bd cb 52 fc bc
       0.045924205 0.00952183 -0.03950731 -0.030801198
000350 87 88 82 3c 28 76 86 bd ea 44 27 be 3a 14 e2 3d
       0.015934242 -0.06565505 -0.16334882 0.11039014
000360 7d 89 5a bc c4 98 e4 bd 6e 24 b9 3e 47 e6 a6 3d
       -0.013338444 -0.1116195 0.36160606 0.08149391
000370 84 69 15 bc fc e3 ad 3d 95 6e c0 3e 90 f5 6e 3e
       -0.009119395 0.0849075 0.37584367 0.23335862
000380 ad 00 7d be cf 57 bc be d9 60 77 bc d1 8c d8 bd
       -0.24707289 -0.36785743 -0.015098774 -0.105737336
000390 40 6e 00 3e f7 4e bf 3e 7e cb 13 bd 6e 28 59 bd
       0.12542057 0.37364933 -0.036082737 -0.053017072
0003a0 f6 f3 56 be d3 72 69 3e a3 3c a4 3c 33 f4 9c bd
       -0.20991501 0.22797708 0.020048445 -0.07663765
0003b0 38 ea 25 3e e3 e5 69 3e bb 41 18 be 89 d0 07 3d
       0.16202629 0.22841601 -0.14868824 0.03315786
0003c0 a8 b0 2c bd 30 38 1c 3d f6 60 e2 bd 1b 48 48 3d
       -0.04216066 0.038139522 -0.1105365 0.04889689
0003d0 8f 35 15 3e ca b9 11 bd c0 c4 28 3e 80 d0 7a bd
       0.14571212 -0.035577573 0.16481304 -0.061233997
0003e0 f6 f8 f1 ba 80 63 88 3c 4e 6f 35 be 77 4c d4 3d
       -0.0018461037 0.016649008 -0.1771824 0.10366147
0003f0 dd e2 bb 3d c3 c8 3b 3e 62 a1 4e 3e a6 1a a4 3e
       0.0917413 0.18338303 0.2017875 0.3205158

actor.0.bias f4 [64]
000000 00 e5 08 3c 13 53 d5 3d fb 93 cf 3d f9 44 10 3d
       0.008355379 0.10416236 0.10135647 0.035222027
000010 81 43 ca bc 94 ea 0e bd 55 45 b5 3d 1c a9 3f bd
       -0.024690391 -0.03489168 0.08851115 -0.046792135
000020 6b 89 b7 3d 92 47 08 3d cd 27 d3 3d 49 81 99 bd
       0.08961757 0.03327138 0.10310326 -0.07495362
000030 57 16 b9 3d 3a 69 04 3e 27 9f b2 bd 2e c5 aa 3d
       0.09037464 0.12930766 -0.08721762 0.0833839
000040 e7 3e c5 bd cd ec 06 bd 28 3d 9b bd 69 f4 70 bd
       -0.09631138 -0.032940675 -0.07580024 -0.058826838
000050 8e ad 53 bd 02 f9 8a bd 1b 59 82 3d dd 68 cd bd
       -0.051679187 -0.06785776 0.06364652 -0.10029767
000060 78 41 41 3d 48 b4 d8 3d c0 f9 e4 3d 6b 07 26 3e
       0.047181576 0.10581261 0.111804485 0.16213767
000070 a9 76 0f 3e 42 d3 13 3d 3e e4 d8 bb c6 85 be 3d
       0.14010109 0.036090143 -0.0066190055 0.09302859
000080 25 4f b4 3d 84 5a 97 bc 73 6e 24 3e a4 1d 89 bd
       0.08804158 -0.018475778 0.16057758 -0.066951066
000090 d0 de 25 3e 27 0f b8 3d 77 33 94 3c 11 d7 37 be
       0.16198277 0.08987265 0.018090947 -0.17953135
0000a0 cb d7 55 3e d2 12 24 3e 0a 34 69 3d 5f 27 6b 3d
       0.208831 0.16022804 0.056934394 0.057410594
0000b0 c5 35 9d 3d e0 a4 76 3e 07 89 35 3c 5c 42 e8 3d
       0.07676271 0.24086332 0.011080033 0.11340782
0000c0 09 4b f7 3d a9 59 30 3d 61 9c 3c 3d d0 eb 50 bd
       0.12074859 0.043054257 0.046047572 -0.05100614
0000d0 95 b3 29 be eb ae cf 3d 5c 3e 56 3e ad 73 17 3e
       -0.16572411 0.10140785 0.20922226 0.1479022
0000e0 44 d7 e5 3d 0e fe 81 3d 7d 18 b4 bd 64 18 85 3d
       0.11222699 0.06347285 -0.08793733 0.06498793
0000f0 70 9a f8 3c ce 44 0e bd 23 13 ec 3c d9 7c 12 3c
       0.030347079 -0.034733586 0.028817719 0.008940899

actor.2.weight f4 [64, 64]
000000 f3 79 1a be 1f 25 12 be 7c be 60 3d ce ff e6 bd
       -0.15085582 -0.14271973 0.05486916 -0.112792596
000010 64 f3 51 3c 25 74 c4 3d b5 43 03 bd f2 04 03 be
       0.0128143765 0.09592465 -0.032046992 -0.12794855
000020 d7 1f 16 be 8a d2 a2 3c 99 8b ce bd ab e8 65 bd
       -0.14660583 0.019875783 -0.1008522 -0.056130093
000030 ae 44 bd bc 55 bf 68 bd 27 c3 15 3d 66 16 1f bd
       -0.023104038 -0.056823093 0.036563065 -0.03883972
000040 c3 4c 94 bd 60 31 32 bd 0e 88 a0 3d f2 a6 0d be
       -0.07241204 -0.04350412 0.0783845 -0.13833216
000050 33 8d 40 3c 46 4d 90 bc 23 7a bc bc 98 af 51 bd
       0.0117524145 -0.017614972 -0.023007458 -0.05119285
000060 01 36 db bd d9 20 b0 bc 3d 79 9b bd 1a 54 25 3d
       -0.1070366 -0.021500038 -0.07591484 0.04036341
000070 78 b6 81 bd b1 94 e6 3c 61 fa 94 3d 88 97 54 3d
       -0.06333631 0.028147073 0.072743185 0.051902324
000080 53 8a 0e bd df 1a 65 3d 80 44 f1 bd bb dc 07 be
       -0.034799885 0.05593383 -0.117806435 -0.13267796
000090 03 89 cf bc fe 2e 06 be 89 3e 1b be bc be 76 3d
       -0.025333887 -0.13103864 -0.15160574 0.060240492
0000a0 97 41 e6 3d 4b 6b 50 bd fe f3 99 bc e8 4e 92 bd
       0.11242979 -0.050883573 -0.018793102 -0.071439564
0000b0 d2 15 a4 bb 88 7f e1 3c e8 c5 3e bc da d6 bb 3d
       -0.005007484 0.027526632 -0.011643864 0.09171839
0000c0 85 f5 cc bd 6f 5e 92 bc e3 17 48 bd bc 81 b8 3d
       -0.10007767 -0.017867295 -0.048850905 0.0900912
0000d0 85 28 e2 3d 60 a5 94 3c ea 3d e4 3d 60 9f 6a bd
       0.11042885 0.018145263 0.11144622 -0.057280898
0000e0 00 f3 78 be 1c c2 cd bd 2e ee 03 bd 4d f9 fd bd
       -0.24311447 -0.10046789 -0.032209568 -0.12401066
0000f0 81 f5 26 3c 9f a4 54 bd c8 13 b3 3c 3e ed 15 be
       0.010190369 -0.051914807 0.021860018 -0.14641282
000100 33 06 02 bd 4d a6 9c bd ae e9 aa bd e7 28 b1 3d
       -0.031744193 -0.07648907 -0.08345352 0.0865038
000110 a4 41 71 bd b2 a1 d1 bd 14 91 b1 bd bb db 1a be
       -0.05890049 -0.10235919 -0.086702496 -0.15122883
000120 7d 1c 62 3d 3b bc a7 3d 6c cd 04 3d 95 3f 7e 3c
       0.05520295 0.08190199 0.032422468 0.015518089
000130 52 7b fd bd be 60 ec bd 6f 8e 0b be a7 3b 1e be
       -0.12377037 -0.115418896 -0.13628553 -0.15452443
000140 53 c8 52 be ea fd de 3d ca 8a bb 3c 4d 61 a8 bb
       -0.2058423 0.10888274 0.022893328 -0.0051385523
000150 fc c7 0c be 72 a0 2b bd 57 fb 07 bd 6d 9a fa bd
       -0.13748163 -0.04190106 -0.03319868 -0.12236486
000160 df 11 02 3d 09 2a 8e 3d 42 e3 00 be 7e 74 d2 3d
       0.031755324 0.06941611 -0.12586692 0.10276125
000170 6d 2e 38 bb ea b3 ec 3b 8a 59 38 be a8 a8 fc bc
       -0.0028103844 0.007223596 -0.18002906 -0.03084214
000180 85 38 d0 bd f7 12 4a be 53 99 cb bd 4b 9c 96 bd
       -0.1016703 -0.19733797 -0.09941354 -0.07354029
000190 94 01 77 bd ca c0 1b be 3f b8 45 3d 74 7e d1 3b
       -0.06030424 -0.15210262 0.048271414 0.006393248
0001a0 68 2a 01 be 6c 25 4f 3b ef 9b 82 bb 8f de 84 3d
       -0.12613833 0.0031607999 -0.003985874 0.06487762
0001b0 c3 6e e0 bd 00 14 63 bb c8 ac 98 3d b2 8c 31 be
       -0.10958626 -0.0034649372 0.074548304 -0.17338827
0001c0 fb fe f1 bd 96 98 fa bb a7 68 b7 bd a0 0e f0 3b
       -0.11816212 -0.007647584 -0.08955508 0.007325962
0001d0 fa 0d 33 3e 72 db 74 bd 49 e7 ee bd 32 d2 d1 3d
       0.174858 -0.05977959 -0.11665208 0.1024517
0001e0 91 d9 90 bd a1 29 9e bc 07 6d 36 bc 7e 1f 6e bd
       -0.070727475 -0.01930696 -0.011134393 -0.058135502
0001f0 2e 86 e4 bd a7 08 72 bd b4 fc 1d 3d 34 bb ea bd
       -0.11158405 -0.059090283 0.038571075 -0.114614874
000200 3f 78 85 bd 5d 0a 92 3d 9a 56 63 bd 76 b0 49 3d
       -0.06517076 0.07130883 -0.05550251 0.049240552
000210 c5 41 02 3e 71 a3 97 3e 56 d9 e0 3c 63 bd a0 3d
       0.12720402 0.29616883 0.027447384 0.07848623
000220 13 b9 6a 3e fe 80 b5 bb 7d 40 f9 3c b0 af 0d 3e
       0.22922163 -0.0055390587 0.030426258 0.1383655
000230 4b 50 3c 3d 66 65 80 3e bd f4 a8 3d 0e 1e 85 3c
       0.04597501 0.2507736 0.08249805 0.016249683
000240 ef 85 ef 3d 00 e1 a5 3d 92 d0 18 3e d5 16 bb 3d
       0.11695468 0.08099556 0.14923313 0.09135214
000250 b6 a7 be bd ba d0 45 3d d3 7e d1 ba a5 b5 58 3e
       -0.09309332 0.04829476 -0.0015983231 0.21163042
000260 18 8c 7b 3d b8 ab 09 be 3a ca 16 3e b2 5e bb 3d
       0.0614129 -0.13444412 0.14725581 0.09148921
000270 79 64 8f 3e 92 8f c2 3b 87 f3 6a 3e 38 38 8e 3d
       0.28006342 0.005937525 0.22944461 0.069443166
000280 38 10 d6 bc 26 bd 67 3e 73 f4 91 bd fa b2 3b 3e
       -0.02613078 0.22630748 -0.07126703 0.18329993
000290 07 73 51 be 1d a8 fb 3d 75 8c 8a 3d 71 b2 f9 bd
       -0.20454036 0.122879244 0.06765071 -0.12192238
0002a0 4b 8f f5 3d 60 fa 52 3d 6a ab 5a bd e0 67 24 3e
       0.119902216 0.051508307 -0.05338613 0.1605525
0002b0 d2 97 c9 bd 54 b5 7e bc 8c 83 c6 3d a6 7a ae 3d
       -0.098434106 -0.015546162 0.09693059 0.08519487
0002c0 b3 41 5e 3e 37 a8 0e 3e 5e 98 cb bd 3e 43 98 bc
       0.2170475 0.13931356 -0.09941171 -0.018586751
0002d0 8b 42 95 3d d4 53 48 bd 52 fb 4a be 28 95 2a be
       0.07288083 -0.04890807 -0.19822434 -0.16658461
0002e0 7f 7d 8e bd 8f 22 0d 3e d7 de 7a 3e e2 ae 90 3e
       -0.0695753 0.13782714 0.24499069 0.28258425
0002f0 b1 36 8d 3d 93 15 dd 3d 8a 68 b0 3d a1 9a 17 be
       0.06895197 0.107951306 0.08613689 -0.1480508
000300 e5 95 83 3d ec a1 3b 3d 29 7b 33 3d 0f 73 11 3e
       0.064250745 0.045808718 0.043818627 0.14204048
000310 f3 41 c4 bd 3f 8e d8 bc 7e 7d ff bd c6 a2 12 bc
       -0.09582891 -0.026435016 -0.124751076 -0.008949941
000320 25 8a 48 3d bc c4 91 3c 62 32 29 be e6 ae bc bd
       0.04895987 0.017794006 -0.16523126 -0.09213047
000330 9d 99 8f bd 54 73 43 3b 95 12 47 bd 28 04 fb bd
       -0.07011721 0.002982338 -0.048601706 -0.12256652
000340 65 9f 89 bd 28 05 28 3d f4 2e 4f 3d c7 ab 10 3e
       -0.06719855 0.041020542 0.050581887 0.14128028
000350 5b 09 50 3c a6 e6 ec 3c 16 18 a5 bd cb af 90 bc
       0.012697543 0.028918575 -0.08061235 -0.01766195
000360 46 38 86 3b 9a 3d 9e 3d 27 c6 e1 3c c2 34 cf bd
       0.004096064 0.07726593 0.027560307 -0.10117485
000370 58 c0 20 be d2 2a 23 be 20 ba bf bd fe ca c2 bc
       -0.15698373 -0.15934303 -0.093616724 -0.023778435
000380 f7 cb d5 3d e5 b7 59 bd f3 5f 51 3c f1 04 06 3b
       0.10439294 -0.05315389 0.012779224 0.0020449723
000390 04 a0 21 be 6d 00 04 be 7a 0f 05 3d 9d 4e 7e 3d
       -0.15783697 -0.12890787 0.032485463 0.06208669
0003a0 46 0b a3 bd 50 84 d9 bc 2c ad 13 be 51 19 ca bc
       -0.079611346 -0.02655235 -0.14421529 -0.024670275
0003b0 ae 29 37 3d b6 a7 cf 3b 65 e7 6f bd 83 ba be 3c
       0.044717483 0.0063371314 -0.058570284 0.023282295
0003c0 9e 7d 28 bd 29 ad 8c 3d 64 0c c8 bd 20 26 d7 bd
       -0.041135423 0.06868965 -0.09767988 -0.10505319
0003d0 a4 81 d5 bd 56 71 d3 bd 77 e2 d1 3d 24 8f d5 bd
       -0.104251176 -0.103243515 0.10248273 -0.104276925
0003e0 ec 21 08 be 71 c2 30 3c 4d b2 da bd 43 4f 85 bc
       -0.1329419 0.010788546 -0.106785394 -0.016273146
0003f0 0b 5c ae bb e5 56 47 bd de 81 60 3d b0 ac 8e 3d
       -0.005321031 -0.048666853 0.05481135 0.06966531

actor.2.bias f4 [64]
000000 9c c8 6b bd ba 72 db 3b 12 2b 98 3d cc 71 23 be
       -0.057564363 0.006697026 0.0743009 -0.15961379
000010 32 09 15 3e 69 ea 30 3e 05 b9 3e bd 4d dc 23 3d
       0.14554289 0.1727692 -0.046563167 0.040005017
000020 9f f6 a2 bd 77 5f e6 3d 45 b0 b6 bd 25 8b f0 3d
       -0.079571955 0.11248677 -0.089203395 0.1174529
000030 6f ea 83 bd 21 48 c0 bd b4 e2 bb 3d 80 60 7d 3c
       -0.06441199 -0.093887575 0.091740996 0.015464902
000040 6a 17 7f 3c c4 fc db 3d 36 db 84 3d cc cc 9f 3d
       0.015569547 0.107415706 0.06487124 0.07802734
000050 d4 ef 54 bd 42 bd 73 3d 43 4c 59 3d 74 13 29 3e
       -0.05198653 0.059506662 0.053051244 0.16511327
000060 9a cf 52 3e 65 79 17 3d 52 f3 c7 3d 10 3f 94 bd
       0.20587006 0.036981005 0.097632065 -0.07238591
000070 52 5b 20 be 27 4c 8b 3d 02 46 35 3d 02 e5 ae 3d
       -0.15659836 0.06801634 0.044256218 0.085397735
000080 d9 bc 67 bd 72 df 2f 3d b3 46 f6 bc 3c 5e ad 3d
       -0.056576584 0.042937703 -0.030063009 0.084652394
000090 ca 07 e7 bb 9a c8 3d 3d f3 02 ee 3d 0c 8a 8d 3d
       -0.007050489 0.046333887 0.11621656 0.06911096
0000a0 f0 8b ec 3d 1b e3 1e be 58 b7 9c 3d 54 9a b6 3c
       0.115501285 -0.15516321 0.076521575 0.022290386
0000b0 3b 96 4f 3d f0 14 6e 3c 0d 19 d8 bd 02 0c a5 3c
       0.05068038 0.014531359 -0.10551653 0.020147327
0000c0 8f 47 d4 3c 96 79 ca 3d 93 26 c2 3d 07 be 0b bd
       0.025913028 0.09886472 0.09480014 -0.03411677
0000d0 3d 39 b9 bc df aa d3 bd d4 a2 47 3d df 02 c8 3d
       -0.022610301 -0.103353254 0.04873927 0.097661726
0000e0 37 10 a7 3d c3 a6 a9 3d db ff d2 3d f8 4f dd 3d
       0.081573896 0.082837604 0.10302707 0.108062685
0000f0 77 65 b6 3c a9 9c ed 3d bf 5c c4 3c 6a 73 95 bc
       0.02226518 0.11602146 0.023970006 -0.01824351

actor.4.weight f4 [36, 64]
000000 23 0a 1a 3c 5a 2c de 3c 3c be 15 3e 82 e9 94 bd
       0.009401831 0.027120758 0.1462335 -0.072711006
000010 55 c8 30 be a5 58 0a bf f9 1f 96 3e 78 81 89 3e
       -0.1726392 -0.5404151 0.29321268 0.2685659
000020 cc 48 7f bd 08 b3 c3 3d ec 16 cc bd 2e 76 65 3e
       -0.062325284 0.09555632 -0.099653095 0.22408363
000030 51 ce 2e be 5f 78 a5 bc 61 a7 93 bd fe 65 be bb
       -0.17070891 -0.020198999 -0.07209659 -0.0058104983
000040 84 c4 ce 3e d9 53 0f be b3 bd 01 3e dc 5d 8a 3e
       0.40384305 -0.13996829 0.12670021 0.27024734
000050 0f dd 96 3d 56 1d c4 be 9e 5a 18 be 7f 60 89 bd
       0.07366382 -0.38303632 -0.14878318 -0.06707858
000060 8d 05 aa be b4 86 98 bd 62 c4 02 3d 20 19 b0 3d
       -0.3320736 -0.074475676 0.031925566 0.08598542
000070 79 76 c5 bd a1 92 1d bf 41 4d 9e 3e e1 9f a8 be
       -0.096417375 -0.6155186 0.30918315 -0.32934478
000080 a3 15 9f be 7a 94 61 be fd 56 80 3d 85 d7 00 3e
       -0.31071195 -0.22029296 0.06266592 0.12582214
000090 fc 47 db bc 0a 0d 80 3e fd bf 46 3e 31 c0 11 bf
       -0.026767723 0.25009948 0.19409175 -0.56933886
0000a0 3a d5 e1 bd 98 eb 54 bd 6e a3 0c bf 20 8a 1f bf
       -0.11026998 -0.051982492 -0.54936874 -0.6232014
0000b0 32 69 ca bd 3d 8b 96 3e e1 ae 07 3d 70 1e 5e 3e
       -0.09883346 0.29403105 0.033125762 0.21691298
0000c0 11 1c 95 3d 0e 39 56 3e 1a 7f 0c bf dd d6 5d be
       0.07280744 0.20920202 -0.5488144 -0.21663995
0000d0 66 20 c3 3d 66 45 8a bc 7a b0 ad 3e 13 b0 93 3e
       0.09527664 -0.016878795 0.33923703 0.2884527
0000e0 3a c2 36 bf 84 40 e3 bd f5 73 c7 be df 2e 0a bf
       -0.71390116 -0.1109629 -0.38955656 -0.5397777
0000f0 ca 37 14 bf fd b0 14 3e 3f 8c eb 38 64 06 80 bd
       -0.5789763 0.1452064 0.00011231796 -0.06251219
000100 5b 70 c3 bd cf 85 d5 3d bb a8 b5 3d a9 ed a9 3c
       -0.095429145 0.104259126 0.088700734 0.020743208
000110 78 aa ac bd 8b f0 fe be aa 90 13 3e 96 04 76 3d
       -0.08430952 -0.49792895 0.14410654 0.060062967
000120 e9 b0 fa bc 7f a9 59 3e 31 6c 19 3d 0e 78 44 3e
       -0.030601935 0.21256064 0.037456695 0.19186422
000130 86 a1 85 3e 07 e6 cd bd 6b ec 8e 3e 43 91 ae 3c
       0.26099795 -0.1005364 0.27914748 0.0213095
000140 dd 37 af be 59 47 67 3e c0 c7 d3 be b1 a3 b2 be
       -0.34222308 0.2258581 -0.41363335 -0.34890512
000150 26 d7 87 3d b2 6e c4 3e 03 0e 0d be 6e e4 01 bf
       0.06632833 0.38365704 -0.13774876 -0.5073918
000160 14 54 07 bf 0b bd e2 3d 36 ba 4a bc 2b c8 c3 3d
       -0.5286267 0.11071213 -0.012373498 0.095596634
000170 ea a1 cf 3e 85 95 a2 be 5c e0 c3 be d6 1f 0d bf
       0.40553218 -0.317547 -0.3825711 -0.551267
000180 d4 b5 86 3d cc 6b a0 be fd 24 12 3e 76 eb e0 be
       0.0657765 -0.31332242 0.14271922 -0.43929642
000190 99 7c 04 3f 4b c5 06 3e 29 81 8c 3e 9a cd 3d bf
       0.5175262 0.13161199 0.2744229 -0.7414185
0001a0 f7 9f 61 3e e4 0f 62 bc e5 99 9d be 05 89 40 bf
       0.22033678 -0.013797734 -0.30781475 -0.75209075
0001b0 3b 05 df 3d df cb 2a be e5 30 54 bd 3c a2 11 3e
       0.108896695 -0.16679333 -0.051804442 0.14222044
0001c0 60 ae 86 be fa 31 c5 3d 49 14 2a 3e 2b 2c 25 bf
       -0.26304913 0.09628673 0.166093 -0.6452052
0001d0 19 93 e0 3d 50 f5 0e 3d c0 f5 9f be 07 e1 a6 be
       0.10965557 0.034901917 -0.3124218 -0.32593557
0001e0 99 3c a9 be a0 d0 1b 3d 16 26 0b bf 73 d7 99 3e
       -0.33054045 0.038040757 -0.5435499 0.30047187
0001f0 a1 66 d6 bd 50 f6 5a bc f5 92 a9 3d 14 ab 82 bc
       -0.10468794 -0.01336439 0.08279983 -0.015950717
000200 1f 3a fd 3d b8 4f 36 bb 08 40 1d 3e 29 f8 db bd
       0.12364601 -0.0027818512 0.15356457 -0.10740692
000210 5e e0 10 bf 76 62 12 bd 5a b1 94 bd 88 a2 94 be
       -0.5659236 -0.03573843 -0.072603896 -0.29030252
000220 15 93 f3 3c 6f 85 af be 72 b5 ce 3c 03 9e 55 3e
       0.02973322 -0.3428149 0.025233004 0.20861058
000230 5b 2a 8d 3e 89 30 c0 bc 8e 15 87 be 9f e8 be bd
       0.27571377 -0.023460643 -0.26383632 -0.09321713
000240 ac 01 d9 be 54 56 a3 3d 9f 28 77 bd b6 1b 23 3e
       -0.42384088 0.0797545 -0.060341474 0.1592854
000250 59 59 d2 3e 02 8b 67 be aa ed 98 3d 74 00 f2 be
       0.41083792 -0.22611621 0.07467206 -0.4726597
000260 56 2b 05 bf 9c 6c 96 3d 0a 50 6e 3d bf c1 9d 3d
       -0.5201925 0.07344934 0.0581818 0.0770297
000270 7a 87 af 3e b8 ca c3 be 40 cb 04 3e 32 dd f9 be
       0.34283048 -0.382406 0.12968159 -0.4880157
000280 de 28 04 3d 68 ab b5 bd 02 20 07 3e 32 91 d7 bd
       0.032265536 -0.08870584 0.13195804 -0.10525741
000290 92 4d bc bd cd 3d ac bd 79 b0 95 3d 29 3f bd be
       -0.09194483 -0.08410225 0.0730905 -0.3696225
0002a0 d9 6b 73 3e 79 d1 1c 3c 0a e0 27 bf 70 c7 bd be
       0.2377161 0.009571427 -0.6557623 -0.3706622
0002b0 73 a3 92 bd fd 81 39 bd 87 dc c4 3d 04 d3 71 be
       -0.07160082 -0.045289982 0.09612375 -0.23615652
0002c0 f3 89 ba 3e 28 a0 8a 3e 1d 94 fb be f7 5f 60 3e
       0.36433372 0.27075315 -0.4913644 0.21911608
0002d0 e4 86 50 3e 8f c0 77 bd e6 79 10 bf e0 45 96 3e
       0.20363957 -0.060486373 -0.56436 0.29350185
0002e0 ff f3 07 bf 85 aa c7 bd c2 d8 24 bf 3a 13 c9 be
       -0.53106683 -0.09749321 -0.64393246 -0.3927248
0002f0 4a 18 a9 be ac f4 31 3e 7c a4 51 3c 8c f2 9e bd
       -0.33026344 0.17378491 0.012795564 -0.07761106
000300 e0 38 f5 3d 85 3e d2 3c 1b 16 63 be 3c bf fb bc
       0.11973739 0.025664577 -0.22176401 -0.030730836
000310 3c 64 a6 bd cb 3e 4f bd 04 cc de 3b 86 ad b2 3b
       -0.08124587 -0.050596993 0.006799223 0.0054528145
000320 00 09 e1 bd 59 21 ba 3d 14 f6 44 3d 97 3a 88 3c
       -0.10988045 0.09088392 0.04808624 0.0166295
000330 0c 07 c9 bd d0 27 90 bd fd 03 3b be 4d 60 99 3d
       -0.09815797 -0.07038844 -0.1826324 0.07489071
000340 1b 86 92 be e5 2a bc bd 9c ed ba be d5 7c ba bd
       -0.2861794 -0.09187869 -0.36509407 -0.09105841
000350 10 50 3b be b0 3a 1f be 34 de b1 be c1 26 87 bd
       -0.1829226 -0.15549731 -0.3473984 -0.065991886
000360 ad 3b 38 be 13 fa 5e be 86 bd 58 bd 0d 58 16 3d
       -0.17991515 -0.21775083 -0.05291512 0.036705066
000370 fd 67 cb 3d b2 05 a6 bd 8e a9 3e 3d a8 a9 97 be
       0.099319436 -0.08106555 0.04654842 -0.29621625
000380 83 e7 e9 bc 27 8e 92 3d e5 df 9a bd cd 6d b2 be
       -0.028552776 0.0715602 -0.07562236 -0.34849396
000390 13 29 6a be 0b 96 68 bd 0f d8 ae bd 5a 25 33 be
       -0.22867231 -0.056783717 -0.08537304 -0.17494717
0003a0 98 74 60 bd ad 42 91 3d ab 6d f1 bd 25 67 66 be
       -0.054798692 0.070927955 -0.11788496 -0.22500284
0003b0 47 1a 69 bd 64 58 95 3c 34 9b 9c 3d 2c 68 b2 be
       -0.056909826 0.018230624 0.0764679 -0.34845102
0003c0 2c 9b 92 be c5 50 02 bd ce 9a db be f9 b1 b9 be
       -0.28634012 -0.03181531 -0.42891544 -0.36268595
0003d0 00 1f c9 3d 59 eb 97 3d bd f0 99 be 78 88 f6 bd
       0.09820366 0.07417936 -0.3006648 -0.12037748
0003e0 33 fd ce bd 96 84 a8 bd 9b da 16 be 6a 64 88 be
       -0.10106888 -0.08228414 -0.14731829 -0.2663911
0003f0 53 67 cb be 1f 43 61 3d a6 4d c9 bd d8 ce fc bc
       -0.39727268 0.054995652 -0.098292634 -0.03086035

actor.4.bias f4 [36]
000000 39 5a 06 be 37 6c 45 bc a7 c0 3e be 45 8e c5 bd
       -0.13120355 -0.012049726 -0.18628179 -0.096462764
000010 88 1e 76 3d ce 68 ac bd 3b 70 23 3d b0 7b f5 3d
       0.06008771 -0.084184274 0.039901953 0.11986482
000020 3e 00 6e bc e5 1d 84 bd a2 2b fe bd d6 d6 fb bc
       -0.014526425 -0.064510144 -0.12410666 -0.03074209
000030 27 41 c0 3d 5d 1c fb 3d 51 be 12 3e 8f d6 88 3c
       0.09387427 0.12261269 0.14330412 0.016703872
000040 28 da 2a bd c9 fa 1a bd 69 20 81 bc 21 75 9a 3d
       -0.041711956 -0.037836824 -0.015762525 0.07541872
000050 cb 5c 9f be 62 ac 1d 3d 89 42 0d 3d 22 f4 5d bd
       -0.31125483 0.038494475 0.03448728 -0.0541879
000060 b4 af 09 3e 0a 85 e7 3c 08 c2 29 3e d8 06 d7 bd
       0.13445932 0.02826168 0.16577923 -0.10499352
000070 0f 3f 18 3d 4f a0 71 3d 0f 3d f7 3d ea 8f d7 bd
       0.037169512 0.058990773 0.12072193 -0.10525496
000080 5f a3 ca bc d4 c1 df 3d 5c c0 01 3e a7 f9 1f 3e
       -0.024736105 0.10925642 0.12671036 0.15622579

critic.0.weight f4 [64, 62]
000000 7e 9a 54 3d dc b4 5b 3d 84 f1 c0 bd f5 2a de bc
       0.051905148 0.053639278 -0.094210654 -0.027120093
000010 f5 6c 63 bd a5 a3 dd bc f5 ec 06 bc 73 99 ac 3b
       -0.05552383 -0.02705557 -0.008235206 0.005267316
000020 73 bf 99 bd 94 15 a9 bc 83 35 98 bd d1 fd 06 bd
       -0.07507219 -0.020640172 -0.074320816 -0.032956902
000030 cc 7a a7 bd 16 de 87 bd 5f 47 e2 bd f9 02 de bd
       -0.081777185 -0.066341564 -0.11048769 -0.10840411
000040 fe 10 09 bc ab 20 dd bd 13 fe f7 bd 63 6a 8a 3d
       -0.008365868 -0.107972465 -0.12109008 0.06758573
000050 0c 4a bb bd 7c 17 b6 3d d6 10 10 3c b7 b9 4b bd
       -0.09144983 0.08891198 0.0087930765 -0.04973766
000060 3c 39 ac 3d da 1c e8 bd c0 34 79 3d b8 4c 83 3d
       0.08409354 -0.11333628 0.060841322 0.06411117
000070 73 ca a1 3d f7 dd f2 bd 77 b8 29 bc 98 33 dd bc
       0.07899942 -0.11858743 -0.010358921 -0.02700214
000080 f2 fb c0 bd 9a a3 b1 3d 52 32 b7 bc 88 1a 8a 3d
       -0.09423055 0.08673783 -0.022362862 0.06743342
000090 16 0d 8c bd 74 b4 66 bd 0f 83 e2 3c ff a4 b5 bb
       -0.068384334 -0.056324437 0.027650384 -0.0055433507
0000a0 c4 10 95 3d 69 e9 5d 3d fa ba d0 3d d1 b5 dd bd
       0.072785884 0.054177675 0.10191913 -0.10825694
0000b0 33 15 eb 3c 61 2f c1 3d 7c d4 95 bd 23 f5 c9 bd
       0.028696632 0.09432865 -0.07315919 -0.09861209
0000c0 73 ed ff 3d fe d0 d9 bd 58 ab a2 bd 5c 12 dc bd
       0.12496462 -0.10635565 -0.079428375 -0.10745689
0000d0 bf b1 95 3c d9 56 38 3c fa 99 04 be 52 5c 54 3d
       0.018273233 0.011251175 -0.12949362 0.051845856
0000e0 f1 16 4b 3c 07 cb cc 3c 93 c0 11 be 7c 5e 09 be
       0.012395606 0.024999155 -0.14233617 -0.13414949
0000f0 bb ae fa bd 95 a1 8f bd 2a 97 e2 bd 78 b2 19 bc
       -0.122403584 -0.07013241 -0.110639885 -0.009380929
000100 36 6b 19 bd 70 e5 0e bd 7b 05 05 3e f2 a7 f3 3d
       -0.03745576 -0.034886777 0.12990372 0.118972674
000110 24 7b 06 3e ed 11 74 bb 4c ac 4e bd 82 73 70 bd
       0.13132912 -0.003724213 -0.050457284 -0.058703907
000120 54 07 df bd fc 5b 56 3e c4 e5 b5 bd 89 cc 64 3e
       -0.108900696 0.20933527 -0.08881715 0.22343649
000130 a2 f5 5e 3e bc b6 8e 3e 3c 5f 02 3e a7 c0 18 3e
       0.21773389 0.2787379 0.12731642 0.14917241
000140 bf 91 8b 3d 83 13 ce bc b4 ad 09 bd 2d a4 00 be
       0.06814908 -0.025155788 -0.03361292 -0.12562628
000150 e2 da 88 3d 2f e6 a5 bc f7 e3 43 3c b0 9d 5c 3b
       0.066823736 -0.020251362 0.0119562065 0.0033663325
000160 15 fc a7 3d f9 f0 8b bc 61 2c 6e 3e b9 b6 10 3f
       0.08202378 -0.017082678 0.23259117 0.5652881
000170 8e 45 86 3e b1 50 14 3f a3 67 a2 3d ad 96 8a bd
       0.2622494 0.57935625 0.079299234 -0.067670204
000180 b5 e9 b6 3d 69 cf ee 3c 7f 1d 03 3e e5 8e af bd
       0.08931295 0.029151635 0.1280422 -0.08572177
000190 41 a8 2b 3e b4 e4 63 3e f4 56 7b bd 62 9f db bd
       0.16763403 0.22255212 -0.06136222 -0.10723759
0001a0 f5 76 cd 3d 10 0c 0b 3d ea ec 33 3d 84 85 fe bd
       0.10032455 0.03394705 0.04392711 -0.1242781
0001b0 b4 69 fb 3c 81 b7 c9 3d 24 d0 73 3e d4 27 b0 bb
       0.030690052 0.09849454 0.23809868 -0.0053758416
0001c0 78 7e 92 3d db 3c b4 3d 3a db e8 3c 04 b4 11 be
       0.07153028 0.0880067 0.028424848 -0.14228827
0001d0 1e 54 0b be 36 a2 69 bd 14 8a f4 3d cd d9 85 3d
       -0.13606307 -0.057039462 0.11940399 0.06535683
0001e0 aa b7 93 3d 9a d8 95 3d 50 00 ca 3b 72 bf 4f 3d
       0.072127655 0.07316704 0.006164588 0.050719686
0001f0 b7 ef 87 3b d5 5b 20 3e f2 93 a7 bd e9 87 c2 3d
       0.0041484493 0.15660031 -0.08182515 0.09498579
000200 6a 47 75 bd a8 dd 82 bc 7b 4e bd 3c 08 05 ec bb
       -0.05988256 -0.015974835 0.023108711 -0.007202748
000210 88 27 46 bd d0 99 f3 3b 6e 00 34 3e ef 11 8e 3d
       -0.048377544 0.0074341074 0.17578289 0.06937014
000220 cc 24 16 3e ee 34 74 3e 4c 61 78 3c e7 cd b9 3c
       0.14662474 0.23848316 0.015159916 0.02268119
000230 80 78 dc bd cc 93 e1 bd de 74 f2 3d 68 48 11 be
       -0.10765171 -0.11014518 0.11838697 -0.14187777
000240 99 86 5f 3d 91 71 37 bd ce 58 bc 3c fc 6a ee 3d
       0.05457172 -0.04478604 0.022991564 0.116414994
000250 03 bc 57 bd 7d b3 b8 bc c4 37 57 3d ee 0a 11 bd
       -0.052669536 -0.022546524 0.052543417 -0.035410814
000260 e8 69 8b bd b6 4a 28 3b c9 1d 20 bd d2 86 45 bd
       -0.068073094 0.0025679297 -0.039090905 -0.048224278
000270 ba 84 1f be 2c 25 79 bd fd 69 49 3c 6e 14 bd bd
       -0.15577975 -0.060826465 0.012293336 -0.09232412
000280 4e c3 03 be c1 12 bb bd 44 d0 30 be c4 4e 62 3e
       -0.12867472 -0.091344364 -0.17266947 0.22100359
000290 ba 71 31 be 6e 09 47 be 23 39 11 3e 09 c5 58 bd
       -0.1732854 -0.19437191 0.14181952 -0.052922282
0002a0 4f 99 ff 3c 5d bb 1e be 71 16 69 bd 0c 10 9a bd
       0.031201033 -0.15501161 -0.056906167 -0.07522592
0002b0 ea 36 ec bd 89 a2 b9 3d cc 93 28 bc 37 b5 9e 3e
       -0.115339115 0.09064204 -0.010289144 0.3099763
0002c0 dd e4 22 3e c0 25 ef 3d c3 bd 02 3c 9a f8 3d 3c
       0.15907617 0.11677122 0.007979813 0.011594916
0002d0 d1 02 5b be d8 ba 59 bd 28 0a bc bd 57 95 04 3d
       -0.21387793 -0.053156704 -0.09181625 0.032368984
0002e0 90 72 d9 3b 7c 1d 46 bd 81 54 08 be f9 ef 19 be
       0.0066359714 -0.048367962 -0.13313486 -0.15032949
0002f0 c5 f6 06 bd d9 74 cf 3d a1 65 3f 3b 33 74 52 bd
       -0.03295018 0.10129709 0.0029204863 -0.051380347
000300 31 dd 7b bd 95 ef 4a 3d 9c f3 5b 3d 50 ae eb bd
       -0.06149024 0.04954489 0.05369912 -0.11507857
000310 94 18 db bd 2e 07 16 bd b8 f3 eb bc 35 17 98 bd
       -0.10698047 -0.03662794 -0.028802738 -0.074263014
000320 26 8d e0 bc 18 22 f2 bd e0 94 a3 bd e3 e2 fa bd
       -0.027411055 -0.11822909 -0.0798738 -0.122503065
000330 82 c9 ab bd c1 4a 8b 3c c7 10 bc bc da 1f 3a 3d
       -0.08388044 0.017003419 -0.022957219 0.045440532
000340 d5 03 bd bd cb 01 ac 3c c4 d1 b1 3d 32 22 ac 3d
       -0.092292465 0.020996949 0.08682588 0.0840496
000350 4c 09 b6 bb 39 8f e3 bd 6a b9 43 3c dd 6d 25 be
       -0.0055553075 -0.11111302 0.011946062 -0.16155191
000360 63 f8 ab bd cc d1 e8 bd 8c 34 b3 bd 27 3f c5 bc
       -0.083969854 -0.113681406 -0.08750257 -0.024077965
000370 5b dd f4 bc 6e 85 02 be 65 10 16 bb c9 85 48 3d
       -0.029890707 -0.12746212 -0.0022897955 0.048955712
000380 25 d2 27 be 60 91 09 bd 01 b4 0c 3d 9d f6 89 bd
       -0.16388758 -0.033585906 0.034351353 -0.06736491
000390 97 12 00 3e 8f 08 15 3e 10 17 09 3d bd db 0d bd
       0.12507091 0.14554046 0.03346926 -0.034633387
0003a0 6a 6b b8 3c 0a 3a 97 3d bd be 91 bd e1 69 b1 bd
       0.022512157 0.07384117 -0.071164586 -0.08662773
0003b0 73 62 0e be e2 8a 44 be 77 ca 82 3d a3 21 34 bd
       -0.13904743 -0.19193605 0.06386273 -0.04397739
0003c0 15 fd 89 bd ff e4 f4 bc 26 c0 0e be 64 cc af bd
       -0.06737725 -0.02989435 -0.13940486 -0.08583906
0003d0 6d 69 0d be 54 a4 3c bd 19 a9 ed bc f0 78 d3 bd
       -0.13809748 -0.046055153 -0.029011296 -0.10325801
0003e0 3d 41 4d 3d f6 da e7 3c e1 a5 23 be 75 d1 49 be
       0.050111044 0.02830265 -0.15981247 -0.19708808
0003f0 5c f5 11 3d 73 33 3f be 65 74 59 bd b0 3e 58 bd
       0.035634384 -0.1867197 -0.053089518 -0.05279416

critic.0.bias f4 [64]
000000 0e 87 10 be 90 82 9b 3d 37 b1 a2 bd 01 aa b1 bb
       -0.1411402 0.07593262 -0.07943957 -0.0054218774
000010 f8 ac 46 bd c2 e3 9f 3d 80 55 52 3d 65 c5 10 be
       -0.0485048 0.07807113 0.05135107 -0.141378
000020 ca 24 0d be 32 34 42 bd b9 b8 ba bd 23 e9 8c bc
       -0.13783565 -0.04741306 -0.09117264 -0.017201012
000030 b8 94 8d bd 2c 86 f6 bd 84 f1 98 bc 53 ab 55 bd
       -0.069131315 -0.1203731 -0.018669851 -0.05216534
000040 a4 69 9f bd e2 11 7b bd d5 e7 9b bd 22 88 b8 3d
       -0.07783821 -0.06129635 -0.07612578 0.0901034
000050 dc be a4 bd 70 1a 80 bd f4 89 b7 bc 2a ed 7d 3b
       -0.08044216 -0.062550426 -0.022404648 0.0038746097
000060 85 0b cd bc 8d a2 d4 bd ce 3f ec bd cd df 3f bd
       -0.025029907 -0.103825666 -0.11535607 -0.046844292
000070 b7 93 72 3b 1f 01 3f 3d 6c 11 71 3e e7 b4 51 3c
       0.0037014314 0.04663193 0.23541802 0.012799478
000080 6b 87 0d be 19 29 05 bc 34 42 f0 bc 8b 92 24 bc
       -0.13821189 -0.008127474 -0.029328443 -0.010044704
000090 2d 6b 69 bd 51 61 3f 3e 8f e7 87 bd ed 55 1b 3d
       -0.056986976 0.18689467 -0.06635963 0.037923742
0000a0 b7 e8 03 be cc 0d 98 bd c2 4e cf bd 74 e4 3f bd
       -0.12881742 -0.074245065 -0.10122444 -0.04684873
0000b0 d5 96 04 be d8 39 a2 bd f0 4c 06 bd 8e 0c 98 3d
       -0.12948163 -0.07921189 -0.032788217 0.074242696
0000c0 59 43 36 3e 41 1c 81 ba 61 e2 9c 3c b1 1f ff bd
       0.17799129 -0.0009850339 0.019150915 -0.124572165
0000d0 13 b4 20 3e 00 58 07 be 36 cc cc bd c8 cd 53 be
       0.15693693 -0.13217163 -0.09999888 -0.20683968
0000e0 96 65 28 bb 0c a3 8a 3d 8a 9c 2e be 82 db d4 3b
       -0.0025695316 0.0676938 -0.17051902 0.006495894
0000f0 f9 ff 24 3e 83 dd 59 bd 8c 90 db bd 77 55 e3 bd
       0.16113271 -0.053189766 -0.107209295 -0.111002855

critic.2.weight f4 [64, 64]
000000 0b 03 b7 bc 29 70 51 3e b5 f4 86 3d 78 6c 6a 3c
       -0.022340318 0.20452942 0.06589643 0.0143080875
000010 56 82 19 be 68 f6 88 3d b6 e8 55 3d 4d 93 16 3e
       -0.14991125 0.06687623 0.052223884 0.14704628
000020 b2 39 b2 3d 3c 83 80 bd d0 6d e2 3d 33 d6 8c 3e
       0.08702411 -0.06275031 0.11056101 0.2750717
000030 2f 88 92 bd 02 a8 bb 3e 53 6e 92 3c 7f 12 89 3d
       -0.07154881 0.36651617 0.017874872 0.06692981
000040 0e af 9a 3d d0 2f ae 3d 17 90 3c bd 4b d3 7e 3e
       0.0755292 0.08505213 -0.046035852 0.2488529
000050 08 cc cd 3c d3 10 99 bd 8f b6 8d 3d c2 a4 aa 3d
       0.025121704 -0.07473912 0.06919586 0.08332206
000060 d2 b2 f5 bd 62 21 99 3d 73 ff a8 bd e1 4f c6 3d
       -0.11996998 0.074770704 -0.08251848 0.096832044
000070 e0 43 81 3d 7e 83 77 3e cb b0 3d 3e c3 6b a5 bd
       0.06311774 0.24171254 0.18524472 -0.080771945
000080 0b 16 e5 3c 69 71 76 bd 49 ba 84 3d 8c b7 77 3a
       0.027964612 -0.06016675 0.064808436 0.0009449653
000090 74 20 97 bd b7 6b ab 3d 26 00 8a 3d 2e f3 d1 bd
       -0.07379237 0.08370154 0.067383096 -0.10251461
0000a0 27 c8 8b bd cf a3 0c 3e 44 8c 56 3e b5 32 90 bd
       -0.068252854 0.13734363 0.20951945 -0.070409216
0000b0 5c cc 1a bd 12 3c af bd 14 f7 ac 3d 68 f6 c3 bd
       -0.03779255 -0.085563794 0.08445564 -0.09568483
0000c0 00 a1 79 3e b7 b5 04 3e e3 71 69 bd 71 98 bb 3d
       0.24377823 0.12959944 -0.056993376 0.09159935
0000d0 72 4d 14 bd 17 3d ad bc 21 f1 62 3d fa 9f 89 3e
       -0.03620667 -0.021147294 0.05540574 0.26879865
0000e0 af dd 45 bd 47 c1 3b 3e 44 7f 98 bc d4 83 4c 3d
       -0.048307117 0.18335448 -0.018615372 0.04993041
0000f0 0a 31 31 bc 83 11 64 3e 2c 21 e8 3e 24 eb 87 bd
       -0.0108149145 0.22272305 0.45337808 -0.066366464
000100 a5 a6 11 bd 60 d3 c7 3b 9d 67 1a bc 49 29 be bc
       -0.035559315 0.006098196 -0.009424117 -0.023213046
000110 72 db ee bd 23 5b 84 bd fb 97 b4 bd 9e 10 f0 3d
       -0.116629496 -0.064626954 -0.088180505 0.117219195
000120 3d 6e 56 bd 7d 43 d2 bd 7f 85 c4 bd 14 f4 ef bd
       -0.052351225 -0.102667786 -0.09595775 -0.11716476
000130 95 87 0c bd eb bd 5d bd 5f 7a e3 bd ed 3a 52 bd
       -0.03430899 -0.054136198 -0.11107325 -0.051325727
000140 15 4f a1 3d a4 d6 e1 bd a5 12 55 bc 1f 5a e3 3d
       0.07876412 -0.110272676 -0.0130049335 0.111011736
000150 4d 22 82 3d e6 71 d4 bc 0d 15 5c 3d 2e 2b 6e bd
       0.063541986 -0.025933217 0.053731013 -0.058146648
000160 c9 a3 b3 bd 08 df bb bd 0f ad ad bd d7 36 9f 3d
       -0.08771474 -0.09173399 -0.08480274 0.07774132
000170 cf a3 dd bb 9b a7 e8 bd 1f 52 90 bd bd 9f f9 bc
       -0.0067639123 -0.11360093 -0.07046913 -0.030471677
000180 84 83 66 3d 89 ed ec 3c a4 5b 96 3c 05 28 31 bd
       0.056277767 0.02892186 0.018354245 -0.043251056
000190 d0 91 5f bc f2 bf 8f 3d b1 30 22 3d 10 cd 33 bd
       -0.013645604 0.070190325 0.039597217 -0.043896735
0001a0 fe 86 0b 3e 58 21 9e 3d 74 80 04 3d d7 fa 3f 3d
       0.13625714 0.077212036 0.032349065 0.04687008
0001b0 c6 7e 92 3d 05 c5 08 bd 79 de a8 3c 4a 75 50 bd
       0.07153086 -0.033391017 0.020613896 -0.050893106
0001c0 27 a8 3b bd e2 33 a6 bb 10 ea ef bd 63 1c cf 3d
       -0.04581466 -0.005072103 -0.11714566 0.10112836
0001d0 9d d8 d3 bd 61 10 ce bd 98 c9 cf bc 7e e2 87 3d
       -0.1034405 -0.10061718 -0.025364682 0.06634997
0001e0 b5 ce a0 bd ff 27 62 bc 89 22 7c 3d a4 b4 ec bd
       -0.07851926 -0.013803481 0.061556373 -0.11557892
0001f0 7b 19 c2 3d 6a 03 4f 3d d6 a8 e0 3c f7 5a 02 bc
       0.09477516 0.050540365 0.027424257 -0.007956258
000200 44 d4 6a 3d 32 73 ae bd 18 08 8d bc 12 5c c4 3d
       0.05733134 -0.085180655 -0.017215773 0.095878735
000210 e6 31 31 bd 10 62 cf bc 10 45 0d 3d 8e 92 e4 bc
       -0.043260477 -0.025315315 0.03448969 -0.027901914
000220 05 19 d0 bd 43 3d d5 bc cd 54 72 bd d8 df 38 be
       -0.10161022 -0.026030188 -0.059162904 -0.1805414
000230 66 e4 8d bc 2d fb 4d bd 6d 76 52 3d ad a5 23 bd
       -0.017320823 -0.050288368 0.05138247 -0.039952923
000240 ba 0e d0 bd 14 7c 25 3e e7 8c a4 bb 42 60 7e bd
       -0.10159059 0.16160613 -0.0050216797 -0.062103517
000250 85 45 86 3c 0b 0f 4b 3d 69 78 a8 3d 6a f3 ab 3d
       0.016390571 0.049574893 0.082260914 0.08396037
000260 49 dd 72 bd 9d 37 1f 3d 52 ce 47 3d 58 55 e4 bd
       -0.059293065 0.038871396 0.048780747 -0.111490905
000270 9b 57 3b 3d b0 f9 fe bd db 7f b9 3d ad 3c f4 bd
       0.045737844 -0.12449968 0.090575896 -0.119256355
000280 ca 4a 24 3d 3b cb 46 bd fe 98 96 3c d4 7c 08 bd
       0.040110387 -0.04853366 0.0183835 -0.03332217
000290 86 31 0e 3c a1 60 7d bd 97 94 88 3b 5b 68 8d bd
       0.0086787995 -0.06185973 0.004168104 -0.0690467
0002a0 64 1e 70 3d d5 30 78 3c ba b5 fe bc 00 81 85 bd
       0.058622733 0.015148361 -0.031092513 -0.065187454
0002b0 c8 7d a0 3a fb c9 04 be 81 ee 4e 3b 4d cc a6 3d
       0.0012244517 -0.12967674 0.0031575265 0.08144436
0002c0 1f 67 0b 3d fb 33 46 bd 8b d6 b6 3c b4 86 81 3d
       0.03403389 -0.048389416 0.022319099 0.06324521
0002d0 ad f4 18 3d 1d 4d 9b bc 95 24 09 3d 94 18 ce bc
       0.037342716 -0.018957669 0.033482153 -0.025158204
0002e0 01 bc 52 bb 16 e4 48 bd 0a 5e e2 bd 8e 8e cd bd
       -0.0032155516 -0.049045645 -0.11053093 -0.10036956
0002f0 f6 67 f4 bc 80 20 b9 bd 7e 6b aa 3d 3c aa 48 be
       -0.029834729 -0.09039402 0.08321284 -0.1959619
000300 90 a9 8c bb 8e d1 c2 3d 0b 25 88 3d 29 89 ac bd
       -0.0042926744 0.09512626 0.066476904 -0.08424599
000310 fc 46 a8 ba fe 69 df bd 8f 29 24 3e fb 68 88 3d
       -0.0012838538 -0.10908888 0.16031478 0.066606484
000320 53 60 f6 3d a7 7f 21 be ef 08 32 3e 80 6c eb 3d
       0.12030091 -0.15771352 0.1738622 0.11495304
000330 4f b7 ce 3d 4b 51 2f 3e 04 93 1f 3e 60 dc 64 3e
       0.10093557 0.17120855 0.15583426 0.22349691
000340 01 46 a7 3d c8 3e 4e bd b8 b8 d9 bd b5 85 76 3e
       0.08167649 -0.05035284 -0.106309354 0.24074443
000350 1f 28 d1 3d a3 a6 9c 3d cc 07 a5 bd 70 e4 45 3d
       0.102127306 0.07648971 -0.08058128 0.048313558
000360 05 8a 92 bd 4f 30 16 bc 2c 36 7d 3d e8 20 c9 3d
       -0.071552314 -0.009166791 0.06181924 0.098207295
000370 9a e4 1a 3e 11 f9 d2 3d d8 e1 bc 3e fb 16 ae bd
       0.15126267 0.10301412 0.36891055 -0.08500477
000380 78 5e 78 3d 0d e1 09 3e f3 50 d8 bc 26 81 a1 bd
       0.060636967 0.13464756 -0.026405787 -0.07885961
000390 4f 3f 3f 3d 49 e2 99 bc e6 5c 9e bd 58 ea 03 3d
       0.046691235 -0.018784659 -0.07732563 0.03220591
0003a0 3c e2 86 bd 24 8a f9 3d 25 d2 28 3e 80 07 b8 3d
       -0.065861195 0.12184551 0.16486414 0.089858055
0003b0 14 92 51 bd cc 16 03 3e fc 78 41 bd 10 e3 32 be
       -0.0511647 0.12801665 -0.04723452 -0.1746943
0003c0 5c af ff 3d 39 f3 f2 3d b5 71 0b 3b b7 29 b0 bd
       0.12484619 0.11862797 0.0021277491 -0.086017065
0003d0 e9 d2 cd 3d fc 78 08 3e 8f c9 08 3d ce 0f ec 3e
       0.100499935 0.13327402 0.033395346 0.46105808
0003e0 3a ea 63 be 54 08 91 3e 82 87 f1 bc 49 75 83 bd
       -0.22257319 0.28326666 -0.02948356 -0.06418855
0003f0 c1 c0 10 bd 11 54 42 3e 03 e0 f7 3e 6d 4a b0 3d
       -0.035340074 0.18977381 0.48413095 0.086079456

critic.2.bias f4 [64]
000000 3d 26 03 3e 67 ca 79 bd 16 8a e4 bc 8d 06 08 3d
       0.12807555 -0.06098404 -0.027897876 0.033209372
000010 75 1c ce bd 79 85 19 be 95 8d 4c bd 7d db 12 be
       -0.100640215 -0.14992322 -0.04993971 -0.1434154
000020 80 45 99 bd 21 c7 d3 bd 7d c9 84 3d 9c d9 3e 3d
       -0.07483959 -0.10340715 0.06483743 0.046594247
000030 78 6e 04 3d 29 e7 d1 3c df 2d 79 bd fa f0 dd bd
       0.032331914 0.025622921 -0.06083476 -0.10836978
000040 f7 e8 a9 bd ff 6c 3a be ad e1 08 3d f8 5c 76 3d
       -0.08296388 -0.18205641 0.033418346 0.060147256
000050 ac 5b c4 3d 51 a0 47 3c ca 79 13 bd 09 13 1e be
       0.095877975 0.0121842185 -0.03600482 -0.15436949
000060 77 5c 72 3d 9d 76 ff bd 75 fd 87 bd 4d b6 18 be
       0.059170213 -0.124737956 -0.0664014 -0.14913292
000070 22 2f 34 3d d0 df 5a 3d 15 f2 1d bd 04 f3 dc bc
       0.04399026 0.0534361 -0.038560946 -0.026971348
000080 6e 61 41 bd d7 d1 c1 bd 8a 8a 6a 3d 04 33 39 bd
       -0.047212057 -0.09463852 0.057261027 -0.045214668
000090 15 37 45 3c 38 c9 18 be 8c b4 1a bd 61 35 a6 3c
       0.012037058 -0.14920509 -0.03776984 0.020289125
0000a0 b1 6c e8 3d 15 87 fb bd 7a ad 63 bd a6 ae c8 bb
       0.11348856 -0.12281624 -0.055585362 -0.0061243353
0000b0 1a 61 cc 3c 02 7e 3e 3e e8 53 e0 bd e5 aa f4 bb
       0.024948645 0.18602756 -0.10953504 -0.0074666613
0000c0 a4 6e 3c 3d 23 88 83 3c 08 54 6e 3d 08 e8 cf bd
       0.046003953 0.016056126 0.058185607 -0.10151678
0000d0 3e 3a 7d bd 29 1c 12 be b7 af c2 3d 73 2e 69 bd
       -0.061823122 -0.14268555 0.09506171 -0.056929063
0000e0 eb 08 a5 3c 01 90 fd 3d 06 47 2d bd 3c 6f ad bd
       0.020145854 0.12380982 -0.04230406 -0.08468482
0000f0 92 5f f1 bd 5e 16 82 3d 8a 3a 01 be 47 87 92 bd
       -0.11785807 0.063519225 -0.12619987 -0.07154708

critic.4.weight f4 [1, 64]
000000 ac 1c 33 be 6c e6 25 3d 0f 1d 05 3d da ae 03 be
       -0.17491406 0.04050295 0.032498416 -0.1285967
000010 a1 ae 90 bd 53 78 86 be f9 c7 93 3c 25 4a b8 3d
       -0.07064558 -0.26263675 0.01803969 0.08998517
000020 05 cb 9d ba 89 8d b7 be 55 b8 05 3d 48 ce 7d 3b
       -0.0012038654 -0.3585017 0.032646496 0.003872769
000030 87 60 2f ba c2 71 e2 3c f8 5f 97 bc eb ca 0e bd
       -0.0006690104 0.027642135 -0.018478379 -0.034861486
000040 0f 7e 5a bc c5 3d 5b be a3 92 01 bc 9e 33 c1 ba
       -0.013335719 -0.21410282 -0.007908496 -0.0014740115
000050 d0 2d 71 3a 26 99 9c 3c c0 f5 31 be 8a 64 86 3c
       0.0009200247 0.019115996 -0.17378902 0.016405363
000060 08 7e c3 bc c3 9b c7 bc 05 4d 51 bb 53 57 6b be
       -0.023863807 -0.024366265 -0.0031936776 -0.2298253
000070 77 0f 7d 3a fd 5a 03 bc e2 50 b9 3a a1 cc 97 3c
       0.00096534885 -0.008017299 0.0014138485 0.018530192
000080 d8 a3 73 3d f1 d2 83 3d 42 2d 5f 3a fa 93 35 3c
       0.059482425 0.06436718 0.0008513519 0.011082644
000090 fb 7d 99 3d a6 df 5c be 48 6e 52 be 59 43 31 3c
       0.07494732 -0.2156969 -0.20549881 0.01081928
0000a0 6d e0 48 bc f7 87 2a 3d 04 94 75 3d 73 a4 99 3c
       -0.0122605385 0.041633572 0.05995561 0.018755173
0000b0 c0 96 11 3b e9 c5 10 3e 4c 20 bc 3c 98 39 08 3d
       0.0022215098 0.14137997 0.02296462 0.03325805
0000c0 08 5f c9 bd d6 83 db bb c9 e0 0b be 8b 86 b0 3d
       -0.09832579 -0.0066990657 -0.13659967 0.08619412
0000d0 30 83 8a 3d c4 b1 81 be db dc e5 bb 61 56 a3 be
       0.06763303 -0.25330937 -0.0070148534 -0.3190184
0000e0 c1 9b af 3b 76 98 ef 3c e8 37 1a be 3e 28 52 be
       0.0053591435 0.029247504 -0.15060389 -0.20523164
0000f0 3e 72 18 bd 9a ad 97 3c 86 a9 9b bd 57 c8 77 bd
       -0.037218325 0.018515397 -0.076006934 -0.060493793
