CybORG/CybORG/Models/meander_train/50000.pth (torch, 78565 bytes, 11 tensors)

actor.0.weight f4 [64, 62]
0	0x3dc3d480	0.095620155
1	0xbe8f28ed	-0.2796091
2	0xbd898505	-0.067148246
3	0xbeb504a7	-0.35355112
4	0xbd025a75	-0.031824548
5	0x3e6bbb3e	0.23020646
6	0x3ead3830	0.3383193
7	0x3f3480b1	0.7050887
8	0xbd8abb6d	-0.0677403
9	0x3e91ee66	0.28502196
10	0x3db5532f	0.08853757
11	0x3eff284f	0.4983544
12	0x3e12d993	0.1434081
13	0xbe0ba763	-0.13638072
14	0xbdad4f74	-0.0846242
15	0xbe838623	-0.25688276
16	0x3e19aeec	0.15008134
17	0x3e30885d	0.17239518
18	0xbdb05477	-0.086098604
19	0x3c0cf378	0.008602969
20	0xbd07b11b	-0.033127885
21	0x3d30c2c0	0.043154478
22	0xbcd61c86	-0.026136648
23	0x3e1ad515	0.15120347
24	0xbc0f946c	-0.008763414
25	0xbd9b5688	-0.07584864
26	0x3deb82cf	0.11499559
27	0xbe1b4bd0	-0.15165639
28	0xbee6e700	-0.45098114
29	0xbda341a7	-0.079715066
30	0xbdc27c2f	-0.094963424
31	0x3e90ebdc	0.28304946
32	0x3d443861	0.04790533
33	0x3da02822	0.07820155
34	0xbdb5b6b9	-0.08872742
35	0xbd91ee2a	-0.07125504
36	0xbec4ca9a	-0.38435823
37	0xbe54d09f	-0.20782708
38	0x3eb506a8	0.3535664
39	0x3eb40dcb	0.35166773
40	0x3e1c1aed	0.15244646
41	0xbe897937	-0.26850292
42	0xbdc9e6fd	-0.09858511
43	0xbd35f336	-0.044421397
44	0xbe971772	-0.29510075
45	0xbddffbd3	-0.109367035
46	0x3d51747f	0.05113649
47	0x3e096a36	0.13419423
48	0xbe6b9b6b	-0.23008506
49	0xbe54f009	-0.20794691
50	0x3ecf106f	0.40442225
51	0x3eeb3668	0.45939946
52	0x3e467ad9	0.193828
53	0x3d94cf8f	0.07266151
54	0x3e068611	0.1313708
55	0xbcd7eec0	-0.026358962
56	0x3e48d013	0.19610624
57	0xbd9490fa	-0.072542146
58	0xbd3d2ee7	-0.046187308
59	0x3cb422ec	0.021989308
60	0x3da651a8	0.081210434
61	0x3d9b9f5d	0.075987555
62	0x3da55729	0.08073265
63	0xbe498476	-0.19679436
64	0x3caf4333	0.021394348
65	0xbe8603ee	-0.26174873
66	0x3d8f5024	0.069977075
67	0x3df21930	0.118212104
68	0x3daa5cf0	0.08318508
69	0x3ed7fb37	0.4218385
70	0xbbd60c7f	-0.0065322514
71	0x3e409327	0.18806134
72	0x3e868bb4	0.2627846
73	0x3f3412a6	0.70340955
74	0x3ea5015d	0.32227603
75	0x3d889cf6	0.06670563
76	0x3e57177f	0.21005057
77	0xbe195c6a	-0.1497666
78	0x3e03f4df	0.1288638
79	0x3d1001b9	0.035157893
80	0xbdf265d5	-0.11835829
81	0x3da4fac9	0.08055646
82	0x3cd2ac85	0.02571703
83	0xbe3cbef2	-0.18432215
84	0x3cc2bb23	0.023770874
85	0xbd2058c3	-0.03914715
86	0xbc44866b	-0.011994938
87	0xbd92d5a4	-0.07169655
88	0x3d480b12	0.048838682
89	0xbdf44573	-0.11927309
90	0xbe0bd6a0	-0.13656092
91	0x3db4811a	0.08813687
92	0xbcf304a0	-0.029665291
93	0x3d78f084	0.06077625
94	0xbe264bd3	-0.16239862
95	0xbdacf552	-0.08445229
96	0x3d81deb6	0.06341307
97	0x3d92e28a	0.07172115
98	0xbee0725a	-0.43837243
99	0xbec2481d	-0.37945643
100	0x3e387bb6	0.18015942
101	0x3eded091	0.435185
102	0x3d709705	0.058737773
103	0xbd9d4c09	-0.07680518
104	0xbea0e2ff	-0.31423184
105	0xbebf8366	-0.37404937
106	0xbe3ef200	-0.18647003
107	0xbe1f7a46	-0.15573987
108	0x3e07de19	0.13268317
109	0xbd6be2c5	-0.05758931
110	0xbe6a017e	-0.22852132
111	0x3e0eab33	0.13932495
112	0xbe865b0e	-0.26241344
113	0xbd89cdf8	-0.067287385
114	0x3e743575	0.23848517
115	0xbdbdf04a	-0.09274347
116	0x3d1752ef	0.036944326
117	0x3cb29256	0.021798294
118	0x3e823c92	0.25436836
119	0x3cfd2103	0.03089953
120	0x3d76e19e	0.06027376
121	0x3c548a4e	0.0129724275
122	0xbd73eb37	-0.05955049
123	0x3d5b6af4	0.053568795
124	0x3e1ab7ef	0.15109228
125	0x3e06707d	0.13128848
126	0xbd26b944	-0.040704027
127	0x3b5802c8	0.0032960642
128	0xbce19d02	-0.027540687
129	0xbe824a54	-0.25447333
130	0xbeba7620	-0.36418247
131	0xbf119804	-0.5687258
132	0x3d7baae3	0.061442267
133	0xbd3b5374	-0.045733884
134	0x3e3a6b04	0.18204886
135	0xbe65b37d	-0.2243175
136	0x3bd62c50	0.006536044
137	0xbccbd5e9	-0.024882274
138	0x3d7be393	0.06149633
139	0x3c48395c	0.012220707
140	0x3dc072b5	0.09396879
141	0x3e21353a	0.1574296
142	0x3df6f05c	0.12057564
143	0x3c3b8da8	0.011447348
144	0xbe27b7de	-0.16378734
145	0xbdaff0e8	-0.08590871
146	0x3db119d4	0.086475044
147	0x3dff3c0f	0.12462627
148	0xbdab760a	-0.083721235
149	0xbd6b3b31	-0.057429496
150	0xbdf3695f	-0.11885332
151	0xbd4ef13a	-0.05052302
152	0xbe4b3108	-0.19842923
153	0x3de32a37	0.11092036
154	0x3e049472	0.12947252
155	0xbe341519	-0.17586173
156	0x3e598f2d	0.21246023
157	0xbe0ec8c5	-0.13943775
158	0xbcdbf2b6	-0.026849132
159	0xbd715515	-0.05891903
160	0x3e11a470	0.14222884
161	0x3d317ebe	0.04333376
162	0xbeda9785	-0.42693725
163	0xbed57670	-0.41691923
164	0xbc30c440	-0.010788977
165	0x3e5f6712	0.21816662
166	0xbe6e9835	-0.2330025
167	0xbece197a	-0.40253812
168	0x3eafb986	0.3432123
169	0x3e6aa1bd	0.22913261
170	0x3db09589	0.086222716
171	0xbe4b4314	-0.19849807
172	0x3e2e69ce	0.17032549
173	0xbd2e9d48	-0.042630464
174	0xbe4580ec	-0.19287461
175	0x3de2457e	0.11048411
176	0x3e001589	0.12508215
177	0xbd8ca7ea	-0.068679646
178	0x3d931872	0.07182397
179	0x3a284ffa	0.0006420609
180	0xbbf39aaf	-0.007434211
181	0x3d59f41b	0.053211313
182	0x3e212c29	0.15739502
183	0xbbc45d3d	-0.00599256
184	0x3e08ec0d	0.13371296
185	0x3de7b7d0	0.11314356
186	0xbde42348	-0.11139542
187	0xbd247f0c	-0.040160224
188	0xbd24403a	-0.040100314
189	0xbd068450	-0.032841027
190	0x3ded68dd	0.11592267
191	0x3ef79935	0.48359075
192	0x3e2829db	0.16422217
193	0x3f033b7a	0.5126263
194	0xbe80603c	-0.2507342
195	0xbdd6f637	-0.104961805
196	0xbe452bc6	-0.1925498
197	0xbf07cb15	-0.53044254
198	0xbe9f66f0	-0.31133223
199	0xbc9cef9e	-0.019157227
200	0xbca3fbc7	-0.020017518
201	0x3ce1886b	0.02753087
202	0xbe1e0c06	-0.15434274
203	0xbe00d6f8	-0.12582004
204	0xbd970724	-0.07374409
205	0x3d938e9b	0.07204934
206	0xbd7309af	-0.059335407
207	0x3dd8447e	0.10559939
208	0x3d3c1b05	0.045924205
209	0x3c1c0173	0.00952183
210	0xbd21d26b	-0.03950731
211	0xbcfc52cb	-0.030801198
212	0x3c828887	0.015934242
213	0xbd867628	-0.06565505
214	0xbe244152	-0.16040543
215	0x3dd7e7b9	0.105422445
216	0xbc986906	-0.018604767
217	0xbdf2cb31	-0.11855162
218	0x3e68bd05	0.22728355
219	0xbbd791b7	-0.00657865
220	0xbc156984	-0.009119395
221	0x3d84269f	0.06452679
222	0x3ef6e94a	0.4822486
223	0x3e8f026f	0.27931544
224	0xbe896ea1	-0.26842216
225	0xbecfddcf	-0.40598914
226	0x3c5b4dbb	0.013385232
227	0xbe593b7b	-0.21214096
228	0x3d8440c0	0.064576626
229	0x3eb1c4f6	0.34720582
230	0x3d22ea15	0.03977402
231	0x3dbb804d	0.09155331
232	0xbe338276	-0.17530236
233	0x3e95d153	0.29261264
234	0xbdbd0c9e	-0.09230922
235	0xbe6cabfb	-0.2311248
236	0x3e6b2581	0.22963525
237	0x3e31f0d7	0.1737703
238	0xbe68e408	-0.22743237
239	0x3d401b45	0.046901006
240	0xbd98ab6f	-0.07454573
241	0xbd3aec76	-0.045635663
242	0xbe0b687c	-0.13614076
243	0x3d33abef	0.04386514
244	0x3e1208c0	0.1426115
245	0xbcd5d25e	-0.026101287
246	0x3e1ed1dc	0.15509742
247	0xbd78dd22	-0.060757764
248	0x3caeec0e	0.021352794
249	0x3dfa0e55	0.12209765
250	0xba8e05c5	-0.001083546
251	0x3deee895	0.11665455
252	0x3ddc772e	0.10764919
253	0x3e7b93df	0.24568127
254	0x3e4ea162	0.2017875
255	0x3ebbd34e	0.3668465

actor.0.bias f4 [64]
0	0x3c07bc16	0.008284589
1	0x3dce6a67	0.100788884
2	0x3d8181ce	0.063235864
3	0x3cf391df	0.029732643
4	0xbd0f2eaf	-0.03495663
5	0xbd333f09	-0.043761287
6	0x3dae21fa	0.08502574
7	0xbd4456ac	-0.04793422
8	0x3dbdfcb7	0.09276717
9	0x3c0658dc	0.008199897
10	0x3d953ade	0.07286619
11	0xbd8ad5a5	-0.06779031
12	0x3d8583d6	0.06519286
13	0x3e0ebff2	0.13940409
14	0xbdce3186	-0.100680396
15	0x3db593bd	0.088660695
16	0xbdf43918	-0.11924952
17	0xbd06eccd	-0.032940675
18	0xbda8ba8d	-0.08238707
19	0xbd95463b	-0.07288786
20	0xbd659e32	-0.05605907
21	0xbd670cdd	-0.05640875
22	0x3d8bb0b7	0.06820815
23	0xbdc8ac93	-0.09798541
24	0x3d55e248	0.05221775
25	0x3dd65d71	0.10467041
26	0x3ddce09d	0.10785029
27	0x3e13537e	0.14387318
28	0x3dde216a	0.10846217
29	0x3c5349f5	0.012896051
30	0xbc3a717c	-0.011379596
31	0x3e1b6e67	0.15178834
32	0x3d9ddc6f	0.0770806
33	0xbca05548	-0.019571915
34	0x3e116dcc	0.1420204
35	0xbd8a0071	-0.067383654
36	0x3e28d9ae	0.16489288
37	0x3da5a757	0.08088558
38	0x3c97351a	0.018457938
39	0xbe37d711	-0.17953135
40	0x3e3e526a	0.18586126
41	0x3e065b91	0.13120867
42	0x3d1c6fad	0.03819244
43	0x3d7068ef	0.058693822
44	0x3d9cc206	0.076541945
45	0x3e6c4242	0.2307215
46	0x3cb31f99	0.021865653
47	0x3dd6bf95	0.1048576
48	0x3df87336	0.1213135
49	0x3d0560e7	0.032563116
50	0x3dbcc4e5	0.09217242
51	0xbd677f3e	-0.056517832
52	0xbe29b395	-0.16572411
53	0x3d9ab298	0.07553595
54	0x3e47a4fc	0.1949653
55	0x3e0e2c2b	0.13884036
56	0x3dd8b254	0.105808884
57	0x3da2c35d	0.07947419
58	0xbdbdd3ed	-0.09268937
59	0x3d6b5720	0.057456136
60	0x3d043690	0.032278597
61	0xbd52a5fb	-0.051427823
62	0x3b31429f	0.0027047766
63	0x3a399e49	0.0007080776

actor.2.weight f4 [64, 64]
0	0xbe1a79f3	-0.15085582
1	0xbe12251f	-0.14271973
2	0x3d60be7c	0.05486916
3	0xbde6ffce	-0.112792596
4	0x3c51f364	0.0128143765
5	0x3dc47425	0.09592465
6	0xbd0343b5	-0.032046992
7	0xbe0304f2	-0.12794855
8	0xbe161fd7	-0.14660583
9	0x3ca2d28a	0.019875783
10	0xbdce8b99	-0.1008522
11	0xbd65e8ab	-0.056130093
12	0xbcbd44ae	-0.023104038
13	0xbd68bf55	-0.056823093
14	0x3d15c327	0.036563065
15	0xbd1f1666	-0.03883972
16	0xbd944cc3	-0.07241204
17	0xbd323160	-0.04350412
18	0x3da0880e	0.0783845
19	0xbe0da6f2	-0.13833216
20	0x3c408d33	0.0117524145
21	0xbc904d46	-0.017614972
22	0xbcbc7a23	-0.023007458
23	0xbd51af98	-0.05119285
24	0xbddb3601	-0.1070366
25	0xbcb020d9	-0.021500038
26	0xbd9b793d	-0.07591484
27	0x3d25541a	0.04036341
28	0xbd81b678	-0.06333631
29	0x3ce694b1	0.028147073
30	0x3d94fa61	0.072743185
31	0x3d549788	0.051902324
32	0xbd0e8a53	-0.034799885
33	0x3d651adf	0.05593383
34	0xbdf14480	-0.117806435
35	0xbe07dcbb	-0.13267796
36	0xbccf8903	-0.025333887
37	0xbe062efe	-0.13103864
38	0xbe1b3e89	-0.15160574
39	0x3d76bebc	0.060240492
40	0x3de64197	0.11242979
41	0xbd506b4b	-0.050883573
42	0xbc99f3fe	-0.018793102
43	0xbd924ee8	-0.071439564
44	0xbba415d2	-0.005007484
45	0x3ce17f88	0.027526632
46	0xbc3ec5e8	-0.011643864
47	0x3dbbd6da	0.09171839
48	0xbdccf585	-0.10007767
49	0xbc925e6f	-0.017867295
50	0xbd4817e3	-0.048850905
51	0x3db881bc	0.0900912
52	0x3de22885	0.11042885
53	0x3c94a560	0.018145263
54	0x3de43dea	0.11144622
55	0xbd6a9f60	-0.057280898
56	0xbe78f300	-0.24311447
57	0xbdcdc21c	-0.10046789
58	0xbd03ee2e	-0.032209568
59	0xbdfdf94d	-0.12401066
60	0x3c26f581	0.010190369
61	0xbd54a49f	-0.051914807
62	0x3cb313c8	0.021860018
63	0xbe15ed3e	-0.14641282
64	0xbd020633	-0.031744193
65	0xbd9ca64d	-0.07648907
66	0xbdab56d6	-0.08366172
67	0x3db0ceff	0.08633231
68	0xbd724bc1	-0.059154276
69	0xbdd19cc5	-0.102349795
70	0xbdb19114	-0.086702496
71	0xbe1adb45	-0.15122707
72	0x3d621c7d	0.05520295
73	0x3da765f7	0.08173745
74	0x3d03e7b4	0.03220339
75	0x3c7b6c5c	0.015345659
76	0xbdfdd935	-0.123949446
77	0xbdec60be	-0.115418896
78	0xbe0b8b0e	-0.13627264
79	0xbe1e57dd	-0.15463205
80	0xbe52c853	-0.2058423
81	0x3ddefdea	0.10888274
82	0x3cbb8aca	0.022893328
83	0xbbac66b0	-0.0052612647
84	0xbe0cc7ed	-0.1374814
85	0xbd2ba072	-0.04190106
86	0xbd082d17	-0.033246126
87	0xbdfa9a6d	-0.12236486
88	0x3d0211df	0.031755324
89	0x3d8db5f7	0.06919473
90	0xbe00e342	-0.12586692
91	0x3dd22565	0.10261039
92	0xbb451d8c	-0.0030077426
93	0x3be98b2e	0.007127187
94	0xbe38598a	-0.18002906
95	0xbcfca8a8	-0.03084214
96	0xbdd06601	-0.10175706
97	0xbe4a13c0	-0.19734097
98	0xbdcbe4f8	-0.09955782
99	0xbd969f2a	-0.07354577
100	0xbd77f342	-0.060534723
101	0xbe1bc0ca	-0.15210262
102	0x3d4518bf	0.048119303
103	0x3bd17e74	0.006393248
104	0xbe012b12	-0.12614086
105	0x3b42f8e5	0.0029750403
106	0xbb875af6	-0.0041307164
107	0x3d84df2d	0.0648788
108	0xbde075dc	-0.1095998
109	0xbb70a5e0	-0.0036719963
110	0x3d98010c	0.07422075
111	0xbe318cb2	-0.17338827
112	0xbdf203cb	-0.1181713
113	0xbbfa775e	-0.007643624
114	0xbdb768a7	-0.08955508
115	0x3be99f45	0.007129582
116	0x3e330dfa	0.174858
117	0xbd75d721	-0.060019616
118	0xbdef361b	-0.11680242
119	0x3dd16e72	0.10226144
120	0xbd91551e	-0.07096313
121	0xbc9e205c	-0.01930254
122	0xbc367c57	-0.011138043
123	0xbd6e1f1e	-0.058135144
124	0xbde4862e	-0.11158405
125	0xbd7208a7	-0.059090283
126	0x3d1d8ea3	0.038466107
127	0xbdead8c7	-0.11467128
128	0xbd7c50b2	-0.061600395
129	0x3dba7cf9	0.09105868
130	0xbd1ff940	-0.039056063
131	0x3cafa5e2	0.021441404
132	0x3e1084f0	0.14113212
133	0x3e9b13fe	0.3028869
134	0x3d572039	0.052520964
135	0x3dc834a5	0.09775666
136	0x3e5f56b3	0.21810417
137	0xbb8e8c0a	-0.00435019
138	0x3ccaa70a	0.024737854
139	0x3e1be701	0.1522484
140	0x3d73d117	0.059525575
141	0x3e928bb7	0.2862222
142	0x3dfbbbab	0.12291654
143	0x3b2e14f7	0.002656279
144	0x3de1b6e2	0.1102121
145	0x3da5e100	0.08099556
146	0x3e14fb71	0.14549042
147	0x3e0dc8e7	0.1384617
148	0xbdeae609	-0.11469657
149	0x3db0c8f7	0.08632081
150	0x3c9dcfb4	0.01926408
151	0x3e80b1ed	0.25135747
152	0x3e03a7f6	0.12857041
153	0xbdfd8fa3	-0.12380912
154	0x3e16372a	0.14669481
155	0x3dde1c93	0.10845294
156	0x3e8fa62b	0.28056464
157	0x3beca7a7	0.007222134
158	0x3e85371d	0.2601861
159	0x3dfee867	0.12446671
160	0xbb89105b	-0.004182858
161	0x3e76868e	0.24074766
162	0xbd41bdb6	-0.047300063
163	0x3e4f1d5f	0.20226048
164	0xbe720404	-0.23634344
165	0x3e09669e	0.13418052
166	0x3dbd553a	0.09244771
167	0xbdf9b271	-0.12192238
168	0x3e147772	0.1449869
169	0x3cd22270	0.025651187
170	0xbd91785f	-0.07103037
171	0x3e2465af	0.16054414
172	0xbd90e768	-0.07075387
173	0xbb586190	-0.0033017136
174	0x3d3911c3	0.045182955
175	0x3e013f23	0.12621741
176	0x3e775f0d	0.24157353
177	0x3e126016	0.14294466
178	0xbe1e3e91	-0.15453555
179	0xbc10a761	-0.008828969
180	0x3d95428b	0.07288083
181	0xbd459e5a	-0.04824672
182	0xbe59a304	-0.21253592
183	0xbe1e5d5c	-0.15465301
184	0xbd526191	-0.051362578
185	0x3e1b6b65	0.15177687
186	0x3e807241	0.2508717
187	0x3ea8e99a	0.32990724
188	0x3ddbcef8	0.107328355
189	0x3df88ae6	0.12135868
190	0x3e084d66	0.13310775
191	0xbe008a62	-0.12552789
192	0x3d8395e5	0.064250745
193	0x3d3ba1ec	0.045808718
194	0x3d337b29	0.043818627
195	0x3e11730f	0.14204048
196	0xbdc441f3	-0.09582891
197	0xbcd88e3f	-0.026435016
198	0xbdff7d7e	-0.124751076
199	0xbc12a2c6	-0.008949941
200	0x3d488a25	0.04895987
201	0x3c91c4bc	0.017794006
202	0xbe293262	-0.16523126
203	0xbdbcaee6	-0.09213047
204	0xbd8f999d	-0.07011721
205	0x3b437354	0.002982338
206	0xbd471295	-0.048601706
207	0xbdfb0428	-0.12256652
208	0xbd899f65	-0.06719855
209	0x3d280528	0.041020542
210	0x3d4f2ef4	0.050581887
211	0x3e10abc7	0.14128028
212	0x3c50095b	0.012697543
213	0x3cece6a6	0.028918575
214	0xbda51816	-0.08061235
215	0xbc90afcb	-0.01766195
216	0x3b863846	0.004096064
217	0x3d9e3d9a	0.07726593
218	0x3ce1c627	0.027560307
219	0xbdcf34c2	-0.10117485
220	0xbe20c058	-0.15698373
221	0xbe232ad2	-0.15934303
222	0xbdbfba20	-0.093616724
223	0xbcc2cafe	-0.023778435
224	0x3dd5cbf7	0.10439294
225	0xbd59b7e5	-0.05315389
226	0x3c515ff3	0.012779224
227	0x3b0604f1	0.0020449723
228	0xbe21a004	-0.15783697
229	0xbe04006d	-0.12890787
230	0x3d050f7a	0.032485463
231	0x3d7e4e9d	0.06208669
232	0xbda30b46	-0.079611346
233	0xbcd98450	-0.02655235
234	0xbe13ad2c	-0.14421529
235	0xbcca1951	-0.024670275
236	0x3d3729ae	0.044717483
237	0x3bcfa7b6	0.0063371314
238	0xbd6fe765	-0.058570284
239	0x3cbeba83	0.023282295
240	0xbd287d9e	-0.041135423
241	0x3d8cad29	0.06868965
242	0xbdc80c64	-0.09767988
243	0xbdd72620	-0.10505319
244	0xbdd581a4	-0.104251176
245	0xbdd37156	-0.103243515
246	0x3dd1e277	0.10248273
247	0xbdd58f24	-0.104276925
248	0xbe0821ec	-0.1329419
249	0x3c30c271	0.010788546
250	0xbddab24d	-0.106785394
251	0xbc854f43	-0.016273146
252	0xbbae5c0b	-0.005321031
253	0xbd4756e5	-0.048666853
254	0x3d6081de	0.05481135
255	0x3d8eacb0	0.06966531

actor.2.bias f4 [64]
0	0xbd6bc89c	-0.057564363
1	0x3bd4e455	0.006496946
2	0x3db631fd	0.08896253
3	0xbe2371cc	-0.15961379
4	0x3e13f89f	0.1445031
5	0x3e0f1f41	0.13976766
6	0xbd225867	-0.03963509
7	0x3c84f43c	0.016229741
8	0xbda2f69f	-0.079571955
9	0x3df7ef94	0.12106243
10	0xbdb6b045	-0.089203395
11	0x3e0569ab	0.1302859
12	0xbd8cc363	-0.068732046
13	0xbdc04821	-0.093887575
14	0x3dbcab22	0.092123285
15	0x3c7d6080	0.015464902
16	0x3c93ab23	0.01802594
17	0x3dc893ec	0.09793839
18	0x3d65b333	0.0560791
19	0x3daf5813	0.08561721
20	0xbd83df0a	-0.06439026
21	0x3d492f41	0.04911733
22	0x3d176cff	0.03696918
23	0x3e0c651b	0.13710444
24	0x3e2f3f8e	0.17114088
25	0x3c80bcf8	0.015715107
26	0x3dc7f352	0.097632065
27	0xbda0f82a	-0.078598335
28	0xbe0f77ed	-0.14010592
29	0x3d6566dc	0.056006297
30	0x3d0d6468	0.034519583
31	0x3d89177e	0.06693934
32	0xbd84a2f4	-0.06476393
33	0x3d4166cc	0.047217175
34	0xbcf646b3	-0.030063009
35	0x3d91186e	0.07084738
36	0xbd1d3563	-0.03838099
37	0x3cffcfaf	0.031226961
38	0x3de81987	0.11332994
39	0x3d881951	0.06645454
40	0x3debbfde	0.11511205
41	0xbe231b46	-0.15928373
42	0x3d867d84	0.06566909
43	0x3cd18ada	0.025578905
44	0x3d4f963b	0.05068038
45	0x3afb909d	0.0019192878
46	0xbdd8190d	-0.10551653
47	0x3b96534f	0.004587568
48	0x3cb558fa	0.022137154
49	0x3dcac684	0.09901145
50	0x3dbd2f5e	0.0923755
51	0xbd20f942	-0.03930021
52	0xbcf46398	-0.029832646
53	0xbdd3aadf	-0.103353254
54	0x3d4b53a2	0.049640305
55	0x3db5991e	0.088670954
56	0x3db09373	0.08621874
57	0x3da9a6c3	0.082837604
58	0x3db5c3c8	0.08875233
59	0x3dcdb3f9	0.10044093
60	0x3d1abee8	0.03777972
61	0x3dc6c546	0.09705596
62	0x3cc45cbf	0.023970006
63	0xbc95736a	-0.01824351

actor.4.weight f4 [36, 64]
0	0x3c1a0a23	0.009401831
1	0x3cde2c5a	0.027120758
2	0x3e0182e4	0.12647587
3	0xbd94e982	-0.072711006
4	0xbe3117c0	-0.17294216
5	0xbf0ff873	-0.5623848
6	0x3eb8370e	0.35979503
7	0x3eae9794	0.3410002
8	0xbd7f48cc	-0.062325284
9	0x3e273ac8	0.16331017
10	0xbdcc16ec	-0.099653095
11	0x3e94eb2c	0.29085672
12	0xbe473043	-0.19452004
13	0xbca5785f	-0.020198999
14	0xbd3790c7	-0.044815805
15	0xbbbe65fe	-0.0058104983
16	0x3eed51f2	0.46351582
17	0xbe0d23dc	-0.1378321
18	0x3dd49be3	0.103812955
19	0x3e924157	0.28565475
20	0x3d9e3e56	0.077267334
21	0xbecf4d6f	-0.40488765
22	0xbe4b48c9	-0.19851984
23	0xbded4a14	-0.11586395
24	0xbec35727	-0.3815243
25	0xbd84febc	-0.06493899
26	0x3d02c462	0.031925566
27	0x3db0159b	0.08597871
28	0xbd8c1443	-0.06839802
29	0xbf2ce294	-0.6753323
30	0x3ea8cc12	0.32968193
31	0xbede57c9	-0.4342635
32	0xbec85ad1	-0.39131787
33	0xbeaefbfd	-0.34176627
34	0x3d8056fd	0.06266592
35	0x3dc93293	0.098240994
36	0xbcf0952b	-0.029368004
37	0x3e9ac216	0.302262
38	0x3e880615	0.2656714
39	0xbf215552	-0.63020813
40	0xbe0bcdd0	-0.1365273
41	0xbd96563d	-0.073406674
42	0xbf1e8096	-0.61914957
43	0xbf37a3ab	-0.7173411
44	0xbdca6932	-0.09883346
45	0x3eabb64a	0.33537513
46	0x3d07aee1	0.033125762
47	0x3e87d8a4	0.2653247
48	0x3cae7a92	0.02129868
49	0x3e848d71	0.2588916
50	0xbf10ddd7	-0.565885
51	0xbeb1e6f1	-0.34746507
52	0x3e0a527f	0.13508032
53	0xbc8a4566	-0.016878795
54	0x3eb68840	0.35650826
55	0x3e963bc6	0.2934248
56	0xbf4ce6ad	-0.80039483
57	0xbde34084	-0.1109629
58	0xbee2c3dc	-0.44290054
59	0xbf1bfbd4	-0.60931134
60	0xbf197a84	-0.5995257
61	0x3e1ec2ab	0.15503947
62	0x38eb8c3f	0.00011231796
63	0xbd800664	-0.06251219
64	0xbdc3705b	-0.095429145
65	0x3dd585cf	0.104259126
66	0x3d63eb94	0.055644587
67	0x3ca9eda9	0.020743208
68	0xbde3ff4c	-0.111326784
69	0xbf06e4e9	-0.5269304
70	0x3df70e81	0.12063313
71	0x3d83e3d9	0.06439943
72	0xbcfab0e9	-0.030601935
73	0x3e5398a6	0.206637
74	0x3d196c31	0.037456695
75	0x3e4aa287	0.19788562
76	0x3e81e99c	0.25373542
77	0xbdcde607	-0.1005364
78	0x3e89d717	0.26921913
79	0x3cae9143	0.0213095
80	0xbe968884	-0.29401028
81	0x3e622685	0.22085007
82	0xbedb6694	-0.42851698
83	0xbec16a0b	-0.37776217
84	0x3d3538ea	0.04424373
85	0x3ec459bb	0.3834971
86	0xbe195ca2	-0.14976743
87	0xbf0f8cc3	-0.5607416
88	0xbf0c9b93	-0.5492489
89	0x3dec7e87	0.11547571
90	0xbc4aba36	-0.012373498
91	0x3dc3c931	0.095598586
92	0x3ed3160b	0.41227755
93	0xbea22ddc	-0.31675613
94	0xbed2961f	-0.41130158
95	0xbf12976e	-0.57262313
96	0x3d13f211	0.036119524
97	0xbec8fde6	-0.3925621
98	0x3e1224fd	0.14271922
99	0xbee3547b	-0.4440039
100	0x3f0c52eb	0.5481402
101	0x3dd6dbe1	0.10491157
102	0x3e876b00	0.26448822
103	0xbf476e2a	-0.7790247
104	0x3e5f2f51	0.21795394
105	0x3cd1f2f8	0.025628552
106	0xbe9ad94b	-0.30243906
107	0xbf42960b	-0.760102
108	0x3ddf053b	0.108896695
109	0xbe82917d	-0.25501624
110	0xbd5430e5	-0.051804442
111	0x3e068ae9	0.13138928
112	0xbea281a3	-0.3173953
113	0x3d9d7117	0.07687586
114	0x3e28287c	0.16421694
115	0xbf3778d9	-0.71668774
116	0x3d8cb586	0.0687056
117	0x3d0ef550	0.034901917
118	0xbec23e9f	-0.379384
119	0xbec147d2	-0.37750107
120	0xbec07217	-0.37587044
121	0x3d1bd0a0	0.038040757
122	0xbf0f07df	-0.55871385
123	0x3e9a936b	0.30190596
124	0xbe0fb08b	-0.1403219
125	0xbd8b3647	-0.06797462
126	0x3da992f5	0.08279983
127	0xbc82ab14	-0.015950717
128	0x3dfd3a1f	0.12364601
129	0xbb364fb8	-0.0027818512
130	0x3e26d4f0	0.16292167
131	0xbddbf829	-0.10740692
132	0xbf22b470	-0.63556576
133	0xbd3b38df	-0.045708533
134	0xbdb0400e	-0.086059675
135	0xbe88fb74	-0.26754344
136	0x3cf39315	0.02973322
137	0xbede1d34	-0.43381655
138	0x3cceb572	0.025233004
139	0x3e8fcdcc	0.28086698
140	0x3ea4190e	0.32050365
141	0xbcc03089	-0.023460643
142	0xbea10788	-0.31451058
143	0xbdbee89f	-0.09321713
144	0xbee1b2f9	-0.44081858
145	0x3d99acb2	0.07503642
146	0xbcc713a4	-0.024301358
147	0x3e5bec78	0.21476924
148	0x3ee821ac	0.4533819
149	0xbe9366b5	-0.28789297
150	0x3da0f8f5	0.07859985
151	0xbf0949f2	-0.53628457
152	0xbf1d7196	-0.61501443
153	0x3da0663f	0.07832002
154	0x3d6e500a	0.0581818
155	0x3d9dc1bf	0.0770297
156	0x3ec4cfac	0.3843969
157	0xbeb82502	-0.35965735
158	0x3e19f272	0.15033892
159	0xbf1113b1	-0.5667067
160	0x3d1a508c	0.03767447
161	0xbdf0b809	-0.11753852
162	0x3e072002	0.13195804
163	0xbe068d3b	-0.13139813
164	0xbe022126	-0.12707958
165	0xbdbd41ce	-0.09241067
166	0x3da73091	0.0816356
167	0xbec1c4ac	-0.3784536
168	0x3e84f0e7	0.25965044
169	0x3c1cd15d	0.0095714005
170	0xbf3f2910	-0.7467203
171	0xbec53f2e	-0.38524765
172	0xbd92a373	-0.07160082
173	0xbd3a27c9	-0.0454481
174	0x3dc4dc87	0.09612375
175	0xbe96b4cb	-0.2943481
176	0x3ec8e770	0.39239073
177	0x3e9c35b2	0.30509716
178	0xbf1484d9	-0.5801521
179	0x3e7a14b5	0.24421962
180	0x3e697464	0.22798306
181	0xbd77c08f	-0.060486373
182	0xbf13a671	-0.57675844
183	0x3ea896b9	0.32927492
184	0xbf1e9015	-0.619386
185	0xbdc7aa85	-0.09749321
186	0xbf31e96a	-0.69496787
187	0xbef75b6d	-0.4831194
188	0xbecbdbda	-0.3981617
189	0x3e40103e	0.18756196
190	0x3c51a47c	0.012795564
191	0xbd9ef28c	-0.07761106
192	0x3df538e0	0.11973739
193	0x3cd23e1d	0.025664384
194	0xbe84adcf	-0.25913855
195	0xbcfbbf3c	-0.030730836
196	0xbda3127f	-0.07962512
197	0x3b28de9f	0.0025767458
198	0x3d94596f	0.072436206
199	0x3da16aff	0.07881736
200	0xbde10900	-0.10988045
201	0x3e13b867	0.14425813
202	0x3d44f614	0.04808624
203	0x3e1ad6f3	0.15121059
204	0xbe135e0e	-0.14391348
205	0xbd9027d0	-0.07038844
206	0xbe4fd7e7	-0.20297204
207	0x3d99604d	0.07489071
208	0xbe362678	-0.17788112
209	0xbe1fb851	-0.15597655
210	0xbec9b10e	-0.39392895
211	0xbcbe22e3	-0.023209995
212	0xbe77d987	-0.24204074
213	0xbe41ce2c	-0.18926305
214	0xbed9e63d	-0.4255847
215	0xbd106434	-0.03525181
216	0xbe186bd5	-0.14884885
217	0xbe5eeaee	-0.21769306
218	0xbd58bd86	-0.05291512
219	0x3d16580d	0.036705066
220	0x3d4294ed	0.047505308
221	0xbd9c6682	-0.07636739
222	0x3e1e7442	0.15474036
223	0xbe870fa8	-0.26379132
224	0xbdd7265b	-0.105053626
225	0xbd076ec4	-0.03306462
226	0xbd9adfe5	-0.07562236
227	0xbeb2b9ab	-0.34907278
228	0xbe6a1b58	-0.22861993
229	0xbdac0223	-0.08398845
230	0x3b3d18c5	0.0028853875
231	0xbe164b7e	-0.14677235
232	0xbd935c7e	-0.07195376
233	0x3d9142ad	0.070927955
234	0xbdd37248	-0.10324532
235	0xbe34f46d	-0.17671366
236	0xbd691a47	-0.056909826
237	0x3e0093f2	0.12556437
238	0x3d9c9b34	0.0764679
239	0xbeb3b5a0	-0.35099506
240	0xbea77293	-0.327046
241	0xbda1df99	-0.07903976
242	0xbef71cbd	-0.48264113
243	0xbeeb2578	-0.45927024
244	0x3de4ff11	0.111814626
245	0x3d97eb59	0.07417936
246	0xbe833cb0	-0.25632238
247	0xbdb94d53	-0.090479515
248	0xbdbec26c	-0.09314427
249	0xbda88496	-0.08228414
250	0xbdeb07a6	-0.11476068
251	0xbea1a4e1	-0.31571105
252	0xbec3fe7b	-0.3828009
253	0x3d94311b	0.072359286
254	0xbdc94da6	-0.098292634
255	0xbcfcced8	-0.03086035

actor.4.bias f4 [36]
0	0xbe126cf8	-0.14299381
1	0xbd60ff47	-0.05493095
2	0xbe58ab8e	-0.21159193
3	0x3c630ac0	0.0138575435
4	0x3d989aa4	0.0745137
5	0xbdbbcac5	-0.091695346
6	0x3d0bcabe	0.034128897
7	0x3df4051b	0.11915036
8	0xbc96b6e1	-0.01839775
9	0xbd3ba485	-0.045811195
10	0xbdc98121	-0.098390825
11	0xbce7c349	-0.028291361
12	0x3dee30c5	0.11630396
13	0x3e12f798	0.14352262
14	0x3e24012a	0.16016069
15	0x3b4878d0	0.0030589588
16	0xbd025740	-0.03182149
17	0xbd8fb1e8	-0.07016355
18	0x3c64f116	0.013973495
19	0x3d5a0199	0.05322418
20	0xbeb23801	-0.34808353
21	0x3cbb4ecf	0.022864727
22	0x3c95ec84	0.018301256
23	0xbcaff9e0	-0.021481454
24	0x3decb256	0.115574524
25	0x3d39c1f8	0.045351
26	0x3e40fa8b	0.18845575
27	0xbdd36090	-0.10321152
28	0x3d0a7597	0.03380355
29	0x3d213475	0.039356668
30	0x3dfb53f4	0.12271872
31	0xbd91dae7	-0.071218304
32	0xbd20a079	-0.03921554
33	0x3e1a9d4b	0.15099065
34	0x3e32ff61	0.17480232
35	0x3e0685c2	0.13136962

critic.0.weight f4 [64, 62]
0	0x3d549a7e	0.051905148
1	0x3d5bb4dc	0.053639278
2	0xbdc0f184	-0.094210654
3	0xbcde2af5	-0.027120093
4	0xbd636cf5	-0.05552383
5	0xbcdda3a5	-0.02705557
6	0xbc06ecf5	-0.008235206
7	0x3bac9973	0.005267316
8	0xbd99bf73	-0.07507219
9	0xbca91594	-0.020640172
10	0xbd983583	-0.074320816
11	0xbd06fdd1	-0.032956902
12	0xbda77acc	-0.081777185
13	0xbd87de16	-0.066341564
14	0xbde2475f	-0.11048769
15	0xbdde02f9	-0.10840411
16	0xbc0910fe	-0.008365868
17	0xbddd20ab	-0.107972465
18	0xbdf7fe13	-0.12109008
19	0x3d8a6a63	0.06758573
20	0xbdbb4a0c	-0.09144983
21	0x3db6177c	0.08891198
22	0x3c1010d6	0.0087930765
23	0xbd4bb9b7	-0.04973766
24	0x3dac393c	0.08409354
25	0xbde81cda	-0.11333628
26	0x3d7934c0	0.060841322
27	0x3d834cb8	0.06411117
28	0x3da1ca73	0.07899942
29	0xbdf2ddf7	-0.11858743
30	0xbc29b877	-0.010358921
31	0xbcdd3398	-0.02700214
32	0xbdc0fbf2	-0.09423055
33	0x3db1a39a	0.08673783
34	0xbcb73252	-0.022362862
35	0x3d8a1a88	0.06743342
36	0xbd8c0d16	-0.068384334
37	0xbd66b474	-0.056324437
38	0x3ce2830f	0.027650384
39	0xbbb5a4ff	-0.0055433507
40	0x3d9510c4	0.072785884
41	0x3d5de969	0.054177675
42	0x3dd0bafa	0.10191913
43	0xbdddb5d1	-0.10825694
44	0x3ceb1533	0.028696632
45	0x3dc12f61	0.09432865
46	0xbd95d47c	-0.07315919
47	0xbdc9f523	-0.09861209
48	0x3dffed73	0.12496462
49	0xbdd9d0fe	-0.10635565
50	0xbda2ab58	-0.079428375
51	0xbddc125c	-0.10745689
52	0x3c95b1bf	0.018273233
53	0x3c3856d9	0.011251175
54	0xbe0499fa	-0.12949362
55	0x3d545c52	0.051845856
56	0x3c4b16f1	0.012395606
57	0x3ccccb07	0.024999155
58	0xbe11c093	-0.14233617
59	0xbe095e7c	-0.13414949
60	0xbdfaaebb	-0.122403584
61	0xbd8fa195	-0.07013241
62	0xbdea309c	-0.11435053
63	0xbc6aa338	-0.014321141
64	0xbdb43fe7	-0.08801251
65	0xbcddcb23	-0.027074402
66	0x3deaf5e0	0.11472678
67	0x3dc22571	0.09479798
68	0x3e067b24	0.13132912
69	0xbcb63781	-0.022243263
70	0xbdf3f619	-0.11912174
71	0xbd80df59	-0.062926
72	0xbdefc1f7	-0.11706918
73	0x3e538c35	0.20658953
74	0xbde452f3	-0.11148634
75	0x3e6ee8f8	0.23331058
76	0x3e4f58d8	0.20248735
77	0x3e910b91	0.28329137
78	0x3e025f3c	0.12731642
79	0x3e18c0a7	0.14917241
80	0x3d8b91bf	0.06814908
81	0xbcce1383	-0.025155788
82	0xbd09adb4	-0.03361292
83	0xbe00a42d	-0.12562628
84	0x3d88dae2	0.066823736
85	0xbca5e62f	-0.020251362
86	0x3c43e3f7	0.0119562065
87	0x3b5c9db0	0.0033663325
88	0x3da7fc15	0.08202378
89	0xbc8bf0f9	-0.017082678
90	0x3e926a8c	0.28596914
91	0x3f1b6620	0.60702705
92	0x3e5f43ad	0.2180316
93	0x3f22675b	0.6343896
94	0x3d6eb262	0.058275588
95	0xbe0b04b0	-0.13576007
96	0x3db6e9b5	0.08931295
97	0x3c9b9ea7	0.01899655
98	0x3e14a4f2	0.14516047
99	0xbdc6af5a	-0.097014144
100	0x3e384f5e	0.17999026
101	0x3e67572d	0.22591849
102	0xbddbb81d	-0.10728476
103	0xbdd3d73a	-0.103437856
104	0x3d468b13	0.048472475
105	0xba93e317	-0.0011282888
106	0x3d74f630	0.059805095
107	0xbe11de43	-0.14244942
108	0x3d857417	0.06516283
109	0x3e16aa9f	0.14713524
110	0x3e7906bc	0.24318975
111	0xbd4ff5b7	-0.05077144
112	0x3da19289	0.078892775
113	0x3d8e17cb	0.06938132
114	0x3c5922ae	0.013252897
115	0xbe16bf61	-0.14721443
116	0xbe2a0839	-0.16604699
117	0xbd771b38	-0.060328692
118	0x3e193bbd	0.14964195
119	0x3d2b438b	0.04181246
120	0x3d5746c1	0.05255771
121	0x3d1b5c05	0.037929554
122	0xbbc9f6d7	-0.006163459
123	0x3cf7a183	0.030228382
124	0x3c2b3fed	0.010452253
125	0x3e390691	0.18068911
126	0xbd8fe895	-0.070267834
127	0x3dc0c755	0.094130196
128	0xbde52db4	-0.11190358
129	0xbc1c39b0	-0.009535238
130	0x3cbd4e7b	0.023108711
131	0x3c085d54	0.008323032
132	0xbd672265	-0.056429286
133	0x3c0c174a	0.008550474
134	0x3e1f5e02	0.15563205
135	0x3d8d603a	0.069031194
136	0x3e0774b4	0.13228112
137	0x3e8ade2c	0.2712263
138	0x3de2007e	0.1103525
139	0x3d772e7a	0.060347058
140	0xbddc7880	-0.10765171
141	0xbde193cc	-0.11014518
142	0x3df274de	0.11838697
143	0xbe114868	-0.14187777
144	0x3d5f8699	0.05457172
145	0xbd377191	-0.04478604
146	0x3cbc58ce	0.022991564
147	0x3dee6afc	0.116414994
148	0xbd57bc03	-0.052669536
149	0xbcb8b37d	-0.022546524
150	0x3d5737c4	0.052543417
151	0xbd110aee	-0.035410814
152	0xbdb58aef	-0.0886439
153	0xbc95a738	-0.018268213
154	0xbd3cdb93	-0.04610784
155	0xbd2f720c	-0.042833373
156	0xbdf2ee79	-0.11861891
157	0xbc75ba9d	-0.014998105
158	0x3c4969fd	0.012293336
159	0xbdb63533	-0.08896866
160	0xbdf00290	-0.11719239
161	0xbda614b5	-0.08109418
162	0xbe14b344	-0.1452151
163	0x3e6de943	0.23233514
164	0xbe50565a	-0.2034544
165	0xbe53cb27	-0.20682965
166	0x3e11c934	0.14236909
167	0xbd9aee6d	-0.07565007
168	0x3dd72ebf	0.10506963
169	0xbdfb2bc2	-0.122642055
170	0x3ba36579	0.0049864617
171	0xbd264259	-0.040590618
172	0xbe0f6715	-0.14004166
173	0x3d85496d	0.065081455
174	0x3ccad5e3	0.024760192
175	0x3e99520a	0.29945403
176	0x3e0466ef	0.12929891
177	0x3deb5385	0.114905395
178	0xbc329ea0	-0.010902077
179	0x3c82105e	0.015876945
180	0xbe693e84	-0.22777754
181	0xbd99c0cd	-0.07507477
182	0xbde7a85e	-0.1131141
183	0x3cc7bc97	0.024381919
184	0xbbdcc39e	-0.0067371866
185	0xbd8a125b	-0.06741782
186	0xbe085481	-0.13313486
187	0xbe19eff9	-0.15032949
188	0xbd06f6c5	-0.03295018
189	0x3dcf74d9	0.10129709
190	0x3b3f65a1	0.0029204863
191	0xbd527433	-0.051380347
192	0xbd7bdd31	-0.06149024
193	0x3d4aef95	0.04954489
194	0x3d5bf39c	0.05369912
195	0xbdebae50	-0.11507857
196	0xbddb1894	-0.10698047
197	0xbd16072e	-0.03662794
198	0xbcebf3b8	-0.028802738
199	0xbd981735	-0.074263014
200	0xbce08d26	-0.027411055
201	0xbdf22218	-0.11822909
202	0xbda394e0	-0.0798738
203	0xbdfae2e3	-0.122503065
204	0xbdabc982	-0.08388044
205	0x3c8b4ac1	0.017003419
206	0xbcbc10c7	-0.022957219
207	0x3d3a1fda	0.045440532
208	0xbdbd03d5	-0.092292465
209	0x3cac01cb	0.020996949
210	0x3db1d1c4	0.08682588
211	0x3dac2232	0.0840496
212	0xbbb6094c	-0.0055553075
213	0xbde38f39	-0.11111302
214	0x3c43b96a	0.011946062
215	0xbe256ddd	-0.16155191
216	0xbdabf863	-0.083969854
217	0xbde8d1cc	-0.113681406
218	0xbdb3348c	-0.08750257
219	0xbcc53f27	-0.024077965
220	0xbcf4dd5b	-0.029890707
221	0xbe02856e	-0.12746212
222	0xbb161065	-0.0022897955
223	0x3d4885c9	0.048955712
224	0xbe27d225	-0.16388758
225	0xbd099160	-0.033585906
226	0x3d0cb401	0.034351353
227	0xbd89f69d	-0.06736491
228	0x3e001297	0.12507091
229	0x3e15088f	0.14554046
230	0x3d091710	0.03346926
231	0xbd0ddbbd	-0.034633387
232	0x3cb86b6a	0.022512157
233	0x3d973a0a	0.07384117
234	0xbd91bebd	-0.071164586
235	0xbdb169e1	-0.08662773
236	0xbe0e6273	-0.13904743
237	0xbe448ae2	-0.19193605
238	0x3d82ca77	0.06386273
239	0xbd3421a3	-0.04397739
240	0xbd89fd15	-0.06737725
241	0xbcf4e4ff	-0.02989435
242	0xbe0ec026	-0.13940486
243	0xbdafcc64	-0.08583906
244	0xbe0d696d	-0.13809748
245	0xbd3ca454	-0.046055153
246	0xbceda919	-0.029011296
247	0xbdd378f0	-0.10325801
248	0x3d4d413d	0.050111044
249	0x3ce7daf6	0.02830265
250	0xbe23a5e1	-0.15981247
251	0xbe49d175	-0.19708808
252	0x3cbcdbd3	0.02305404
253	0xbe2fa72e	-0.17153618
254	0xbd597465	-0.053089518
255	0xbd20547c	-0.03914307

critic.0.bias f4 [64]
0	0xbe10870e	-0.1411402
1	0x3d62f834	0.055412486
2	0xbdc7db09	-0.097585745
3	0xbbb1aa01	-0.0054218774
4	0xbd87d026	-0.06631498
5	0x3d0816fb	0.03322504
6	0x3d0048f4	0.031319574
7	0xbe1ee0aa	-0.1551539
8	0xbe127a3d	-0.14304443
9	0xbcb06c0f	-0.021535901
10	0xbd6835a5	-0.056691784
11	0xbc94b1a1	-0.018151106
12	0xbdac5049	-0.08413751
13	0xbd8b9a2e	-0.06816517
14	0xbd2ed650	-0.042684853
15	0xbc142883	-0.009042862
16	0xbde07cb7	-0.109612875
17	0xbda2127c	-0.07913682
18	0xbd9be7d5	-0.07612578
19	0x3d9ebe6b	0.07751163
20	0xbdb9260e	-0.090404615
21	0xbdef39ec	-0.116809696
22	0xbcb789f4	-0.022404648
23	0x3d3a7473	0.04552121
24	0xbccd0b85	-0.025029907
25	0xbd8ebea7	-0.06969958
26	0xbdeb5086	-0.11489968
27	0xbc8f31e8	-0.017479852
28	0xbba06065	-0.0048943036
29	0x3d45d0b1	0.048294727
30	0x3e80c133	0.251474
31	0x3d880d87	0.06643205
32	0xbe0d876b	-0.13821189
33	0xbc052919	-0.008127474
34	0xbcf2c88d	-0.029636646
35	0xbc256821	-0.010095627
36	0xbd8365d3	-0.06415906
37	0x3e016c7b	0.12639038
38	0xbd87e78f	-0.06635963
39	0x3c88e02d	0.016708458
40	0xbe03e8b7	-0.12881742
41	0xbde5137d	-0.11185358
42	0xbda9166f	-0.08256232
43	0xbd8dd4f8	-0.06925386
44	0xbe0496d5	-0.12948163
45	0xbdb3cff0	-0.08779895
46	0xbd064cf0	-0.032788217
47	0x3dd36fc6	0.103240535
48	0x3e480af4	0.19535428
49	0xbd393db4	-0.04522486
50	0xbc900bd7	-0.01758377
51	0xbdff1fb1	-0.124572165
52	0x3dedeb9a	0.11617203
53	0xbe24dc26	-0.16099605
54	0xbdcfb314	-0.10141578
55	0xbe268616	-0.16262087
56	0xbd750146	-0.059815668
57	0x3da1f692	0.07908358
58	0xbe2ec164	-0.1706596
59	0xbd3853ba	-0.045001723
60	0x3e22dbd2	0.15904167
61	0xbd69e8b0	-0.057106674
62	0xbdbc8cc1	-0.09206534
63	0xbe0f400a	-0.13989273

critic.2.weight f4 [64, 64]
0	0xbcb7030b	-0.022340318
1	0x3e36e428	0.17860472
2	0x3cb0de23	0.021590298
3	0x3c6a6c78	0.0143080875
4	0xbe0f5402	-0.1399689
5	0x3d820bcc	0.06349906
6	0x3d168cae	0.036755256
7	0x3e0b2fd8	0.1359247
8	0x3e088b89	0.13334478
9	0xbd01c80b	-0.031684916
10	0x3df4c6e1	0.11951996
11	0x3e96954f	0.29410788
12	0xbdc31979	-0.09526343
13	0x3edd3a74	0.4320866
14	0x3c7d6818	0.015466712
15	0x3dc942c1	0.098271854
16	0x3cae4dcf	0.021277336
17	0x3dbbf1ad	0.09176955
18	0xbd3c9017	-0.046035852
19	0x3e902649	0.2815421
20	0x3c2fb4b6	0.010724237
21	0xbd6f08cd	-0.058358002
22	0x3d8db68f	0.06919586
23	0x3da89f6b	0.082335316
24	0xbdf5b2d2	-0.11996998
25	0x3dd47ad0	0.10374987
26	0xbda90c5f	-0.08254313
27	0x3e1da569	0.1539513
28	0x3d6b33d4	0.057422474
29	0x3e82448c	0.25442922
30	0x3e53b1d2	0.20673302
31	0xbd8d0786	-0.068862006
32	0x3ce5160b	0.027964612
33	0xbd767169	-0.06016675
34	0x3d8d0f42	0.06887676
35	0x3a75956d	0.00093682745
36	0xbd5e10ee	-0.054215364
37	0x3dbdb583	0.09263136
38	0x3d8a0026	0.067383096
39	0xbddcb285	-0.107762374
40	0xbd8bc827	-0.068252854
41	0x3e028a24	0.12748009
42	0x3e6c45ec	0.23073548
43	0xbda17d4d	-0.07885227
44	0xbd1acc5c	-0.03779255
45	0xbdb43df5	-0.0880088
46	0x3dacf714	0.08445564
47	0xbda417c4	-0.080123454
48	0x3e86fd2f	0.2636504
49	0x3dac0bdf	0.08400702
50	0xbd85a81b	-0.06526204
51	0x3dbb9871	0.09159935
52	0xbd10901a	-0.035293676
53	0xbd38423d	-0.044985045
54	0x3d3688b0	0.04456395
55	0x3e9bd96a	0.3043931
56	0xbd4cae96	-0.049971186
57	0x3e8cd9ca	0.2750991
58	0xbc985fc4	-0.018600352
59	0x3cfcb43f	0.030847667
60	0xbce23c71	-0.027616711
61	0x3e622476	0.22084221
62	0x3ef747ff	0.48297116
63	0xbdacd111	-0.08438314
64	0xbd11a6a5	-0.035559315
65	0x3bc7d360	0.006098196
66	0xbc1a679d	-0.009424117
67	0xbcbe2949	-0.023213046
68	0xbdeedb72	-0.116629496
69	0xbd845b23	-0.064626954
70	0xbdb497fb	-0.088180505
71	0x3df0109e	0.117219195
72	0xbd566e3d	-0.052351225
73	0xbdd2437d	-0.102667786
74	0xbdc4857f	-0.09595775
75	0xbdeff414	-0.11716476
76	0xbd0c8795	-0.03430899
77	0xbd5dbdeb	-0.054136198
78	0xbde37a5f	-0.11107325
79	0xbd523aed	-0.051325727
80	0x3da14f15	0.07876412
81	0xbde1d6a4	-0.110272676
82	0xbc5512a5	-0.0130049335
83	0x3de35a1f	0.111011736
84	0x3d82224d	0.063541986
85	0xbcd471e6	-0.025933217
86	0x3d5c150d	0.053731013
87	0xbd6e2b2e	-0.058146648
88	0xbdb3a3c9	-0.08771474
89	0xbdbbdf08	-0.09173399
90	0xbdadad0f	-0.08480274
91	0x3d9f36d7	0.07774132
92	0xbbdda3cf	-0.0067639123
93	0xbde8a79b	-0.11360093
94	0xbd90521f	-0.07046913
95	0xbcf99fbd	-0.030471677
96	0x3d668384	0.056277767
97	0x3ceced89	0.02892186
98	0x3c965ba4	0.018354245
99	0xbd312805	-0.043251056
100	0xbc5f91d0	-0.013645604
101	0x3d8fbff2	0.070190325
102	0x3d2230b1	0.039597217
103	0xbd33cd10	-0.043896735
104	0x3e0b86fe	0.13625714
105	0x3d9e2158	0.077212036
106	0x3d048074	0.032349065
107	0x3d3ffad7	0.04687008
108	0x3d927ec6	0.07153086
109	0xbd08c505	-0.033391017
110	0x3ca8de79	0.020613896
111	0xbd50754a	-0.050893106
112	0xbd3ba827	-0.04581466
113	0xbba633e2	-0.005072103
114	0xbdefea10	-0.11714566
115	0x3dcf1c63	0.10112836
116	0xbdd3d89d	-0.1034405
117	0xbdce1061	-0.10061718
118	0xbccfc998	-0.025364682
119	0x3d87e27e	0.06634997
120	0xbda0ceb5	-0.07851926
121	0xbc6227ff	-0.013803481
122	0x3d7c2289	0.061556373
123	0xbdecb4a4	-0.11557892
124	0x3dc2197b	0.09477516
125	0x3d4f036a	0.050540365
126	0x3ce0a8d6	0.027424257
127	0xbc025af7	-0.007956258
128	0x3d6ad444	0.05733134
129	0xbdae7a6b	-0.08519443
130	0xbc8d0818	-0.017215773
131	0x3dc45c12	0.095878735
132	0xbd3131e6	-0.043260477
133	0xbccf91b0	-0.025338024
134	0x3c97ee1f	0.018546162
135	0xbce4928e	-0.027901914
136	0xbdd01905	-0.10161022
137	0xbcd53d43	-0.026030188
138	0xbd7254cd	-0.059162904
139	0xbe38dfd8	-0.1805414
140	0xbc8de466	-0.017320823
141	0xbd9edf54	-0.0775744
142	0x3d52766d	0.05138247
143	0xbd23a5ad	-0.039952923
144	0xbdd00eba	-0.10159059
145	0x3e257c14	0.16160613
146	0xbba48ce7	-0.0050216797
147	0xbd7e6042	-0.062103517
148	0x3c864585	0.016390571
149	0x3d4a7647	0.049429204
150	0x3da87869	0.082260914
151	0x3dabf36a	0.08396037
152	0xbd72dd49	-0.059293065
153	0x3d1f379d	0.038871396
154	0x3d47ce52	0.048780747
155	0xbde45558	-0.111490905
156	0x3d3b579b	0.045737844
157	0xbe0382f2	-0.1284292
158	0x3db97fdb	0.090575896
159	0xbe0ef85c	-0.13961929
160	0x3d244aca	0.040110387
161	0xbd46cb3b	-0.04853366
162	0x3c9698fe	0.0183835
163	0xbd087cd4	-0.03332217
164	0x3c0e3186	0.0086787995
165	0xbd7dc904	-0.06195928
166	0x3b889497	0.004168104
167	0xbd8d685b	-0.0690467
168	0x3d701e64	0.058622733
169	0x3c7830d5	0.015148361
170	0xbcfeb5ba	-0.031092513
171	0xbd858436	-0.06519358
172	0x3aa07dc8	0.0012244517
173	0xbe04c9fb	-0.12967674
174	0x3b4eee81	0.0031575265
175	0x3d60c27b	0.05487297
176	0x3d0b671f	0.03403389
177	0xbd463731	-0.04839248
178	0x3cb6d68b	0.022319099
179	0x3d8186b4	0.06324521
180	0x3c50f776	0.012754312
181	0xbc9b541b	-0.018961003
182	0x3d092495	0.033482153
183	0xbcce1894	-0.025158204
184	0xbb52bc01	-0.0032155516
185	0xbd48e416	-0.049045645
186	0xbde25e0a	-0.11053093
187	0xbdcd8e8e	-0.10036956
188	0xbd5cfc27	-0.05395141
189	0xbdb92080	-0.09039402
190	0x3daa6b7e	0.08321284
191	0xbe48aa3c	-0.1959619
192	0xbb8ca990	-0.0042926744
193	0x3d87ad9e	0.06624912
194	0xbc42fbab	-0.011900823
195	0xbdac8929	-0.08424599
196	0x3c17dfa0	0.009269625
197	0xbdef9dc3	-0.117000125
198	0x3de83c1d	0.11339591
199	0x3d3ad2ac	0.04561107
200	0x3e265467	0.16243134
201	0xbe5dbe9b	-0.21654741
202	0x3e41d232	0.1892784
203	0x3dbb2f6a	0.09139903
204	0x3da8cf0f	0.08242618
205	0x3e3948e1	0.18094207
206	0x3e1eb0d1	0.15497138
207	0x3e816ef1	0.25279954
208	0x3cca5667	0.024699403
209	0xbd342b57	-0.043986645
210	0xbdd9b8b8	-0.106309354
211	0x3e879479	0.26480463
212	0x3d9b1f1b	0.07574292
213	0x3dc12429	0.09430725
214	0xbda507cc	-0.08058128
215	0x3d18338c	0.037158534
216	0xbd928a05	-0.071552314
217	0xbd3a2526	-0.045445584
218	0x3d7d18be	0.061791174
219	0x3e1b7ac1	0.15183546
220	0x3e03f55b	0.12886564
221	0x3d9fe60a	0.07807548
222	0x3ec73b67	0.38912508
223	0xbdf3edbf	-0.11910581
224	0x3d785e78	0.060636967
225	0x3e09e10d	0.13464756
226	0xbd0e2c59	-0.034710262
227	0xbda1862f	-0.078869216
228	0x3d775b94	0.06039007
229	0xbd88fa08	-0.06688315
230	0xbd9e5ce6	-0.07732563
231	0x3cd435e4	0.025904603
232	0xbd86e23c	-0.065861195
233	0x3dd37d5e	0.10326646
234	0x3e3cdd36	0.1844376
235	0x3d65aa89	0.056070838
236	0xbd519214	-0.0511647
237	0x3e009cc3	0.125598
238	0xbd4178fc	-0.04723452
239	0xbe7d84de	-0.24757716
240	0x3e12de9a	0.14342728
241	0x3d5c93b0	0.053851783
242	0xbbdbce57	-0.0067079472
243	0xbdb029b7	-0.086017065
244	0x3d46abf0	0.048503816
245	0x3d983895	0.07432667
246	0x3bb46342	0.0055049965
247	0x3efcc0d9	0.4936588
248	0xbe5aa40e	-0.21351644
249	0x3ebec6f6	0.3726117
250	0xbcf1635f	-0.02946633
251	0xbda74eda	-0.081693366
252	0xbe100083	-0.14062695
253	0x3de996a2	0.11405684
254	0x3f0ae13b	0.54249924
255	0x3d8677b0	0.06565797

critic.2.bias f4 [64]
0	0x3df9ccf7	0.12197297
1	0xbd79ca67	-0.06098404
2	0xbd5487aa	-0.05188719
3	0xbca574ea	-0.02019735
4	0xbdce1c75	-0.100640215
5	0xbe186105	-0.1488076
6	0xbd4a318b	-0.049363654
7	0xbe12db7d	-0.1434154
8	0xbdbd33d4	-0.09238401
9	0xbdd78abb	-0.105245076
10	0xbc1a1a75	-0.009405722
11	0x3d2cef9a	0.04222069
12	0x3d046e78	0.032331914
13	0x3cd1e729	0.025622921
14	0xbdb9b27c	-0.09067246
15	0xbdde1f91	-0.108458646
16	0xbdc02610	-0.0938226
17	0xbe40ceac	-0.18828839
18	0x3ce71196	0.028206628
19	0xbd2dc060	-0.04241979
20	0x3dca0da6	0.098658845
21	0x3c888bb6	0.016668182
22	0xbd145017	-0.036209192
23	0xbe21197c	-0.15732378
24	0x3cf83f86	0.030303728
25	0xbe0be890	-0.13662934
26	0xbdb468f2	-0.08809079
27	0xbe0d37aa	-0.13790765
28	0x3cad8ba7	0.021184755
29	0x3c9086ad	0.017642343
30	0xbd73027d	-0.059328545
31	0xbce419ee	-0.027844395
32	0xbd83752d	-0.06418834
33	0xbdfa50ec	-0.12222466
34	0x3d32295a	0.043496467
35	0xbd503f2c	-0.050841495
36	0xbcab4bc8	-0.020910159
37	0xbe2f7fa4	-0.17138535
38	0xbd97de32	-0.07415427
39	0xbc2df7b9	-0.010618144
40	0x3c14ba1a	0.009077573
41	0xbdfb8715	-0.12281624
42	0xbd88eb25	-0.06685475
43	0xbc9efd7f	-0.019407986
44	0xbdc36802	-0.09541322
45	0x3e32916e	0.1743829
46	0xbe01cc2f	-0.12675546
47	0xbc9778cb	-0.018490216
48	0x3c53eed4	0.012935359
49	0x3a583898	0.0008248179
50	0x3d051eb0	0.03249997
51	0xbdcfe808	-0.10151678
52	0xbd7d3a3e	-0.061823122
53	0xbe078077	-0.13232599
54	0x3d8a010e	0.067384824
55	0xbd46638e	-0.048434786
56	0x3c6c38cc	0.014417838
57	0x3d5c0ad3	0.05372126
58	0xbd296736	-0.041358195
59	0xbdb33799	-0.08750839
60	0xbdf15f92	-0.11785807
61	0x3d0f93cb	0.035053056
62	0xbe013a8a	-0.12619987
63	0xbd975da5	-0.07390908

critic.4.weight f4 [1, 64]
0	0xbe1bbce6	-0.15208778
1	0x3d25e66c	0.04050295
2	0x3cfa5181	0.030556442
3	0xbdf11e68	-0.11773378
4	0xbd90aea1	-0.07064558
5	0xbe956fc2	-0.29186827
6	0x3c94a2b7	0.018143995
7	0x3db84a25	0.08998517
8	0x3c8909fa	0.01672839
9	0xbec6a8a7	-0.38800547
10	0x3c1a64cd	0.009423447
11	0xbba29106	-0.004961136
12	0xba2f6087	-0.0006690104
13	0x3ce271c2	0.027642135
14	0xbc1a2843	-0.009409013
15	0xbd0f4942	-0.034981973
16	0xbc42da60	-0.011892885
17	0xbe77eccc	-0.24211425
18	0xbb97da0f	-0.004634149
19	0xbc2e48f2	-0.010637509
20	0x3d05ee96	0.032698236
21	0xbc370732	-0.011171149
22	0xbe23df60	-0.1600318
23	0x3c84d816	0.016216319
24	0xbbd452b2	-0.0064795846
25	0xbcb16a12	-0.021657024
26	0x3c5be449	0.013421127
27	0xbe83e679	-0.25761774
28	0xbbc8d876	-0.00612932
29	0xbc1d3478	-0.009595029
30	0xba84d807	-0.0010135182
31	0x3c97ac60	0.018514812
32	0x3d95d1f1	0.07315434
33	0x3d808aba	0.0627646
34	0x3ca5519c	0.020180516
35	0x3c080487	0.008301861
36	0xbbc3c1ed	-0.0059740455
37	0xbe7d7f1e	-0.24755523
38	0xbe4060cc	-0.18786925
39	0xbc0cd63c	-0.008595999
40	0xbbab0436	-0.005219008
41	0x3d2a87f7	0.041633572
42	0x3d69fd43	0.057126295
43	0x3c7b7c7e	0.0153495055
44	0xbc041bbe	-0.008063255
45	0x3de0d06e	0.10977255
46	0x3c97532a	0.018472273
47	0x3d06bd95	0.032895643
48	0xbdb6ed04	-0.08931926
49	0xbd22cf25	-0.03974833
50	0xbe074e3d	-0.1321344
51	0x3db0868b	0.08619412
52	0x3d8a8330	0.06763303
53	0xbe927832	-0.28607327
54	0xbc0a86c2	-0.00845498
55	0xbeb2d7c2	-0.34930235
56	0x3aed58e4	0.0018108157
57	0x3c6de6ca	0.014520356
58	0xbe044dbf	-0.12920283
59	0xbe6d09dc	-0.23148292
60	0xbd18723e	-0.037218325
61	0xbc8d728f	-0.01726654
62	0xbd9ba986	-0.076006934
63	0xbd5658c3	-0.052330744
