CybORG/CybORG/Models/meander_train/60000.pth (torch, 78565 bytes, 11 tensors)

actor.0.weight f4 [64, 62]
000000 55 51 25 3e 4e 36 af be d1 06 30 be 5b 76 c1 be
       0.16144307 -0.3422112 -0.171901 -0.3778561
000010 8d aa 9a bc 24 39 7b 3e e8 66 c6 3e ce 06 33 3f
       -0.018880153 0.24533516 0.38750386 0.6993226
000020 db 1a 7e bd 63 05 bc 3e 1a 91 74 3d 3c 82 0c 3f
       -0.06203733 0.3672286 0.059708692 0.5488622
000030 87 66 c0 3d 87 84 4d be 91 21 d3 bd be 41 92 be
       0.093945555 -0.20070086 -0.10309137 -0.28565782
000040 ec ae 19 3e 5d 88 30 3e 77 54 b0 bd 78 f3 0c 3c
       0.15008134 0.17239518 -0.086098604 0.008602969
000050 1b b1 07 bd c0 c2 30 3d 86 1c d6 bc 15 d5 1a 3e
       -0.033127885 0.043154478 -0.026136648 0.15120347
000060 6c 94 0f bc 88 56 9b bd cf 82 eb 3d d0 4b 1b be
       -0.008763414 -0.07584864 0.11499559 -0.15165639
000070 d3 12 e4 be db d2 e0 bc 34 a8 7f bc 05 5f 7d 3e
       -0.44545612 -0.027444294 -0.015604068 0.24743278
000080 a3 d1 3e 3d bc 16 4e 3d b9 b6 b5 bd ad f0 a1 bd
       0.046586644 0.05031465 -0.08872742 -0.079072334
000090 00 72 b0 be 39 18 2c be bf b1 e0 3e a2 93 d8 3e
       -0.34461975 -0.16806115 0.4388561 0.42300135
0000a0 9e 2c 99 3d 0d 1a 96 be e2 98 ee 3c 35 a2 75 bb
       0.07479213 -0.2931675 0.029125635 -0.0037480716
0000b0 60 ef 9c be c2 45 08 be 57 5b 8a 3d 27 ff 13 3e
       -0.3065138 -0.1330786 0.06755703 0.14452802
0000c0 4d 2b 49 be f1 fa 27 be ac 5d 12 3f de ab ef 3e
       -0.19645424 -0.1640432 0.5717418 0.46810812
0000d0 53 49 17 3e 69 25 68 3d 6c b7 19 3e 37 44 88 bd
       0.14774065 0.056676302 0.15011376 -0.06653636
0000e0 f9 19 40 3e 9f 3e 8c bd 90 55 31 bd 91 5c 5b bc
       0.18759908 -0.068478815 -0.04329449 -0.013388769
0000f0 88 b2 93 3d 88 f1 90 3d 99 ab bd 3d e3 e3 72 be
       0.072117865 0.070773184 0.09261245 -0.23719744
000100 7b 23 74 bd 42 1b 87 be 8f e7 7c 3d c0 f6 eb 3d
       -0.05960415 -0.26387984 0.06174427 0.11521673
000110 23 ad ec 3d 57 b0 cf 3e 67 73 74 3b bd 17 97 3e
       0.11556461 0.40564224 0.003730023 0.29510298
000120 60 3b 59 3e e3 d9 3f 3f f2 15 8a 3e 0a aa 61 3c
       0.21214056 0.74941844 0.26969868 0.013773451
000130 2c 7b 82 3e 07 20 4a be df f4 03 3e b9 01 10 3d
       0.25484598 -0.1973878 0.1288638 0.035157893
000140 d5 65 f2 bd c9 fa a4 3d 85 ac d2 3c f2 be 3c be
       -0.11835829 0.08055646 0.02571703 -0.18432215
000150 23 bb c2 3c c3 58 20 bd 6b 86 44 bc a4 d5 92 bd
       0.023770874 -0.03914715 -0.011994938 -0.07169655
000160 12 0b 48 3d 73 45 f4 bd 02 8d 1d be f5 da b7 3d
       0.048838682 -0.11927309 -0.15385821 0.089773096
000170 c2 96 1d 3d 17 7b 69 3d d7 79 3d be 6a 50 f4 bd
       0.038473852 0.057002153 -0.1850351 -0.119294
000180 b6 de 81 3d 8a 90 80 3d ef 4e e1 be bb 02 c4 be
       0.06341307 0.06277569 -0.44005534 -0.38283333
000190 f7 df 78 3e 73 4c fa 3e f5 cc b8 bb 1a ae 1b be
       0.24304186 0.4888645 -0.005639667 -0.15203133
0001a0 cc 8a b0 be 1a 99 cd be 0d 7b 38 be cb 26 22 be
       -0.34480894 -0.4015587 -0.1801569 -0.15835111
0001b0 bd 1e f8 3d 18 51 ef bd da e8 04 be 37 a1 8f 3e
       0.12115238 -0.11685389 -0.12979451 0.28052685
0001c0 f0 8c 7b be f2 ab 0a bd 8e f6 5a 3e fd a3 c7 bd
       -0.24565482 -0.033855386 0.21383116 -0.09748075
0001d0 88 19 35 3d 45 10 85 3b c1 49 81 3e 52 82 e5 3c
       0.0442138 0.0040607774 0.25251582 0.028016243
0001e0 41 37 65 3d d5 b9 08 3b 1e 33 91 bd 4a a9 53 3d
       0.055960897 0.0020862718 -0.07089828 0.05167512
0001f0 da 75 7f 3d 0d 48 60 bc a9 75 9b 3d e5 5a de bd
       0.06236825 -0.013689053 0.07590801 -0.108571805
000200 d9 1e 37 3b 54 4a 82 be 20 76 ba be 01 bc 0c bf
       0.002794197 -0.25447333 -0.36418247 -0.5497437
000210 b0 36 19 3e de 80 fc bd 4e b5 9d 3e f9 9a 50 be
       0.14962268 -0.12329267 0.30802387 -0.20371617
000220 79 2b 3d bd 21 3e 87 bc 7f 5e de 3d 60 0f 4c bd
       -0.046184037 -0.016509118 0.108578674 -0.04981935
000230 b5 72 c0 3d 3a 35 21 3e 5c f0 f6 3d a8 8d 3b 3c
       0.09396879 0.1574296 0.12057564 0.011447348
000240 de b7 27 be e8 f0 af bd d4 19 b1 3d 0f 3c ff 3d
       -0.16378734 -0.08590871 0.086475044 0.12462627
000250 0a 76 ab bd 31 3b 6b bd 5f 69 f3 bd 3a f1 4e bd
       -0.083721235 -0.057429496 -0.11885332 -0.05052302
000260 59 6d 67 be 36 3f e2 3d 87 4e ef 3d 5c 53 0a be
       -0.22600307 0.11047213 0.116849 -0.13508362
000270 03 8b 63 3e 4d 1d ab bd b6 f2 db bc a7 71 3b bd
       0.22220998 -0.08355198 -0.026849132 -0.045762684
000280 01 72 3d 3e 55 43 b0 3d 8e 15 fd be a8 65 eb be
       0.1850052 0.086065926 -0.49430507 -0.45975995
000290 4e c7 91 bc 4f 04 86 3e f3 89 a6 be 44 d2 cb be
       -0.017795231 0.26175162 -0.32527122 -0.39808857
0002a0 85 f9 cd 3e 10 1f 81 3e be 86 95 3d c2 11 53 be
       0.4022943 0.2521901 0.07301091 -0.20612243
0002b0 b3 4e 49 3e ef 4c 5c bc 8e ec 81 be e2 1b 20 3e
       0.19658928 -0.013446077 -0.2537579 0.15635636
0002c0 a0 c3 85 3d 92 64 94 bd 12 25 87 3d 92 27 32 bd
       0.06531453 -0.07245745 0.065988675 -0.04349477
0002d0 ee ab 01 bd 29 9f 31 3d bf cf 19 3e 1e a0 1c 3a
       -0.031658106 0.043364678 0.15020655 0.0005974787
0002e0 88 d9 12 3e b5 5a f8 3d c4 0c c2 bd dd a9 a3 bd
       0.14340794 0.12126676 -0.09475091 -0.07991383
0002f0 15 bd 20 bc 05 89 22 be d5 b3 22 3e 6c 5e 07 3f
       -0.009810706 -0.15872581 0.15888913 0.5287845
000300 35 51 13 3e 70 c3 0c 3f c9 37 d4 be 0c 32 24 be
       0.14386447 0.54985714 -0.4144881 -0.16034716
000310 fc 3f dc bd 17 82 fd be 60 42 99 be 9d 99 8f bb
       -0.107543916 -0.49513313 -0.29933453 -0.004382326
000320 90 56 b0 3d ca 2a 42 3e 06 0c 1e be f8 d6 00 be
       0.086102605 0.18961635 -0.15434274 -0.12582004
000330 24 07 97 bd 9b 8e 93 3d af 09 73 bd 7e 44 d8 3d
       -0.07374409 0.07204934 -0.059335407 0.10559939
000340 05 1b 3c 3d 73 01 1c 3c 6b d2 21 bd cb 52 fc bc
       0.045924205 0.00952183 -0.03950731 -0.030801198
000350 87 88 82 3c 28 76 86 bd 33 63 26 be b9 e7 d7 3d
       0.015934242 -0.06565505 -0.16248779 0.105422445
000360 06 69 98 bc 31 cb f2 bd 09 ea 73 3e f9 dd bb 3c
       -0.018604767 -0.11855162 0.23819746 0.022932993
000370 84 69 15 bc 05 b3 82 3d 86 58 06 3f fb 57 87 3e
       -0.009119395 0.063818015 0.52478826 0.2643431
000380 2d dd 8a be e0 b0 d3 be 77 05 78 3c 2b 03 03 be
       -0.2712187 -0.41345882 0.015138022 -0.12794177
000390 61 13 19 3e 15 ab db 3e e6 b3 71 bc a1 aa a6 3d
       0.14948799 0.42903963 -0.014752364 0.08138014
0003a0 ae 53 30 be 8f d1 a1 3e 09 96 00 be 57 8f 49 be
       -0.17219421 0.31605193 -0.12557234 -0.19683586
0003b0 f8 51 b2 3e 0b 0d 5e 3e d3 b9 8f be bd 4e 90 3d
       0.34828162 0.21684663 -0.2807146 0.07046268
0003c0 71 1a aa bd af f2 ef bd 21 f3 ed bd 48 89 62 3d
       -0.083058245 -0.1171621 -0.11618639 0.055306703
0003d0 1b 90 2c 3e 2e 5b dd bc cc 3e 31 3e d1 4b 52 bd
       0.16851847 -0.027021017 0.17309111 -0.051341835
0003e0 f1 e1 47 3c 95 58 96 3d 09 eb 3e bd 31 d9 74 b8
       0.012199865 0.073411144 -0.046610866 -5.837641e-05
0003f0 6d 1b 44 3e ef 13 a1 3e bc d2 51 3e 59 a9 da 3e
       0.19151087 0.3146052 0.20490545 0.42707327

actor.0.bias f4 [64]
000000 18 ba 62 3b 8d e7 aa 3d 56 8b 23 3d f5 8e 4c 3d
       0.0034595784 0.08344946 0.039927803 0.049941022
000010 14 42 47 bd 3d 38 39 bd e9 8c 88 3d 6b 2b 57 bd
       -0.048647 -0.04521965 0.066675015 -0.05253164
000020 f0 f6 d7 3d 3f f4 e1 ba 9e f7 fc 3c 3d 9a 90 bd
       0.105451465 -0.0017238929 0.030879792 -0.070606686
000030 b9 a5 44 3c 4b 26 04 3e f5 a1 b1 bd f0 63 9c 3d
       0.012002402 0.12905233 -0.08673469 0.07636249
000040 6b 9b f8 bd cd ec 06 bd 69 9c c1 bd cc 18 9e bd
       -0.121390186 -0.032940675 -0.09453661 -0.077195734
000050 97 8f 62 bd 9a f1 a1 bd 10 c9 99 3d 38 bf c4 bd
       -0.05531272 -0.0790741 0.07509053 -0.096067846
000060 33 aa 55 3d 42 53 e8 3d dc 99 cf 3d d8 aa df 3d
       0.052164268 0.11344005 0.10136768 0.10921258
000070 05 ad bd 3d 56 fa 80 bc 92 f6 7f bc 9d 61 3f 3e
       0.092615165 -0.01574437 -0.015622752 0.1868958
000080 e2 f4 da 3d 32 c5 6b bd d6 6b e9 3d 3d 76 86 bd
       0.10691239 -0.057561107 0.11397521 -0.06565521
000090 a2 a2 01 3e d0 da c7 3d 17 d9 81 3c 11 d7 37 be
       0.12659696 0.09758532 0.015850587 -0.17953135
0000a0 2f 91 3b 3e ef 14 eb 3d 63 a8 90 3c a4 dc 85 3d
       0.18317102 0.11478602 0.017658418 0.065362245
0000b0 bb 31 e3 3c 3d d1 68 3e f6 f8 a0 3c a5 b0 d8 3d
       0.027733674 0.22736068 0.019649964 0.10580567
0000c0 7d 49 07 3e e3 fb b0 3c b2 91 14 3e cb 2a 34 bd
       0.13211627 0.021604484 0.14508703 -0.043986123
0000d0 95 b3 29 be 49 32 70 3d ef 10 33 3e c4 c7 de 3d
       -0.16572411 0.058641706 0.17486928 0.10877946
0000e0 fc 19 e2 3d 89 2c c6 3d ad 1f cd bd b2 18 76 3d
       0.110401124 0.09676463 -0.10015807 0.060082145
0000f0 cc 1c 23 3d c7 c0 12 bd fd bb a2 3c 7e a7 f9 3b
       0.039822385 -0.035828378 0.01986503 0.0076188436

actor.2.weight f4 [64, 64]
000000 f3 79 1a be 1f 25 12 be 7c be 60 3d ce ff e6 bd
       -0.15085582 -0.14271973 0.05486916 -0.112792596
000010 64 f3 51 3c 25 74 c4 3d b5 43 03 bd f2 04 03 be
       0.0128143765 0.09592465 -0.032046992 -0.12794855
000020 d7 1f 16 be 8a d2 a2 3c 99 8b ce bd ab e8 65 bd
       -0.14660583 0.019875783 -0.1008522 -0.056130093
000030 ae 44 bd bc 55 bf 68 bd 27 c3 15 3d 66 16 1f bd
       -0.023104038 -0.056823093 0.036563065 -0.03883972
000040 c3 4c 94 bd 60 31 32 bd 0e 88 a0 3d f2 a6 0d be
       -0.07241204 -0.04350412 0.0783845 -0.13833216
000050 33 8d 40 3c 46 4d 90 bc 23 7a bc bc 98 af 51 bd
       0.0117524145 -0.017614972 -0.023007458 -0.05119285
000060 01 36 db bd d9 20 b0 bc 3d 79 9b bd 1a 54 25 3d
       -0.1070366 -0.021500038 -0.07591484 0.04036341
000070 78 b6 81 bd b1 94 e6 3c 61 fa 94 3d 88 97 54 3d
       -0.06333631 0.028147073 0.072743185 0.051902324
000080 53 8a 0e bd df 1a 65 3d 80 44 f1 bd bb dc 07 be
       -0.034799885 0.05593383 -0.117806435 -0.13267796
000090 03 89 cf bc fe 2e 06 be 89 3e 1b be bc be 76 3d
       -0.025333887 -0.13103864 -0.15160574 0.060240492
0000a0 97 41 e6 3d 4b 6b 50 bd fe f3 99 bc e8 4e 92 bd
       0.11242979 -0.050883573 -0.018793102 -0.071439564
0000b0 d2 15 a4 bb 88 7f e1 3c e8 c5 3e bc da d6 bb 3d
       -0.005007484 0.027526632 -0.011643864 0.09171839
0000c0 85 f5 cc bd 6f 5e 92 bc e3 17 48 bd bc 81 b8 3d
       -0.10007767 -0.017867295 -0.048850905 0.0900912
0000d0 85 28 e2 3d 60 a5 94 3c ea 3d e4 3d 60 9f 6a bd
       0.11042885 0.018145263 0.11144622 -0.057280898
0000e0 00 f3 78 be 1c c2 cd bd 2e ee 03 bd 4d f9 fd bd
       -0.24311447 -0.10046789 -0.032209568 -0.12401066
0000f0 81 f5 26 3c 9f a4 54 bd c8 13 b3 3c 3e ed 15 be
       0.010190369 -0.051914807 0.021860018 -0.14641282
000100 33 06 02 bd 4d a6 9c bd d6 56 ab bd ff ce b0 3d
       -0.031744193 -0.07648907 -0.08366172 0.08633231
000110 c1 4b 72 bd c5 9c d1 bd 14 91 b1 bd 45 db 1a be
       -0.059154276 -0.102349795 -0.086702496 -0.15122707
000120 7d 1c 62 3d f7 65 a7 3d b4 e7 03 3d 5c 6c 7b 3c
       0.05520295 0.08173745 0.03220339 0.015345659
000130 35 d9 fd bd be 60 ec bd 0e 8b 0b be dd 57 1e be
       -0.123949446 -0.115418896 -0.13627264 -0.15463205
000140 53 c8 52 be ea fd de 3d ca 8a bb 3c b0 66 ac bb
       -0.2058423 0.10888274 0.022893328 -0.0052612647
000150 ed c7 0c be 72 a0 2b bd 17 2d 08 bd 6d 9a fa bd
       -0.1374814 -0.04190106 -0.033246126 -0.12236486
000160 df 11 02 3d f7 b5 8d 3d 42 e3 00 be 65 25 d2 3d
       0.031755324 0.06919473 -0.12586692 0.10261039
000170 8c 1d 45 bb 2e 8b e9 3b 8a 59 38 be a8 a8 fc bc
       -0.0030077426 0.007127187 -0.18002906 -0.03084214
000180 01 66 d0 bd c0 13 4a be f8 e4 cb bd 2a 9f 96 bd
       -0.10175706 -0.19734097 -0.09955782 -0.07354577
000190 42 f3 77 bd ca c0 1b be bf 18 45 3d 74 7e d1 3b
       -0.060534723 -0.15210262 0.048119303 0.006393248
0001a0 12 2b 01 be e5 f8 42 3b f6 5a 87 bb 2d df 84 3d
       -0.12614086 0.0029750403 -0.0041307164 0.0648788
0001b0 dc 75 e0 bd e0 a5 70 bb 0c 01 98 3d b2 8c 31 be
       -0.1095998 -0.0036719963 0.07422075 -0.17338827
0001c0 cb 03 f2 bd 5e 77 fa bb a7 68 b7 bd 45 9f e9 3b
       -0.1181713 -0.007643624 -0.08955508 0.007129582
0001d0 fa 0d 33 3e 21 d7 75 bd 1b 36 ef bd 72 6e d1 3d
       0.174858 -0.060019616 -0.11680242 0.10226144
0001e0 1e 55 91 bd 5c 20 9e bc 57 7c 36 bc 1e 1f 6e bd
       -0.07096313 -0.01930254 -0.011138043 -0.058135144
0001f0 2e 86 e4 bd a7 08 72 bd a3 8e 1d 3d c7 d8 ea bd
       -0.11158405 -0.059090283 0.038466107 -0.11467128
000200 f2 92 8d bd 31 96 8c 3d 3a 48 0b bd d5 1b 30 3d
       -0.06912793 0.06864584 -0.034004427 0.042995293
000210 f6 bf e8 3d 41 02 96 3e 98 6b a1 3c 19 e6 77 3d
       0.11364739 0.29298595 0.019704625 0.060522173
000220 a0 66 26 3e 84 79 07 3c cc 01 d4 3c 4b dd fe 3d
       0.16250086 0.008268718 0.025879763 0.12444552
000230 e6 b6 24 3d c8 3e 82 3e 20 be b4 3d 2d 96 7f bc
       0.040213488 0.25438523 0.08825326 -0.01559977
000240 6e 35 c9 3d 00 e1 a5 3d 7a a6 0b 3e e8 24 e3 3d
       0.09824644 0.08099556 0.13637725 0.11091024
000250 b1 ca 1b be 83 f0 f4 3b 3e f4 58 3d 83 47 67 3e
       -0.1521404 0.0074749603 0.052967303 0.22585873
000260 bc 11 ad 3d f9 b1 cc bd 90 2b 08 3e 83 ad c6 3d
       0.08450648 -0.09994883 0.13297868 0.097010635
000270 08 30 8b 3e 0d c3 0e 3c 9f 0b 62 3e 91 48 58 3d
       0.27185082 0.008713496 0.22074746 0.05280358
000280 81 4d 23 bc db 8e 66 3e eb 68 62 bd b5 1e 46 3e
       -0.009967209 0.22515433 -0.05527584 0.19347651
000290 73 60 71 be 3b 22 ea 3d 6e 60 63 3d 71 b2 f9 bd
       -0.23571949 0.1143231 0.055511884 -0.12192238
0002a0 20 20 d8 3d c1 6e e2 3c a4 0d 9f bd 26 5b 1b 3e
       0.10553002 0.027640702 -0.077662736 0.15171489
0002b0 28 15 de bd 93 e0 46 bc 82 65 64 3d dc 2a c2 3d
       -0.10843879 -0.012138504 0.055760868 0.09480831
0002c0 da 13 55 3e f7 16 0d 3e 97 fa ed bd 09 1f 25 bc
       0.20808354 0.13778292 -0.11620062 -0.0100782
0002d0 8b 42 95 3d 5a 40 52 bd 90 92 53 be d9 12 3e be
       0.07288083 -0.0513309 -0.20661378 -0.18561877
0002e0 7d 18 82 bd 6e ce 03 3e a7 01 75 3e 59 81 9d 3e
       -0.06352327 0.12871715 0.23926412 0.30762747
0002f0 77 22 b0 3d c8 5f bd 3d 68 05 d5 3d 97 ab 1f be
       0.08600324 0.092467844 0.10401422 -0.155928
000300 e5 95 83 3d ec a1 3b 3d 29 7b 33 3d 0f 73 11 3e
       0.064250745 0.045808718 0.043818627 0.14204048
000310 f3 41 c4 bd 3f 8e d8 bc 7e 7d ff bd c6 a2 12 bc
       -0.09582891 -0.026435016 -0.124751076 -0.008949941
000320 25 8a 48 3d bc c4 91 3c 62 32 29 be e6 ae bc bd
       0.04895987 0.017794006 -0.16523126 -0.09213047
000330 9d 99 8f bd 54 73 43 3b 95 12 47 bd 28 04 fb bd
       -0.07011721 0.002982338 -0.048601706 -0.12256652
000340 65 9f 89 bd 28 05 28 3d f4 2e 4f 3d c7 ab 10 3e
       -0.06719855 0.041020542 0.050581887 0.14128028
000350 5b 09 50 3c a6 e6 ec 3c 16 18 a5 bd cb af 90 bc
       0.012697543 0.028918575 -0.08061235 -0.01766195
000360 46 38 86 3b 9a 3d 9e 3d 27 c6 e1 3c c2 34 cf bd
       0.004096064 0.07726593 0.027560307 -0.10117485
000370 58 c0 20 be d2 2a 23 be 20 ba bf bd fe ca c2 bc
       -0.15698373 -0.15934303 -0.093616724 -0.023778435
000380 f7 cb d5 3d e5 b7 59 bd f3 5f 51 3c f1 04 06 3b
       0.10439294 -0.05315389 0.012779224 0.0020449723
000390 04 a0 21 be 6d 00 04 be 7a 0f 05 3d 9d 4e 7e 3d
       -0.15783697 -0.12890787 0.032485463 0.06208669
0003a0 46 0b a3 bd 50 84 d9 bc 2c ad 13 be 51 19 ca bc
       -0.079611346 -0.02655235 -0.14421529 -0.024670275
0003b0 ae 29 37 3d b6 a7 cf 3b 65 e7 6f bd 83 ba be 3c
       0.044717483 0.0063371314 -0.058570284 0.023282295
0003c0 9e 7d 28 bd 29 ad 8c 3d 64 0c c8 bd 20 26 d7 bd
       -0.041135423 0.06868965 -0.09767988 -0.10505319
0003d0 a4 81 d5 bd 56 71 d3 bd 77 e2 d1 3d 24 8f d5 bd
       -0.104251176 -0.103243515 0.10248273 -0.104276925
0003e0 ec 21 08 be 71 c2 30 3c 4d b2 da bd 43 4f 85 bc
       -0.1329419 0.010788546 -0.106785394 -0.016273146
0003f0 0b 5c ae bb e5 56 47 bd de 81 60 3d b0 ac 8e 3d
       -0.005321031 -0.048666853 0.05481135 0.06966531

actor.2.bias f4 [64]
000000 9c c8 6b bd 55 e4 d4 3b 46 6a 91 3d cc 71 23 be
       -0.057564363 0.006496946 0.07100348 -0.15961379
000010 90 02 1d 3e 01 cd 08 3e 6d 04 b7 bd a3 05 88 bc
       0.15333009 0.13359453 -0.08936391 -0.01660425
000020 9f f6 a2 bd fc d9 01 3e 45 b0 b6 bd f2 15 02 3e
       -0.079571955 0.1268081 -0.089203395 0.12703684
000030 e1 36 8a bd 21 48 c0 bd d9 e4 a0 3d 80 60 7d 3c
       -0.067487486 -0.093887575 0.07856149 0.015464902
000040 fe 59 d9 3b 65 e0 c4 3d 87 be 88 3d 1a 0b 0b 3e
       0.0066330424 0.09613112 0.06676965 0.13578454
000050 95 ac 26 bd f2 d2 4a 3d 8e f9 b1 bc 44 c3 0b 3e
       -0.04069193 0.04951758 -0.021725442 0.13648707
000060 89 0f 2c 3e 21 d3 80 b9 52 f3 c7 3d 2a f8 a0 bd
       0.16802801 -0.00024571366 0.097632065 -0.078598335
000070 6a 3d 14 be eb f4 cf 3d a3 8f 92 3c 17 d5 8f 3d
       -0.14476553 0.10154136 0.017890757 0.070230655
000080 27 12 48 bd 80 e9 6b 3d b3 46 f6 bc c0 c5 0b 3d
       -0.048845436 0.05759573 -0.030063009 0.034124136
000090 50 aa 19 bd fc b3 74 3c 72 d4 bf 3d df 98 de 3c
       -0.03751594 0.01493549 0.093666926 0.027172504
0000a0 ef dc c4 3d 72 d0 29 be aa 83 a7 3c 56 dd f2 bc
       0.09612452 -0.16583422 0.020448525 -0.029646557
0000b0 3b 96 4f 3d 46 bd b8 bc 0d 19 d8 bd 48 57 96 bc
       0.05068038 -0.02255119 -0.10551653 -0.018352166
0000c0 f5 1a 94 3c 70 e3 b6 3d 74 c3 b6 3d 88 c8 a2 bc
       0.01807926 0.08930099 0.089239985 -0.019871011
0000d0 07 a5 3d bd da d2 d5 bd 70 22 82 3d 18 82 d9 3d
       -0.04629996 -0.10440607 0.06354225 0.106205165
0000e0 a4 19 73 3d c3 a6 a9 3d f1 fa ab 3d 92 64 cb 3d
       0.059350625 0.082837604 0.08397473 0.09931292
0000f0 6c fa 21 3c 35 e9 a1 3d 5b 87 3e 3c 6a 73 95 bc
       0.009886365 0.07905809 0.011628951 -0.01824351

actor.4.weight f4 [36, 64]
000000 23 0a 1a 3c 5a 2c de 3c 72 56 bc 3d 82 e9 94 bd
       0.009401831 0.027120758 0.09196176 -0.072711006
000010 ea 46 58 be 2a 43 23 bf ac d1 d6 3e 8a 50 d3 3e
       -0.21120802 -0.6377436 0.41956842 0.41272384
000020 cc 48 7f bd 3e 6f 53 3e ec 16 cc bd 40 db 9f 3e
       -0.062325284 0.20647904 -0.099653095 0.31221962
000030 92 b2 64 be 5f 78 a5 bc 7a 8a ea bb fe 65 be bb
       -0.22333744 -0.020198999 -0.007157621 -0.0058104983
000040 22 60 f8 3e f5 41 51 be 30 27 b6 3d 39 ca 93 3e
       0.48510844 -0.20435317 0.08894193 0.2886522
000050 68 d9 a1 3c 33 76 f3 be 85 cd 74 be a9 48 54 be
       0.019756988 -0.47551116 -0.23906524 -0.20730843
000060 f0 f4 fb be 3e b2 85 bd 62 c4 02 3d 9b 15 b0 3d
       -0.4921031 -0.065281376 0.031925566 0.08597871
000070 7e f8 09 bc bc e4 3c bf 7f cc a7 3e 39 98 12 bf
       -0.008421062 -0.7378652 0.32773206 -0.57263523
000080 b7 b7 01 bf ac 43 d3 be fd 56 80 3d f8 91 a2 3d
       -0.5067095 -0.41262567 0.06266592 0.079379976
000090 8b fe 91 3d 60 e3 95 3e c7 89 a8 3e 88 2e 3c bf
       0.07128628 0.29275036 0.32917616 -0.735085
0000a0 b9 a0 69 be b7 56 96 bd 34 39 30 bf ff d1 45 bf
       -0.22815217 -0.07340758 -0.68837285 -0.77273554
0000b0 32 69 ca bd 87 34 bd 3e e1 ae 07 3d 91 9b 9b 3e
       -0.09883346 0.36954138 0.033125762 0.30392125
0000c0 85 7e 84 bd b2 0f 88 3e 5d 48 1a bf 58 33 d5 be
       -0.06469444 0.26574475 -0.6026667 -0.41640735
0000d0 50 1d 03 3e ef fc 8a bc c9 ca be 3e 99 51 95 3e
       0.1280415 -0.016966311 0.37264088 0.29163817
0000e0 50 dc 5b bf 84 40 e3 bd f9 d4 04 bf 7f ac 2d bf
       -0.85883045 -0.1109629 -0.5188747 -0.67841333
0000f0 4b 10 38 bf 35 49 d0 3d ad 82 73 3b 64 06 80 bd
       -0.7189986 0.10170213 0.0037156746 -0.06251219
000100 5b 70 c3 bd cf 85 d5 3d 43 5e e1 3b a9 ed a9 3c
       -0.095429145 0.104259126 0.006877692 0.020743208
000110 bb b1 2d be 3f 98 0b bf 4d db 1b 3e 16 d3 f0 3d
       -0.1696233 -0.54529184 0.15220375 0.117590114
000120 e9 b0 fa bc 01 7a 61 3e 31 6c 19 3d a5 0e 58 3e
       -0.030601935 0.22019197 0.037456695 0.21099336
000130 b5 b2 8a 3e 07 e6 cd bd be 69 94 3e 43 91 ae 3c
       0.27089468 -0.1005364 0.28986925 0.0213095
000140 ad b6 cc be ad 2e 3f 3e 89 8a 1c bf 9a 68 ee be
       -0.3998312 0.18670149 -0.6114889 -0.4656418
000150 0d b2 df bb a6 98 c5 3e 8e dd 66 be 0f e8 39 bf
       -0.006826645 0.38593024 -0.22545454 -0.7261972
000160 af 8c 38 bf 0a b7 ed 3d 36 ba 4a bc 31 c9 c3 3d
       -0.72089666 0.116071776 -0.012373498 0.095598586
000170 29 72 ee 3e 84 4e ea be 95 ea 03 bf 50 f4 40 bf
       0.46571472 -0.45763028 -0.5152982 -0.7537279
000180 f9 36 cd bc ba ef 04 bf fd 24 12 3e 62 ed 0d bf
       -0.025050627 -0.51928294 0.14271922 -0.5544034
000190 e4 aa 26 3f 3b cc 81 3d b5 45 91 3e f4 50 46 bf
       0.6510451 0.06337782 0.28373495 -0.77467275
0001a0 81 ca 75 3e ba f6 d1 3c 7b 39 cd be e4 f4 55 bf
       0.2400303 0.025630344 -0.40082917 -0.835768
0001b0 3b 05 df 3d 7b b4 9e be e5 30 54 bd e4 16 fd 3d
       0.108896695 -0.3099707 -0.051804442 0.12357882
0001c0 e1 5c e2 be 18 ac 86 3d 52 5e 1c 3e e8 06 57 bf
       -0.44211486 0.06575793 0.15270355 -0.83994913
0001d0 60 81 08 3d cd 12 d7 3c db 67 f7 be 83 f2 db be
       0.033326507 0.026254082 -0.48321423 -0.4295846
0001e0 99 aa fa be a0 d0 1b 3d e1 91 34 bf 25 de 9b 3e
       -0.4895828 0.038040757 -0.70535094 0.3044292
0001f0 40 15 5f be 53 b4 27 be df 49 aa 3d 14 ab 82 bc
       -0.2178545 -0.16377382 0.08314871 -0.015950717
000200 1f 3a fd 3d b8 4f 36 bb df 90 16 3e 29 f8 db bd
       0.12364601 -0.0027818512 0.14703701 -0.10740692
000210 8a 0f 3b bf 4a df ee bc 4c af ac bd ea 03 37 be
       -0.73070586 -0.029159207 -0.08431873 -0.17872587
000220 15 93 f3 3c d1 19 01 bf 72 b5 ce 3c ee 6e a1 3e
       0.02973322 -0.5043002 0.025233004 0.31529945
000230 1b 4f ac 3e 89 30 c0 bc 89 dd 97 be 9f e8 be bd
       0.33654103 -0.023460643 -0.29661205 -0.09321713
000240 3b 17 c8 be 6f 83 4b 3d fc b3 56 bc 2d 4a 76 3e
       -0.39080223 0.04968589 -0.013104435 0.24051733
000250 8b 8c e9 3e 72 07 b6 be eb ab ad 3d fd a1 25 bf
       0.45615038 -0.35552555 0.084800564 -0.647003
000260 f4 5e 3a bf b1 ec 9f 3d 0a 50 6e 3d bf c1 9d 3d
       -0.72801137 0.07808817 0.0581818 0.0770297
000270 7b ef ce 3e ab fb fd be ed e2 30 3e 4d 3f 2d bf
       0.40417084 -0.4960607 0.17274065 -0.67674714
000280 f5 fc 91 3c 6d 7a 3e be 02 20 07 3e 13 d1 1d be
       0.017820815 -0.18601389 0.13195804 -0.15411787
000290 f3 cf 34 be f1 a5 f9 bd 89 3c cf 3d a9 a1 c9 be
       -0.17657451 -0.12189854 0.10118968 -0.3938115
0002a0 e9 ee 85 3e 5d d1 1c 3c d1 97 49 bf bf cd a2 be
       0.26158836 0.0095714005 -0.7874728 -0.31797597
0002b0 73 a3 92 bd 8e a1 0f bd 87 dc c4 3d 03 a2 97 be
       -0.07160082 -0.03506618 0.09612375 -0.29615793
0002c0 55 62 c2 3e c8 50 a2 3e 53 93 21 bf 2e d7 63 3e
       0.37965646 0.31702256 -0.63115424 0.22250053
0002d0 3c 11 63 3e 58 7d 38 bd c5 c5 18 bf e8 ce b3 3e
       0.22174543 -0.045041412 -0.5967677 0.35118794
0002e0 74 ca 2d bf 85 aa c7 bd 8f 75 38 bf e0 7e 0a bf
       -0.67887044 -0.09749321 -0.7205438 -0.54099846
0002f0 24 c2 f3 be 7f c5 31 3e ff 2b d1 3c 8c f2 9e bd
       -0.47609055 0.17360495 0.025533674 -0.07761106
000300 e0 38 f5 3d 1d 3e d2 3c 1b 4c b5 be 3c bf fb bc
       0.11973739 0.025664384 -0.35409626 -0.030730836
000310 f7 8d 04 be c0 e1 7c 3d 17 f9 9d 3d c6 e7 3b 3e
       -0.1294478 0.06173873 0.07713526 0.18350133
000320 00 09 e1 bd e7 d8 0b 3e 14 f6 44 3d d1 32 32 3e
       -0.10988045 0.1365696 0.04808624 0.17402197
000330 84 fb 89 be d0 27 90 bd fd cf 7d be 4d 60 99 3d
       -0.26949704 -0.07038844 -0.24786372 0.07489071
000340 4f 5f 1f be 62 8a 81 be 9a eb ef be d5 d3 c9 bc
       -0.15563701 -0.2530089 -0.46859437 -0.024637142
000350 af 54 d5 be fb 67 99 be 21 cf 02 bf d6 74 d0 bd
       -0.4166617 -0.29962143 -0.51097304 -0.10178535
000360 7e 57 60 be a3 e8 5e be 86 bd 58 bd 0d 58 16 3d
       -0.21908376 -0.21768431 -0.05291512 0.036705066
000370 fe 51 35 3d 21 ae f7 bd 22 ea 8f 3d 32 51 a7 be
       0.044267647 -0.12093759 0.07027079 -0.32679135
000380 39 fa 6f be 38 ab 07 be e5 df 9a bd 69 f5 de be
       -0.23435296 -0.13248909 -0.07562236 -0.43546608
000390 62 64 69 be 78 db 3c be d0 62 ea 3c c6 60 20 be
       -0.22792199 -0.18443096 0.02861157 -0.15661916
0003a0 fd 39 3f be ad 42 91 3d e8 72 20 be 5d 91 42 be
       -0.18674465 0.070927955 -0.15668833 -0.19000764
0003b0 47 1a 69 bd 16 3c cb 3c 34 9b 9c 3d 02 93 b7 be
       -0.056909826 0.024808925 0.0764679 -0.35854346
0003c0 42 bf ee be 18 c4 5c be 25 99 08 bf 1e 96 19 bf
       -0.46630293 -0.21559179 -0.5335868 -0.59994686
0003d0 f0 cb 3f bd be a1 97 3d 22 ea 8e be 74 7b 80 be
       -0.04682535 0.07403897 -0.27913004 -0.25094187
0003e0 e2 8d 01 be 96 84 a8 bd a9 22 0f be 28 ff c6 be
       -0.1265178 -0.08228414 -0.13978066 -0.38866544
0003f0 4d f2 e3 be 35 ab 2b bd 4d e9 c8 bd d8 ce fc bc
       -0.44520798 -0.041911323 -0.098101236 -0.03086035

actor.4.bias f4 [36]
000000 0c 32 2f be f5 8e 34 be a4 e6 7d be ed 43 44 3d
       -0.17108935 -0.17632659 -0.24795014 0.04791634
000010 6d be 98 3d d2 9b a2 bd 5f 83 45 3d 32 fb e4 3d
       0.07458196 -0.079398766 0.04822099 0.11180724
000020 bb 39 26 bc 99 05 9b bd 87 a8 ea bd 4c b3 c6 3c
       -0.0101456 -0.07569427 -0.11457925 0.024255417
000030 9f 47 ef 3d 1b 51 4b 3e e9 4b 35 3e 73 2e 7d bc
       0.116835825 0.19855158 0.17704739 -0.015452969
000040 4f 52 e0 bc 0e 37 35 bd 4b a6 f9 3c f0 b1 85 3d
       -0.027382998 -0.044241957 0.030474802 0.065280795
000050 2c a6 3d be c3 e2 b1 3d 29 f1 81 3a c3 4d 74 bd
       -0.18520421 0.086858295 0.000991379 -0.05964447
000060 19 ed cc 3d b6 31 ec 3c d9 b7 7e 3e 72 51 d1 bd
       0.1000616 0.028832298 0.2487482 -0.102206126
000070 a6 c2 e6 3c 04 9e 5b 3d 8c 7b f0 3d 2d 1d 67 be
       0.028168987 0.053617492 0.11742315 -0.22569723
000080 12 59 a4 3c 09 9c 2f 3e 4a 6e e3 3d 68 33 31 3e
       0.020062003 0.17149366 0.1110502 0.17304766

critic.0.weight f4 [64, 62]
000000 7e 9a 54 3d dc b4 5b 3d 84 f1 c0 bd f5 2a de bc
       0.051905148 0.053639278 -0.094210654 -0.027120093
000010 f5 6c 63 bd a5 a3 dd bc f5 ec 06 bc 73 99 ac 3b
       -0.05552383 -0.02705557 -0.008235206 0.005267316
000020 73 bf 99 bd 94 15 a9 bc 83 35 98 bd d1 fd 06 bd
       -0.07507219 -0.020640172 -0.074320816 -0.032956902
000030 cc 7a a7 bd 16 de 87 bd 5f 47 e2 bd f9 02 de bd
       -0.081777185 -0.066341564 -0.11048769 -0.10840411
000040 fe 10 09 bc ab 20 dd bd 13 fe f7 bd 63 6a 8a 3d
       -0.008365868 -0.107972465 -0.12109008 0.06758573
000050 0c 4a bb bd 7c 17 b6 3d d6 10 10 3c b7 b9 4b bd
       -0.09144983 0.08891198 0.0087930765 -0.04973766
000060 3c 39 ac 3d da 1c e8 bd c0 34 79 3d b8 4c 83 3d
       0.08409354 -0.11333628 0.060841322 0.06411117
000070 73 ca a1 3d f7 dd f2 bd 77 b8 29 bc 98 33 dd bc
       0.07899942 -0.11858743 -0.010358921 -0.02700214
000080 f2 fb c0 bd 9a a3 b1 3d 52 32 b7 bc 88 1a 8a 3d
       -0.09423055 0.08673783 -0.022362862 0.06743342
000090 16 0d 8c bd 74 b4 66 bd 0f 83 e2 3c ff a4 b5 bb
       -0.068384334 -0.056324437 0.027650384 -0.0055433507
0000a0 c4 10 95 3d 69 e9 5d 3d fa ba d0 3d d1 b5 dd bd
       0.072785884 0.054177675 0.10191913 -0.10825694
0000b0 33 15 eb 3c 61 2f c1 3d 7c d4 95 bd 23 f5 c9 bd
       0.028696632 0.09432865 -0.07315919 -0.09861209
0000c0 73 ed ff 3d fe d0 d9 bd 58 ab a2 bd 5c 12 dc bd
       0.12496462 -0.10635565 -0.079428375 -0.10745689
0000d0 bf b1 95 3c d9 56 38 3c fa 99 04 be 52 5c 54 3d
       0.018273233 0.011251175 -0.12949362 0.051845856
0000e0 f1 16 4b 3c 07 cb cc 3c 93 c0 11 be 7c 5e 09 be
       0.012395606 0.024999155 -0.14233617 -0.13414949
0000f0 bb ae fa bd 95 a1 8f bd 3b 76 65 bd d9 54 29 3d
       -0.122403584 -0.07013241 -0.056020956 0.041340683
000100 34 32 19 be 3b 3d fa bb 58 83 22 3e 85 54 cb 3d
       -0.14960557 -0.007636694 0.15870416 0.0992823
000110 82 0f a3 3d bb 38 6a bc 68 a0 30 be 79 0c df bd
       0.07961942 -0.014295752 -0.1724869 -0.10891051
000120 a8 46 20 bd b3 94 33 3e 5a 39 87 bd d3 e7 95 3e
       -0.039129883 0.17537193 -0.06602736 0.2927843
000130 0f 29 1c 3e 94 51 b1 3e 3c 5f 02 3e a7 c0 18 3e
       0.15250038 0.34632552 0.12731642 0.14917241
000140 bf 91 8b 3d 83 13 ce bc b4 ad 09 bd 2d a4 00 be
       0.06814908 -0.025155788 -0.03361292 -0.12562628
000150 e2 da 88 3d 2f e6 a5 bc f7 e3 43 3c b0 9d 5c 3b
       0.066823736 -0.020251362 0.0119562065 0.0033663325
000160 15 fc a7 3d f9 f0 8b bc 66 af 95 3e e8 89 14 3f
       0.08202378 -0.017082678 0.2923538 0.5802293
000170 09 8e 33 3e 0b 35 29 3f 7f 75 3b 3d e6 b7 0b be
       0.17534651 0.6609656 0.04576635 -0.1364437
000180 b5 e9 b6 3d 3c 67 83 bc a2 13 1e 3e 18 47 c8 bd
       0.08931295 -0.016040437 0.15437177 -0.09779185
000190 ce 4c 60 3e 1b d2 7d 3e 57 ba 0d be 6d f1 25 bd
       0.21904299 0.2478718 -0.13840614 -0.040513445
0001a0 43 66 c4 3d b8 a0 35 3d d0 5e 91 3d 04 8e 30 be
       0.095898174 0.044342726 0.07098162 -0.17241675
0001b0 28 8b 65 3d c1 52 20 3e c4 aa 7e 3e 02 5f 86 bd
       0.056040913 0.15656568 0.2486983 -0.0656109
0001c0 63 bb d1 3c 93 73 40 3d 30 bf 5a 3c e6 4f 1d be
       0.025602048 0.04698522 0.013351247 -0.1536251
0001d0 67 26 2c be 7f b0 a2 bd e1 86 af 3d 6a 80 50 3d
       -0.16811524 -0.0794382 0.08570648 0.050903715
0001e0 d5 63 8a 3d 1d 82 c0 3c 31 b6 e2 3b c4 0f 24 3d
       0.06757323 0.023499543 0.0069186916 0.040054098
0001f0 2e 45 09 bd 98 3d 0f 3e c5 56 2f bd 3c e4 90 3d
       -0.03351324 0.1398834 -0.04280736 0.07074782
000200 ac b3 ca bd 3a 01 13 bc 8f 9b 87 bc a5 97 07 3c
       -0.09897551 -0.00897246 -0.016553668 0.008275901
000210 b0 0c 89 bd 8e fe dd 39 f7 84 e9 3d 32 50 61 3d
       -0.06691873 0.00042342063 0.11402314 0.05500812
000220 8f 5e d2 3d a6 a0 9b 3e f6 a9 15 3e 38 70 be 3d
       0.10271942 0.30396003 0.14615616 0.09298748
000230 80 78 dc bd cc 93 e1 bd de 74 f2 3d 68 48 11 be
       -0.10765171 -0.11014518 0.11838697 -0.14187777
000240 99 86 5f 3d 91 71 37 bd ce 58 bc 3c fc 6a ee 3d
       0.05457172 -0.04478604 0.022991564 0.116414994
000250 03 bc 57 bd 7d b3 b8 bc c4 37 57 3d ee 0a 11 bd
       -0.052669536 -0.022546524 0.052543417 -0.035410814
000260 ef 8a b5 bd 38 a7 95 bc 93 db 3c bd 0c 72 2f bd
       -0.0886439 -0.018268213 -0.04610784 -0.042833373
000270 d8 75 e4 bd b2 08 05 bc fd 69 49 3c 87 34 fa bd
       -0.111552894 -0.008119749 0.012293336 -0.1221705
000280 35 02 07 be 90 45 c4 bd 8e 18 0e be a3 b8 79 3e
       -0.13184436 -0.095835805 -0.13876554 0.2438684
000290 2b 7c 57 be 27 cb 53 be 9a 24 2f 3e 14 01 8a bd
       -0.2104346 -0.20682965 0.17103806 -0.06738487
0002a0 80 9d c1 3d 63 db 04 be a0 a5 75 ba 3e 59 30 bd
       0.09453869 -0.12974314 -0.00093706883 -0.043053858
0002b0 01 b1 17 be f4 6e 69 3d b7 b9 4b bb 13 8a 8a 3e
       -0.14813615 0.05699058 -0.0031086036 0.27058467
0002c0 9b e0 c4 3d 7f 5a de 3d 08 b8 e5 bc 63 a4 d5 bc
       0.096131526 0.108571045 -0.028041855 -0.026079362
0002d0 d9 b1 8d be 39 04 cf bd eb 35 0e be 88 15 52 3c
       -0.2767475 -0.10108227 -0.13887756 0.012822516
0002e0 b7 08 09 bd 6b 3e bf bd 81 54 08 be f9 ef 19 be
       -0.033455577 -0.09338077 -0.13313486 -0.15032949
0002f0 c5 f6 06 bd d9 74 cf 3d a1 65 3f 3b 33 74 52 bd
       -0.03295018 0.10129709 0.0029204863 -0.051380347
000300 31 dd 7b bd 95 ef 4a 3d 9c f3 5b 3d 50 ae eb bd
       -0.06149024 0.04954489 0.05369912 -0.11507857
000310 94 18 db bd 2e 07 16 bd b8 f3 eb bc 35 17 98 bd
       -0.10698047 -0.03662794 -0.028802738 -0.074263014
000320 26 8d e0 bc 18 22 f2 bd e0 94 a3 bd e3 e2 fa bd
       -0.027411055 -0.11822909 -0.0798738 -0.122503065
000330 82 c9 ab bd c1 4a 8b 3c c7 10 bc bc da 1f 3a 3d
       -0.08388044 0.017003419 -0.022957219 0.045440532
000340 d5 03 bd bd cb 01 ac 3c c4 d1 b1 3d 32 22 ac 3d
       -0.092292465 0.020996949 0.08682588 0.0840496
000350 4c 09 b6 bb 39 8f e3 bd 6a b9 43 3c dd 6d 25 be
       -0.0055553075 -0.11111302 0.011946062 -0.16155191
000360 63 f8 ab bd cc d1 e8 bd 8c 34 b3 bd 27 3f c5 bc
       -0.083969854 -0.113681406 -0.08750257 -0.024077965
000370 5b dd f4 bc 6e 85 02 be 65 10 16 bb c9 85 48 3d
       -0.029890707 -0.12746212 -0.0022897955 0.048955712
000380 25 d2 27 be 60 91 09 bd 01 b4 0c 3d 9d f6 89 bd
       -0.16388758 -0.033585906 0.034351353 -0.06736491
000390 97 12 00 3e 8f 08 15 3e 10 17 09 3d bd db 0d bd
       0.12507091 0.14554046 0.03346926 -0.034633387
0003a0 6a 6b b8 3c 0a 3a 97 3d bd be 91 bd e1 69 b1 bd
       0.022512157 0.07384117 -0.071164586 -0.08662773
0003b0 73 62 0e be e2 8a 44 be 77 ca 82 3d a3 21 34 bd
       -0.13904743 -0.19193605 0.06386273 -0.04397739
0003c0 15 fd 89 bd ff e4 f4 bc 26 c0 0e be 64 cc af bd
       -0.06737725 -0.02989435 -0.13940486 -0.08583906
0003d0 6d 69 0d be 54 a4 3c bd 19 a9 ed bc f0 78 d3 bd
       -0.13809748 -0.046055153 -0.029011296 -0.10325801
0003e0 3d 41 4d 3d f6 da e7 3c e1 a5 23 be 75 d1 49 be
       0.050111044 0.02830265 -0.15981247 -0.19708808
0003f0 28 01 28 3e ec 5f 16 be 65 74 59 bd b7 34 72 bc
       0.16406691 -0.14685029 -0.053089518 -0.014783076

critic.0.bias f4 [64]
000000 0e 87 10 be 77 99 62 3d df da fd bd 01 aa b1 bb
       -0.1411402 0.055322137 -0.12395262 -0.0054218774
000010 30 ae 27 bc a5 15 c2 3c c3 cf a1 3c 4d c3 15 be
       -0.010234401 0.023691962 0.019752389 -0.14625283
000020 d7 69 0a be 96 92 0b bd 7f 4b 8c bd 18 17 e4 bc
       -0.13516937 -0.034075342 -0.06850337 -0.027843043
000030 b8 67 e1 bd cd d4 9b bd fa 27 91 bd b3 cd b4 bc
       -0.11006111 -0.07608948 -0.07087703 -0.022070741
000040 bd d6 d0 bd 04 5a 86 bd d5 e7 9b bd 1f 5b c0 3d
       -0.10197208 -0.06560138 -0.07612578 0.0939238
000050 01 e1 8f bd 51 16 e8 bd f4 89 b7 bc 58 66 5f 3d
       -0.07025338 -0.113323815 -0.022404648 0.054540962
000060 85 0b cd bc 68 97 aa bd 86 50 eb bd a5 a7 4b bc
       -0.025029907 -0.0832966 -0.11489968 -0.012430106
000070 03 b5 94 3c 7f 2d 3b 3d 8b 16 92 3e a8 66 3d 3d
       0.01815272 0.045697685 0.28532824 0.04624048
000080 6b 87 0d be 19 29 05 bc 56 0a 89 bd 21 68 25 bc
       -0.13821189 -0.008127474 -0.066914245 -0.010095627
000090 4d 60 8d bd a7 cc b9 3d 8f e7 87 bd c9 48 fa bb
       -0.069031335 0.090722375 -0.06635963 -0.007638071
0000a0 b7 e8 03 be dc 28 e9 bd af 5d c8 bd ca 38 d4 bd
       -0.12881742 -0.113847464 -0.09783494 -0.10362394
0000b0 d5 96 04 be 97 e2 b3 bd f0 4c 06 bd c1 da af 3d
       -0.12948163 -0.08783453 -0.032788217 0.08586646
0000c0 61 87 68 3e cd fd cf 3b 1f 2b a6 bc b1 1f ff bd
       0.22707893 0.006347394 -0.020284234 -0.124572165
0000d0 0a 32 e8 3d 6e e3 0e be b5 c3 d1 bd 20 55 2a be
       0.11337669 -0.13953945 -0.10242406 -0.16634035
0000e0 8a 48 99 bd aa 44 bf 3d c0 57 37 be d3 4a 4e bd
       -0.07484539 0.093392685 -0.17904568 -0.050364327
0000f0 ee 4b 58 3e 41 75 43 bd f9 04 e0 bd 28 55 19 be
       0.21122715 -0.047719244 -0.109384485 -0.14973891

critic.2.weight f4 [64, 64]
000000 0b 03 b7 bc 4f 26 1f 3e 63 ae 24 3d 78 6c 6a 3c
       -0.022340318 0.15541957 0.04020537 0.0143080875
000010 7b 33 4f be 46 e6 98 3d 27 57 de 3c 04 83 1b 3e
       -0.20234482 0.07465796 0.027141167 0.15186697
000020 57 ab 0d 3e b8 bc 8b bd db 4e 02 3e 79 bc 96 3e
       0.13834892 -0.068231046 0.12725393 0.29440668
000030 2b 09 9f bd 12 e4 cb 3e 9c 9a 74 bb 9c 82 f2 3d
       -0.077654205 0.3982244 -0.00373236 0.11841318
000040 bb 4d 39 3d d7 ef ef 3d 17 90 3c bd 95 0f a2 3e
       0.045240145 0.11715668 -0.046035852 0.31652513
000050 63 c3 f7 3c 38 02 2f bd 8f b6 8d 3d 7d 96 b0 3d
       0.030244535 -0.042726725 0.06919586 0.08622453
000060 d2 b2 f5 bd 32 93 af 3d 5f 0c a9 bd 32 53 22 3e
       -0.11996998 0.08572997 -0.08254313 0.15852049
000070 48 60 0a 3e 59 63 6d 3e f4 bd 78 3e 40 d3 a5 bd
       0.13513291 0.2318243 0.24291211 -0.08096933
000080 0b 16 e5 3c 69 71 76 bd 4f f8 5c 3d 6d 95 75 3a
       0.027964612 -0.06016675 0.053947743 0.00093682745
000090 07 89 66 bd 40 e9 ec 3d 26 00 8a 3d c1 72 eb bd
       -0.056283023 0.115679264 0.067383096 -0.11496497
0000a0 27 c8 8b bd 77 cf f8 3d 9a f0 89 3e ed dc 49 bd
       -0.068252854 0.12148946 0.26941377 -0.049282957
0000b0 5c cc 1a bd c1 42 b4 bd 14 f7 ac 3d 6e 71 c8 bd
       -0.03779255 -0.08801795 0.08445564 -0.0978726
0000c0 89 74 98 3e cb f4 1c 3e 70 2f 2e bd 71 98 bb 3d
       0.2977641 0.15327756 -0.04252571 0.09159935
0000d0 5b 46 45 bd d5 28 8e bc 06 bc 47 3d 42 9a 96 3e
       -0.0481628 -0.017353455 0.048763297 0.29414564
0000e0 5f ee 41 bd 9a 00 a0 3e cf d4 c4 bb 8e 91 eb 3c
       -0.04734647 0.3125046 -0.006006814 0.02875593
0000f0 83 45 49 bd 4f d2 64 3e e3 eb 00 3f 17 32 c3 bd
       -0.049138557 0.22345851 0.50359935 -0.09531038
000100 a5 a6 11 bd 60 d3 c7 3b 9d 67 1a bc 49 29 be bc
       -0.035559315 0.006098196 -0.009424117 -0.023213046
000110 72 db ee bd 23 5b 84 bd fb 97 b4 bd 9e 10 f0 3d
       -0.116629496 -0.064626954 -0.088180505 0.117219195
000120 3d 6e 56 bd 7d 43 d2 bd 7f 85 c4 bd 14 f4 ef bd
       -0.052351225 -0.102667786 -0.09595775 -0.11716476
000130 95 87 0c bd eb bd 5d bd 5f 7a e3 bd ed 3a 52 bd
       -0.03430899 -0.054136198 -0.11107325 -0.051325727
000140 15 4f a1 3d a4 d6 e1 bd a5 12 55 bc 1f 5a e3 3d
       0.07876412 -0.110272676 -0.0130049335 0.111011736
000150 4d 22 82 3d e6 71 d4 bc 0d 15 5c 3d 2e 2b 6e bd
       0.063541986 -0.025933217 0.053731013 -0.058146648
000160 c9 a3 b3 bd 08 df bb bd 0f ad ad bd d7 36 9f 3d
       -0.08771474 -0.09173399 -0.08480274 0.07774132
000170 cf a3 dd bb 9b a7 e8 bd 1f 52 90 bd bd 9f f9 bc
       -0.0067639123 -0.11360093 -0.07046913 -0.030471677
000180 84 83 66 3d 89 ed ec 3c a4 5b 96 3c 05 28 31 bd
       0.056277767 0.02892186 0.018354245 -0.043251056
000190 d0 91 5f bc f2 bf 8f 3d b1 30 22 3d 10 cd 33 bd
       -0.013645604 0.070190325 0.039597217 -0.043896735
0001a0 fe 86 0b 3e 58 21 9e 3d 74 80 04 3d d7 fa 3f 3d
       0.13625714 0.077212036 0.032349065 0.04687008
0001b0 c6 7e 92 3d 05 c5 08 bd 79 de a8 3c 4a 75 50 bd
       0.07153086 -0.033391017 0.020613896 -0.050893106
0001c0 27 a8 3b bd e2 33 a6 bb 10 ea ef bd 63 1c cf 3d
       -0.04581466 -0.005072103 -0.11714566 0.10112836
0001d0 9d d8 d3 bd 61 10 ce bd 98 c9 cf bc 7e e2 87 3d
       -0.1034405 -0.10061718 -0.025364682 0.06634997
0001e0 b5 ce a0 bd ff 27 62 bc 89 22 7c 3d a4 b4 ec bd
       -0.07851926 -0.013803481 0.061556373 -0.11557892
0001f0 7b 19 c2 3d 6a 03 4f 3d d6 a8 e0 3c f7 5a 02 bc
       0.09477516 0.050540365 0.027424257 -0.007956258
000200 44 d4 6a 3d 6b 7a ae bd 18 08 8d bc 12 5c c4 3d
       0.05733134 -0.08519443 -0.017215773 0.095878735
000210 e6 31 31 bd b0 91 cf bc 73 e5 97 3c 8e 92 e4 bc
       -0.043260477 -0.025338024 0.018542027 -0.027901914
000220 05 19 d0 bd 43 3d d5 bc cd 54 72 bd d8 df 38 be
       -0.10161022 -0.026030188 -0.059162904 -0.1805414
000230 66 e4 8d bc f8 e2 9e bd 6d 76 52 3d ad a5 23 bd
       -0.017320823 -0.077581346 0.05138247 -0.039952923
000240 ba 0e d0 bd 14 7c 25 3e e7 8c a4 bb 42 60 7e bd
       -0.10159059 0.16160613 -0.0050216797 -0.062103517
000250 85 45 86 3c 47 76 4a 3d 69 78 a8 3d 6a f3 ab 3d
       0.016390571 0.049429204 0.082260914 0.08396037
000260 49 dd 72 bd 9d 37 1f 3d 52 ce 47 3d 58 55 e4 bd
       -0.059293065 0.038871396 0.048780747 -0.111490905
000270 9b 57 3b 3d 32 83 03 be db 7f b9 3d bd f9 0e be
       0.045737844 -0.12843016 0.090575896 -0.13962455
000280 ca 4a 24 3d 3b cb 46 bd fe 98 96 3c d4 7c 08 bd
       0.040110387 -0.04853366 0.0183835 -0.03332217
000290 86 31 0e 3c 04 c9 7d bd 97 94 88 3b 5b 68 8d bd
       0.0086787995 -0.06195928 0.004168104 -0.0690467
0002a0 64 1e 70 3d d5 30 78 3c ba b5 fe bc 36 84 85 bd
       0.058622733 0.015148361 -0.031092513 -0.06519358
0002b0 c8 7d a0 3a fb c9 04 be 81 ee 4e 3b 42 bb 60 3d
       0.0012244517 -0.12967674 0.0031575265 0.054866083
0002c0 1f 67 0b 3d 31 37 46 bd 8b d6 b6 3c b4 86 81 3d
       0.03403389 -0.04839248 0.022319099 0.06324521
0002d0 95 dc 50 3c 1b 54 9b bc 95 24 09 3d 94 18 ce bc
       0.012747903 -0.018961003 0.033482153 -0.025158204
0002e0 01 bc 52 bb 16 e4 48 bd 0a 5e e2 bd 8e 8e cd bd
       -0.0032155516 -0.049045645 -0.11053093 -0.10036956
0002f0 a3 02 5d bd 80 20 b9 bd 7e 6b aa 3d 3c aa 48 be
       -0.053957593 -0.09039402 0.08321284 -0.1959619
000300 90 a9 8c bb 3d e4 48 3d ae 6f 26 3b 29 89 ac bd
       -0.0042926744 0.04904579 0.0025396156 -0.08424599
000310 81 e8 70 bd 39 b5 df bd 55 88 f4 3d 52 1e 68 3d
       -0.058815483 -0.10923237 0.11940066 0.05666954
000320 45 8a 24 3e 57 3b 57 be 7e e4 52 3e c7 3e ae 3d
       0.1606837 -0.2101873 0.20594975 0.085080676
000330 c1 02 a2 3d 06 c1 11 3e 15 7a 0a 3e 00 01 8b 3e
       0.079106815 0.14233789 0.13523133 0.271492
000340 6e fa ea 3c 79 7d b0 bc b8 b8 d9 bd c2 65 97 3e
       0.028683867 -0.021544205 -0.106309354 0.29569823
000350 51 2c cd 3d 99 fd df 3d cc 07 a5 bd a9 a6 24 3d
       0.10018218 0.10937042 -0.08058128 0.040198002
000360 05 8a 92 bd 13 b3 c7 bd be 18 7d 3d 78 71 17 3e
       -0.071552314 -0.097509526 0.061791174 0.14789379
000370 82 9e 20 3e 66 bb 9c 3d 97 4c d6 3e 8e a5 57 bd
       0.15685466 0.07652931 0.41855308 -0.05264812
000380 78 5e 78 3d 0d e1 09 3e 1d 66 64 bc 2f 86 a1 bd
       0.060636967 0.13464756 -0.013940361 -0.078869216
000390 20 e3 6e 3d 8a 1b c5 bd e6 5c 9e bd a0 55 92 3c
       0.058322072 -0.09624393 -0.07732563 0.017863095
0003a0 3c e2 86 bd ce 01 b0 3d a6 91 62 3e 76 49 8a 3d
       -0.065861195 0.08594094 0.22125873 0.06752293
0003b0 14 92 51 bd 8f 9a 00 3e fc 78 41 bd 7e 71 52 be
       -0.0511647 0.1255896 -0.04723452 -0.20551106
0003c0 06 e4 2e 3e ef 78 2f 3d 1c a9 f3 bb b7 29 b0 bd
       0.17079172 0.04283994 -0.007435931 -0.086017065
0003d0 1f 7f 9a 3d d8 31 7b 3d 71 de c5 bb cb c7 f5 3e
       0.07543778 0.06132683 -0.00603848 0.48003992
0003e0 3c 53 56 be 7b 1d d2 3e 3c de 87 bc e7 b4 b2 bd
       -0.20930189 0.41038117 -0.016585462 -0.08725911
0003f0 8e f0 34 be e3 66 c3 3d 5c 8a 12 3f b6 56 60 3d
       -0.1766989 0.095411085 0.5724237 0.054770194

critic.2.bias f4 [64]
000000 f9 69 dd 3d 67 ca 79 bd 42 8e 54 bd c5 44 79 3c
       0.10811228 -0.06098404 -0.05189348 0.01521415
000010 75 1c ce bd 58 74 06 be 8b 31 4a bd 7d db 12 be
       -0.100640215 -0.13130319 -0.049363654 -0.1434154
000020 4c 7a c0 bd 23 0f c1 bd 1c 31 b9 bc 08 ee 2c 3d
       -0.09398326 -0.09426715 -0.022606425 0.04221919
000030 78 6e 04 3d 40 0a fe 3c 7c b2 b9 bd 91 1f de bd
       0.032331914 0.031010747 -0.09067246 -0.108458646
000040 10 26 c0 bd d3 c6 2b be 74 f4 1d 3d d6 00 2b bd
       -0.0938226 -0.16775064 0.038563207 -0.041748844
000050 6d e5 0f 3d b6 8b 88 3c f6 11 33 bd 7c 19 21 be
       0.035130907 0.016668182 -0.0437183 -0.15732378
000060 6c cf a1 b8 a0 04 1d be ea 4e b5 bd a0 b4 d5 bd
       -7.7157136e-05 -0.15333796 -0.08852942 -0.10434842
000070 2a 50 47 bc 1d d7 c0 3c b6 e8 89 bd ee 19 e4 bc
       -0.012165109 0.023540074 -0.06733839 -0.027844395
000080 70 1e 9f bd f9 50 fa bd 59 b0 13 3d ba b5 6e bd
       -0.07769477 -0.122224756 0.03605685 -0.058278777
000090 4a 65 f6 bc 63 77 17 be 5e 36 8e bd fe 76 2d bc
       -0.030077595 -0.14791636 -0.069439635 -0.010587452
0000a0 5c 92 ef 3b 15 87 fb bd 93 f0 88 bd 7f fd 9e bc
       0.0073111486 -0.12281624 -0.06686511 -0.019407986
0000b0 2b b4 c5 bd 72 86 42 3e 2f cc 01 be 5a 7f 97 bc
       -0.09653505 0.189966 -0.12675546 -0.018493343
0000c0 60 1d 0a 3d 8a 63 a0 ba 66 d7 06 3d 08 e8 cf bd
       0.03371942 -0.0012236696 0.032920264 -0.10151678
0000d0 3e 3a 7d bd 75 49 38 be b1 06 3f 3d 01 70 4b bd
       -0.061823122 -0.17996772 0.04663724 -0.049667362
0000e0 5a c7 3e 3c e3 81 6b 3b f2 47 c0 bc 30 f9 96 bd
       0.011644209 0.0035935573 -0.023471806 -0.073717475
0000f0 92 5f f1 bd 81 51 2a 3c 8a 3a 01 be 39 3a a2 bd
       -0.11785807 0.010395409 -0.12619987 -0.07921261

critic.4.weight f4 [1, 64]
000000 ec 67 12 be 6c e6 25 3d 73 50 fa 3c 68 40 eb bd
       -0.14297456 0.04050295 0.03055594 -0.11486894
000010 a1 ae 90 bd a3 a0 a1 be b7 a2 94 3c 25 4a b8 3d
       -0.07064558 -0.3156787 0.018143995 0.08998517
000020 0d 71 88 3c a1 e6 d2 be 02 82 c1 3b dc a4 a2 bb
       0.01665547 -0.4119158 0.0059053907 -0.0049635004
000030 87 60 2f ba e3 06 ba 3c 34 28 1a bc 42 49 0f bd
       -0.0006690104 0.022708362 -0.009408999 -0.034981973
000040 60 da 42 bc fd 12 89 be 11 b5 96 bc 13 bb 60 bc
       -0.011892885 -0.267723 -0.018396886 -0.013716477
000050 26 5c 4c ba 32 07 37 bc 89 bd 24 be 16 d8 84 3c
       -0.00077957136 -0.011171149 -0.16087927 0.016216319
000060 f7 ab 91 3c fc de 81 bc 94 6f 62 3c 96 b4 8e be
       0.017782195 -0.015853398 0.013820548 -0.2787215
000070 af 46 04 3b 90 69 95 bc 88 94 1e 3c 60 ac 97 3c
       0.0020183732 -0.018238813 0.009678967 0.018514812
000080 b9 a9 8f 3d ba 8a 80 3d 49 ad 67 3c 1f e0 fe 3b
       0.07014794 0.0627646 0.0141404355 0.007778182
000090 e4 3d 6e bc ce 90 8c be 3d 1d 37 be 6b bc 0c bc
       -0.014541123 -0.27454227 -0.17882247 -0.008589844
0000a0 96 aa 37 bc f7 87 2a 3d 10 f9 69 3d 7e 7c 7b 3c
       -0.011210104 0.041633572 0.05712229 0.0153495055
0000b0 3a 1d f0 bb b9 2f 08 3e 2a 53 97 3c 7d bd 06 3d
       -0.007327703 0.13299455 0.018472273 0.032895554
0000c0 62 14 94 bd 3b 93 1a bd 77 9e 04 be 8b 86 b0 3d
       -0.0723045 -0.037738066 -0.12951075 0.08619412
0000d0 30 83 8a 3d 06 e2 96 be fb d3 80 bc c0 e9 be be
       0.06763303 -0.29469317 -0.01572608 -0.37287712
0000e0 0d 1d ab 3a 5f 8a ed bb eb 10 fd bd f5 ba 82 be
       0.0013054922 -0.007249161 -0.123567425 -0.25533262
0000f0 3e 72 18 bd 58 63 66 bc 86 a9 9b bd 9e 16 85 bd
       -0.037218325 -0.014061771 -0.076006934 -0.064984545
