CybORG/CybORG/Models/meander_train/70000.pth (torch, 78565 bytes, 11 tensors)

actor.0.weight f4 [64, 62]
0	0x3e8c9664	0.2745849
1	0xbe814e5c	-0.25255096
2	0xbe851c80	-0.25998306
3	0xbeb9a6c0	-0.36260033
4	0xbba57ec3	-0.0050505116
5	0x3e91b9fa	0.284622
6	0x3ecc021c	0.3984536
7	0x3f403b10	0.7509012
8	0xbcf981bf	-0.030457376
9	0x3ecc3b19	0.39888838
10	0x3b85b99f	0.0040809656
11	0x3f093bd9	0.53606945
12	0x3df0f0bb	0.11764666
13	0xbe5ded16	-0.21672472
14	0xbe0d3be7	-0.13792382
15	0xbe9f318c	-0.3109249
16	0x3e19aeec	0.15008134
17	0x3e30885d	0.17239518
18	0xbdb05477	-0.086098604
19	0x3c0cf378	0.008602969
20	0xbd07b11b	-0.033127885
21	0x3d30c2c0	0.043154478
22	0xbcd61c86	-0.026136648
23	0x3e1ad515	0.15120347
24	0xbc0f946c	-0.008763414
25	0xbd9b5688	-0.07584864
26	0x3deb82cf	0.11499559
27	0xbe1b4bd0	-0.15165639
28	0xbed695f0	-0.41911268
29	0xbbf08939	-0.007340577
30	0xbd7115e3	-0.058858763
31	0x3e82b457	0.25528213
32	0x3d433541	0.04765821
33	0x3d2b2169	0.04177991
34	0xbdb5b6b9	-0.08872742
35	0xbdb3e5a4	-0.08784035
36	0xbecc49e3	-0.3990012
37	0xbe5e2a8e	-0.21695921
38	0x3f035888	0.5130696
39	0x3ee981c7	0.45606825
40	0x3d59f8d8	0.05321583
41	0xbe6524e7	-0.22377358
42	0x3d90628a	0.07050045
43	0xbdc7a9ce	-0.097491845
44	0xbea18b1b	-0.31551442
45	0xbe14cfa4	-0.14532334
46	0x3e01a770	0.12661529
47	0x3e26cab6	0.16288266
48	0xbea37cf9	-0.31931284
49	0xbe9e0645	-0.30864158
50	0x3f182073	0.59424514
51	0x3eec255a	0.46122247
52	0x3e39fdbb	0.18163197
53	0x3d922d47	0.07137542
54	0x3dc60afa	0.09670062
55	0xbd1d5bc9	-0.03841761
56	0x3e5044b5	0.2033871
57	0xbdbab3f6	-0.09116356
58	0xbd8df855	-0.06932131
59	0xbd02dfff	-0.0319519
60	0x3d65a4db	0.05606542
61	0x3d603919	0.054741953
62	0x3e1a7813	0.15084867
63	0xbe6bb269	-0.23017277
64	0xbdae9787	-0.08524995
65	0xbea27aec	-0.31734407
66	0x3d0fdc12	0.035121985
67	0x3e0b8d98	0.13628232
68	0x3dea4ef4	0.1144084
69	0x3ee5ef95	0.4490935
70	0x3d0badcc	0.034101292
71	0x3ec5cb22	0.3863154
72	0x3e2c2674	0.16811544
73	0x3f49c0a3	0.78809565
74	0x3eb32fad	0.3499731
75	0x3d3168c8	0.043312818
76	0x3e8fdd5a	0.28098565
77	0xbe346ed7	-0.17620407
78	0x3e03f4df	0.1288638
79	0x3d1001b9	0.035157893
80	0xbdf265d5	-0.11835829
81	0x3da4fac9	0.08055646
82	0x3cd2ac85	0.02571703
83	0xbe3cbef2	-0.18432215
84	0x3cc2bb23	0.023770874
85	0xbd2058c3	-0.03914715
86	0xbc44866b	-0.011994938
87	0xbd92d5a4	-0.07169655
88	0x3d480b12	0.048838682
89	0xbdf44573	-0.11927309
90	0xbe147ac0	-0.1449995
91	0x3e418b86	0.1890088
92	0x3d1259a5	0.035730023
93	0x3dd3b563	0.10337331
94	0xbe36770f	-0.17818855
95	0xbdc18c95	-0.09450642
96	0x3d81deb6	0.06341307
97	0x3d8a625a	0.0675704
98	0xbef10b27	-0.4707882
99	0xbed3d37a	-0.4137228
100	0x3ea00897	0.31256554
101	0x3f063e9b	0.5243928
102	0x3ce9fa34	0.028561689
103	0xbe340cf4	-0.17583066
104	0xbea48236	-0.32130593
105	0xbf125fcf	-0.5717744
106	0xbe32144b	-0.17390554
107	0xbe2976d2	-0.16549233
108	0x3e340fe9	0.17584194
109	0xbe68d6bc	-0.22738165
110	0xbe41c412	-0.18922451
111	0x3e6e07fa	0.2324523
112	0xbe1d6588	-0.15370762
113	0xbe017b68	-0.12644732
114	0x3e67f7d2	0.2265313
115	0xbdb1e567	-0.08686333
116	0x3cdeaabd	0.027181024
117	0x3cf5a912	0.029987846
118	0x3ea177ec	0.31536806
119	0x3c9885e2	0.018618528
120	0x3d2d9f9b	0.04238854
121	0xbc530bd6	-0.01288124
122	0xbd91db1f	-0.07121872
123	0x3d2c06fd	0.041998852
124	0x3e0604f0	0.13087821
125	0x3c9410e9	0.01807447
126	0x3c898cce	0.016790774
127	0xbe061ca3	-0.13096862
128	0x3c9721b0	0.01844868
129	0xbe824a54	-0.25447333
130	0xbeba7620	-0.36418247
131	0xbf0f352c	-0.5594051
132	0x3d9ba5d8	0.075999916
133	0xbe4fa865	-0.20279081
134	0x3eb1149a	0.3458603
135	0xbe7361d0	-0.23767781
136	0xbe07e02b	-0.13269107
137	0x3d5fcbb3	0.054637622
138	0x3e22b490	0.15889192
139	0x3d5409dd	0.05176722
140	0x3dc072b5	0.09396879
141	0x3e21353a	0.1574296
142	0x3df6f05c	0.12057564
143	0x3c3b8da8	0.011447348
144	0xbe27b7de	-0.16378734
145	0xbdaff0e8	-0.08590871
146	0x3db119d4	0.086475044
147	0x3dff3c0f	0.12462627
148	0xbdab760a	-0.083721235
149	0xbd6b3b31	-0.057429496
150	0xbdf3695f	-0.11885332
151	0xbd4ef13a	-0.05052302
152	0xbea1b7c7	-0.31585523
153	0x3c9d96e8	0.019236997
154	0x3d80f804	0.06297305
155	0xbdd563d5	-0.10419432
156	0x3e4c81a7	0.19971333
157	0xbdb11934	-0.08647385
158	0xbcdbf2b6	-0.026849132
159	0xbd95d384	-0.07315734
160	0x3e4e80d1	0.20166327
161	0x3db144a3	0.086556695
162	0xbef8eff3	-0.48620567
163	0xbee20f7d	-0.44152442
164	0x3d3acc4d	0.045604993
165	0x3e67c9ea	0.22635618
166	0xbe899b6c	-0.2687639
167	0xbeb94135	-0.36182562
168	0x3edddf1d	0.43334284
169	0x3ea5ffd1	0.32421735
170	0x3e0099ee	0.1255872
171	0xbe75e712	-0.24013928
172	0x3e953abb	0.2914637
173	0x3e27cc5b	0.16386549
174	0xbe477bb7	-0.19480787
175	0x3e4a920d	0.19782276
176	0x3e05842c	0.13038701
177	0xbdd18a70	-0.10231483
178	0x3d54d3cd	0.0519598
179	0xbd07ed6c	-0.033185408
180	0xbd16bcb6	-0.036801063
181	0x3cc5d6b2	0.024150226
182	0x3e2360d4	0.15954906
183	0x3c4d0b84	0.012514953
184	0x3e01fce5	0.12694128
185	0x3ddb0476	0.1069421
186	0xbd200fb8	-0.03907749
187	0xbcef8359	-0.029237436
188	0xbd1155ef	-0.035482343
189	0xbe306946	-0.17227659
190	0x3df03fdb	0.117309295
191	0x3f0963fe	0.536682
192	0x3e188413	0.14894132
193	0x3f0a1453	0.5393726
194	0xbebdd32b	-0.3707517
195	0xbe26c574	-0.1628626
196	0xbdda28dc	-0.106523246
197	0xbf013e16	-0.5048536
198	0xbea9a641	-0.33134654
199	0x3ba4ce2a	0.0050294595
200	0x3d58955b	0.05287681
201	0x3e3772ea	0.1791493
202	0xbe1e0c06	-0.15434274
203	0xbe00d6f8	-0.12582004
204	0xbd970724	-0.07374409
205	0x3d938e9b	0.07204934
206	0xbd7309af	-0.059335407
207	0x3dd8447e	0.10559939
208	0x3d3c1b05	0.045924205
209	0x3c1c0173	0.00952183
210	0xbd21d26b	-0.03950731
211	0xbcfc52cb	-0.030801198
212	0x3c828887	0.015934242
213	0xbd867628	-0.06565505
214	0xbe266333	-0.16248779
215	0x3dd7e7b9	0.105422445
216	0xbc986906	-0.018604767
217	0xbdf2bf99	-0.118529506
218	0x3e196236	0.14978871
219	0x3cd6b13a	0.026207555
220	0xbc156984	-0.009119395
221	0x3d23a4da	0.039952137
222	0x3f035f19	0.5131698
223	0x3ea658ab	0.32489523
224	0xbea567f4	-0.32305872
225	0xbedc1257	-0.42982742
226	0x3d2683c9	0.040653024
227	0xbde259d3	-0.11052289
228	0x3e06b5fa	0.13155356
229	0x3ef54d3f	0.47910497
230	0xbd77deec	-0.06051533
231	0x3de2f229	0.11081345
232	0xbe0a784b	-0.1352245
233	0x3ede2348	0.43386292
234	0xbe088a07	-0.13333903
235	0xbe8e7963	-0.27826986
236	0x3e983142	0.2972508
237	0x3e79036c	0.24317712
238	0xbeb0e1b8	-0.3454721
239	0x3d33e9af	0.04392403
240	0xbdd69f7d	-0.10479639
241	0xbe41678b	-0.18887155
242	0xbe15d530	-0.14632106
243	0x3d29b2f1	0.041430417
244	0x3e237dc6	0.15965948
245	0xbc36db2f	-0.011160656
246	0x3e280d28	0.16411269
247	0xbd29f19b	-0.04149018
248	0x3ce7a1fb	0.02827548
249	0x3e139712	0.14413098
250	0xbbbaa239	-0.005695608
251	0x3d37bb61	0.044856433
252	0x3e2ece9f	0.17071007
253	0x3ec31537	0.38102123
254	0x3e5c517a	0.21515456
255	0x3ef93114	0.48670256

actor.0.bias f4 [64]
0	0xbcc4fb23	-0.024045533
1	0x3d9c2597	0.07624357
2	0x3d272a83	0.040812027
3	0x3d617a97	0.05504855
4	0xbd4ac02b	-0.049499672
5	0xbd723bdb	-0.059139114
6	0x3d94a5ff	0.07258224
7	0xbd6677c2	-0.056266554
8	0x3d6bb7b0	0.057548225
9	0x3c298b1b	0.010348107
10	0x3ca9d415	0.020731011
11	0xbd9df215	-0.07712189
12	0x3ae2c2a4	0.0017300439
13	0x3dc75cd0	0.097344995
14	0xbddfbf79	-0.109251924
15	0x3db3e313	0.08783545
16	0xbe13da79	-0.1443881
17	0xbd06eccd	-0.032940675
18	0xbd633004	-0.055465713
19	0xbdd7b680	-0.10532856
20	0xbd34bfc0	-0.04412818
21	0xbd377346	-0.044787668
22	0x3db7012a	0.08935769
23	0xbdfb067e	-0.12257098
24	0x3d018840	0.03162408
25	0x3e0c1e9b	0.1368355
26	0x3d95537b	0.07291313
27	0x3de26b8f	0.110556714
28	0x3dc9e581	0.098582275
29	0xbc902853	-0.017597353
30	0xbc8d18f1	-0.017223807
31	0x3e282bd9	0.16422977
32	0x3dae3235	0.0850567
33	0xbda3ebb9	-0.08003945
34	0x3da82325	0.08209828
35	0xbd91264d	-0.070873834
36	0x3e2c3d00	0.16820145
37	0x3dac1c3c	0.08403823
38	0xbbc2dbf6	-0.0059466315
39	0xbe37d711	-0.17953135
40	0x3e1e2f64	0.15447766
41	0x3de031e6	0.10947017
42	0xbb88a469	-0.00416999
43	0x3cfbbc05	0.030729303
44	0x3d473918	0.048638433
45	0x3e6f0589	0.23341955
46	0xbcb42965	-0.021992395
47	0x3d4f4034	0.05059834
48	0x3e057db8	0.13036239
49	0xbb0ca2d4	-0.0021459358
50	0x3e36b6bf	0.1784315
51	0xbd588a0a	-0.05286602
52	0xbe29b395	-0.16572411
53	0x3d4ab4b6	0.049488746
54	0x3e43091f	0.19046448
55	0x3e021f03	0.12707143
56	0x3e0cf5c7	0.13765632
57	0x3daea42c	0.08527407
58	0xbdf52463	-0.11969831
59	0x3cfffaa2	0.03124744
60	0x38c1ef8f	9.2475784e-05
61	0xbd77e24d	-0.06051855
62	0xbc8f15f5	-0.017466525
63	0xbc8f2fe7	-0.017478896

actor.2.weight f4 [64, 64]
0	0xbe1a79f3	-0.15085582
1	0xbe12251f	-0.14271973
2	0x3d60be7c	0.05486916
3	0xbde6ffce	-0.112792596
4	0x3c51f364	0.0128143765
5	0x3dc47425	0.09592465
6	0xbd0343b5	-0.032046992
7	0xbe0304f2	-0.12794855
8	0xbe161fd7	-0.14660583
9	0x3ca2d28a	0.019875783
10	0xbdce8b99	-0.1008522
11	0xbd65e8ab	-0.056130093
12	0xbcbd44ae	-0.023104038
13	0xbd68bf55	-0.056823093
14	0x3d15c327	0.036563065
15	0xbd1f1666	-0.03883972
16	0xbd944cc3	-0.07241204
17	0xbd323160	-0.04350412
18	0x3da0880e	0.0783845
19	0xbe0da6f2	-0.13833216
20	0x3c408d33	0.0117524145
21	0xbc904d46	-0.017614972
22	0xbcbc7a23	-0.023007458
23	0xbd51af98	-0.05119285
24	0xbddb3601	-0.1070366
25	0xbcb020d9	-0.021500038
26	0xbd9b793d	-0.07591484
27	0x3d25541a	0.04036341
28	0xbd81b678	-0.06333631
29	0x3ce694b1	0.028147073
30	0x3d94fa61	0.072743185
31	0x3d549788	0.051902324
32	0xbd0e8a53	-0.034799885
33	0x3d651adf	0.05593383
34	0xbdf14480	-0.117806435
35	0xbe07dcbb	-0.13267796
36	0xbccf8903	-0.025333887
37	0xbe062efe	-0.13103864
38	0xbe1b3e89	-0.15160574
39	0x3d76bebc	0.060240492
40	0x3de64197	0.11242979
41	0xbd506b4b	-0.050883573
42	0xbc99f3fe	-0.018793102
43	0xbd924ee8	-0.071439564
44	0xbba415d2	-0.005007484
45	0x3ce17f88	0.027526632
46	0xbc3ec5e8	-0.011643864
47	0x3dbbd6da	0.09171839
48	0xbdccf585	-0.10007767
49	0xbc925e6f	-0.017867295
50	0xbd4817e3	-0.048850905
51	0x3db881bc	0.0900912
52	0x3de22885	0.11042885
53	0x3c94a560	0.018145263
54	0x3de43dea	0.11144622
55	0xbd6a9f60	-0.057280898
56	0xbe78f300	-0.24311447
57	0xbdcdc21c	-0.10046789
58	0xbd03ee2e	-0.032209568
59	0xbdfdf94d	-0.12401066
60	0x3c26f581	0.010190369
61	0xbd54a49f	-0.051914807
62	0x3cb313c8	0.021860018
63	0xbe15ed3e	-0.14641282
64	0xbd020633	-0.031744193
65	0xbd9ca64d	-0.07648907
66	0xbdab56d6	-0.08366172
67	0x3db0ceff	0.08633231
68	0xbd724bc1	-0.059154276
69	0xbdd19cc5	-0.102349795
70	0xbdb19114	-0.086702496
71	0xbe1adb45	-0.15122707
72	0x3d621c7d	0.05520295
73	0x3da765f7	0.08173745
74	0x3d03e7b4	0.03220339
75	0x3c7b6c5c	0.015345659
76	0xbdfdd935	-0.123949446
77	0xbdec60be	-0.115418896
78	0xbe0b8b0e	-0.13627264
79	0xbe1e57dd	-0.15463205
80	0xbe52c853	-0.2058423
81	0x3ddefdea	0.10888274
82	0x3cbb8aca	0.022893328
83	0xbbac66b0	-0.0052612647
84	0xbe0cc7ed	-0.1374814
85	0xbd2ba072	-0.04190106
86	0xbd082d17	-0.033246126
87	0xbdfa9a6d	-0.12236486
88	0x3d0211df	0.031755324
89	0x3d8db5f7	0.06919473
90	0xbe00e342	-0.12586692
91	0x3dd22565	0.10261039
92	0xbb451d8c	-0.0030077426
93	0x3be98b2e	0.007127187
94	0xbe38598a	-0.18002906
95	0xbcfca8a8	-0.03084214
96	0xbdd06601	-0.10175706
97	0xbe4a13c0	-0.19734097
98	0xbdcbe4f8	-0.09955782
99	0xbd969f2a	-0.07354577
100	0xbd77f342	-0.060534723
101	0xbe1bc0ca	-0.15210262
102	0x3d4518bf	0.048119303
103	0x3bd17e74	0.006393248
104	0xbe012b12	-0.12614086
105	0x3b42f8e5	0.0029750403
106	0xbb875af6	-0.0041307164
107	0x3d84df2d	0.0648788
108	0xbde075dc	-0.1095998
109	0xbb70a5e0	-0.0036719963
110	0x3d98010c	0.07422075
111	0xbe318cb2	-0.17338827
112	0xbdf203cb	-0.1181713
113	0xbbfa775e	-0.007643624
114	0xbdb768a7	-0.08955508
115	0x3be99f45	0.007129582
116	0x3e330dfa	0.174858
117	0xbd75d721	-0.060019616
118	0xbdef361b	-0.11680242
119	0x3dd16e72	0.10226144
120	0xbd91551e	-0.07096313
121	0xbc9e205c	-0.01930254
122	0xbc367c57	-0.011138043
123	0xbd6e1f1e	-0.058135144
124	0xbde4862e	-0.11158405
125	0xbd7208a7	-0.059090283
126	0x3d1d8ea3	0.038466107
127	0xbdead8c7	-0.11467128
128	0xbdda8799	-0.106703945
129	0x3d9f3791	0.0777427
130	0xbcc5bc35	-0.024137596
131	0x3bda031f	0.006653204
132	0x3e001327	0.12507306
133	0x3e9ea886	0.30987948
134	0x3d60b1a1	0.0548569
135	0x3d47e7a4	0.048804894
136	0x3e1f4384	0.15553099
137	0x3d212c71	0.039349023
138	0x3cd409e2	0.025883619
139	0x3e1170be	0.14203164
140	0x3d6db6d0	0.05803567
141	0x3e8ec350	0.27883387
142	0x3dbdf055	0.09274355
143	0xbcac3a54	-0.021023907
144	0x3da8177f	0.082076065
145	0x3da5e100	0.08099556
146	0x3db63117	0.08896082
147	0x3dab5ab5	0.0836691
148	0xbe594573	-0.21217899
149	0xbd0b2331	-0.033969108
150	0x3d2e4c11	0.04255301
151	0x3e81a926	0.25324363
152	0x3db03eba	0.08605714
153	0xbd7a6739	-0.061133597
154	0x3dae2a87	0.08504205
155	0x3df9650e	0.12177478
156	0x3e8a3120	0.26990604
157	0x3d0d0458	0.03442797
158	0x3e82d7a3	0.25555143
159	0x3d5bd208	0.0536671
160	0x3bcf0f5b	0.006318969
161	0x3e514405	0.20436104
162	0xbd9934df	-0.074807875
163	0x3e559abe	0.2085981
164	0xbe719a2d	-0.2359397
165	0x3d9203a5	0.071296014
166	0x3dc89930	0.09794843
167	0xbdf9b271	-0.12192238
168	0x3db1d52c	0.086832374
169	0x3a840550	0.0010072384
170	0xbdf651e9	-0.12027342
171	0x3e2b09ce	0.16702959
172	0xbe1bc716	-0.15212664
173	0x3b239f98	0.0024966951
174	0xbd449483	-0.047993194
175	0x3deb9377	0.11502736
176	0x3e3a2c5e	0.18180987
177	0x3dfb02a3	0.12256362
178	0xbe63acab	-0.22233836
179	0x3c936e83	0.017997032
180	0x3d95428b	0.07288083
181	0xbd153d93	-0.036435675
182	0xbe5a6d22	-0.21330693
183	0xbe37c9eb	-0.1794812
184	0xbd894de0	-0.067043066
185	0x3e0a6b6a	0.13517538
186	0x3e6e3358	0.23261774
187	0x3ea75400	0.32681274
188	0x3dea5f38	0.11443943
189	0x3d1dc289	0.0385156
190	0x3e09cc33	0.13456802
191	0xbe13f978	-0.14450634
192	0x3d8395e5	0.064250745
193	0x3d3ba1ec	0.045808718
194	0x3d337b29	0.043818627
195	0x3e11730f	0.14204048
196	0xbdc441f3	-0.09582891
197	0xbcd88e3f	-0.026435016
198	0xbdff7d7e	-0.124751076
199	0xbc12a2c6	-0.008949941
200	0x3d488a25	0.04895987
201	0x3c91c4bc	0.017794006
202	0xbe293262	-0.16523126
203	0xbdbcaee6	-0.09213047
204	0xbd8f999d	-0.07011721
205	0x3b437354	0.002982338
206	0xbd471295	-0.048601706
207	0xbdfb0428	-0.12256652
208	0xbd899f65	-0.06719855
209	0x3d280528	0.041020542
210	0x3d4f2ef4	0.050581887
211	0x3e10abc7	0.14128028
212	0x3c50095b	0.012697543
213	0x3cece6a6	0.028918575
214	0xbda51816	-0.08061235
215	0xbc90afcb	-0.01766195
216	0x3b863846	0.004096064
217	0x3d9e3d9a	0.07726593
218	0x3ce1c627	0.027560307
219	0xbdcf34c2	-0.10117485
220	0xbe20c058	-0.15698373
221	0xbe232ad2	-0.15934303
222	0xbdbfba20	-0.093616724
223	0xbcc2cafe	-0.023778435
224	0x3dd5cbf7	0.10439294
225	0xbd59b7e5	-0.05315389
226	0x3c515ff3	0.012779224
227	0x3b0604f1	0.0020449723
228	0xbe21a004	-0.15783697
229	0xbe04006d	-0.12890787
230	0x3d050f7a	0.032485463
231	0x3d7e4e9d	0.06208669
232	0xbda30b46	-0.079611346
233	0xbcd98450	-0.02655235
234	0xbe13ad2c	-0.14421529
235	0xbcca1951	-0.024670275
236	0x3d3729ae	0.044717483
237	0x3bcfa7b6	0.0063371314
238	0xbd6fe765	-0.058570284
239	0x3cbeba83	0.023282295
240	0xbd287d9e	-0.041135423
241	0x3d8cad29	0.06868965
242	0xbdc80c64	-0.09767988
243	0xbdd72620	-0.10505319
244	0xbdd581a4	-0.104251176
245	0xbdd37156	-0.103243515
246	0x3dd1e277	0.10248273
247	0xbdd58f24	-0.104276925
248	0xbe0821ec	-0.1329419
249	0x3c30c271	0.010788546
250	0xbddab24d	-0.106785394
251	0xbc854f43	-0.016273146
252	0xbbae5c0b	-0.005321031
253	0xbd4756e5	-0.048666853
254	0x3d6081de	0.05481135
255	0x3d8eacb0	0.06966531

actor.2.bias f4 [64]
0	0xbd6bc89c	-0.057564363
1	0x3bd4e455	0.006496946
2	0x3d77f1ee	0.060533457
3	0xbe2371cc	-0.15961379
4	0x3e1d323b	0.15351193
5	0x3e13ca50	0.14432645
6	0xbd17faef	-0.037104543
7	0xbd3d35b8	-0.04619381
8	0xbda2f69f	-0.079571955
9	0x3e0c7245	0.13715465
10	0xbdb6b045	-0.089203395
11	0x3e08bda5	0.13353594
12	0xbdaf113a	-0.085482076
13	0xbdc04821	-0.093887575
14	0x3d95468e	0.07288848
15	0x3c7d6080	0.015464902
16	0x3cc873e9	0.024469333
17	0x3d8ab2f6	0.06772415
18	0x3d4cf05f	0.050033923
19	0x3df01160	0.11722064
20	0xbd76c721	-0.060248498
21	0x3d29d998	0.04146728
22	0xbc2ff20d	-0.010738862
23	0x3dfb42ed	0.122686245
24	0x3e4ff528	0.20308363
25	0xbb9c9126	-0.004778045
26	0x3dc7f352	0.097632065
27	0xbda0f82a	-0.078598335
28	0xbe312169	-0.17297901
29	0x3dc9c68e	0.098523244
30	0x3cb07e16	0.021544497
31	0x3dafc767	0.08582955
32	0xbd59a6cc	-0.053137586
33	0x3d5fe375	0.05466028
34	0xbcf646b3	-0.030063009
35	0x3daf7f85	0.08569244
36	0xbd1abc7e	-0.037777416
37	0x3bad4558	0.0052878074
38	0x3dcbb387	0.099463515
39	0x3b7bb2e0	0.0038406178
40	0x3d676a13	0.056497645
41	0xbe29d407	-0.16584788
42	0x3d677509	0.056508098
43	0xbc59841c	-0.013276126
44	0x3d4f963b	0.05068038
45	0xbd0f6151	-0.035004918
46	0xbddfca98	-0.109273136
47	0xbd3a493a	-0.04547999
48	0x3b9ad554	0.0047251377
49	0x3dcaf6e5	0.09910373
50	0x3d98794d	0.07445011
51	0xbcb3225b	-0.021866968
52	0xbd6ebf2d	-0.05828779
53	0xbe0a17e0	-0.1348567
54	0x3d4277c3	0.047477495
55	0x3dcf76a9	0.101300545
56	0xbc6b60ea	-0.014366368
57	0x3da9a6c3	0.082837604
58	0x3d94d6de	0.07267545
59	0x3da80eff	0.08205985
60	0x3d3008e3	0.042977225
61	0x3d38f8cb	0.045159142
62	0x3bf0ca2c	0.0073483195
63	0xbd02cbc8	-0.031932622

actor.4.weight f4 [36, 64]
0	0x3c1a0a23	0.009401831
1	0x3cde2c5a	0.027120758
2	0x3da798fb	0.081834756
3	0xbd94e982	-0.072711006
4	0xbe88616c	-0.26636827
5	0xbf365cc4	-0.712353
6	0x3eeafe9e	0.45897382
7	0x3ee20359	0.4414318
8	0xbd7f48cc	-0.062325284
9	0x3e4a4de3	0.19756274
10	0xbdcc16ec	-0.099653095
11	0x3eaf20c6	0.34204692
12	0xbe3ca293	-0.18421392
13	0xbca5785f	-0.020198999
14	0xbcc72968	-0.024311736
15	0xbbbe65fe	-0.0058104983
16	0x3f0eed29	0.5583063
17	0xbe815519	-0.25260237
18	0x3e03a998	0.12857664
19	0x3ea97ab1	0.3310142
20	0x3d0d6665	0.03452148
21	0xbf061df5	-0.5238946
22	0xbe5c9296	-0.21540293
23	0xbe8b4dd9	-0.2720783
24	0xbf13e7b2	-0.57775414
25	0xbd85b062	-0.06527783
26	0x3d02c462	0.031925566
27	0x3db0159b	0.08597871
28	0x3d57d262	0.05269087
29	0xbf50683f	-0.81409067
30	0x3eb8a7eb	0.3606561
31	0xbf2af49f	-0.6677951
32	0xbf09b685	-0.5379413
33	0xbefbaeaa	-0.49156696
34	0x3d8056fd	0.06266592
35	0x3dcdc4fc	0.100473374
36	0x3d0078ad	0.031365085
37	0x3e93fdcf	0.28904578
38	0x3eb50562	0.3535567
39	0xbf455e1b	-0.7709672
40	0xbe4a8cf7	-0.19780336
41	0xbd9656b7	-0.07340758
42	0xbf45d889	-0.7728353
43	0xbf48d238	-0.7844577
44	0xbdca6932	-0.09883346
45	0x3ec67f0c	0.38768804
46	0x3d07aee1	0.033125762
47	0x3ea015a6	0.31266516
48	0xbd82b8c1	-0.06382895
49	0x3e94984b	0.2902244
50	0xbf348594	-0.70516324
51	0xbeeb40a4	-0.45947754
52	0x3e1824c2	0.14857772
53	0xbc8c6efe	-0.017142769
54	0x3ecb72ea	0.3973611
55	0x3ea37fd5	0.31933466
56	0xbf59f4c3	-0.851391
57	0xbde34084	-0.1109629
58	0xbf10d825	-0.5657981
59	0xbf492ae8	-0.78581095
60	0xbf4a1f2a	-0.789538
61	0x3ddcd380	0.10782528
62	0x3b737427	0.003714809
63	0xbdf0721a	-0.11740513
64	0xbdc3705b	-0.095429145
65	0x3dd585cf	0.104259126
66	0xbcf4d771	-0.029887887
67	0x3ca9eda9	0.020743208
68	0xbe662202	-0.2247391
69	0xbf3c3988	-0.73525286
70	0x3e20f0b2	0.15716818
71	0x3e176a2f	0.147866
72	0xbcfab0e9	-0.030601935
73	0x3e4821ec	0.1954419
74	0x3d196c31	0.037456695
75	0x3e6581c6	0.22412786
76	0x3e9aa665	0.30205074
77	0xbdcde607	-0.1005364
78	0x3e968ffc	0.29406726
79	0x3cae9143	0.0213095
80	0xbefebb74	-0.4975239
81	0x3e3cbf97	0.1843246
82	0xbf326838	-0.69690275
83	0xbf0cd2f4	-0.5500939
84	0xbb2e1c55	-0.002656718
85	0x3ec25c2f	0.37960956
86	0xbe739666	-0.23787841
87	0xbf553040	-0.8327675
88	0xbf5e679b	-0.8687684
89	0x3dedb7c9	0.1160732
90	0xbc4aba36	-0.012373498
91	0x3dc3c931	0.095598586
92	0x3efe021a	0.49610978
93	0xbf0b7df9	-0.54489094
94	0xbf1d9cb8	-0.6156726
95	0xbf63c538	-0.88972807
96	0xbd4005b3	-0.046880435
97	0xbf28e514	-0.65974545
98	0x3e1224fd	0.14271922
99	0xbf2896a2	-0.6585485
100	0x3f30df68	0.6909089
101	0x3d3563af	0.04428452
102	0x3e933c49	0.2875693
103	0xbf5c7178	-0.8611064
104	0x3e7d69f7	0.24747454
105	0x3cd1f6ba	0.025630344
106	0xbf0c46c7	-0.547955
107	0xbf67b199	-0.9050537
108	0x3ddf053b	0.108896695
109	0xbeb9ce9c	-0.36290443
110	0xbd5430bf	-0.0518043
111	0x3ded8322	0.11597277
112	0xbf059aa6	-0.521891
113	0x3d996b27	0.07491141
114	0x3e1ea73f	0.15493487
115	0xbf7a3ba9	-0.97747284
116	0xbc734f0b	-0.014850388
117	0x3ca59bd9	0.020215916
118	0xbf1347c6	-0.5753139
119	0xbf007d27	-0.5019097
120	0xbeeaf7ba	-0.45892125
121	0x3d1bd0a0	0.038040757
122	0xbf50c2c9	-0.8154722
123	0x3e9a6b1e	0.3015985
124	0xbe891e70	-0.26781034
125	0xbe8c5e17	-0.27415535
126	0x3daa49ed	0.083148815
127	0xbd49334b	-0.049121182
128	0x3dfd3a1f	0.12364601
129	0xbb364fb8	-0.0027818512
130	0x3e0a9842	0.13534644
131	0xbddbf829	-0.10740692
132	0xbf59577c	-0.84899116
133	0xbce86784	-0.028369673
134	0xbd8e850a	-0.06958969
135	0xbd3d41df	-0.046205398
136	0x3cf39315	0.02973322
137	0xbf1f1e0c	-0.6215522
138	0x3cceb572	0.025233004
139	0x3eafcd36	0.3433625
140	0x3ebcea10	0.36897326
141	0xbcc03089	-0.023460643
142	0xbe95437b	-0.29153046
143	0xbdbee89f	-0.09321713
144	0xbed6c6c0	-0.4194851
145	0x3cbd6afc	0.023122303
146	0xbc85a831	-0.016315551
147	0x3e8a1177	0.2696645
148	0x3ef443a0	0.47707844
149	0xbee5c1b7	-0.44874355
150	0x3db25b50	0.08708823
151	0xbf3de661	-0.74179655
152	0xbf5eeb12	-0.8707744
153	0x3d9fee71	0.07809151
154	0x3d6e500a	0.0581818
155	0x3d9dc1bf	0.0770297
156	0x3ee76584	0.45194638
157	0xbf196274	-0.5991585
158	0x3e3bff96	0.18359217
159	0xbf4a6542	-0.7906076
160	0x3a138aea	0.0005628305
161	0xbe828cf5	-0.25498167
162	0x3e072002	0.13195804
163	0xbe3f2e52	-0.18670014
164	0xbe3bcdd7	-0.1834024
165	0xbe1d58a3	-0.15365843
166	0x3df2d402	0.118568435
167	0xbedc1299	-0.4298294
168	0x3e89a39d	0.2688264
169	0x3c1cd15d	0.0095714005
170	0xbf5c33e1	-0.8601666
171	0xbe9c8e39	-0.30577257
172	0xbd92a373	-0.07160082
173	0xbd8dd48b	-0.06925305
174	0x3dc4dc98	0.096123874
175	0xbe9c4dc9	-0.30528095
176	0x3ec42a66	0.38313597
177	0x3eb35936	0.35029
178	0xbf2e00f8	-0.6797023
179	0x3e4c735f	0.19965886
180	0x3e64ce6c	0.22344369
181	0xbcc14eed	-0.023597205
182	0xbf1dbe04	-0.61618066
183	0x3ec59b0f	0.38594863
184	0xbf360528	-0.7110162
185	0xbdc7aa85	-0.09749321
186	0xbf33b20b	-0.70193547
187	0xbf295f1d	-0.66160756
188	0xbf151675	-0.5823739
189	0x3e2fb1be	0.17157647
190	0x3cd135a1	0.025538268
191	0xbd960a66	-0.07326202
192	0x3df538e0	0.11973739
193	0x3cd23e1d	0.025664384
194	0xbee2a289	-0.4426463
195	0xbcfbbf3c	-0.030730836
196	0xbe33962f	-0.17537759
197	0x3da13272	0.0787095
198	0x3e2dc112	0.16968182
199	0x3e74e03b	0.23913662
200	0xbde10900	-0.10988045
201	0x3e1768e9	0.14786114
202	0x3d44f614	0.04808624
203	0x3e56ae8e	0.20965025
204	0xbe918a16	-0.28425664
205	0xbd9027d0	-0.07038844
206	0xbe931b2b	-0.28731665
207	0x3d99604d	0.07489071
208	0xbdab2f1f	-0.08358597
209	0xbea6c015	-0.32568422
210	0xbedc229b	-0.42995152
211	0x3ca259e6	0.019818258
212	0xbefa8b43	-0.48934373
213	0xbec2b7be	-0.3803081
214	0xbf0026ce	-0.5005921
215	0xbe0ae74e	-0.13564798
216	0xbe836c7c	-0.25668705
217	0xbe5ee890	-0.21768403
218	0xbd58bd86	-0.05291512
219	0x3d16580d	0.036705066
220	0x3da6a07e	0.0813608
221	0xbe17521f	-0.1477742
222	0x3debf3ec	0.11521134
223	0xbea040f3	-0.31299552
224	0xbea14043	-0.3149434
225	0xbe5e8502	-0.21730426
226	0xbd9adfe5	-0.07562236
227	0xbf02f3c5	-0.5115321
228	0xbe64b684	-0.22335249
229	0xbe9273ff	-0.28604123
230	0x3d886e4e	0.06661664
231	0xbe6e93de	-0.23298594
232	0xbe5cc3f7	-0.2155913
233	0x3d9142ad	0.070927955
234	0xbe1a3831	-0.15060498
235	0xbe2b64f8	-0.16737735
236	0xbd691a47	-0.056909826
237	0x3cf4b5e9	0.029871898
238	0x3d9c9b34	0.0764679
239	0xbeb65a51	-0.3561578
240	0xbf0dc7e9	-0.55383164
241	0xbe96ff7b	-0.2949179
242	0xbf037fdb	-0.51366967
243	0xbf37886d	-0.71692544
244	0xbe28afe7	-0.16473351
245	0x3d98f8cc	0.07469329
246	0xbe7ca83a	-0.24673548
247	0xbe7c2724	-0.24624306
248	0xbe055524	-0.1302076
249	0xbda88496	-0.08228414
250	0xbdd18438	-0.10230297
251	0xbed57571	-0.41691163
252	0xbefc2404	-0.49246228
253	0xbe1d204d	-0.15344353
254	0xbdc8ea4c	-0.098103136
255	0xbc9adc82	-0.018903974

actor.4.bias f4 [36]
0	0xbe47d386	-0.19514284
1	0xbe9ea030	-0.30981588
2	0xbe9e75c5	-0.30949226
3	0x3db1efd9	0.086883254
4	0x3d752c2c	0.05985658
5	0xbdb8d9e9	-0.09025938
6	0xbc02be0b	-0.00797988
7	0x3dd5e556	0.10444133
8	0x3bc6c218	0.0060656182
9	0xbd894e47	-0.06704383
10	0xbd86ac78	-0.065758646
11	0x3cb0ed1e	0.021597441
12	0x3dde2c85	0.10848335
13	0x3e49c2d4	0.19703227
14	0x3e2e3d04	0.17015463
15	0x3ca75438	0.0204259
16	0x3c5a76f9	0.013334029
17	0xbda0d54c	-0.07853183
18	0x3d856519	0.065134235
19	0x3d936800	0.07197571
20	0xbe9f9f07	-0.31176016
21	0x3d876424	0.06610897
22	0xbc3051e3	-0.010761711
23	0xbd674ea2	-0.056471474
24	0x3deba352	0.1150576
25	0x3dd5fce3	0.10448625
26	0x3e877b9a	0.26461488
27	0xbdde9c76	-0.10869686
28	0x3c9895f4	0.01862619
29	0x3db0c65f	0.08631586
30	0x3e1c19f0	0.1524427
31	0xbe65a493	-0.22426061
32	0x3d0bdb4c	0.034144685
33	0x3e2b8975	0.16751654
34	0x3e0e92f3	0.13923244
35	0x3e4a925a	0.19782391

critic.0.weight f4 [64, 62]
0	0x3d549a7e	0.051905148
1	0x3d5bb4dc	0.053639278
2	0xbdc0f184	-0.094210654
3	0xbcde2af5	-0.027120093
4	0xbd636cf5	-0.05552383
5	0xbcdda3a5	-0.02705557
6	0xbc06ecf5	-0.008235206
7	0x3bac9973	0.005267316
8	0xbd99bf73	-0.07507219
9	0xbca91594	-0.020640172
10	0xbd983583	-0.074320816
11	0xbd06fdd1	-0.032956902
12	0xbda77acc	-0.081777185
13	0xbd87de16	-0.066341564
14	0xbde2475f	-0.11048769
15	0xbdde02f9	-0.10840411
16	0xbc0910fe	-0.008365868
17	0xbddd20ab	-0.107972465
18	0xbdf7fe13	-0.12109008
19	0x3d8a6a63	0.06758573
20	0xbdbb4a0c	-0.09144983
21	0x3db6177c	0.08891198
22	0x3c1010d6	0.0087930765
23	0xbd4bb9b7	-0.04973766
24	0x3dac393c	0.08409354
25	0xbde81cda	-0.11333628
26	0x3d7934c0	0.060841322
27	0x3d834cb8	0.06411117
28	0x3da1ca73	0.07899942
29	0xbdf2ddf7	-0.11858743
30	0xbc29b877	-0.010358921
31	0xbcdd3398	-0.02700214
32	0xbdc0fbf2	-0.09423055
33	0x3db1a39a	0.08673783
34	0xbcb73252	-0.022362862
35	0x3d8a1a88	0.06743342
36	0xbd8c0d16	-0.068384334
37	0xbd66b474	-0.056324437
38	0x3ce2830f	0.027650384
39	0xbbb5a4ff	-0.0055433507
40	0x3d9510c4	0.072785884
41	0x3d5de969	0.054177675
42	0x3dd0bafa	0.10191913
43	0xbdddb5d1	-0.10825694
44	0x3ceb1533	0.028696632
45	0x3dc12f61	0.09432865
46	0xbd95d47c	-0.07315919
47	0xbdc9f523	-0.09861209
48	0x3dffed73	0.12496462
49	0xbdd9d0fe	-0.10635565
50	0xbda2ab58	-0.079428375
51	0xbddc125c	-0.10745689
52	0x3c95b1bf	0.018273233
53	0x3c3856d9	0.011251175
54	0xbe0499fa	-0.12949362
55	0x3d545c52	0.051845856
56	0x3c4b16f1	0.012395606
57	0x3ccccb07	0.024999155
58	0xbe11c093	-0.14233617
59	0xbe095e7c	-0.13414949
60	0xbdfaaebb	-0.122403584
61	0xbd8fa195	-0.07013241
62	0xbdde3ea0	-0.108517885
63	0xbd0cd1c3	-0.034379732
64	0xbdd68bf7	-0.10475915
65	0xbd2100cb	-0.039307397
66	0x3e098280	0.13428688
67	0x3db88ecd	0.09011612
68	0x3da30d5f	0.07961535
69	0xbcb6d0d5	-0.022316376
70	0xbe62b1f6	-0.22138199
71	0xbe172103	-0.14758687
72	0xbd792764	-0.06082858
73	0x3dff95c0	0.124797344
74	0xbd6a4333	-0.057192992
75	0x3e9fc72c	0.31206644
76	0x3e8580c9	0.26074818
77	0x3ec09b72	0.37618595
78	0x3e025f3c	0.12731642
79	0x3e18c0a7	0.14917241
80	0x3d8b91bf	0.06814908
81	0xbcce1383	-0.025155788
82	0xbd09adb4	-0.03361292
83	0xbe00a42d	-0.12562628
84	0x3d88dae2	0.066823736
85	0xbca5e62f	-0.020251362
86	0x3c43e3f7	0.0119562065
87	0x3b5c9db0	0.0033663325
88	0x3da7fc15	0.08202378
89	0xbc8bf0f9	-0.017082678
90	0x3e98791f	0.29779908
91	0x3f0a6b32	0.5406982
92	0x3e8cbe22	0.2748881
93	0x3f3056b2	0.68882287
94	0xbd273ad8	-0.040827602
95	0xbe6b8949	-0.23001589
96	0x3db6e9b5	0.08931295
97	0xbac359d7	-0.0014904094
98	0x3dfd6d06	0.1237431
99	0xbe12597c	-0.14291948
100	0x3de3b928	0.111193
101	0x3e684f8e	0.22686598
102	0xbe1eecef	-0.1552007
103	0x3d61d26d	0.05513232
104	0x3e07df6a	0.1326882
105	0x3c384bab	0.011248509
106	0x3d4ffeb6	0.05078002
107	0xbe25418b	-0.16138284
108	0xbcc7351a	-0.024317313
109	0x3ddd3536	0.10801165
110	0x3e66ed15	0.22551377
111	0xbdb91316	-0.090368435
112	0xbccd2662	-0.025042716
113	0xbc02bf14	-0.007980127
114	0x3d15e59a	0.03659592
115	0xbe379b25	-0.17930277
116	0xbe0137dd	-0.12618966
117	0xbd2ec615	-0.042669374
118	0x3e032a9f	0.12809227
119	0x3d0e81ce	0.03479176
120	0x3d54cb16	0.05195149
121	0xbc2890a1	-0.0102883885
122	0xbcc116ca	-0.023570437
123	0x3d12e85c	0.035866126
124	0x3b838b33	0.0040143966
125	0x3e55930e	0.20856878
126	0xbb924dcb	-0.00446484
127	0x3dc53e9d	0.09631083
128	0x3c868a1c	0.016423278
129	0x3d4ae759	0.049537037
130	0xbc87a217	-0.016556783
131	0x3d7aa4d5	0.061192352
132	0x3d2923bf	0.041293856
133	0x3d9a7d1f	0.07543396
134	0x3e47a6fa	0.1949729
135	0x3e1fe0d4	0.15613109
136	0x3e03a175	0.1285456
137	0x3e9cf55e	0.3065595
138	0x3df12fcf	0.11776697
139	0x3dc7c2f9	0.09753985
140	0xbddc7880	-0.10765171
141	0xbde193cc	-0.11014518
142	0x3df274de	0.11838697
143	0xbe114868	-0.14187777
144	0x3d5f8699	0.05457172
145	0xbd377191	-0.04478604
146	0x3cbc58ce	0.022991564
147	0x3dee6afc	0.116414994
148	0xbd57bc03	-0.052669536
149	0xbcb8b37d	-0.022546524
150	0x3d5737c4	0.052543417
151	0xbd110aee	-0.035410814
152	0xbdb58aef	-0.0886439
153	0xbc95a738	-0.018268213
154	0xbd3cdb93	-0.04610784
155	0xbd2f720c	-0.042833373
156	0xbda35749	-0.07975633
157	0x3cceff5a	0.025268245
158	0x3c4969fd	0.012293336
159	0xbdd862b4	-0.10565701
160	0xbe023310	-0.12714791
161	0xbdbaa6ec	-0.09113869
162	0xbdb845fa	-0.08997722
163	0x3ea33167	0.31873628
164	0xbe498e1d	-0.19683118
165	0xbe53cb27	-0.20682965
166	0x3e16774c	0.14693946
167	0xbd57e77c	-0.052710995
168	0x3e0c677b	0.1371135
169	0xbe3f2106	-0.18664941
170	0xbe12a7da	-0.14321843
171	0xbdc97e5c	-0.09838554
172	0xbdaac99e	-0.08339237
173	0x3df980cc	0.12182769
174	0xbd6b3073	-0.05741925
175	0x3e9eae4d	0.30992356
176	0x3e036581	0.1283169
177	0x3e52d332	0.20588377
178	0x3c891662	0.016734306
179	0xbd4a1fcf	-0.04934674
180	0xbed19f99	-0.40942076
181	0xbd37b585	-0.044850845
182	0xbda9de1e	-0.082943186
183	0x3d88ce85	0.066800155
184	0x3cf441a9	0.029816465
185	0xbd19e63e	-0.03757309
186	0xbe085481	-0.13313486
187	0xbe19eff9	-0.15032949
188	0xbd06f6c5	-0.03295018
189	0x3dcf74d9	0.10129709
190	0x3b3f65a1	0.0029204863
191	0xbd527433	-0.051380347
192	0xbd7bdd31	-0.06149024
193	0x3d4aef95	0.04954489
194	0x3d5bf39c	0.05369912
195	0xbdebae50	-0.11507857
196	0xbddb1894	-0.10698047
197	0xbd16072e	-0.03662794
198	0xbcebf3b8	-0.028802738
199	0xbd981735	-0.074263014
200	0xbce08d26	-0.027411055
201	0xbdf22218	-0.11822909
202	0xbda394e0	-0.0798738
203	0xbdfae2e3	-0.122503065
204	0xbdabc982	-0.08388044
205	0x3c8b4ac1	0.017003419
206	0xbcbc10c7	-0.022957219
207	0x3d3a1fda	0.045440532
208	0xbdbd03d5	-0.092292465
209	0x3cac01cb	0.020996949
210	0x3db1d1c4	0.08682588
211	0x3dac2232	0.0840496
212	0xbbb6094c	-0.0055553075
213	0xbde38f39	-0.11111302
214	0x3c43b96a	0.011946062
215	0xbe256ddd	-0.16155191
216	0xbdabf863	-0.083969854
217	0xbde8d1cc	-0.113681406
218	0xbdb3348c	-0.08750257
219	0xbcc53f27	-0.024077965
220	0xbcf4dd5b	-0.029890707
221	0xbe02856e	-0.12746212
222	0xbb161065	-0.0022897955
223	0x3d4885c9	0.048955712
224	0xbe27d225	-0.16388758
225	0xbd099160	-0.033585906
226	0x3d0cb401	0.034351353
227	0xbd89f69d	-0.06736491
228	0x3e001297	0.12507091
229	0x3e15088f	0.14554046
230	0x3d091710	0.03346926
231	0xbd0ddbbd	-0.034633387
232	0x3cb86b6a	0.022512157
233	0x3d973a0a	0.07384117
234	0xbd91bebd	-0.071164586
235	0xbdb169e1	-0.08662773
236	0xbe0e6273	-0.13904743
237	0xbe448ae2	-0.19193605
238	0x3d82ca77	0.06386273
239	0xbd3421a3	-0.04397739
240	0xbd89fd15	-0.06737725
241	0xbcf4e4ff	-0.02989435
242	0xbe0ec026	-0.13940486
243	0xbdafcc64	-0.08583906
244	0xbe0d696d	-0.13809748
245	0xbd3ca454	-0.046055153
246	0xbceda919	-0.029011296
247	0xbdd378f0	-0.10325801
248	0x3d4d413d	0.050111044
249	0x3ce7daf6	0.02830265
250	0xbe23a5e1	-0.15981247
251	0xbe769d6d	-0.2408349
252	0x3ddd5660	0.1080749
253	0xbe107af7	-0.14109407
254	0xbd597465	-0.053089518
255	0xbb0ad773	-0.0021185547

critic.0.bias f4 [64]
0	0xbe10870e	-0.1411402
1	0x3cf1e28d	0.029526973
2	0xbd8c6d17	-0.06856745
3	0xbbb1aa01	-0.0054218774
4	0xbd5d8495	-0.05408152
5	0x3cd77a3e	0.026303407
6	0xbcc842a1	-0.024445834
7	0xbe1815eb	-0.14852111
8	0xbe1be804	-0.15225226
9	0xbcdbe596	-0.026842874
10	0xbd9314e5	-0.0718172
11	0xbd5463d0	-0.051853
12	0xbde146f2	-0.1099986
13	0xbdc2ec07	-0.09517675
14	0xbd912894	-0.07087818
15	0xbda93e60	-0.0826385
16	0xbe1ecd75	-0.15508063
17	0xbd8bab77	-0.06819814
18	0xbd9be7d5	-0.07612578
19	0x3dc97643	0.0983701
20	0xbdf5870f	-0.11988651
21	0xbcba78e9	-0.022762733
22	0xbcb789f4	-0.022404648
23	0x3d2947ac	0.041328117
24	0xbccd0b85	-0.025029907
25	0xbdbb959f	-0.09159397
26	0xbdeb5086	-0.11489968
27	0xbbc9c0f0	-0.006157033
28	0x3cb81647	0.02247156
29	0x3d1e14cc	0.038594052
30	0x3e926058	0.2858913
31	0x3d38c60c	0.045110747
32	0xbe0d876b	-0.13821189
33	0xbc052919	-0.008127474
34	0xbdb014e1	-0.08597732
35	0xbc256821	-0.010095627
36	0xbc9e7562	-0.019343082
37	0x3dfdb723	0.12388446
38	0xbd87e78f	-0.06635963
39	0xbbfa48c9	-0.007638071
40	0xbe03e8b7	-0.12881742
41	0xbd02fd7b	-0.03198002
42	0xbdd6985e	-0.104782805
43	0xbdf8c89c	-0.12147638
44	0xbe0496d5	-0.12948163
45	0xbdb3e297	-0.08783453
46	0xbd064cf0	-0.032788217
47	0x3d9fc834	0.078018576
48	0x3e63706d	0.22210856
49	0x3c5711bd	0.013126788
50	0xbcb871ec	-0.02251526
51	0xbdff1fb1	-0.124572165
52	0x3e0479e0	0.12937117
53	0xbe1cde3a	-0.15319148
54	0xbdee34b5	-0.11631147
55	0xbe2736ca	-0.16329494
56	0xbd994f71	-0.07485855
57	0x3db16de6	0.086635396
58	0xbe3757c0	-0.17904568
59	0xbdaa4add	-0.0831506
60	0x3e3e72b5	0.18598445
61	0xbda92792	-0.082595006
62	0xbe07c49f	-0.13258599
63	0xbe2ffdb5	-0.17186625

critic.2.weight f4 [64, 64]
0	0xbcb7030b	-0.022340318
1	0x3e0f4cbd	0.13994117
2	0x3dde397a	0.108508065
3	0x3c6a6c78	0.0143080875
4	0xbe23b698	-0.15987623
5	0x3de62444	0.11237386
6	0x3a1bbbcf	0.00059407664
7	0x3e350f54	0.17681628
8	0x3e2f3a93	0.17112188
9	0xbdd5815b	-0.10425063
10	0x3dee177c	0.11625573
11	0x3e9902c8	0.29884934
12	0xbd995599	-0.074870296
13	0x3ec2ebd6	0.38070554
14	0xbb749d80	-0.0037325323
15	0x3db9ab33	0.09065857
16	0x3d8a591e	0.06755279
17	0x3ddc93ce	0.10770379
18	0xbd3c9017	-0.046035852
19	0x3eab9cff	0.33518216
20	0xbc8f5e8c	-0.017501138
21	0xbd4b42ba	-0.049624182
22	0x3d8db68f	0.06919586
23	0x3d9ade2a	0.07561906
24	0xbdf5b2d2	-0.11996998
25	0x3df67e6c	0.12035832
26	0xbda90c5f	-0.08254313
27	0x3db8f788	0.09031588
28	0x3e32c174	0.17456609
29	0x3e5f2928	0.21793044
30	0x3e763672	0.24044207
31	0xbe0e55b1	-0.13899876
32	0x3ce5160b	0.027964612
33	0xbd767169	-0.06016675
34	0x3d73a823	0.05948652
35	0x3a75956d	0.00093682745
36	0xbe1f92dc	-0.15583366
37	0x3dad5395	0.08463208
38	0x3d8a0026	0.067383096
39	0xbdeb72c1	-0.11496497
40	0xbd8bc827	-0.068252854
41	0x3d89fda8	0.06737834
42	0x3e96e4cf	0.29471442
43	0xbde45a15	-0.11149994
44	0xbd1acc5c	-0.03779255
45	0xbdb442c1	-0.08801795
46	0x3dacf714	0.08445564
47	0xbe0e1fe1	-0.13879348
48	0x3e95d658	0.29265094
49	0x3e01d1a6	0.12677631
50	0xbd7c9009	-0.0616608
51	0x3dbb9871	0.09159935
52	0xbdae7db2	-0.08520068
53	0xbd145d56	-0.036221825
54	0x3d020ced	0.03175061
55	0x3eaa20fa	0.33228284
56	0xbd41eb94	-0.047343805
57	0x3ea64c92	0.32480294
58	0xbbc4d4cf	-0.006006814
59	0x3c8d87b5	0.017276624
60	0xbd18a9ec	-0.037271425
61	0x3e79770b	0.24361818
62	0x3f0929d9	0.5357948
63	0xbddbb902	-0.10728647
64	0xbd11a6a5	-0.035559315
65	0x3bc7d360	0.006098196
66	0xbc1a679d	-0.009424117
67	0xbcbe2949	-0.023213046
68	0xbdeedb72	-0.116629496
69	0xbd845b23	-0.064626954
70	0xbdb497fb	-0.088180505
71	0x3df0109e	0.117219195
72	0xbd566e3d	-0.052351225
73	0xbdd2437d	-0.102667786
74	0xbdc4857f	-0.09595775
75	0xbdeff414	-0.11716476
76	0xbd0c8795	-0.03430899
77	0xbd5dbdeb	-0.054136198
78	0xbde37a5f	-0.11107325
79	0xbd523aed	-0.051325727
80	0x3da14f15	0.07876412
81	0xbde1d6a4	-0.110272676
82	0xbc5512a5	-0.0130049335
83	0x3de35a1f	0.111011736
84	0x3d82224d	0.063541986
85	0xbcd471e6	-0.025933217
86	0x3d5c150d	0.053731013
87	0xbd6e2b2e	-0.058146648
88	0xbdb3a3c9	-0.08771474
89	0xbdbbdf08	-0.09173399
90	0xbdadad0f	-0.08480274
91	0x3d9f36d7	0.07774132
92	0xbbdda3cf	-0.0067639123
93	0xbde8a79b	-0.11360093
94	0xbd90521f	-0.07046913
95	0xbcf99fbd	-0.030471677
96	0x3d668384	0.056277767
97	0x3ceced89	0.02892186
98	0x3c965ba4	0.018354245
99	0xbd312805	-0.043251056
100	0xbc5f91d0	-0.013645604
101	0x3d8fbff2	0.070190325
102	0x3d2230b1	0.039597217
103	0xbd33cd10	-0.043896735
104	0x3e0b86fe	0.13625714
105	0x3d9e2158	0.077212036
106	0x3d048074	0.032349065
107	0x3d3ffad7	0.04687008
108	0x3d927ec6	0.07153086
109	0xbd08c505	-0.033391017
110	0x3ca8de79	0.020613896
111	0xbd50754a	-0.050893106
112	0xbd3ba827	-0.04581466
113	0xbba633e2	-0.005072103
114	0xbdefea10	-0.11714566
115	0x3dcf1c63	0.10112836
116	0xbdd3d89d	-0.1034405
117	0xbdce1061	-0.10061718
118	0xbccfc998	-0.025364682
119	0x3d87e27e	0.06634997
120	0xbda0ceb5	-0.07851926
121	0xbc6227ff	-0.013803481
122	0x3d7c2289	0.061556373
123	0xbdecb4a4	-0.11557892
124	0x3dc2197b	0.09477516
125	0x3d4f036a	0.050540365
126	0x3ce0a8d6	0.027424257
127	0xbc025af7	-0.007956258
128	0x3d6ad444	0.05733134
129	0xbdae7a6b	-0.08519443
130	0xbc8d0818	-0.017215773
131	0x3dc45c12	0.095878735
132	0xbd3131e6	-0.043260477
133	0xbccf91b0	-0.025338024
134	0x3c97e573	0.018542027
135	0xbce4928e	-0.027901914
136	0xbdd01905	-0.10161022
137	0xbcd53d43	-0.026030188
138	0xbd7254cd	-0.059162904
139	0xbe38dfd8	-0.1805414
140	0xbc8de466	-0.017320823
141	0xbd9ee2f8	-0.077581346
142	0x3d52766d	0.05138247
143	0xbd23a5ad	-0.039952923
144	0xbdd00eba	-0.10159059
145	0x3e257c14	0.16160613
146	0xbba48ce7	-0.0050216797
147	0xbd7e6042	-0.062103517
148	0x3c864585	0.016390571
149	0x3d4a7647	0.049429204
150	0x3da87869	0.082260914
151	0x3dabf36a	0.08396037
152	0xbd72dd49	-0.059293065
153	0x3d1f379d	0.038871396
154	0x3d47ce52	0.048780747
155	0xbde45558	-0.111490905
156	0x3d3b579b	0.045737844
157	0xbe038332	-0.12843016
158	0x3db97fdb	0.090575896
159	0xbe0ef9bd	-0.13962455
160	0x3d244aca	0.040110387
161	0xbd46cb3b	-0.04853366
162	0x3c9698fe	0.0183835
163	0xbd087cd4	-0.03332217
164	0x3c0e3186	0.0086787995
165	0xbd7dc904	-0.06195928
166	0x3b889497	0.004168104
167	0xbd8d685b	-0.0690467
168	0x3d701e64	0.058622733
169	0x3c7830d5	0.015148361
170	0xbcfeb5ba	-0.031092513
171	0xbd858436	-0.06519358
172	0x3aa07dc8	0.0012244517
173	0xbe04c9fb	-0.12967674
174	0x3b4eee81	0.0031575265
175	0x3d60bb42	0.054866083
176	0x3d0b671f	0.03403389
177	0xbd463731	-0.04839248
178	0x3cb6d68b	0.022319099
179	0x3d8186b4	0.06324521
180	0x3c50dc95	0.012747903
181	0xbc9b541b	-0.018961003
182	0x3d092495	0.033482153
183	0xbcce1894	-0.025158204
184	0xbb52bc01	-0.0032155516
185	0xbd48e416	-0.049045645
186	0xbde25e0a	-0.11053093
187	0xbdcd8e8e	-0.10036956
188	0xbd5d02a3	-0.053957593
189	0xbdb92080	-0.09039402
190	0x3daa6b7e	0.08321284
191	0xbe48aa3c	-0.1959619
192	0xbb8ca990	-0.0042926744
193	0xb9e849bf	-0.00044305433
194	0xbcc79642	-0.02436364
195	0xbdac8929	-0.08424599
196	0xbd1225f2	-0.03568072
197	0xbe000b1e	-0.12504241
198	0x3d936a8f	0.07198059
199	0x3c61c1e1	0.0137791345
200	0x3e489add	0.19590326
201	0xbe9a7bab	-0.30172476
202	0x3e420b2b	0.18949573
203	0x3ca69be7	0.020338012
204	0x3d9ae54b	0.075632654
205	0x3dac3460	0.08408427
206	0x3e0a7a0c	0.1352312
207	0x3e7847b8	0.24246109
208	0x3d3cb336	0.046069346
209	0xbd095436	-0.033527575
210	0xbdd9b8b8	-0.106309354
211	0x3e9246d7	0.28569672
212	0x3da4ae12	0.08041014
213	0x3ddbc7fa	0.10731502
214	0xbda507cc	-0.08058128
215	0xbc626230	-0.013817355
216	0xbd928a05	-0.071552314
217	0xbd67d175	-0.05659624
218	0x3d7d18be	0.061791174
219	0x3e22956b	0.15877311
220	0x3e0691d2	0.13141564
221	0x3d5c90d5	0.05384906
222	0x3ed6e073	0.41968116
223	0xbddeb731	-0.10874785
224	0x3d785e78	0.060636967
225	0x3e09e10d	0.13464756
226	0x3c85bae3	0.016324466
227	0xbda1862f	-0.078869216
228	0xbd0bad90	-0.03410107
229	0xbe5f16ec	-0.21786088
230	0xbd9e5ce6	-0.07732563
231	0x3c9255a0	0.017863095
232	0xbd86e23c	-0.065861195
233	0xbda35f77	-0.07977193
234	0x3e64c334	0.22340089
235	0xbd46fcbb	-0.048580866
236	0xbd519214	-0.0511647
237	0x3e009a8f	0.1255896
238	0xbd4178fc	-0.04723452
239	0xbe8329a9	-0.25617722
240	0x3e2d4c5d	0.16923662
241	0x3c1a0211	0.009399907
242	0xbd0647cb	-0.03278331
243	0xbdb029b7	-0.086017065
244	0x3ca78eb8	0.020453796
245	0xbc734bfd	-0.01484966
246	0xbd01176b	-0.031516474
247	0x3f073d00	0.52827454
248	0xbe565226	-0.20929775
249	0x3ed14c3e	0.4087848
250	0xbc87de3c	-0.016585462
251	0xbdf70a3a	-0.120624974
252	0xbe51fc0c	-0.20506305
253	0x3dbe7eb6	0.09301512
254	0x3f17cd76	0.59297884
255	0x3d1f3b06	0.03887465

critic.2.bias f4 [64]
0	0x3d8fd375	0.07022754
1	0xbd79ca67	-0.06098404
2	0xbd548e42	-0.05189348
3	0xbcdf8251	-0.02728382
4	0xbdce1c75	-0.100640215
5	0xbdd78c9a	-0.105248645
6	0xbd4a318b	-0.049363654
7	0xbe12db7d	-0.1434154
8	0xbde4f04a	-0.11178644
9	0xbd8ce874	-0.068802744
10	0xbd127b5f	-0.035762187
11	0x3c06c218	0.0082249865
12	0x3d046e78	0.032331914
13	0x3c58b6eb	0.013227205
14	0xbdb9b27c	-0.09067246
15	0xbdde1f91	-0.108458646
16	0xbdc02610	-0.0938226
17	0xbe29796b	-0.16550224
18	0x3b223a99	0.0024754165
19	0xbd894316	-0.06702249
20	0x3c67bf48	0.014144726
21	0x3c888bb6	0.016668182
22	0xbc4ed597	-0.012624166
23	0xbe43c1cf	-0.19116901
24	0xb8e92b08	-0.00011118321
25	0xbe30c9df	-0.17264508
26	0xbdb54eea	-0.08852942
27	0xbe007222	-0.12543538
28	0xbcd44387	-0.025911106
29	0x3c4c0ac3	0.012453738
30	0x3cb078d6	0.021541994
31	0xbce419ee	-0.027844395
32	0xbd6db9ee	-0.058038644
33	0xbdfa50f9	-0.122224756
34	0x3d662dbb	0.056195956
35	0xbd6eb5be	-0.05827879
36	0xbdb0f0c6	-0.08639674
37	0xbe25a427	-0.161759
38	0xbddff85e	-0.10936044
39	0xbd2def71	-0.042464677
40	0xbd65c2f6	-0.056094132
41	0xbdfb8715	-0.12281624
42	0xbd88f093	-0.06686511
43	0xbc9efd7f	-0.019407986
44	0xbdc3780c	-0.095443815
45	0x3e6ce7ee	0.23135349
46	0xbe13c054	-0.14428836
47	0xbd0a47b9	-0.033759806
48	0xbcf3c544	-0.02975715
49	0x3b094d9c	0.00209508
50	0x3d00a961	0.031411532
51	0xbdcfe808	-0.10151678
52	0xbd7d3a3e	-0.061823122
53	0xbe3451ae	-0.17609283
54	0xbd4d6183	-0.050141823
55	0xbd487e00	-0.048948288
56	0xbc907739	-0.017634975
57	0xbc3a0fda	-0.011356318
58	0xbca54142	-0.020172719
59	0xbd8c6eac	-0.068570465
60	0xbdf15f92	-0.11785807
61	0xbcb684ae	-0.022280063
62	0xbdfec3b3	-0.124396704
63	0xbdf502ae	-0.11963402

critic.4.weight f4 [1, 64]
0	0xbe0abcfb	-0.13548653
1	0x3d25e66c	0.04050295
2	0x3cfa5073	0.03055594
3	0xbdc8e5d7	-0.098094635
4	0xbd90aea1	-0.07064558
5	0xbea5913a	-0.32337362
6	0x3c94a2b7	0.018143995
7	0x3db84a25	0.08998517
8	0x3c750059	0.014953696
9	0xbed324f2	-0.41239125
10	0xbae655aa	-0.0017573137
11	0x3c893d70	0.016752928
12	0xba2f6087	-0.0006690104
13	0xbbe136f9	-0.0068730083
14	0xbc1a2834	-0.009408999
15	0xbd0f4942	-0.034981973
16	0xbc42da60	-0.011892885
17	0xbe796109	-0.24353422
18	0xbbaeb442	-0.005331547
19	0x3b9b5133	0.0047399043
20	0xbc01746f	-0.007901295
21	0xbc370732	-0.011171149
22	0xbe0a9f7a	-0.13537398
23	0xbcdfc13e	-0.027313825
24	0x3c91e885	0.01781107
25	0xbd14c247	-0.03631809
26	0x3c626f94	0.013820548
27	0xbe81b595	-0.2533385
28	0xbc3b6ec0	-0.011439979
29	0xbd094e6f	-0.033522066
30	0xbdd4271b	-0.10359021
31	0x3c97ac60	0.018514812
32	0x3dc4f298	0.096165836
33	0x3d808aba	0.0627646
34	0x3c59afb4	0.01328652
35	0x3bfee01f	0.007778182
36	0xbcb3fd68	-0.02197142
37	0xbe7d9078	-0.24762142
38	0xbe28295c	-0.16422027
39	0xbd3b0467	-0.045658495
40	0x3c6636ee	0.014051182
41	0x3d2a87f7	0.041633572
42	0x3d69f910	0.05712229
43	0x3c7b7c7e	0.0153495055
44	0xbc05a8c4	-0.008157913
45	0x3e0096e6	0.12557563
46	0x3c4f79d1	0.012663321
47	0x3d048172	0.03235001
48	0xbd13188d	-0.035912085
49	0xbd1a6018	-0.0376893
50	0xbde500ef	-0.11181819
51	0x3db0868b	0.08619412
52	0x3d8a8330	0.06763303
53	0xbe9cbd53	-0.30613193
54	0xbcae5484	-0.021280535
55	0xbeba04e2	-0.3633185
56	0x3b8b5085	0.004251542
57	0x3a8883b3	0.0010415226
58	0xbe0695a1	-0.13143016
59	0xbe690d42	-0.22758964
60	0xbd18723e	-0.037218325
61	0xbb2eb634	-0.0026658894
62	0xbdc4e260	-0.0961349
63	0xbcdaecc7	-0.026724232
