CybORG/CybORG/Models/meander_train/80000.pth (torch, 78565 bytes, 11 tensors)

actor.0.weight f4 [64, 62]
0	0x3e817bff	0.25289914
1	0xbe89532a	-0.26821262
2	0xbe82ee93	-0.25572643
3	0xbeb803b9	-0.3594034
4	0x3d0795a1	0.03310168
5	0x3eb1decb	0.3474029
6	0x3ecc021c	0.3984536
7	0x3f4ddec8	0.8041806
8	0xbb56020a	-0.0032655024
9	0x3e983883	0.29730615
10	0x3cfd9f5e	0.030959781
11	0x3f088973	0.5333473
12	0x3e25478e	0.16140577
13	0xbe818d73	-0.2530323
14	0xbe0d436a	-0.13795248
15	0xbeaf0ec8	-0.34190965
16	0x3e19aeec	0.15008134
17	0x3e30885d	0.17239518
18	0xbdb05477	-0.086098604
19	0x3c0cf378	0.008602969
20	0xbd07b11b	-0.033127885
21	0x3d30c2c0	0.043154478
22	0xbcd61c86	-0.026136648
23	0x3e1ad515	0.15120347
24	0xbc0f946c	-0.008763414
25	0xbd9b5688	-0.07584864
26	0x3deb82cf	0.11499559
27	0xbe1b4bd0	-0.15165639
28	0xbed3399e	-0.41254896
29	0x3db6ee0e	0.08932124
30	0xbd4c361a	-0.049856283
31	0x3e861f73	0.2619587
32	0x3d8ff403	0.070289634
33	0x3d8218f9	0.063524194
34	0xbdb5b6b9	-0.08872742
35	0xbdcc22c5	-0.09967569
36	0xbed8d2c1	-0.42348292
37	0xbe773c45	-0.24144085
38	0x3efda505	0.49539962
39	0x3eefea60	0.468585
40	0x3d6d4af5	0.057932813
41	0xbe9459a6	-0.28974646
42	0x3dc01260	0.09378505
43	0xbdfdbe41	-0.12389804
44	0xbe958299	-0.292012
45	0xbe011a5a	-0.12607709
46	0x3c43726b	0.011929135
47	0x3e1c8eb6	0.15288815
48	0xbea7ddc6	-0.32786387
49	0xbe9e0c6e	-0.30868858
50	0x3f1e3e1e	0.61813533
51	0x3eef6575	0.46757093
52	0x3e39618a	0.18103614
53	0x3d816b15	0.063192524
54	0x3d9d214f	0.07672369
55	0xbbfe8d19	-0.007768285
56	0x3e5681a6	0.20947894
57	0xbdd40929	-0.1035331
58	0xbdad742b	-0.08469423
59	0xbd030f40	-0.031996965
60	0x3d553c33	0.052059364
61	0x3d25a9ea	0.040445246
62	0x3ded4648	0.11585671
63	0xbe611ad7	-0.21982895
64	0xbca53375	-0.020166138
65	0xbeafa88e	-0.34308285
66	0x3df9ee37	0.12203639
67	0x3e1fafb5	0.1559437
68	0x3dea4ef4	0.1144084
69	0x3eef519f	0.4674196
70	0x3e4cbd97	0.19994198
71	0x3e8f7263	0.28016958
72	0x3e370c67	0.17875825
73	0x3f411092	0.7541591
74	0x3e9bbf7c	0.30419528
75	0x3c2d9795	0.010595222
76	0x3eaca9f1	0.33723405
77	0xbe3a1b38	-0.18174446
78	0x3e03f4df	0.1288638
79	0x3d1001b9	0.035157893
80	0xbdf265d5	-0.11835829
81	0x3da4fac9	0.08055646
82	0x3cd2ac85	0.02571703
83	0xbe3cbef2	-0.18432215
84	0x3cc2bb23	0.023770874
85	0xbd2058c3	-0.03914715
86	0xbc44866b	-0.011994938
87	0xbd92d5a4	-0.07169655
88	0x3d480b12	0.048838682
89	0xbdf44573	-0.11927309
90	0xbe364b9f	-0.17802285
91	0x3e80dec3	0.25169954
92	0x3cb531d0	0.022118479
93	0x3c38b734	0.011274148
94	0xbe873a31	-0.26411584
95	0xbe019508	-0.12654507
96	0x3d81deb6	0.06341307
97	0x3da50578	0.08057684
98	0xbe786a98	-0.24259412
99	0xbe3df010	-0.18548608
100	0x3ea270b3	0.31726608
101	0x3f09803e	0.5371131
102	0x3dac6e27	0.084194474
103	0xbe37ca2d	-0.17948218
104	0xbec4be8a	-0.3842662
105	0xbf1c0329	-0.6094232
106	0xbe623a2a	-0.220925
107	0xbe46f224	-0.19428307
108	0x3c7d4d6e	0.015460355
109	0xbe800492	-0.25003487
110	0xbe67f607	-0.22652446
111	0x3e365bcd	0.17808457
112	0xbde80f7d	-0.11331079
113	0xbe2d190a	-0.16904083
114	0x3e2e1878	0.17001522
115	0xbda3872f	-0.079847686
116	0x3c99ab13	0.018758332
117	0xbc4e4312	-0.012589233
118	0x3e9ffc83	0.3124734
119	0x3bc50a9f	0.006013229
120	0x3d0db23e	0.034593813
121	0xbc646e8b	-0.013942371
122	0xbdace55d	-0.08442185
123	0x3cbeee06	0.023306858
124	0x3db49d79	0.08819098
125	0xbd16b2b9	-0.036791537
126	0xbcb4957b	-0.022043934
127	0xbdc5d00d	-0.09658823
128	0x3d8ad12c	0.067781776
129	0xbe824a54	-0.25447333
130	0xbeba7620	-0.36418247
131	0xbf19b8c9	-0.60047585
132	0x3dc962f8	0.0983333
133	0xbe4d3f19	-0.20043601
134	0x3e987cbb	0.29782662
135	0xbe930def	-0.28721568
136	0xbe232a11	-0.15934016
137	0x3d93f476	0.072243616
138	0x3e50b53e	0.20381638
139	0x3d861001	0.06546021
140	0x3dc072b5	0.09396879
141	0x3e21353a	0.1574296
142	0x3df6f05c	0.12057564
143	0x3c3b8da8	0.011447348
144	0xbe27b7de	-0.16378734
145	0xbdaff0e8	-0.08590871
146	0x3db119d4	0.086475044
147	0x3dff3c0f	0.12462627
148	0xbdab760a	-0.083721235
149	0xbd6b3b31	-0.057429496
150	0xbdf3695f	-0.11885332
151	0xbd4ef13a	-0.05052302
152	0xbebad274	-0.36488688
153	0x3dfccc20	0.12343621
154	0x3d83e04c	0.064392656
155	0xbdcdb1ce	-0.10043679
156	0x3e42a6d5	0.19008954
157	0xbd5ea935	-0.054360587
158	0xbcdbf2b6	-0.026849132
159	0xbd9db5e2	-0.07700707
160	0x3d74bb83	0.059749138
161	0x3be5c4c2	0.0070119807
162	0xbef542b8	-0.47902465
163	0xbefea588	-0.49735665
164	0x3d7d163d	0.061788786
165	0x3e3441f1	0.1760328
166	0xbeb17553	-0.34659824
167	0xbee2e6a3	-0.44316587
168	0x3ee3cc11	0.44491628
169	0x3ea4fa5b	0.32222256
170	0x3e4bd2b5	0.19904597
171	0xbe7496af	-0.23885606
172	0x3ebbfcc3	0.3671628
173	0x3dda617d	0.10663126
174	0xbe3e296f	-0.18570493
175	0x3e16d290	0.1472876
176	0x3e2033ab	0.1564471
177	0xbe07e13e	-0.13269517
178	0x3c8f025c	0.01745718
179	0x3be7a8df	0.0070696915
180	0x3a06e7d7	0.0005146241
181	0x3a8e65ac	0.0010864041
182	0x3e1076aa	0.14107767
183	0x3c72f136	0.014828017
184	0x3dd3b7de	0.10337804
185	0x3dde40ae	0.108521804
186	0x3d315f98	0.043304056
187	0x3d0a9fc5	0.033843774
188	0xbd5b0758	-0.0534738
189	0xbda8f89d	-0.08250544
190	0xbccfae20	-0.025351584
191	0x3ef637df	0.480895
192	0x3e188413	0.14894132
193	0x3ef5ad10	0.479836
194	0xbe8d40a2	-0.27588373
195	0xbe264345	-0.16236599
196	0xbe18839a	-0.14893952
197	0xbf0b50a2	-0.5441991
198	0xbe9525e6	-0.29130477
199	0x3da1ce7d	0.07900713
200	0x3dae13b5	0.084998526
201	0x3e583ecc	0.21117705
202	0xbe1e0c06	-0.15434274
203	0xbe00d6f8	-0.12582004
204	0xbd970724	-0.07374409
205	0x3d938e9b	0.07204934
206	0xbd7309af	-0.059335407
207	0x3dd8447e	0.10559939
208	0x3d3c1b05	0.045924205
209	0x3c1c0173	0.00952183
210	0xbd21d26b	-0.03950731
211	0xbcfc52cb	-0.030801198
212	0x3c828887	0.015934242
213	0xbd867628	-0.06565505
214	0xbe266aeb	-0.16251723
215	0x3dd7e7b9	0.105422445
216	0xbc986906	-0.018604767
217	0xbdf2bf99	-0.118529506
218	0x3d40fd10	0.04711634
219	0xbd0cd053	-0.03437836
220	0xbc156984	-0.009119395
221	0x3d130456	0.035892807
222	0x3f134ef2	0.57542336
223	0x3ee54644	0.4478017
224	0xbea1fec5	-0.31639686
225	0xbeb5b014	-0.354859
226	0x3b9529d4	0.0045521054
227	0xbdd6a146	-0.10479979
228	0x3d977a8a	0.07396419
229	0x3f0aa6ad	0.5416058
230	0x3dd37ba4	0.10326317
231	0x3e617440	0.22017002
232	0xbde2c120	-0.11071992
233	0x3f1079e8	0.56436014
234	0xbe4a4d01	-0.19755937
235	0xbeadf455	-0.33975473
236	0x3ea2320d	0.3167881
237	0x3e76e52e	0.24110863
238	0xbe4bf7ff	-0.19918822
239	0x3d2facfd	0.042889584
240	0xbdbe4d6e	-0.09292112
241	0xbdc9ba3f	-0.09849977
242	0xbda6d421	-0.08145929
243	0x3d4658f5	0.04842468
244	0x3e3bb027	0.18328916
245	0xbc06b5ed	-0.008222085
246	0x3e41869a	0.18899003
247	0xbc63f746	-0.013913935
248	0x3d49fe18	0.04931459
249	0x3e231c32	0.15928724
250	0x3988c83f	0.00026089136
251	0x3dd546ed	0.10413919
252	0x3dc12aa5	0.09431962
253	0x3ea1a4cb	0.3157104
254	0x3e5c517a	0.21515456
255	0x3edb8208	0.42872643

actor.0.bias f4 [64]
0	0xbd0e824f	-0.03479224
1	0x3db60338	0.08887333
2	0x3ceede75	0.02915881
3	0x3d67b6e5	0.056570906
4	0xbd121d01	-0.03567219
5	0xbd873d08	-0.06603438
6	0x3d62a46d	0.05533259
7	0xbd2c4681	-0.042059425
8	0x3d95a04a	0.07305963
9	0xbb84c3a8	-0.0040516444
10	0xbba7d406	-0.0051217107
11	0xbd770703	-0.06030942
12	0x3bfba303	0.0076793446
13	0x3e0142d8	0.12623155
14	0xbdeb881d	-0.11500571
15	0x3dacb782	0.08433439
16	0xbdee3380	-0.116309166
17	0xbd06eccd	-0.032940675
18	0xbda66e11	-0.08126462
19	0xbdfaf2d2	-0.122533455
20	0xbd040cc7	-0.032238748
21	0xbd20e7ef	-0.03928369
22	0x3d9b581a	0.075851634
23	0xbe1cbed6	-0.15307173
24	0x3bdad5fb	0.0066783405
25	0x3e1b8500	0.15187454
26	0x3de22d76	0.11043827
27	0x3e053f5b	0.1301245
28	0x3dc74fe7	0.09732037
29	0xbcaa784b	-0.020809313
30	0xbcd3d9b2	-0.025860641
31	0x3e410902	0.18851092
32	0x3d7d801a	0.061889745
33	0xbdc4ec20	-0.0961535
34	0x3dcd5b53	0.10027184
35	0xbda0a5d5	-0.0784413
36	0x3e38bd62	0.18040994
37	0x3d55b7d4	0.052177265
38	0xbb9b8d00	-0.004747033
39	0xbe37d711	-0.17953135
40	0x3e2f636d	0.17127772
41	0x3dba3484	0.09092048
42	0x3c826d50	0.015921265
43	0x3d60ac45	0.05485179
44	0x3d9b31b5	0.0757784
45	0x3e6ed446	0.23323163
46	0xbd32f077	-0.043686356
47	0x3d0194f0	0.03163618
48	0x3ddaa1db	0.10675403
49	0xbc89290a	-0.016743202
50	0x3e283dc7	0.16429816
51	0xbd540709	-0.05176452
52	0xbe29b395	-0.16572411
53	0x3d8aed98	0.06783599
54	0x3e402fec	0.1876828
55	0x3e0d4ed0	0.13799596
56	0x3dfe16e2	0.12406708
57	0x3d9904c2	0.074716106
58	0xbe0c1ac9	-0.13682093
59	0x3ce622b0	0.028092712
60	0x3a8055b8	0.0009791171
61	0xbd91b6f6	-0.07114975
62	0xbd03d682	-0.032186992
63	0xbd33bc83	-0.04388095

actor.2.weight f4 [64, 64]
0	0xbe1a79f3	-0.15085582
1	0xbe12251f	-0.14271973
2	0x3d60be7c	0.05486916
3	0xbde6ffce	-0.112792596
4	0x3c51f364	0.0128143765
5	0x3dc47425	0.09592465
6	0xbd0343b5	-0.032046992
7	0xbe0304f2	-0.12794855
8	0xbe161fd7	-0.14660583
9	0x3ca2d28a	0.019875783
10	0xbdce8b99	-0.1008522
11	0xbd65e8ab	-0.056130093
12	0xbcbd44ae	-0.023104038
13	0xbd68bf55	-0.056823093
14	0x3d15c327	0.036563065
15	0xbd1f1666	-0.03883972
16	0xbd944cc3	-0.07241204
17	0xbd323160	-0.04350412
18	0x3da0880e	0.0783845
19	0xbe0da6f2	-0.13833216
20	0x3c408d33	0.0117524145
21	0xbc904d46	-0.017614972
22	0xbcbc7a23	-0.023007458
23	0xbd51af98	-0.05119285
24	0xbddb3601	-0.1070366
25	0xbcb020d9	-0.021500038
26	0xbd9b793d	-0.07591484
27	0x3d25541a	0.04036341
28	0xbd81b678	-0.06333631
29	0x3ce694b1	0.028147073
30	0x3d94fa61	0.072743185
31	0x3d549788	0.051902324
32	0xbd0e8a53	-0.034799885
33	0x3d651adf	0.05593383
34	0xbdf14480	-0.117806435
35	0xbe07dcbb	-0.13267796
36	0xbccf8903	-0.025333887
37	0xbe062efe	-0.13103864
38	0xbe1b3e89	-0.15160574
39	0x3d76bebc	0.060240492
40	0x3de64197	0.11242979
41	0xbd506b4b	-0.050883573
42	0xbc99f3fe	-0.018793102
43	0xbd924ee8	-0.071439564
44	0xbba415d2	-0.005007484
45	0x3ce17f88	0.027526632
46	0xbc3ec5e8	-0.011643864
47	0x3dbbd6da	0.09171839
48	0xbdccf585	-0.10007767
49	0xbc925e6f	-0.017867295
50	0xbd4817e3	-0.048850905
51	0x3db881bc	0.0900912
52	0x3de22885	0.11042885
53	0x3c94a560	0.018145263
54	0x3de43dea	0.11144622
55	0xbd6a9f60	-0.057280898
56	0xbe78f300	-0.24311447
57	0xbdcdc21c	-0.10046789
58	0xbd03ee2e	-0.032209568
59	0xbdfdf94d	-0.12401066
60	0x3c26f581	0.010190369
61	0xbd54a49f	-0.051914807
62	0x3cb313c8	0.021860018
63	0xbe15ed3e	-0.14641282
64	0xbd020633	-0.031744193
65	0xbd9ca64d	-0.07648907
66	0xbdd59b21	-0.10429979
67	0x3d869b7f	0.06572627
68	0xbda35eb6	-0.07977049
69	0xbdd19cc5	-0.102349795
70	0xbdb19114	-0.086702496
71	0xbe1adb45	-0.15122707
72	0x3d621c7d	0.05520295
73	0x3d7a77c3	0.06114937
74	0x3c3d7b60	0.011565059
75	0xbba75057	-0.005106013
76	0xbe13caea	-0.14432874
77	0xbdec60be	-0.115418896
78	0xbe0b8b0e	-0.13627264
79	0xbe2c326d	-0.16816111
80	0xbe52c853	-0.2058423
81	0x3ddefdea	0.10888274
82	0x3cbb8aca	0.022893328
83	0xbcb7e569	-0.022448258
84	0xbe0cc7ed	-0.1374814
85	0xbd2ba072	-0.04190106
86	0xbd4cca13	-0.0499974
87	0xbdfa9a6d	-0.12236486
88	0x3d0211df	0.031755324
89	0x3d461faa	0.04837004
90	0xbe00e342	-0.12586692
91	0x3da826f7	0.08210557
92	0xbcc1d3f1	-0.023660632
93	0xbc380aaf	-0.011233016
94	0xbe38598a	-0.18002906
95	0xbd51f2a3	-0.051256787
96	0xbdf892c7	-0.121373706
97	0xbe4a13c0	-0.19734097
98	0xbdcbe4f8	-0.09955782
99	0xbd9a13fa	-0.075233415
100	0xbda61c1b	-0.081108294
101	0xbe1bc0ca	-0.15210262
102	0x3ce68a9b	0.028142264
103	0x3bd17e74	0.006393248
104	0xbe0dcbe1	-0.13847305
105	0xbc85024b	-0.016236445
106	0xbc57cd52	-0.013171511
107	0x3d84df2d	0.0648788
108	0xbde075dc	-0.1095998
109	0xbcc780ee	-0.02435347
110	0x3d98010c	0.07422075
111	0xbe318cb2	-0.17338827
112	0xbdf203cb	-0.1181713
113	0xbbfa775e	-0.007643624
114	0xbdde9eb9	-0.10870118
115	0xbc5df9c6	-0.01354832
116	0x3e330dfa	0.174858
117	0xbda520e6	-0.080629155
118	0xbe0c6ff0	-0.13714576
119	0x3da76afd	0.08174703
120	0xbdbb49b8	-0.0914492
121	0xbcb76456	-0.022386711
122	0xbc367c57	-0.011138043
123	0xbd6e1f1e	-0.058135144
124	0xbde4862e	-0.11158405
125	0xbd7208a7	-0.059090283
126	0x3c947f27	0.018127037
127	0xbdeec64f	-0.11658918
128	0xbe04c8a4	-0.12967163
129	0xbcb35ca0	-0.021894753
130	0xbc7371a5	-0.014858638
131	0x3c7ec6d9	0.015550339
132	0x3dea4199	0.11438293
133	0x3ea7ed21	0.32798102
134	0x3b5372c2	0.0032264446
135	0x3d60c480	0.054874897
136	0x3db93003	0.09042361
137	0x3d2fb6f5	0.04289909
138	0x3cd5f649	0.026118414
139	0x3e1dd865	0.15414579
140	0x3c86543e	0.016397592
141	0x3e7fcbb8	0.24980056
142	0x3d821d93	0.06353297
143	0xbd5438fe	-0.051812164
144	0x3d9938e4	0.07481554
145	0x3da5e100	0.08099556
146	0x3da9c2e8	0.082891285
147	0x3dafb544	0.085794955
148	0xbe561aac	-0.20908612
149	0xbcbcfa1e	-0.023068484
150	0xbcf1ec83	-0.029531723
151	0x3e5c6e78	0.21526515
152	0x3d4566a9	0.048193607
153	0xbd95d009	-0.0731507
154	0x3d33eb68	0.043925673
155	0x3def3070	0.116791606
156	0x3e8c348c	0.2738384
157	0x3d3b26ca	0.04569129
158	0x3e78ef67	0.24310075
159	0xbc3128a6	-0.010812914
160	0xbcc3f144	-0.023918755
161	0x3e63b3bb	0.2223653
162	0xbdad8772	-0.084731
163	0x3e688adc	0.2270922
164	0xbe7501e1	-0.23926498
165	0x3d8ff415	0.07028977
166	0x3db9e8eb	0.09077629
167	0xbdf9b271	-0.12192238
168	0x3d8d924c	0.069126695
169	0x3c025e9b	0.007957126
170	0xbe1cb527	-0.15303479
171	0x3e359ba1	0.17735149
172	0xbe2d8cc7	-0.16948234
173	0x3be2eed0	0.0069254413
174	0xbda9be0b	-0.08288201
175	0x3dc7798c	0.0973998
176	0x3e46380d	0.19357319
177	0x3e0f55a9	0.1399752
178	0xbe4d76db	-0.20064871
179	0x3cb266cd	0.021777535
180	0x3d95428b	0.07288083
181	0xbcca7eac	-0.024718605
182	0xbe4f0e7f	-0.20220374
183	0xbe53acd3	-0.20671396
184	0xbd4715f0	-0.048604906
185	0x3d8c3c0a	0.06847389
186	0x3e574611	0.21022822
187	0x3eaa9b8d	0.333218
188	0x3da5083e	0.08058213
189	0x3c40941d	0.011754063
190	0x3de944d9	0.11390085
191	0xbe413654	-0.18868381
192	0x3d8395e5	0.064250745
193	0x3d3ba1ec	0.045808718
194	0x3d337b29	0.043818627
195	0x3e11730f	0.14204048
196	0xbdc441f3	-0.09582891
197	0xbcd88e3f	-0.026435016
198	0xbdff7d7e	-0.124751076
199	0xbc12a2c6	-0.008949941
200	0x3d488a25	0.04895987
201	0x3c91c4bc	0.017794006
202	0xbe293262	-0.16523126
203	0xbdbcaee6	-0.09213047
204	0xbd8f999d	-0.07011721
205	0x3b437354	0.002982338
206	0xbd471295	-0.048601706
207	0xbdfb0428	-0.12256652
208	0xbd899f65	-0.06719855
209	0x3d280528	0.041020542
210	0x3d4f2ef4	0.050581887
211	0x3e10abc7	0.14128028
212	0x3c50095b	0.012697543
213	0x3cece6a6	0.028918575
214	0xbda51816	-0.08061235
215	0xbc90afcb	-0.01766195
216	0x3b863846	0.004096064
217	0x3d9e3d9a	0.07726593
218	0x3ce1c627	0.027560307
219	0xbdcf34c2	-0.10117485
220	0xbe20c058	-0.15698373
221	0xbe232ad2	-0.15934303
222	0xbdbfba20	-0.093616724
223	0xbcc2cafe	-0.023778435
224	0x3dd5cbf7	0.10439294
225	0xbd59b7e5	-0.05315389
226	0x3c515ff3	0.012779224
227	0x3b0604f1	0.0020449723
228	0xbe21a004	-0.15783697
229	0xbe04006d	-0.12890787
230	0x3d050f7a	0.032485463
231	0x3d7e4e9d	0.06208669
232	0xbda30b46	-0.079611346
233	0xbcd98450	-0.02655235
234	0xbe13ad2c	-0.14421529
235	0xbcca1951	-0.024670275
236	0x3d3729ae	0.044717483
237	0x3bcfa7b6	0.0063371314
238	0xbd6fe765	-0.058570284
239	0x3cbeba83	0.023282295
240	0xbd287d9e	-0.041135423
241	0x3d8cad29	0.06868965
242	0xbdc80c64	-0.09767988
243	0xbdd72620	-0.10505319
244	0xbdd581a4	-0.104251176
245	0xbdd37156	-0.103243515
246	0x3dd1e277	0.10248273
247	0xbdd58f24	-0.104276925
248	0xbe0821ec	-0.1329419
249	0x3c30c271	0.010788546
250	0xbddab24d	-0.106785394
251	0xbc854f43	-0.016273146
252	0xbbae5c0b	-0.005321031
253	0xbd4756e5	-0.048666853
254	0x3d6081de	0.05481135
255	0x3d8eacb0	0.06966531

actor.2.bias f4 [64]
0	0xbd6bc89c	-0.057564363
1	0xbc694ac4	-0.014239017
2	0x3d3e1b32	0.046412654
3	0xbe2371cc	-0.15961379
4	0x3e1ff1d3	0.15619592
5	0x3e19892d	0.14993735
6	0xbd274028	-0.04083267
7	0x3d33cff4	0.04389949
8	0xbda2f69f	-0.079571955
9	0x3e03db20	0.12876558
10	0xbdb6b045	-0.089203395
11	0x3dfee94c	0.124468416
12	0xbdba3f70	-0.09094131
13	0xbdc04821	-0.093887575
14	0x3d626fd5	0.055282433
15	0x3c439006	0.011936193
16	0xbc445e1c	-0.011985328
17	0x3d8671c3	0.06564667
18	0x3d6fbc28	0.05852905
19	0x3ddcdcd6	0.107843086
20	0xbdad2607	-0.08454519
21	0x3c8310eb	0.015999278
22	0x3c8803ff	0.016603468
23	0x3dfaa024	0.12237576
24	0x3e55ffd7	0.20898376
25	0xbb9c9126	-0.004778045
26	0x3dc7f352	0.097632065
27	0xbda0f82a	-0.078598335
28	0xbe46f022	-0.19427541
29	0x3d11ad8a	0.03556589
30	0xba96620e	-0.0011473314
31	0x3d2abd47	0.041684415
32	0xbd6b0265	-0.05737533
33	0x3d94a9d7	0.07258957
34	0xbcf646b3	-0.030063009
35	0x3c5b5d18	0.0133888945
36	0xbd74aa71	-0.059732858
37	0x3c9cbd27	0.019133164
38	0x3dfcc71d	0.12342665
39	0xbc7578ea	-0.014982441
40	0x3d091b00	0.033473015
41	0xbe29d407	-0.16584788
42	0x3d8c7f1f	0.06860184
43	0xbd3c0101	-0.045899395
44	0x3d4f963b	0.05068038
45	0x3c2d25e0	0.010568112
46	0xbdb1c169	-0.08679468
47	0xbd892600	-0.06696701
48	0x3c73e2dc	0.01488563
49	0x3d98fdbc	0.07470271
50	0x3dd68164	0.10473898
51	0xbcc46c48	-0.023977414
52	0xbd3ac4de	-0.045597903
53	0xbe0a17e0	-0.1348567
54	0x3d0ebc52	0.034847565
55	0x3db7c395	0.08972851
56	0xbc846c58	-0.016164944
57	0x3da9a6c3	0.082837604
58	0x3dad3287	0.08456903
59	0x3d9f80b8	0.07788223
60	0x3db268d7	0.08711403
61	0x3dac58d7	0.08415382
62	0xbcac5a0c	-0.021039031
63	0xbd043ff7	-0.032287564

actor.4.weight f4 [36, 64]
0	0x3c1a0a23	0.009401831
1	0x3cde2c5a	0.027120758
2	0x3c45d081	0.012073637
3	0xbd94e982	-0.072711006
4	0xbeb4c538	-0.35306716
5	0xbf449ca0	-0.7680149
6	0x3edd3cdf	0.43210503
7	0x3edf0905	0.4356157
8	0xbd7f48cc	-0.062325284
9	0x3dfe2047	0.124085
10	0xbdcc16ec	-0.099653095
11	0x3ea1fc4c	0.316378
12	0xbe647ac3	-0.22312455
13	0xbca5785f	-0.020198999
14	0xbd4d54f4	-0.050129846
15	0xbbbe6ab2	-0.005811059
16	0x3f0d5211	0.5520335
17	0xbebdb39e	-0.370511
18	0x3e14d856	0.1453565
19	0x3e9e9ead	0.30980435
20	0xbbb8edfe	-0.0056436053
21	0xbf1c0803	-0.60949725
22	0xbe4b1eaa	-0.19835916
23	0xbebabc0a	-0.36471587
24	0xbf3a6091	-0.728036
25	0xbd85b062	-0.06527783
26	0x3d02c462	0.031925566
27	0x3db0159b	0.08597871
28	0x3d2eece9	0.042706404
29	0xbf68f103	-0.90992755
30	0x3ebf80ac	0.37402856
31	0xbf3ad95b	-0.7298791
32	0xbf24162c	-0.6409633
33	0xbf103f0d	-0.5634621
34	0x3d8056fd	0.06266592
35	0x3d920889	0.07130534
36	0xbd3d7282	-0.04625178
37	0x3e68a4c7	0.22719108
38	0x3ea81c3f	0.3283405
39	0xbf498146	-0.7871288
40	0xbe404b13	-0.18778639
41	0xbd9656b7	-0.07340758
42	0xbf5a0455	-0.8516286
43	0xbf56109a	-0.8361908
44	0xbdca6932	-0.09883346
45	0x3ebc11d5	0.36732355
46	0x3d1843b2	0.037173934
47	0x3ea29696	0.31755513
48	0xbe04bcb0	-0.12962604
49	0x3e7be7f1	0.24600197
50	0xbf59b59f	-0.85042757
51	0xbf0d11f7	-0.5510554
52	0x3e018093	0.12646703
53	0xbc8c6efe	-0.017142769
54	0x3ec0a82a	0.376283
55	0x3e9da84f	0.30792472
56	0xbf8082f5	-1.0039965
57	0xbde34084	-0.1109629
58	0xbf1df649	-0.61703926
59	0xbf5d211b	-0.8637864
60	0xbf65fea7	-0.89841694
61	0x3d6d285c	0.057899818
62	0x3abf3d56	0.0014590423
63	0xbdf0721a	-0.11740513
64	0xbdc3705b	-0.095429145
65	0x3dd585cf	0.104259126
66	0xbd808c37	-0.06276744
67	0x3ca9eda9	0.020743208
68	0xbe738b54	-0.23783618
69	0xbf1e0f28	-0.61741877
70	0x3e5d710e	0.21625158
71	0x3e54c677	0.20778833
72	0xbcfab0e9	-0.030601935
73	0x3e718f6e	0.2358987
74	0x3d196c31	0.037456695
75	0x3e8a8367	0.27053377
76	0x3ea1d8d9	0.31610754
77	0xbdcde607	-0.1005364
78	0x3ea44bc5	0.32089058
79	0x3cae9143	0.0213095
80	0xbeb1e00b	-0.34741244
81	0x3e3f2e1d	0.18669935
82	0xbf444fa9	-0.7668405
83	0xbf167580	-0.5877304
84	0xbca67332	-0.020318601
85	0x3ed0f700	0.40813446
86	0xbe8c0309	-0.27346066
87	0xbf666e35	-0.9001191
88	0xbf67c995	-0.90541965
89	0x3dedb7c9	0.1160732
90	0xbc4aba36	-0.012373498
91	0x3dc3c931	0.095598586
92	0x3f08a170	0.53371334
93	0xbf0ac186	-0.54201543
94	0xbf04c894	-0.5186856
95	0xbf65c2c6	-0.89750326
96	0xbd871892	-0.06596483
97	0xbf3cb93f	-0.73720163
98	0x3e1224fd	0.14271922
99	0xbf33b2ab	-0.701945
100	0x3f3d0474	0.7383492
101	0x3d17f3ae	0.037097625
102	0x3eacf97b	0.33784088
103	0xbf5c379f	-0.8602237
104	0x3e98ae20	0.29820347
105	0x3cd1f6ba	0.025630344
106	0xbf146a42	-0.57974637
107	0xbf344dec	-0.704314
108	0x3ddf053b	0.108896695
109	0xbe9f66b7	-0.31133053
110	0xbd557369	-0.052112017
111	0x3e199277	0.14997278
112	0xbf244555	-0.6416829
113	0x3d9f08b5	0.077653326
114	0x3e1dd913	0.15414838
115	0xbf88b809	-1.0681163
116	0x3d3e5e67	0.046476748
117	0x3ca59bd9	0.020215916
118	0xbf19b45f	-0.6004085
119	0xbeed94ee	-0.46402687
120	0xbf03a3b7	-0.51421684
121	0x3d1bd0a0	0.038040757
122	0xbf436317	-0.76323074
123	0x3e9fc2a7	0.31203195
124	0xbe87b4e1	-0.26505187
125	0xbe9732e6	-0.2953102
126	0x3daa465a	0.083142
127	0xbd49334b	-0.049121182
128	0x3dfd3a1f	0.12364601
129	0xbb364fb8	-0.0027818512
130	0x3d821c40	0.063530445
131	0xbddbf829	-0.10740692
132	0xbf7ced12	-0.9879924
133	0x3c81e361	0.015855493
134	0xbdd07468	-0.10178453
135	0xbe2583df	-0.16163586
136	0x3cf39315	0.02973322
137	0xbf3005cb	-0.6875884
138	0x3cceb572	0.025233004
139	0x3ebdf68e	0.3710217
140	0x3ebc82ee	0.3681864
141	0xbcc03089	-0.023460643
142	0xbeb1e97f	-0.34748456
143	0xbdbc1d13	-0.09185233
144	0xbec907d5	-0.39263788
145	0xbdab2545	-0.08356718
146	0xbd836bec	-0.06417069
147	0x3e8c77dd	0.27435198
148	0x3eedd159	0.46448782
149	0xbf1b3588	-0.6062856
150	0x3da11ee2	0.078672186
151	0xbf6ad565	-0.91731864
152	0xbf8117fc	-1.0085444
153	0x3d9fee71	0.07809151
154	0x3d6e500a	0.0581818
155	0x3d9dc1bf	0.0770297
156	0x3ef739ca	0.48286277
157	0xbf33f968	-0.7030244
158	0x3e746dd1	0.23870017
159	0xbf5d2b56	-0.8639425
160	0xbe086a6f	-0.13321851
161	0xbea6e9bb	-0.32600197
162	0x3e072002	0.13195804
163	0xbe537489	-0.20649923
164	0xbe8de489	-0.2771342
165	0xbe73306f	-0.23748945
166	0x3dfd7ee5	0.12377719
167	0xbeef7d6c	-0.46775377
168	0x3ea26e07	0.3172457
169	0x3c1cd15d	0.0095714005
170	0xbf80dbbc	-1.0067058
171	0xbe25eee1	-0.16204406
172	0xbd92a373	-0.07160082
173	0xbe2b821e	-0.16748855
174	0x3ddc5d7e	0.1076002
175	0xbe9fc4b8	-0.31204772
176	0x3eafcc3c	0.34335506
177	0x3ea850b4	0.32874072
178	0xbf52f61e	-0.82406795
179	0x3e19432f	0.14967035
180	0x3e6b9f5c	0.2301001
181	0xbcc14eed	-0.023597205
182	0xbf307246	-0.6892437
183	0x3ecd124a	0.40053016
184	0xbf56c203	-0.8388979
185	0xbdc7aa85	-0.09749321
186	0xbf390d25	-0.7228568
187	0xbf484f66	-0.7824615
188	0xbf3f9d5a	-0.74849474
189	0x3e215343	0.15754418
190	0x3d4b8e02	0.049695976
191	0xbd960a66	-0.07326202
192	0x3df538e0	0.11973739
193	0x3cd23f1f	0.025664864
194	0xbf067414	-0.5252087
195	0xbcfbbf3c	-0.030730836
196	0xbe4b2ae8	-0.19840586
197	0x3de96f79	0.11398215
198	0x3e198331	0.14991452
199	0x3e700793	0.2344039
200	0xbde10900	-0.10988045
201	0x3df8f8d8	0.12156838
202	0x3d44f614	0.04808624
203	0x3e7dc92b	0.2478377
204	0xbe8cb837	-0.27484295
205	0xbd9027d0	-0.07038844
206	0xbe91dfe8	-0.2849114
207	0x3d99604d	0.07489071
208	0xbd88fbfa	-0.06688686
209	0xbebe5c78	-0.37179923
210	0xbed92b9a	-0.42416078
211	0x3c598ccb	0.013278197
212	0xbf0f7c17	-0.5604872
213	0xbecf99e4	-0.40547097
214	0xbf04371a	-0.5164658
215	0xbe36f373	-0.17866306
216	0xbe90d4a1	-0.28287223
217	0xbe5ee890	-0.21768403
218	0xbd58bd86	-0.05291512
219	0x3d16580d	0.036705066
220	0x3da9ddc6	0.08294253
221	0xbe4daf44	-0.2008639
222	0x3e08277c	0.13296312
223	0xbe9af990	-0.30268526
224	0xbec23bd2	-0.37936264
225	0xbe7eebdc	-0.2489466
226	0xbd9adfe5	-0.07562236
227	0xbf125b68	-0.57170725
228	0xbe3d6bb1	-0.18498112
229	0xbeb573b3	-0.35439834
230	0x3d99f888	0.07518107
231	0xbe34a30b	-0.17640321
232	0xbe731ead	-0.2374217
233	0x3d9142ad	0.070927955
234	0xbdec177c	-0.11527917
235	0xbdc7f5ac	-0.09763655
236	0xbd691a47	-0.056909826
237	0xbda1a2b1	-0.07892359
238	0x3da7e766	0.081984326
239	0xbebc6376	-0.36794633
240	0xbf26894d	-0.65053254
241	0xbeb5ba13	-0.35493526
242	0xbf0fd090	-0.56177616
243	0xbf4e18c5	-0.80506545
244	0xbe7fd0d4	-0.24982005
245	0x3d98f8cc	0.07469329
246	0xbe864fbd	-0.2623271
247	0xbe940aed	-0.28914586
248	0xbe0ffa5d	-0.1406035
249	0xbda88496	-0.08228414
250	0xbdaeb8b8	-0.08531326
251	0xbece1ed5	-0.40257898
252	0xbf0373a8	-0.5134835
253	0xbe76b033	-0.24090652
254	0xbdc90870	-0.098160625
255	0xbc9adc78	-0.018903956

actor.4.bias f4 [36]
0	0xbe95b759	-0.29241446
1	0xbe8a2337	-0.26979992
2	0xbebda9c5	-0.37043586
3	0x3ddc1ed2	0.10748066
4	0x3e02649e	0.12733695
5	0xbdb1ef4a	-0.08688219
6	0xbc25cb7f	-0.010119318
7	0x3da0473d	0.078260876
8	0xbc93c68c	-0.01803901
9	0xbd6d49d9	-0.057931755
10	0xbd7ec560	-0.06219995
11	0x36b0e48f	5.2718165e-06
12	0x3e193956	0.14963278
13	0x3e43b5fb	0.19112389
14	0x3e423932	0.18967131
15	0x3d10bcb5	0.035336215
16	0xbca6961b	-0.020335248
17	0xbdd7f56f	-0.105448596
18	0x3bca4643	0.0061729266
19	0x3d476254	0.048677757
20	0xbebe3bc0	-0.3715496
21	0x3d75794b	0.059930127
22	0x3d29bb3a	0.04143832
23	0xbc96f396	-0.018426698
24	0x3e21d760	0.15804815
25	0x3de4848d	0.111580946
26	0x3e74610a	0.23865142
27	0xbdc77c43	-0.09740498
28	0x3ccab0d7	0.024742527
29	0x3d98ce1e	0.07461189
30	0x3e1a9539	0.15095986
31	0xbe4aef01	-0.19817735
32	0x3d7d1973	0.06179185
33	0x3de0e794	0.1098167
34	0x3e465b72	0.19370821
35	0x3e56f4bb	0.20991795

critic.0.weight f4 [64, 62]
0	0x3d549a7e	0.051905148
1	0x3d5bb4dc	0.053639278
2	0xbdc0f184	-0.094210654
3	0xbcde2af5	-0.027120093
4	0xbd636cf5	-0.05552383
5	0xbcdda3a5	-0.02705557
6	0xbc06ecf5	-0.008235206
7	0x3bac9973	0.005267316
8	0xbd99bf73	-0.07507219
9	0xbca91594	-0.020640172
10	0xbd983583	-0.074320816
11	0xbd06fdd1	-0.032956902
12	0xbda77acc	-0.081777185
13	0xbd87de16	-0.066341564
14	0xbde2475f	-0.11048769
15	0xbdde02f9	-0.10840411
16	0xbc0910fe	-0.008365868
17	0xbddd20ab	-0.107972465
18	0xbdf7fe13	-0.12109008
19	0x3d8a6a63	0.06758573
20	0xbdbb4a0c	-0.09144983
21	0x3db6177c	0.08891198
22	0x3c1010d6	0.0087930765
23	0xbd4bb9b7	-0.04973766
24	0x3dac393c	0.08409354
25	0xbde81cda	-0.11333628
26	0x3d7934c0	0.060841322
27	0x3d834cb8	0.06411117
28	0x3da1ca73	0.07899942
29	0xbdf2ddf7	-0.11858743
30	0xbc29b877	-0.010358921
31	0xbcdd3398	-0.02700214
32	0xbdc0fbf2	-0.09423055
33	0x3db1a39a	0.08673783
34	0xbcb73252	-0.022362862
35	0x3d8a1a88	0.06743342
36	0xbd8c0d16	-0.068384334
37	0xbd66b474	-0.056324437
38	0x3ce2830f	0.027650384
39	0xbbb5a4ff	-0.0055433507
40	0x3d9510c4	0.072785884
41	0x3d5de969	0.054177675
42	0x3dd0bafa	0.10191913
43	0xbdddb5d1	-0.10825694
44	0x3ceb1533	0.028696632
45	0x3dc12f61	0.09432865
46	0xbd95d47c	-0.07315919
47	0xbdc9f523	-0.09861209
48	0x3dffed73	0.12496462
49	0xbdd9d0fe	-0.10635565
50	0xbda2ab58	-0.079428375
51	0xbddc125c	-0.10745689
52	0x3c95b1bf	0.018273233
53	0x3c3856d9	0.011251175
54	0xbe0499fa	-0.12949362
55	0x3d545c52	0.051845856
56	0x3c4b16f1	0.012395606
57	0x3ccccb07	0.024999155
58	0xbe11c093	-0.14233617
59	0xbe095e7c	-0.13414949
60	0xbdfaaebb	-0.122403584
61	0xbd8fa195	-0.07013241
62	0xbdd1e988	-0.10249621
63	0xbc937261	-0.017998876
64	0xbdc0f575	-0.09421817
65	0xbd83d3b9	-0.06436867
66	0x3e1c6a5b	0.15274946
67	0x3da356e4	0.079755574
68	0x3da30d5f	0.07961535
69	0xbd054d34	-0.03254433
70	0xbe77ef11	-0.2421229
71	0xbe3e4714	-0.18581802
72	0xbda83410	-0.08213055
73	0x3dbf98ca	0.09355314
74	0xbd4025bd	-0.04691099
75	0x3e9cd66e	0.30632347
76	0x3e92a923	0.28644666
77	0x3ec2eae0	0.3806982
78	0x3e025f3c	0.12731642
79	0x3e18c0a7	0.14917241
80	0x3d8b91bf	0.06814908
81	0xbcce1383	-0.025155788
82	0xbd09adb4	-0.03361292
83	0xbe00a42d	-0.12562628
84	0x3d88dae2	0.066823736
85	0xbca5e62f	-0.020251362
86	0x3c43e3f7	0.0119562065
87	0x3b5c9db0	0.0033663325
88	0x3da7fc15	0.08202378
89	0xbc8bf0f9	-0.017082678
90	0x3e98e9f3	0.2986599
91	0x3f176fd7	0.5915503
92	0x3e7ec917	0.24881397
93	0x3f38239e	0.7192935
94	0xbd1d21f2	-0.03836245
95	0xbe6fcc37	-0.23417746
96	0x3db6e9b5	0.08931295
97	0x3d100a23	0.035165917
98	0x3de6ee93	0.11275973
99	0xbe39538f	-0.18098281
100	0x3dbb2e4d	0.091396905
101	0x3e579e67	0.2105652
102	0xbe7577cb	-0.23971479
103	0x3c5fb6f4	0.013654459
104	0x3e202dd9	0.1564249
105	0xbd1f9301	-0.038958553
106	0x3d40b9fd	0.047052372
107	0xbe0af892	-0.13571385
108	0xbda7c366	-0.08191566
109	0x3e2b3a54	0.16721469
110	0x3e6f279a	0.2335495
111	0xbdac5866	-0.08415298
112	0xbd7deeeb	-0.061995428
113	0xbc9f89f7	-0.019474966
114	0x3c9080bc	0.01763951
115	0xbe24a626	-0.16079006
116	0xbdefa9a2	-0.11702277
117	0xbd4e7528	-0.050404698
118	0x3e2659ff	0.16245268
119	0x3d39ae52	0.04533226
120	0x3d909754	0.070601135
121	0x3c5c63f8	0.013451569
122	0xbc6ca824	-0.014444385
123	0x3d526934	0.05136986
124	0xbd641213	-0.0556813
125	0x3e213878	0.15744197
126	0x3d0befce	0.034164242
127	0x3d7510ef	0.059830602
128	0xbc641462	-0.013920875
129	0x3db91250	0.09036696
130	0xbc87a217	-0.016556783
131	0x3dcebf67	0.10095101
132	0x3cc569bf	0.024098275
133	0x3d1f6fb4	0.038924888
134	0x3e86ef05	0.26354232
135	0x3e012a38	0.12613761
136	0x3dce165e	0.1006286
137	0x3e8cddc9	0.2751296
138	0x3d3eaec2	0.04655338
139	0x3d886c3a	0.066612676
140	0xbddc7880	-0.10765171
141	0xbde193cc	-0.11014518
142	0x3df274de	0.11838697
143	0xbe114868	-0.14187777
144	0x3d5f8699	0.05457172
145	0xbd377191	-0.04478604
146	0x3cbc58ce	0.022991564
147	0x3dee6afc	0.116414994
148	0xbd57bc03	-0.052669536
149	0xbcb8b37d	-0.022546524
150	0x3d5737c4	0.052543417
151	0xbd110aee	-0.035410814
152	0xbdb58aef	-0.0886439
153	0xbc95a738	-0.018268213
154	0xbd3cdb93	-0.04610784
155	0xbd2f720c	-0.042833373
156	0xbdd45bf6	-0.10369103
157	0x3af6b800	0.0018823147
158	0x3c4969fd	0.012293336
159	0xbe00c676	-0.12575707
160	0xbe0426df	-0.12905453
161	0xbdbfac70	-0.09359062
162	0xbd3fa30d	-0.046786357
163	0x3eadac14	0.33920348
164	0xbe480a2d	-0.19535132
165	0xbdefb919	-0.117052265
166	0x3de0c3d3	0.109748505
167	0xbc7fce49	-0.015613147
168	0x3e15237d	0.14564319
169	0xbe4ec2f8	-0.20191562
170	0xbe10dde3	-0.14147143
171	0xbdbddba2	-0.09270407
172	0xbdf7d43a	-0.12101026
173	0x3daa6912	0.08320822
174	0xbd736c3f	-0.059429403
175	0x3e97f709	0.2968066
176	0x3da60689	0.08106715
177	0x3e1bc31b	0.15211146
178	0xbcf69821	-0.030101838
179	0xbdaf2d75	-0.08553592
180	0xbed7f8e5	-0.4218208
181	0xbdda4418	-0.10657519
182	0xbe14e7b5	-0.14541514
183	0x3cb879a8	0.022518948
184	0xbd008881	-0.03138018
185	0xbdc90950	-0.09816229
186	0xbe085481	-0.13313486
187	0xbe19eff9	-0.15032949
188	0xbd06f6c5	-0.03295018
189	0x3dcf74d9	0.10129709
190	0x3b3f65a1	0.0029204863
191	0xbd527433	-0.051380347
192	0xbd7bdd31	-0.06149024
193	0x3d4aef95	0.04954489
194	0x3d5bf39c	0.05369912
195	0xbdebae50	-0.11507857
196	0xbddb1894	-0.10698047
197	0xbd16072e	-0.03662794
198	0xbcebf3b8	-0.028802738
199	0xbd981735	-0.074263014
200	0xbce08d26	-0.027411055
201	0xbdf22218	-0.11822909
202	0xbda394e0	-0.0798738
203	0xbdfae2e3	-0.122503065
204	0xbdabc982	-0.08388044
205	0x3c8b4ac1	0.017003419
206	0xbcbc10c7	-0.022957219
207	0x3d3a1fda	0.045440532
208	0xbdbd03d5	-0.092292465
209	0x3cac01cb	0.020996949
210	0x3db1d1c4	0.08682588
211	0x3dac2232	0.0840496
212	0xbbb6094c	-0.0055553075
213	0xbde38f39	-0.11111302
214	0x3c43b96a	0.011946062
215	0xbe256ddd	-0.16155191
216	0xbdabf863	-0.083969854
217	0xbde8d1cc	-0.113681406
218	0xbdb3348c	-0.08750257
219	0xbcc53f27	-0.024077965
220	0xbcf4dd5b	-0.029890707
221	0xbe02856e	-0.12746212
222	0xbb161065	-0.0022897955
223	0x3d4885c9	0.048955712
224	0xbe27d225	-0.16388758
225	0xbd099160	-0.033585906
226	0x3d0cb401	0.034351353
227	0xbd89f69d	-0.06736491
228	0x3e001297	0.12507091
229	0x3e15088f	0.14554046
230	0x3d091710	0.03346926
231	0xbd0ddbbd	-0.034633387
232	0x3cb86b6a	0.022512157
233	0x3d973a0a	0.07384117
234	0xbd91bebd	-0.071164586
235	0xbdb169e1	-0.08662773
236	0xbe0e6273	-0.13904743
237	0xbe448ae2	-0.19193605
238	0x3d82ca77	0.06386273
239	0xbd3421a3	-0.04397739
240	0xbd89fd15	-0.06737725
241	0xbcf4e4ff	-0.02989435
242	0xbe0ec026	-0.13940486
243	0xbdafcc64	-0.08583906
244	0xbe0d696d	-0.13809748
245	0xbd3ca454	-0.046055153
246	0xbceda919	-0.029011296
247	0xbdd378f0	-0.10325801
248	0x3d4d413d	0.050111044
249	0x3ce7daf6	0.02830265
250	0xbe23a5e1	-0.15981247
251	0xbe769d6d	-0.2408349
252	0x3df727d0	0.120681405
253	0xbe134705	-0.1438256
254	0xbd597465	-0.053089518
255	0xbb99028d	-0.0046694935

critic.0.bias f4 [64]
0	0xbe10870e	-0.1411402
1	0x3cf3bdb6	0.029753547
2	0xbe061028	-0.130921
3	0xbbb1aa01	-0.0054218774
4	0xbd52d690	-0.051474154
5	0x3d01727a	0.031603314
6	0xbd4182d4	-0.047243908
7	0xbe330b80	-0.17484856
8	0xbe2e42ca	-0.17017666
9	0x3c1554d9	0.009114468
10	0xbd857cb1	-0.065179236
11	0xbd5a2e1f	-0.05326664
12	0xbe0def07	-0.13860713
13	0xbdbea77f	-0.09309291
14	0xbd912894	-0.07087818
15	0xbdc2d963	-0.095141195
16	0xbe1ecd79	-0.15508069
17	0xbd9ad709	-0.07560546
18	0xbd9be7d5	-0.07612578
19	0x3db9440b	0.09046181
20	0xbd93d6b8	-0.07218689
21	0xbcafd0cb	-0.021461865
22	0xbcb789f4	-0.022404648
23	0x3d244d7d	0.04011296
24	0xbccd0b85	-0.025029907
25	0xbde8fff1	-0.11376942
26	0xbdeb5086	-0.11489968
27	0xbc0a0b0c	-0.008425485
28	0xbce0662a	-0.027392466
29	0x3ce4c67d	0.027926678
30	0x3e9ad8e4	0.302436
31	0x3d980c38	0.074242055
32	0xbe0d876b	-0.13821189
33	0xbc052919	-0.008127474
34	0xbdac6c56	-0.08419101
35	0xbc256821	-0.010095627
36	0xbd458c4b	-0.048229497
37	0x3de9c383	0.11414244
38	0xbd87e78f	-0.06635963
39	0xbbfa48c9	-0.007638071
40	0xbe03e8b7	-0.12881742
41	0xbd8537e5	-0.06504802
42	0xbdc8b0ff	-0.09799384
43	0xbe040c2e	-0.12895271
44	0xbe0496d5	-0.12948163
45	0xbdb3e297	-0.08783453
46	0xbd064cf0	-0.032788217
47	0x3d5288eb	0.051400106
48	0x3e717b99	0.23582305
49	0xbce69999	-0.028149413
50	0xbcb871ec	-0.02251526
51	0xbdff1fb1	-0.124572165
52	0x3e02d2f4	0.12775785
53	0xbde2d48d	-0.11075697
54	0xbe0b27a8	-0.13589346
55	0xbe33af5e	-0.17547366
56	0xbd994f71	-0.07485855
57	0x3db8828d	0.090092756
58	0xbe3757c0	-0.17904568
59	0xbdaff0c5	-0.08590845
60	0x3e34ee8d	0.17669125
61	0xbd9a242a	-0.07526429
62	0xbde74d22	-0.11294009
63	0xbe2ffe8b	-0.17186944

critic.2.weight f4 [64, 64]
0	0xbcb7030b	-0.022340318
1	0x3e193391	0.14961077
2	0x3d40fd4b	0.04711656
3	0x3c6a6c78	0.0143080875
4	0xbe1b7770	-0.1518228
5	0x3dd51d3c	0.10405967
6	0x3b852d27	0.0040642205
7	0x3e15eb5b	0.14640562
8	0x3e007093	0.12542944
9	0xbe063832	-0.13107374
10	0x3deed644	0.11661962
11	0x3eabdab6	0.335653
12	0xbdb78d11	-0.08962453
13	0x3ec5cad9	0.38631323
14	0xbb749d80	-0.0037325323
15	0x3daa44dd	0.08313916
16	0x3d8a5922	0.06755282
17	0x3deec96f	0.11659514
18	0xbd3c9017	-0.046035852
19	0x3eaf0a2c	0.34187448
20	0xbca15550	-0.019694
21	0xbcac39cd	-0.021023655
22	0x3d8db68f	0.06919586
23	0x3d6bb212	0.057542868
24	0xbdf5b2d2	-0.11996998
25	0x3e1cef8c	0.15325755
26	0xbda90c5f	-0.08254313
27	0x3e087a4b	0.13327901
28	0x3e1cd53b	0.15315716
29	0x3e75a1a7	0.23987447
30	0x3e833e85	0.25633636
31	0xbe1a5b14	-0.15073806
32	0x3ce5160b	0.027964612
33	0xbd767169	-0.06016675
34	0x3d792614	0.06082733
35	0x3a75956d	0.00093682745
36	0xbe2d5c5c	-0.16929764
37	0x3d82db0e	0.063894376
38	0x3d8a0026	0.067383096
39	0xbdeb72c1	-0.11496497
40	0xbd8bc827	-0.068252854
41	0x3de258d3	0.11052098
42	0x3e92ccce	0.2867188
43	0xbdf823bf	-0.12116193
44	0xbd1acc5c	-0.03779255
45	0xbdb442c1	-0.08801795
46	0x3dacf714	0.08445564
47	0xbe038ebe	-0.1284742
48	0x3e9d2363	0.3069106
49	0x3d9d1ed3	0.07671895
50	0xbd7c9009	-0.0616608
51	0x3dbb9871	0.09159935
52	0xbdcd8c41	-0.10036517
53	0xbd60d84e	-0.054893784
54	0x3ddfd3ae	0.109290466
55	0x3ec21125	0.37903705
56	0xbd41eb94	-0.047343805
57	0x3ead7538	0.33878493
58	0xbbc4d4cf	-0.006006814
59	0x3c506447	0.0127192205
60	0xbccfd7dd	-0.025371486
61	0x3e9627f8	0.2932737
62	0x3f0a815a	0.54103625
63	0xbddbb9a6	-0.10728769
64	0xbd11a6a5	-0.035559315
65	0x3c146718	0.009057783
66	0xbc1a679d	-0.009424117
67	0xbcbe2949	-0.023213046
68	0xbdeedb72	-0.116629496
69	0xbd9ee0fe	-0.077577576
70	0xbdb497fb	-0.088180505
71	0x3df0109e	0.117219195
72	0xbd566e3d	-0.052351225
73	0xbe0014fd	-0.12508006
74	0xbdc4857f	-0.09595775
75	0xbe0b0bc6	-0.1357871
76	0xbd0c8795	-0.03430899
77	0xbd958a20	-0.07301736
78	0xbde37a5f	-0.11107325
79	0xbd523aed	-0.051325727
80	0x3da14f15	0.07876412
81	0xbde1d6a4	-0.110272676
82	0xbc5512a5	-0.0130049335
83	0x3dabb07d	0.08383272
84	0x3d82224d	0.063541986
85	0xbd81a7bc	-0.06330821
86	0x3d5c150d	0.053731013
87	0xbd3eac8d	-0.046551276
88	0xbdb3a3c9	-0.08771474
89	0xbdde6397	-0.10858839
90	0xbdadad0f	-0.08480274
91	0x3d16288a	0.036659755
92	0xbbdda3cf	-0.0067639123
93	0xbe00b73e	-0.12569901
94	0xbd90521f	-0.07046913
95	0xbd874687	-0.06605249
96	0x3d668384	0.056277767
97	0x3ceced89	0.02892186
98	0x3c965ba4	0.018354245
99	0xbd312805	-0.043251056
100	0xbc5f91d0	-0.013645604
101	0x3d58ddb5	0.05294581
102	0x3d2230b1	0.039597217
103	0xbd33cd10	-0.043896735
104	0x3e0b86fe	0.13625714
105	0x3d9dd200	0.0770607
106	0x38ebe5ea	0.00011248498
107	0x3d3ffad7	0.04687008
108	0x3d927ec6	0.07153086
109	0xbd08c505	-0.033391017
110	0x3ca8de79	0.020613896
111	0xbdbc1aef	-0.09184825
112	0xbd3ba827	-0.04581466
113	0xbba633e2	-0.005072103
114	0xbdefea10	-0.11714566
115	0x3dcf1c63	0.10112836
116	0xbe058d63	-0.13042216
117	0xbdce1061	-0.10061718
118	0xbccfc998	-0.025364682
119	0x3d87e27e	0.06634997
120	0xbda0ceb5	-0.07851926
121	0xbd50a4fe	-0.0509386
122	0x3d7c2289	0.061556373
123	0xbdecb4a4	-0.11557892
124	0x3de21a52	0.110401765
125	0x3cdcf1d3	0.02697078
126	0x3bf2fe63	0.007415579
127	0xbc025af7	-0.007956258
128	0x3d6ad444	0.05733134
129	0xbdae7a6b	-0.08519443
130	0xbc8d0818	-0.017215773
131	0x3dc45c12	0.095878735
132	0xbd3131e6	-0.043260477
133	0xbccf91b0	-0.025338024
134	0x3c97e573	0.018542027
135	0xbce4928e	-0.027901914
136	0xbdd01905	-0.10161022
137	0xbcd53d43	-0.026030188
138	0xbd7254cd	-0.059162904
139	0xbe38dfd8	-0.1805414
140	0xbc8de466	-0.017320823
141	0xbd9ee2f8	-0.077581346
142	0x3d52766d	0.05138247
143	0xbd23a5ad	-0.039952923
144	0xbdd00eba	-0.10159059
145	0x3e257c14	0.16160613
146	0xbba48ce7	-0.0050216797
147	0xbd7e6042	-0.062103517
148	0x3c864585	0.016390571
149	0x3d4a7647	0.049429204
150	0x3da87869	0.082260914
151	0x3dabf36a	0.08396037
152	0xbd72dd49	-0.059293065
153	0x3d1f379d	0.038871396
154	0x3d47ce52	0.048780747
155	0xbde45558	-0.111490905
156	0x3d3b579b	0.045737844
157	0xbe038332	-0.12843016
158	0x3db97fdb	0.090575896
159	0xbe0ef9bd	-0.13962455
160	0x3d244aca	0.040110387
161	0xbd46cb3b	-0.04853366
162	0x3c9698fe	0.0183835
163	0xbd087cd4	-0.03332217
164	0x3c0e3186	0.0086787995
165	0xbd7dc904	-0.06195928
166	0x3b889497	0.004168104
167	0xbd8d685b	-0.0690467
168	0x3d701e64	0.058622733
169	0x3c7830d5	0.015148361
170	0xbcfeb5ba	-0.031092513
171	0xbd858436	-0.06519358
172	0x3aa07dc8	0.0012244517
173	0xbe04c9fb	-0.12967674
174	0x3b4eee81	0.0031575265
175	0x3d60bb42	0.054866083
176	0x3d0b671f	0.03403389
177	0xbd463731	-0.04839248
178	0x3cb6d68b	0.022319099
179	0x3d8186b4	0.06324521
180	0x3c50dc95	0.012747903
181	0xbc9b541b	-0.018961003
182	0x3d092495	0.033482153
183	0xbcce1894	-0.025158204
184	0xbb52bc01	-0.0032155516
185	0xbd48e416	-0.049045645
186	0xbde25e0a	-0.11053093
187	0xbdcd8e8e	-0.10036956
188	0xbd5d02a3	-0.053957593
189	0xbdb92080	-0.09039402
190	0x3daa6b7e	0.08321284
191	0xbe48aa3c	-0.1959619
192	0xbb8ca990	-0.0042926744
193	0xbb555073	-0.0032549172
194	0xbdc24bde	-0.09487127
195	0xbdac8929	-0.08424599
196	0xbd364ad4	-0.044504955
197	0xbe323fd8	-0.17407167
198	0x3d972a7d	0.07381151
199	0xbcf7f2ae	-0.030267086
200	0x3e193c9f	0.14964531
201	0xbe9c50bc	-0.30530345
202	0x3e2ed17d	0.17072101
203	0x3d2c5ce3	0.04208077
204	0x3d8f3e8d	0.069943525
205	0x3d9e2503	0.07721903
206	0x3e0a7a0c	0.1352312
207	0x3e71bdd5	0.23607571
208	0x3d3cb336	0.046069346
209	0xbca9e1df	-0.020737587
210	0xbdd9b8b8	-0.106309354
211	0x3e94c5b1	0.29057077
212	0x3de5a2fa	0.11212726
213	0x3dfae064	0.1224983
214	0xbda507cc	-0.08058128
215	0xbd13f615	-0.036123354
216	0xbd928a05	-0.071552314
217	0xbc768965	-0.015047406
218	0x3d7d18be	0.061791174
219	0x3e6c167c	0.23055452
220	0x3e2d18e1	0.16904022
221	0x3da6e6f0	0.081495166
222	0x3edd5141	0.43226054
223	0xbdc6bce0	-0.09703994
224	0x3d785e78	0.060636967
225	0x3e09e10d	0.13464756
226	0x3c984c09	0.018590944
227	0xbda1862f	-0.078869216
228	0xbb8991a3	-0.0041982695
229	0xbe97a775	-0.29619947
230	0xbd9e5ce6	-0.07732563
231	0x3c9255a0	0.017863095
232	0xbd86e23c	-0.065861195
233	0xbd06a73b	-0.032874327
234	0x3e5826b4	0.21108514
235	0xbd4a846b	-0.04944269
236	0xbd519214	-0.0511647
237	0x3e009a8f	0.1255896
238	0xbd4178fc	-0.04723452
239	0xbe51c6be	-0.2048597
240	0x3e388270	0.18018508
241	0x3d0a4ced	0.03376477
242	0xbd0647cb	-0.03278331
243	0xbdb029b7	-0.086017065
244	0x3cff5587	0.031168712
245	0xbd44364c	-0.047903344
246	0x3c427f71	0.011871205
247	0x3f1056e9	0.56382614
248	0xbe565226	-0.20929775
249	0x3ed074f4	0.40714228
250	0xbc87de3c	-0.016585462
251	0xbe0d6a71	-0.13810135
252	0xbe3a3b96	-0.18186793
253	0x3ddcd60c	0.10783014
254	0x3f14a2af	0.58060735
255	0x3d1f3968	0.038873106

critic.2.bias f4 [64]
0	0x3d30968e	0.04311233
1	0xbdcbac1d	-0.099449374
2	0xbd548e42	-0.05189348
3	0xbc2fbbfe	-0.010725973
4	0xbdce1c75	-0.100640215
5	0xbddb3bac	-0.10704741
6	0xbd25b36f	-0.040454324
7	0xbe12db7d	-0.1434154
8	0xbde4f04a	-0.11178644
9	0xbdcdae70	-0.10043037
10	0xbd1ae734	-0.03781815
11	0x3c064a53	0.008196431
12	0x3c3c7ba2	0.011504086
13	0x3bcd734d	0.0062698484
14	0xbdb9b27c	-0.09067246
15	0xbdde1f91	-0.108458646
16	0xbdefd43e	-0.11710404
17	0xbe3d8a28	-0.18509734
18	0x3dfa039e	0.12207721
19	0xbda27e4e	-0.07934247
20	0x3d939eb7	0.07208007
21	0x3cf25206	0.029580127
22	0xbd04c19b	-0.0324112
23	0xbe43c1cf	-0.19116901
24	0xb8e92b08	-0.00011118321
25	0xbe30c9df	-0.17264508
26	0xbdb54eea	-0.08852942
27	0xbe1d0d28	-0.1533705
28	0xbcd44387	-0.025911106
29	0x3b0b94f4	0.00212985
30	0xbbcc41df	-0.0062334384
31	0xbd04e798	-0.032447428
32	0xbde72b53	-0.1128756
33	0xbdfa50f9	-0.122224756
34	0x3d51f973	0.051263284
35	0xbd6eb5be	-0.05827879
36	0xbdb43752	-0.08799614
37	0xbe2c7a03	-0.16843419
38	0xbdd16756	-0.10224788
39	0xbd981856	-0.07426517
40	0xbdc2e37c	-0.095160455
41	0xbdfb8715	-0.12281624
42	0xbd88f093	-0.06686511
43	0xbc9efd7f	-0.019407986
44	0xbd3d728c	-0.04625182
45	0x3e7061ef	0.23474859
46	0xbe13c054	-0.14428836
47	0xbd19ea73	-0.037577104
48	0xbd15cc98	-0.03657207
49	0xbcb9506d	-0.022621358
50	0x3c4dbdfe	0.012557505
51	0xbdcfe808	-0.10151678
52	0xbd7d3a3e	-0.061823122
53	0xbe3ce23d	-0.18445678
54	0xbd6c25b5	-0.057653148
55	0xbd95d83f	-0.07316636
56	0xbccaacc2	-0.02474058
57	0xbc409338	-0.01175385
58	0xbc4f88e4	-0.012666915
59	0xbdc1acfb	-0.094568215
60	0xbdf15f92	-0.11785807
61	0xbd1decf9	-0.038556073
62	0xbe2581b3	-0.16162758
63	0xbe0124e6	-0.12611732

critic.4.weight f4 [1, 64]
0	0xbe0eb027	-0.13934384
1	0x3c05af62	0.00815949
2	0x3cfa5073	0.03055594
3	0xbdd3311f	-0.103121035
4	0xbd90aea1	-0.07064558
5	0xbe9f5922	-0.3112269
6	0x3cb27efc	0.021789066
7	0x3db84a25	0.08998517
8	0x3c750059	0.014953696
9	0xbed01999	-0.4064453
10	0xbb131853	-0.0022444918
11	0x3c895c5d	0.016767675
12	0xbca02356	-0.0195481
13	0x3c933820	0.017971098
14	0xbc1a2834	-0.009408999
15	0xbd0f4942	-0.034981973
16	0x3d3c3f59	0.04595885
17	0xbe76e4d8	-0.24110734
18	0xbc5542ed	-0.013016445
19	0x3c9466a3	0.018115347
20	0x3d47fcf9	0.048825238
21	0xbd4599ab	-0.048242252
22	0xbe1d1ba1	-0.15342571
23	0xbcdfc13e	-0.027313825
24	0x3c91e885	0.01781107
25	0xbd14c247	-0.03631809
26	0x3c626f94	0.013820548
27	0xbe7adcc5	-0.2449828
28	0xbc3b6ec0	-0.011439979
29	0xbd2c7da9	-0.042112026
30	0xbcd67f9d	-0.026183898
31	0x3d09113a	0.033463694
32	0x3d784056	0.06060823
33	0x3d808aba	0.0627646
34	0x3c55106b	0.013004403
35	0x3bfee01f	0.007778182
36	0x3bdb66ca	0.006695603
37	0xbe7b780f	-0.24557517
38	0xbe43ccc1	-0.19121076
39	0x3b939381	0.004503668
40	0x3a0f3dc6	0.0005464222
41	0x3d2a87f7	0.041633572
42	0x3d69f910	0.05712229
43	0x3c7b7c7e	0.0153495055
44	0xbd0d09c9	-0.03443316
45	0x3df73c0a	0.120719984
46	0x3c4f79d1	0.012663321
47	0x3d03f260	0.03221357
48	0xbd8b6302	-0.068059936
49	0xbd1063be	-0.03525137
50	0xbe085028	-0.13311827
51	0x3db0868b	0.08619412
52	0x3d8a8330	0.06763303
53	0xbe97d811	-0.29657033
54	0xbc00de9e	-0.007865576
55	0xbeb8dee3	-0.3610755
56	0xbb89cc8c	-0.004205292
57	0x3a2e977b	0.00066601456
58	0xbe0da24a	-0.1383144
59	0xbe6239f7	-0.22092424
60	0xbd18723e	-0.037218325
61	0x3bc35fd5	0.005962352
62	0xbdc6e7d1	-0.09712184
63	0xbcd4a3f1	-0.02595708
