CybORG/CybORG/Models/meander_train/90000.pth (torch, 78565 bytes, 11 tensors)

actor.0.weight f4 [64, 62]
0	0x3e65e4f4	0.2245062
1	0xbea93b69	-0.3305314
2	0xbeb7af18	-0.35875773
3	0xbe99f7c1	-0.30071834
4	0x3d27e91d	0.0409938
5	0x3ed5a2b7	0.41725704
6	0x3ecc021c	0.3984536
7	0x3f59cff3	0.8508293
8	0xbc3ee1bd	-0.0116505
9	0x3e946cea	0.28989345
10	0x3dcbe640	0.09956026
11	0x3f18eb21	0.5973378
12	0x3e22b498	0.15889204
13	0xbe9045cc	-0.2817825
14	0xbe0d1bf4	-0.13780195
15	0xbec8340f	-0.39102218
16	0x3e19aeec	0.15008134
17	0x3e30885d	0.17239518
18	0xbdb05477	-0.086098604
19	0x3c0cf378	0.008602969
20	0xbd07b11b	-0.033127885
21	0x3d30c2c0	0.043154478
22	0xbcd61c86	-0.026136648
23	0x3e1ad515	0.15120347
24	0xbc0f946c	-0.008763414
25	0xbd9b5688	-0.07584864
26	0x3deb82cf	0.11499559
27	0xbe1b4bd0	-0.15165639
28	0xbedce6b9	-0.43144777
29	0x3d97dae2	0.074147955
30	0xbd4c361a	-0.049856283
31	0x3e91f4cd	0.2850708
32	0x3db95522	0.09049441
33	0x3db4dece	0.08831559
34	0xbdb5b6b9	-0.08872742
35	0xbdd475fa	-0.10374065
36	0xbed84813	-0.42242488
37	0xbe762670	-0.240381
38	0x3f056f42	0.5212289
39	0x3ee62fa6	0.44958228
40	0x3e1dbfdd	0.15405221
41	0xbeaeb7f8	-0.34124732
42	0x3e24678f	0.1605513
43	0xbdbe81c4	-0.093020946
44	0xbe3ecc0c	-0.18632525
45	0xb9b739a1	-0.00034947417
46	0x3c1bbd9b	0.009505655
47	0x3e28d356	0.16486868
48	0xbee9697d	-0.45588294
49	0xbeddcb11	-0.4331899
50	0x3f1ea15f	0.6196498
51	0x3f08c8cb	0.53431386
52	0x3e4f4e47	0.20244704
53	0x3d830529	0.063974686
54	0x3d7ed373	0.062213372
55	0x3d276293	0.040865492
56	0x3e63241f	0.22181748
57	0xbdc32d8c	-0.09530172
58	0xbd9f7564	-0.07786062
59	0xbd3cae88	-0.046064883
60	0x3d705ca4	0.0586821
61	0x3d3573dc	0.044299945
62	0x3df8d70a	0.121503904
63	0xbe9caf25	-0.30602375
64	0xbe1fd3fb	-0.15608208
65	0xbea1aa79	-0.31575373
66	0x3d7ee7d2	0.0622328
67	0x3e2e6148	0.17029297
68	0x3dea4ef4	0.1144084
69	0x3ee745c2	0.45170408
70	0x3e81ee99	0.25377348
71	0x3e8f4d96	0.2798888
72	0x3e812c4a	0.25229102
73	0x3f52e022	0.8237325
74	0x3e88bc52	0.26706177
75	0x3be64da6	0.0070282994
76	0x3eb0c140	0.34522438
77	0xbe75b562	-0.23994973
78	0x3e03f4df	0.1288638
79	0x3d1001b9	0.035157893
80	0xbdf265d5	-0.11835829
81	0x3da4fac9	0.08055646
82	0x3cd2ac85	0.02571703
83	0xbe3cbef2	-0.18432215
84	0x3cc2bb23	0.023770874
85	0xbd2058c3	-0.03914715
86	0xbc44866b	-0.011994938
87	0xbd92d5a4	-0.07169655
88	0x3d480b12	0.048838682
89	0xbdf44573	-0.11927309
90	0xbe3bedc7	-0.18352424
91	0x3e879ca7	0.26486704
92	0xbce17f79	-0.027526604
93	0x3d8522d7	0.06500786
94	0xbe95de7e	-0.2927131
95	0xbe0a3276	-0.13495812
96	0x3d81deb6	0.06341307
97	0x3d895f33	0.06707611
98	0xbe9cd8fc	-0.30634296
99	0xbe7ff700	-0.24996567
100	0x3ec23fec	0.37939394
101	0x3f0e076f	0.5548009
102	0x3dbca99f	0.0921204
103	0xbe422c77	-0.18962274
104	0xbed748b8	-0.42047668
105	0xbf24e407	-0.6441044
106	0xbe6cb42e	-0.23115608
107	0xbe4f9fa8	-0.20275748
108	0x3d61a6e3	0.055090796
109	0xbdc9dc7c	-0.09856507
110	0xbe6d2ff4	-0.23162824
111	0x3e1a2217	0.15052067
112	0xbe6ea42e	-0.23304817
113	0xbe2a4d75	-0.1663111
114	0x3e0774b0	0.13228106
115	0xbdf41c2a	-0.11919434
116	0xba954361	-0.0011387878
117	0xbd2dd595	-0.042440016
118	0x3e9568cf	0.29181525
119	0xbbfe2888	-0.0077562965
120	0xb9e4fb40	-0.00043674745
121	0xbd26ad24	-0.040692464
122	0xbde174f5	-0.11008636
123	0x3bcc11d0	0.0062277094
124	0x3d1ff41f	0.03905117
125	0xbe13f354	-0.14448291
126	0xbe006bee	-0.12541172
127	0xbdde625c	-0.10858604
128	0x3dc90127	0.09814673
129	0xbe824a54	-0.25447333
130	0xbeba7620	-0.36418247
131	0xbf19b8c9	-0.60047585
132	0x3de2f537	0.11081927
133	0xbe528eed	-0.20562334
134	0x3e6d6b1a	0.23185387
135	0xbeb4d1f8	-0.35316443
136	0xbe61182c	-0.21981877
137	0x3d838c63	0.06423261
138	0x3e35c06c	0.17749184
139	0x3d2fb796	0.04289969
140	0x3dc072b5	0.09396879
141	0x3e21353a	0.1574296
142	0x3df6f05c	0.12057564
143	0x3c3b8da8	0.011447348
144	0xbe27b7de	-0.16378734
145	0xbdaff0e8	-0.08590871
146	0x3db119d4	0.086475044
147	0x3dff3c0f	0.12462627
148	0xbdab760a	-0.083721235
149	0xbd6b3b31	-0.057429496
150	0xbdf3695f	-0.11885332
151	0xbd4ef13a	-0.05052302
152	0xbecd110e	-0.40052074
153	0x3d9c0794	0.07618633
154	0x3d555c1e	0.052089803
155	0xbe0cb19d	-0.13739629
156	0x3e694a0e	0.22782156
157	0xbd70fa32	-0.058832355
158	0xbcdbf2b6	-0.026849132
159	0xbda7ee2c	-0.081997246
160	0xbdaf9074	-0.08572474
161	0xbd0e2240	-0.034700632
162	0xbf064b09	-0.52458245
163	0xbf0be5bc	-0.5464742
164	0xbc9cc53a	-0.019137014
165	0x3e3d43ff	0.1848297
166	0xbeabf5e0	-0.33586025
167	0xbee7762b	-0.45207343
168	0x3ef6e076	0.48218125
169	0x3ec8bb6b	0.3920549
170	0x3e38c894	0.18045264
171	0xbe6dd1c2	-0.23224548
172	0x3eb6d3bc	0.35708416
173	0x3dc6391a	0.0967886
174	0xbe25c068	-0.16186678
175	0x3d5ed7d8	0.054405063
176	0x3dbab0e5	0.09115771
177	0xbdebbe90	-0.11510956
178	0xb981cc8a	-0.0002475719
179	0xbd9faf29	-0.07797081
180	0x3c51dd60	0.012809128
181	0x3c6fcb40	0.014635861
182	0x3e067729	0.13131393
183	0x3bd536c4	0.0065067727
184	0x3df6e1c8	0.12054783
185	0x3df3f71a	0.11912365
186	0x3cf76792	0.030200753
187	0x3d65773d	0.056021918
188	0x3c410d89	0.011783012
189	0xbc4d5003	-0.012531283
190	0x3d943052	0.07235779
191	0x3eea57d5	0.45770136
192	0x3e188413	0.14894132
193	0x3eec7d00	0.46189117
194	0xbea18799	-0.31548765
195	0xbe69432f	-0.22779535
196	0xbe741d65	-0.23839338
197	0xbf23619b	-0.6382081
198	0xbe4f75a7	-0.20259725
199	0x3d9df3e8	0.07712537
200	0x3d280273	0.04101796
201	0x3e03d8aa	0.1287562
202	0xbe1e0c06	-0.15434274
203	0xbe00d6f8	-0.12582004
204	0xbd970724	-0.07374409
205	0x3d938e9b	0.07204934
206	0xbd7309af	-0.059335407
207	0x3dd8447e	0.10559939
208	0x3d3c1b05	0.045924205
209	0x3c1c0173	0.00952183
210	0xbd21d26b	-0.03950731
211	0xbcfc52cb	-0.030801198
212	0x3c828887	0.015934242
213	0xbd867628	-0.06565505
214	0xbe218f33	-0.15777282
215	0x3e20fc0c	0.15721148
216	0x3d137742	0.036002405
217	0x39fb29df	0.00047905647
218	0x3d5be6b4	0.053686813
219	0xbd7c5d73	-0.061612558
220	0xbc156984	-0.009119395
221	0x3dafcf93	0.085845135
222	0x3f24b5da	0.64339983
223	0x3edd0fda	0.43176156
224	0xbebff31c	-0.37490165
225	0xbed45d94	-0.41477644
226	0xbcc07c1a	-0.023496676
227	0x3cb090ff	0.021553515
228	0x3d71c5d6	0.05902656
229	0x3f24200a	0.6411139
230	0x3d0cb230	0.03434962
231	0x3e397572	0.18111208
232	0xbdd5b28b	-0.10434445
233	0x3efff487	0.49991247
234	0xbe4f58a5	-0.20248659
235	0xbe9e37a4	-0.30901825
236	0x3ec66203	0.38746652
237	0x3e9e8122	0.30957896
238	0xbe049aa6	-0.12949619
239	0x3e0a5516	0.1350902
240	0xbd988f1f	-0.07449173
241	0xbba0c53a	-0.0049063237
242	0x3c9d2e75	0.019187192
243	0x3d8d73ad	0.06906829
244	0x3e59bc78	0.21263301
245	0xbc6a9a80	-0.014319062
246	0x3e56cd03	0.20976643
247	0x3c870402	0.016481403
248	0x3d1a31dd	0.03764521
249	0x3e10c5ac	0.14137906
250	0xbdbf2e5c	-0.09335014
251	0x3dfdc341	0.12390757
252	0x3d081d38	0.03323099
253	0x3ea6762b	0.3251203
254	0x3e5c517a	0.21515456
255	0x3ed9fc50	0.42575312

actor.0.bias f4 [64]
0	0xbcfb9818	-0.030712172
1	0x3d9da698	0.07697791
2	0x3c3b0db6	0.011416843
3	0x3dbd8170	0.09253204
4	0xbd8beb2c	-0.06831965
5	0xbd3a1318	-0.045428365
6	0x3d4c2240	0.04983735
7	0xbd75e686	-0.060034297
8	0x3d6df72c	0.05809705
9	0xbd09ef9e	-0.033675782
10	0xbabe00b2	-0.0014496057
11	0xbd930a17	-0.07179659
12	0xbc6cfd42	-0.014464678
13	0x3dd187b1	0.10230959
14	0xbde459b8	-0.11149925
15	0x3d85919b	0.06521913
16	0xbe083d81	-0.13304712
17	0xbd06eccd	-0.032940675
18	0xbda312c5	-0.079625644
19	0xbdd84527	-0.10560065
20	0xbd5a9c7d	-0.053371895
21	0xbd270004	-0.0407715
22	0x3ddbba82	0.10728933
23	0xbe0eaf88	-0.13934147
24	0x3c2dc0d8	0.01060506
25	0x3e134227	0.14380704
26	0x3e037e9f	0.12841271
27	0x3dc74117	0.09729212
28	0x3da7f989	0.08201892
29	0xbd3a3322	-0.04545892
30	0xbd1abf8e	-0.037780337
31	0x3e1f10d5	0.15533765
32	0x3d70eb19	0.058817957
33	0xbe0a45f1	-0.13503243
34	0x3e0f963b	0.14022152
35	0xbdc821dc	-0.09772083
36	0x3e549861	0.20761253
37	0x3db1191b	0.086473666
38	0xbbfc3d17	-0.007697712
39	0xbe37d711	-0.17953135
40	0x3e20f6aa	0.15719095
41	0x3dfd6309	0.12372405
42	0x3cc9149e	0.024545964
43	0x3cf16029	0.029464798
44	0x3d862c7a	0.06551452
45	0x3e5cafbb	0.21551411
46	0x3d1e0fc4	0.038589254
47	0x3d116a30	0.03550166
48	0x3dd20fc2	0.10256912
49	0xbc841fdd	-0.016128475
50	0x3e501d5a	0.20323697
51	0xbd7d1dca	-0.061795987
52	0xbe29b395	-0.16572411
53	0x3d5e1518	0.054219335
54	0x3e496d45	0.1967059
55	0x3e234ea3	0.15947966
56	0x3e0de43e	0.13856599
57	0x3d85bb94	0.06529918
58	0xbe1267ae	-0.14297363
59	0x3c851c52	0.016248856
60	0x3bdccdb0	0.006738387
61	0xbd8d9a2b	-0.06914171
62	0xbc973595	-0.018458167
63	0xbd5af528	-0.053456455

actor.2.weight f4 [64, 64]
0	0xbe1a79f3	-0.15085582
1	0xbe12251f	-0.14271973
2	0x3d60be7c	0.05486916
3	0xbde6ffce	-0.112792596
4	0x3c51f364	0.0128143765
5	0x3dc47425	0.09592465
6	0xbd0343b5	-0.032046992
7	0xbe0304f2	-0.12794855
8	0xbe161fd7	-0.14660583
9	0x3ca2d28a	0.019875783
10	0xbdce8b99	-0.1008522
11	0xbd65e8ab	-0.056130093
12	0xbcbd44ae	-0.023104038
13	0xbd68bf55	-0.056823093
14	0x3d15c327	0.036563065
15	0xbd1f1666	-0.03883972
16	0xbd944cc3	-0.07241204
17	0xbd323160	-0.04350412
18	0x3da0880e	0.0783845
19	0xbe0da6f2	-0.13833216
20	0x3c408d33	0.0117524145
21	0xbc904d46	-0.017614972
22	0xbcbc7a23	-0.023007458
23	0xbd51af98	-0.05119285
24	0xbddb3601	-0.1070366
25	0xbcb020d9	-0.021500038
26	0xbd9b793d	-0.07591484
27	0x3d25541a	0.04036341
28	0xbd81b678	-0.06333631
29	0x3ce694b1	0.028147073
30	0x3d94fa61	0.072743185
31	0x3d549788	0.051902324
32	0xbd0e8a53	-0.034799885
33	0x3d651adf	0.05593383
34	0xbdf14480	-0.117806435
35	0xbe07dcbb	-0.13267796
36	0xbccf8903	-0.025333887
37	0xbe062efe	-0.13103864
38	0xbe1b3e89	-0.15160574
39	0x3d76bebc	0.060240492
40	0x3de64197	0.11242979
41	0xbd506b4b	-0.050883573
42	0xbc99f3fe	-0.018793102
43	0xbd924ee8	-0.071439564
44	0xbba415d2	-0.005007484
45	0x3ce17f88	0.027526632
46	0xbc3ec5e8	-0.011643864
47	0x3dbbd6da	0.09171839
48	0xbdccf585	-0.10007767
49	0xbc925e6f	-0.017867295
50	0xbd4817e3	-0.048850905
51	0x3db881bc	0.0900912
52	0x3de22885	0.11042885
53	0x3c94a560	0.018145263
54	0x3de43dea	0.11144622
55	0xbd6a9f60	-0.057280898
56	0xbe78f300	-0.24311447
57	0xbdcdc21c	-0.10046789
58	0xbd03ee2e	-0.032209568
59	0xbdfdf94d	-0.12401066
60	0x3c26f581	0.010190369
61	0xbd54a49f	-0.051914807
62	0x3cb313c8	0.021860018
63	0xbe15ed3e	-0.14641282
64	0xbd020633	-0.031744193
65	0xbd9ca64d	-0.07648907
66	0xbdd59b21	-0.10429979
67	0x3d869b7f	0.06572627
68	0xbda35eb6	-0.07977049
69	0xbdd19cc5	-0.102349795
70	0xbdb19114	-0.086702496
71	0xbe1adb45	-0.15122707
72	0x3d621c7d	0.05520295
73	0x3d7a77c3	0.06114937
74	0x3c3d7b60	0.011565059
75	0xbba75057	-0.005106013
76	0xbe13caea	-0.14432874
77	0xbdec60be	-0.115418896
78	0xbe0b8b0e	-0.13627264
79	0xbe2c326d	-0.16816111
80	0xbe52c853	-0.2058423
81	0x3ddefdea	0.10888274
82	0x3cbb8aca	0.022893328
83	0xbcb7e569	-0.022448258
84	0xbe0cc7ed	-0.1374814
85	0xbd2ba072	-0.04190106
86	0xbd4cca13	-0.0499974
87	0xbdfa9a6d	-0.12236486
88	0x3d0211df	0.031755324
89	0x3d461faa	0.04837004
90	0xbe00e342	-0.12586692
91	0x3da826f7	0.08210557
92	0xbcc1d3f1	-0.023660632
93	0xbc380aaf	-0.011233016
94	0xbe38598a	-0.18002906
95	0xbd51f2a3	-0.051256787
96	0xbdf892c7	-0.121373706
97	0xbe4a13c0	-0.19734097
98	0xbdcbe4f8	-0.09955782
99	0xbd9a13fa	-0.075233415
100	0xbda61c1b	-0.081108294
101	0xbe1bc0ca	-0.15210262
102	0x3ce68a9b	0.028142264
103	0x3bd17e74	0.006393248
104	0xbe0dcbe1	-0.13847305
105	0xbc85024b	-0.016236445
106	0xbc57cd52	-0.013171511
107	0x3d84df2d	0.0648788
108	0xbde075dc	-0.1095998
109	0xbcc780ee	-0.02435347
110	0x3d98010c	0.07422075
111	0xbe318cb2	-0.17338827
112	0xbdf203cb	-0.1181713
113	0xbbfa775e	-0.007643624
114	0xbdde9eb9	-0.10870118
115	0xbc5df9c6	-0.01354832
116	0x3e330dfa	0.174858
117	0xbda520e6	-0.080629155
118	0xbe0c6ff0	-0.13714576
119	0x3da76afd	0.08174703
120	0xbdbb49b8	-0.0914492
121	0xbcb76456	-0.022386711
122	0xbc367c57	-0.011138043
123	0xbd6e1f1e	-0.058135144
124	0xbde4862e	-0.11158405
125	0xbd7208a7	-0.059090283
126	0x3c947f27	0.018127037
127	0xbdeec64f	-0.11658918
128	0xbe1597b4	-0.14608651
129	0xbd19102f	-0.03736895
130	0xbc9c2e60	-0.019065082
131	0xba08a370	-0.00052123424
132	0x3dfee1bf	0.124454014
133	0x3e9fb133	0.3118988
134	0xbd97c8ce	-0.07411347
135	0x3d985d3f	0.0743966
136	0x3c00bfbf	0.007858216
137	0x3d8c65e4	0.068553716
138	0x3d8bf483	0.06833746
139	0x3e15afaa	0.14617792
140	0x3c37333a	0.011181647
141	0x3e7ebccd	0.2487671
142	0x3c69d37e	0.014271615
143	0xbd8307b6	-0.06397955
144	0x3de66d28	0.11251289
145	0x3da5e100	0.08099556
146	0x3dc551cd	0.09634743
147	0x3d4c4791	0.04987294
148	0xbe4c9c9b	-0.19981615
149	0x3c48b92b	0.012251179
150	0xbd176af0	-0.036967218
151	0x3e3fc4b4	0.1872738
152	0x3cdc2bab	0.026876291
153	0xbdafa611	-0.085765965
154	0xbbd156f8	-0.0063885413
155	0x3e0f8a96	0.1401771
156	0x3e8c9963	0.27460775
157	0x3d8145ca	0.06312139
158	0x3e8622e3	0.2619849
159	0x3c2c1014	0.01050188
160	0xbd28d84e	-0.04122191
161	0x3e529dd4	0.20568019
162	0xbd286c94	-0.041119173
163	0x3e61ff96	0.22070155
164	0xbe930c0f	-0.28720137
165	0x3d1c0227	0.03808799
166	0x3dc23957	0.09483593
167	0xbdf9b271	-0.12192238
168	0x3d97b65b	0.074078284
169	0x3d515305	0.051104564
170	0xbe1683e2	-0.14698747
171	0x3e2ea745	0.17055996
172	0xbe348d3c	-0.17632002
173	0x3c8ef08a	0.017448682
174	0x3cb6f289	0.022332447
175	0x3e0f0101	0.13965227
176	0x3e4fe297	0.20301281
177	0x3de8a783	0.11360075
178	0xbe8a14bf	-0.26968953
179	0x3c89485d	0.016758138
180	0x3d95428b	0.07288083
181	0xbd260213	-0.040529322
182	0xbe3679f9	-0.17819966
183	0xbe0e8bed	-0.13920565
184	0xbd7cbf21	-0.061705712
185	0x3ce55804	0.02799607
186	0x3e0e2bd8	0.13883913
187	0x3eba6eb0	0.36412573
188	0x3dbc2ae9	0.09187872
189	0xbd7bb000	-0.061447144
190	0x3dfd6a75	0.12373821
191	0xbe4de780	-0.20107841
192	0x3d5c82fb	0.05383585
193	0x3d3ba1ec	0.045808718
194	0x3cefe3e4	0.029283471
195	0x3e009db1	0.12560154
196	0xbdd7b8eb	-0.10533317
197	0xbd084edc	-0.03327833
198	0xbdff7d7e	-0.124751076
199	0xbca80f65	-0.020515153
200	0x3d488a25	0.04895987
201	0x3c3c8f4e	0.011508776
202	0xbe293262	-0.16523126
203	0xbdbcaee6	-0.09213047
204	0xbd8f999d	-0.07011721
205	0x3b437354	0.002982338
206	0xbd6ffc6c	-0.058590338
207	0xbe03ed3d	-0.12883468
208	0xbd899f65	-0.06719855
209	0x3d280528	0.041020542
210	0x3d4f2ef4	0.050581887
211	0x3e032f02	0.12810901
212	0xb9c20344	-0.00037004997
213	0x3c8ddeb7	0.017318113
214	0xbda51816	-0.08061235
215	0xbc90afcb	-0.01766195
216	0x3b863846	0.004096064
217	0x3d7cdf86	0.061736606
218	0x3ce1c627	0.027560307
219	0xbdcf34c2	-0.10117485
220	0xbe20c058	-0.15698373
221	0xbe232ad2	-0.15934303
222	0xbdbfba20	-0.093616724
223	0xbcc2cafe	-0.023778435
224	0x3db9c1b3	0.09070148
225	0xbd59b7e5	-0.05315389
226	0x3c515ff3	0.012779224
227	0xbb7000a2	-0.003662147
228	0xbe21a004	-0.15783697
229	0xbe0af502	-0.13570026
230	0x3ca520da	0.020157266
231	0x3d7e4e9d	0.06208669
232	0xbdb61687	-0.088910155
233	0xbd151f05	-0.036406536
234	0xbe13ad2c	-0.14421529
235	0xbcca1951	-0.024670275
236	0x3d0febd6	0.03513702
237	0xbc01d957	-0.007925353
238	0xbd6fe765	-0.058570284
239	0x3cbeba83	0.023282295
240	0xbd3cd00c	-0.046096846
241	0x3d5e2ebb	0.054243784
242	0xbdd8514f	-0.105623834
243	0xbdf8ca0b	-0.12147912
244	0xbdd581a4	-0.104251176
245	0xbdd37156	-0.103243515
246	0x3db30675	0.08741466
247	0xbdeb7b87	-0.1149817
248	0xbe18c801	-0.14920045
249	0x3b29942f	0.0025875678
250	0xbdf09e3a	-0.11748929
251	0xbcce10c9	-0.025154488
252	0xbbae5c0b	-0.005321031
253	0xbd80d7ea	-0.06291182
254	0x3d310bd1	0.04322416
255	0x3d8eacb0	0.06966531

actor.2.bias f4 [64]
0	0xbd6bc89c	-0.057564363
1	0xbc694ac4	-0.014239017
2	0x3d06ce74	0.032911733
3	0xbe32a307	-0.17445002
4	0x3e2d615e	0.16931674
5	0x3e070c3e	0.13188264
6	0xbd3247f8	-0.043525666
7	0x3c949762	0.018138591
8	0xbda2f69f	-0.079571955
9	0x3e05c855	0.13064702
10	0xbdb6b045	-0.089203395
11	0x3e10298f	0.14078353
12	0xbdb30242	-0.08740665
13	0xbdc04821	-0.093887575
14	0x3d3decd8	0.04636845
15	0x3c439006	0.011936193
16	0x3bd4527a	0.0064795585
17	0x3dc500d9	0.09619302
18	0x3ce06923	0.027393883
19	0x3ddc2cf4	0.10750762
20	0xbdbf54e4	-0.093423635
21	0xbbec5be9	-0.007213105
22	0x3cf02807	0.029315962
23	0x3e03d5e6	0.12874565
24	0x3e531fa4	0.20617539
25	0xbb9c9126	-0.004778045
26	0x3e4c424b	0.19947164
27	0xbda0f82a	-0.078598335
28	0xbe616aff	-0.22013472
29	0x3d7db50a	0.06194023
30	0x3d07d0e1	0.033158187
31	0x3d26d28a	0.04072813
32	0xbdb4cf51	-0.08828605
33	0x3da76c1e	0.081749186
34	0xbcf646b3	-0.030063009
35	0x3dba32b8	0.09091705
36	0xbc40eb14	-0.011774797
37	0x3d087965	0.033318896
38	0x3de85c06	0.11345677
39	0xbb26b28c	-0.0025436012
40	0x3c727192	0.014797585
41	0xbe29d407	-0.16584788
42	0x3d420c43	0.047374975
43	0x3c0c90f5	0.008579482
44	0x3dd9d3a3	0.106360696
45	0x3bead9d7	0.007167082
46	0xbdfe3af2	-0.12413587
47	0xbd8e0bde	-0.06935857
48	0xbc75e7c6	-0.015008872
49	0x3d4e3181	0.05034018
50	0x3dc5b329	0.09653313
51	0xbd274d5b	-0.040845256
52	0xbd917d6d	-0.07104001
53	0xbe0a17e0	-0.1348567
54	0x3d5bc271	0.05365223
55	0x3d8e3334	0.0694336
56	0xbd9445c1	-0.07239867
57	0x3da9a6c3	0.082837604
58	0x3d8ad4b7	0.067788534
59	0x3da4d583	0.08048537
60	0x3dadc836	0.08485453
61	0x3da6cc7d	0.08144472
62	0xbcb8cd26	-0.02255876
63	0xbd28eed0	-0.041243374

actor.4.weight f4 [36, 64]
0	0x3c1a0a23	0.009401831
1	0x3cde2c5a	0.027120758
2	0x3c13b9f2	0.009016501
3	0xbd94e982	-0.072711006
4	0xbec19c89	-0.3781474
5	0xbf489ee2	-0.78367436
6	0x3ee3dcc8	0.4450438
7	0x3ee3570a	0.44402343
8	0xbd7f48cc	-0.062325284
9	0x3dd2315e	0.10263322
10	0xbdcc16ec	-0.099653095
11	0x3ea49eec	0.32152498
12	0xbe7398fc	-0.23788828
13	0xbca5785f	-0.020198999
14	0xbdd64d64	-0.1046398
15	0xbbbe6ab2	-0.005811059
16	0x3f1c7b11	0.61125284
17	0xbec3aa8b	-0.3821605
18	0x3e2f76e9	0.17135204
19	0x3ea9f59e	0.33195204
20	0x3c9bf9a3	0.019039935
21	0xbf2021c2	-0.6255151
22	0xbe53d9b0	-0.2068851
23	0xbec0c78d	-0.37652245
24	0xbf3ec38a	-0.7451712
25	0xbd85b062	-0.06527783
26	0xbd307d47	-0.043088224
27	0x3db0159b	0.08597871
28	0x3c31431b	0.010819222
29	0xbf68d972	-0.90956795
30	0x3ec4911c	0.3839196
31	0xbf3e0eda	-0.7424141
32	0xbf2ed5a6	-0.6829475
33	0xbf10fde9	-0.56637436
34	0x3d8056fd	0.06266592
35	0x3dd691ae	0.10477005
36	0xbdcbc7e6	-0.09950237
37	0x3e81db74	0.25362742
38	0x3ea17117	0.31531593
39	0xbf45bc32	-0.7724029
40	0xbe45dd40	-0.19322681
41	0xbd9656b7	-0.07340758
42	0xbf6e7a72	-0.93155587
43	0xbf633a49	-0.8876081
44	0xbe6afd28	-0.22948134
45	0x3eb3a21e	0.35084623
46	0x3b59ff2c	0.0033263667
47	0x3eaf50d3	0.3424135
48	0xbe0655ff	-0.13118742
49	0x3e7f708d	0.24945278
50	0xbf6ad852	-0.9173633
51	0xbf0d6393	-0.55230063
52	0x3db8a72f	0.09016263
53	0xbc8c6efe	-0.017142769
54	0x3ecb3f8f	0.3969693
55	0x3e9ffcb6	0.3124749
56	0xbf8056d7	-1.0026501
57	0xbde34084	-0.1109629
58	0xbf243ceb	-0.64155453
59	0xbf675d06	-0.9037632
60	0xbf6bfb24	-0.92180085
61	0x3d886b7b	0.06661125
62	0x3ab19fba	0.001355163
63	0xbdf071e0	-0.1174047
64	0xbdc3705b	-0.095429145
65	0x3dd585cf	0.104259126
66	0xbdf91e3d	-0.121639706
67	0x3ca9eda9	0.020743208
68	0xbe897f84	-0.268551
69	0xbf26a6b7	-0.65098137
70	0x3e8cecd4	0.27524436
71	0x3e6bcf2a	0.23028246
72	0xbcfab0e9	-0.030601935
73	0x3e8d82dd	0.27638903
74	0x3d196c31	0.037456695
75	0x3eabe854	0.3357569
76	0x3ec31dad	0.38108578
77	0xbdcde607	-0.1005364
78	0x3ebd036c	0.36916673
79	0x3cae9143	0.0213095
80	0xbe860a6f	-0.26179835
81	0x3e46c9a3	0.19412856
82	0xbf45aaf8	-0.77214
83	0xbf14f092	-0.5817958
84	0x3c56456c	0.013078075
85	0x3ee39194	0.44447005
86	0xbe77a747	-0.24184905
87	0xbf8307c3	-1.0236744
88	0xbf8291f8	-1.0200796
89	0x3dedb7c9	0.1160732
90	0x3c92bc9b	0.0179122
91	0x3dc3c931	0.095598586
92	0x3f1d6e4e	0.61496437
93	0xbef5ef36	-0.48034066
94	0xbef6f063	-0.48230276
95	0xbf6bfdc4	-0.9218409
96	0xbda86cde	-0.0822389
97	0xbf4e65c1	-0.80624014
98	0x3e1224fd	0.14271922
99	0xbf41b628	-0.75668573
100	0x3f53abab	0.8268382
101	0x3c371148	0.011173554
102	0x3ebf19aa	0.37324268
103	0xbf77697b	-0.96645325
104	0x3eb8e812	0.36114556
105	0x3cd1f6ba	0.025630344
106	0xbf2b2bc3	-0.6686365
107	0xbf4915d1	-0.78548914
108	0x3dd8e3ea	0.10590346
109	0xbed54573	-0.41654548
110	0xbd325050	-0.043533623
111	0x3e5d1d75	0.21593268
112	0xbf2f46e6	-0.6846756
113	0x3dca3af9	0.098745294
114	0x3e484c29	0.19560303
115	0xbf9692b0	-1.1763515
116	0xbd734d29	-0.059399758
117	0x3ca59bd9	0.020215916
118	0xbf1d1312	-0.61357224
119	0xbee79cd1	-0.4523683
120	0xbf024482	-0.50885785
121	0x3d1bd0a0	0.038040757
122	0xbf5c0cfc	-0.8595731
123	0x3ec96e65	0.39342037
124	0xbe993aa4	-0.29927552
125	0xbed949fe	-0.42439264
126	0x3daa4634	0.083141714
127	0xbd493346	-0.049121164
128	0x3dfd3a1f	0.12364601
129	0xbb364fb8	-0.0027818512
130	0x3d9300fe	0.071779236
131	0xbddbf829	-0.10740692
132	0xbf84d90c	-1.0378737
133	0x3d0485f8	0.032354325
134	0xbd3364cb	-0.043797296
135	0xbe02fb72	-0.12791231
136	0x3cf39315	0.02973322
137	0xbf31e6f6	-0.69493043
138	0x3cceb572	0.025233004
139	0x3edfd71b	0.437188
140	0x3ed43060	0.41443157
141	0xbcc03089	-0.023460643
142	0xbe9cf723	-0.306573
143	0xbdbc1d13	-0.09185233
144	0xbeb9a284	-0.36256802
145	0xbdc8af89	-0.09799106
146	0x3a19c1fa	0.00058653916
147	0x3ea48ac3	0.32137117
148	0x3f01b966	0.5067352
149	0xbf1ca9cd	-0.61196595
150	0x3df44a6a	0.11928256
151	0xbf76ed8d	-0.96456224
152	0xbf88f52c	-1.069982
153	0x3d9fee71	0.07809151
154	0x3cc268f3	0.023731684
155	0x3d9dc1bf	0.0770297
156	0x3f0be029	0.54638916
157	0xbf388f51	-0.72093683
158	0x3ea0d372	0.3141132
159	0xbf5e3c41	-0.8681069
160	0xbe1aa2fd	-0.15101238
161	0xbeab0eb0	-0.33409643
162	0x3e072002	0.13195804
163	0xbe3fcbbf	-0.18730067
164	0xbe10a38b	-0.14124887
165	0xbe87b70e	-0.26506847
166	0x3e3cfbe4	0.18455464
167	0xbee3fe24	-0.4452983
168	0x3ec97e05	0.39353958
169	0x3c1cd15d	0.0095714005
170	0xbf8460a6	-1.0341995
171	0xbe17c120	-0.14819765
172	0x3dc0a5b7	0.094066076
173	0xbe1b4834	-0.15164262
174	0x3e2bdad9	0.16782703
175	0xbe8a4c67	-0.27011415
176	0x3eb64aba	0.35603887
177	0x3ebdb5ba	0.3705271
178	0xbf515eb8	-0.81785154
179	0x3e190656	0.14943823
180	0x3e81629f	0.25270554
181	0xbcc14eed	-0.023597205
182	0xbf2da900	-0.67836
183	0x3ee6b817	0.45062324
184	0xbf566ce1	-0.83759886
185	0xbdc7aa85	-0.09749321
186	0xbf3cb58a	-0.73714507
187	0xbf4d4038	-0.80176115
188	0xbf4a7da4	-0.7909796
189	0x3e28d5b5	0.16487773
190	0x3d50c74b	0.05097131
191	0xbd960a2d	-0.073261596
192	0x3df538e0	0.11973739
193	0x3cd23f1f	0.025664864
194	0xbf1d6591	-0.61483103
195	0xbcfbbe5f	-0.030730424
196	0xbdd327cb	-0.10310324
197	0x3e935831	0.28778222
198	0x3e919970	0.28437376
199	0x3ec4c4b0	0.3843131
200	0xbde10900	-0.10988045
201	0x3e90766a	0.28215343
202	0x3d44f614	0.04808624
203	0x3ee8f47d	0.4549903
204	0xbe86400f	-0.26220748
205	0xbd9027d0	-0.07038844
206	0xbea9df99	-0.33178404
207	0x3d99604d	0.07489071
208	0x3e0e3293	0.1388648
209	0xbefed711	-0.49773458
210	0xbeb565cb	-0.35429224
211	0x3e11dad3	0.14243631
212	0xbf0a7bd5	-0.540952
213	0xbef58d40	-0.47959328
214	0xbee12864	-0.43976128
215	0xbdb42c44	-0.087975055
216	0xbe6b1ea3	-0.22960906
217	0xbe5ee890	-0.21768403
218	0x3e20ac33	0.15690689
219	0x3d16580d	0.036705066
220	0x3dd36850	0.103226304
221	0xbdc7784b	-0.09739741
222	0x3e9357b8	0.28777862
223	0xbe545fcf	-0.20739673
224	0xbefde1ee	-0.49586433
225	0xbeb51213	-0.35365352
226	0xbd9adfe5	-0.07562236
227	0xbf136aad	-0.5758465
228	0xbe4464e5	-0.19179113
229	0xbed2626f	-0.41090724
230	0x3e5f5745	0.21810634
231	0xbc9cc950	-0.019138962
232	0xbe659cf9	-0.22423162
233	0x3d9142ad	0.070927955
234	0xbcfb4760	-0.030673683
235	0x3d61347f	0.054981705
236	0x3e30d51a	0.17268792
237	0xbd458660	-0.048223853
238	0x3e240008	0.16015637
239	0xbebf8482	-0.37405783
240	0xbf3d5099	-0.7395111
241	0xbec070cb	-0.37586054
242	0xbf2043cb	-0.62603444
243	0xbf6251d4	-0.8840611
244	0xbe843975	-0.25825086
245	0x3d98f8cc	0.07469329
246	0xbdb9a826	-0.09065275
247	0xbe31497c	-0.17313188
248	0xbe336908	-0.17520535
249	0xbda88496	-0.08228414
250	0x3d3b1cc6	0.045681737
251	0xbebf2d6a	-0.37339336
252	0xbeec6a8d	-0.46175042
253	0xbe6f6e3a	-0.23381892
254	0xbdc909cc	-0.09816322
255	0xbc93f38a	-0.018060464

actor.4.bias f4 [36]
0	0xbeabb26b	-0.3353456
1	0xbe8bcddc	-0.27305496
2	0xbec77977	-0.38959858
3	0x3e539965	0.20663984
4	0x3db053f2	0.08609761
5	0xbdbc07c2	-0.09181167
6	0x3bc372c6	0.00596461
7	0x3d384425	0.044986863
8	0xbd3e7682	-0.046499737
9	0xbc553b40	-0.013014615
10	0xbd68d021	-0.056839112
11	0x3d6c6cb7	0.057720866
12	0x3e110efe	0.14165875
13	0x3e71e546	0.23622617
14	0x3e9702d9	0.2949436
15	0x3dd50a07	0.10402303
16	0x3c388220	0.011261493
17	0xbdfe2985	-0.12410263
18	0x3b18c4ac	0.0023310585
19	0x3d9e9210	0.07742703
20	0xbec90d62	-0.39268023
21	0x3cae0d1e	0.02124649
22	0x3caec3ff	0.021333693
23	0xbd5acac9	-0.053416047
24	0x3ddac140	0.10681391
25	0x3dbf39f6	0.09337227
26	0x3e4c9d01	0.19981767
27	0xbda70aad	-0.08156333
28	0x3c810056	0.01574723
29	0x3d0dbbbe	0.034602873
30	0x3e2006f6	0.15627655
31	0xbe13f3a0	-0.14448404
32	0x3d2917de	0.041282527
33	0x3e01b577	0.1266688
34	0x3e9c1dad	0.3049139
35	0x3e4316fe	0.1905174

critic.0.weight f4 [64, 62]
0	0x3d549a7e	0.051905148
1	0x3d5bb4dc	0.053639278
2	0xbdc0f184	-0.094210654
3	0xbcde2af5	-0.027120093
4	0xbd636cf5	-0.05552383
5	0xbcdda3a5	-0.02705557
6	0xbc06ecf5	-0.008235206
7	0x3bac9973	0.005267316
8	0xbd99bf73	-0.07507219
9	0xbca91594	-0.020640172
10	0xbd983583	-0.074320816
11	0xbd06fdd1	-0.032956902
12	0xbda77acc	-0.081777185
13	0xbd87de16	-0.066341564
14	0xbde2475f	-0.11048769
15	0xbdde02f9	-0.10840411
16	0xbc0910fe	-0.008365868
17	0xbddd20ab	-0.107972465
18	0xbdf7fe13	-0.12109008
19	0x3d8a6a63	0.06758573
20	0xbdbb4a0c	-0.09144983
21	0x3db6177c	0.08891198
22	0x3c1010d6	0.0087930765
23	0xbd4bb9b7	-0.04973766
24	0x3dac393c	0.08409354
25	0xbde81cda	-0.11333628
26	0x3d7934c0	0.060841322
27	0x3d834cb8	0.06411117
28	0x3da1ca73	0.07899942
29	0xbdf2ddf7	-0.11858743
30	0xbc29b877	-0.010358921
31	0xbcdd3398	-0.02700214
32	0xbdc0fbf2	-0.09423055
33	0x3db1a39a	0.08673783
34	0xbcb73252	-0.022362862
35	0x3d8a1a88	0.06743342
36	0xbd8c0d16	-0.068384334
37	0xbd66b474	-0.056324437
38	0x3ce2830f	0.027650384
39	0xbbb5a4ff	-0.0055433507
40	0x3d9510c4	0.072785884
41	0x3d5de969	0.054177675
42	0x3dd0bafa	0.10191913
43	0xbdddb5d1	-0.10825694
44	0x3ceb1533	0.028696632
45	0x3dc12f61	0.09432865
46	0xbd95d47c	-0.07315919
47	0xbdc9f523	-0.09861209
48	0x3dffed73	0.12496462
49	0xbdd9d0fe	-0.10635565
50	0xbda2ab58	-0.079428375
51	0xbddc125c	-0.10745689
52	0x3c95b1bf	0.018273233
53	0x3c3856d9	0.011251175
54	0xbe0499fa	-0.12949362
55	0x3d545c52	0.051845856
56	0x3c4b16f1	0.012395606
57	0x3ccccb07	0.024999155
58	0xbe11c093	-0.14233617
59	0xbe095e7c	-0.13414949
60	0xbdfaaebb	-0.122403584
61	0xbd8fa195	-0.07013241
62	0xbe0c6660	-0.13710928
63	0xbc465453	-0.012105065
64	0xbe6166f4	-0.2201193
65	0xbd8346d6	-0.06409995
66	0x3e4b9d2e	0.19884178
67	0x3dd3d992	0.103442326
68	0x3da30d5f	0.07961535
69	0xbc1a0ec3	-0.0094029335
70	0xbe9f2a5e	-0.3108701
71	0xbe0e94c4	-0.13923937
72	0xbd5c88a1	-0.053841237
73	0x3e14c7b2	0.14529303
74	0xbd9d1728	-0.07670432
75	0x3e930604	0.28715527
76	0x3e844059	0.25830343
77	0x3eb75519	0.35807112
78	0x3e025f3c	0.12731642
79	0x3e18c0a7	0.14917241
80	0x3d8b91bf	0.06814908
81	0xbcce1383	-0.025155788
82	0xbd09adb4	-0.03361292
83	0xbe00a42d	-0.12562628
84	0x3d88dae2	0.066823736
85	0xbca5e62f	-0.020251362
86	0x3c43e3f7	0.0119562065
87	0x3b5c9db0	0.0033663325
88	0x3da7fc15	0.08202378
89	0xbc8bf0f9	-0.017082678
90	0x3e445cd8	0.19176042
91	0x3f09fe61	0.53903776
92	0x3e8ad4d6	0.27115506
93	0x3f3ad482	0.7298051
94	0xbd794c33	-0.060863685
95	0xbe9dbe16	-0.30809087
96	0x3db6e9b5	0.08931295
97	0x3da97303	0.0827389
98	0x3de38218	0.11108798
99	0xbe453e6d	-0.19262095
100	0x3d4ab7d4	0.04949172
101	0x3e86ac36	0.26303262
102	0xbe8930b7	-0.2679498
103	0x3dcc7303	0.09982874
104	0x3e17b298	0.14814222
105	0xbdc232bc	-0.09482333
106	0x3da75dbd	0.08172176
107	0xbe082508	-0.13295376
108	0xbdeaef4a	-0.11471422
109	0x3e54378e	0.20724317
110	0x3e799643	0.24373727
111	0xbda2e4ec	-0.0795382
112	0xbe2ee2b2	-0.17078665
113	0xbc038910	-0.008028284
114	0xbc5f0423	-0.013611826
115	0xbe18612a	-0.14880815
116	0xbe03e5ec	-0.12880677
117	0xbd98fd79	-0.07470221
118	0x3e10a19b	0.14124148
119	0x3d6b4097	0.057434645
120	0x3dbad8c6	0.091233775
121	0x3d4ccc7d	0.049999703
122	0xbb8da7ca	-0.0043229805
123	0x3d8199af	0.06328141
124	0xbd5d99cd	-0.054101754
125	0x3e1cd5fe	0.15316007
126	0x3c77402a	0.0150909815
127	0x3d826834	0.063675314
128	0xbc6e968e	-0.014562262
129	0x3ded878b	0.115981184
130	0xbc87a217	-0.016556783
131	0x3e013384	0.12617308
132	0x3d28f47e	0.04124879
133	0x3d52ca11	0.051462237
134	0x3e8aa03c	0.27075374
135	0x3e0e622f	0.13904642
136	0x3e0cfef0	0.13769126
137	0x3ea11508	0.31461358
138	0x3d3eaec2	0.04655338
139	0x3dd95606	0.10612111
140	0xbddc7880	-0.10765171
141	0xbde193cc	-0.11014518
142	0x3df274de	0.11838697
143	0xbe114868	-0.14187777
144	0x3d5f8699	0.05457172
145	0xbd377191	-0.04478604
146	0x3cbc58ce	0.022991564
147	0x3dee6afc	0.116414994
148	0xbd57bc03	-0.052669536
149	0xbcb8b37d	-0.022546524
150	0x3d5737c4	0.052543417
151	0xbd110aee	-0.035410814
152	0xbdb58aef	-0.0886439
153	0xbc95a738	-0.018268213
154	0xbd3cdb93	-0.04610784
155	0xbd2f720c	-0.042833373
156	0xbdd45bf6	-0.10369103
157	0x3af6b800	0.0018823147
158	0x3c4969fd	0.012293336
159	0xbde1d653	-0.11027207
160	0xbe0d6fdc	-0.13812202
161	0xbdd24c4d	-0.102684595
162	0xbdad72a4	-0.084691316
163	0x3ec4ff1b	0.3847588
164	0xbe4e0e1b	-0.20122568
165	0xbdefb919	-0.117052265
166	0x3dc7accc	0.09749755
167	0xbccc7640	-0.02495873
168	0x3e230cb6	0.15922818
169	0xbe306109	-0.17224516
170	0xbe039501	-0.12849809
171	0xbd8cdccb	-0.068780504
172	0xbe216866	-0.15762481
173	0x3d3eb5c1	0.046560053
174	0xbd75cb62	-0.060008414
175	0x3e7340f9	0.23755254
176	0x3dfa73be	0.12229107
177	0x3e23627b	0.15955536
178	0xbb4d4149	-0.003131943
179	0xbdb02a5c	-0.086018294
180	0xbed7f8e5	-0.4218208
181	0xbdcbf5e7	-0.099590115
182	0xbe0dc254	-0.13843662
183	0x3cf38d4b	0.02973046
184	0xbcc69a54	-0.024243511
185	0xbdbabd7b	-0.09118172
186	0xbe085481	-0.13313486
187	0xbe19eff9	-0.15032949
188	0xbd06f6c5	-0.03295018
189	0x3dcf74d9	0.10129709
190	0x3b3f65a1	0.0029204863
191	0xbd527433	-0.051380347
192	0xbd7bdd31	-0.06149024
193	0x3d4aef95	0.04954489
194	0x3d5bf39c	0.05369912
195	0xbdebae50	-0.11507857
196	0xbddb1894	-0.10698047
197	0xbd16072e	-0.03662794
198	0xbcebf3b8	-0.028802738
199	0xbd981735	-0.074263014
200	0xbce08d26	-0.027411055
201	0xbdf22218	-0.11822909
202	0xbda394e0	-0.0798738
203	0xbdfae2e3	-0.122503065
204	0xbdabc982	-0.08388044
205	0x3c8b4ac1	0.017003419
206	0xbcbc10c7	-0.022957219
207	0x3d3a1fda	0.045440532
208	0xbdbd03d5	-0.092292465
209	0x3cac01cb	0.020996949
210	0x3db1d1c4	0.08682588
211	0x3dac2232	0.0840496
212	0xbbb6094c	-0.0055553075
213	0xbde38f39	-0.11111302
214	0x3c43b96a	0.011946062
215	0xbe256ddd	-0.16155191
216	0xbdabf863	-0.083969854
217	0xbde8d1cc	-0.113681406
218	0xbdb3348c	-0.08750257
219	0xbcc53f27	-0.024077965
220	0xbcf4dd5b	-0.029890707
221	0xbe02856e	-0.12746212
222	0xbb161065	-0.0022897955
223	0x3d4885c9	0.048955712
224	0xbe27d225	-0.16388758
225	0xbd099160	-0.033585906
226	0x3d0cb401	0.034351353
227	0xbd89f69d	-0.06736491
228	0x3e001297	0.12507091
229	0x3e15088f	0.14554046
230	0x3d091710	0.03346926
231	0xbd0ddbbd	-0.034633387
232	0x3cb86b6a	0.022512157
233	0x3d973a0a	0.07384117
234	0xbd91bebd	-0.071164586
235	0xbdb169e1	-0.08662773
236	0xbe0e6273	-0.13904743
237	0xbe448ae2	-0.19193605
238	0x3d82ca77	0.06386273
239	0xbd3421a3	-0.04397739
240	0xbd89fd15	-0.06737725
241	0xbcf4e4ff	-0.02989435
242	0xbe0ec026	-0.13940486
243	0xbdafcc64	-0.08583906
244	0xbe0d696d	-0.13809748
245	0xbd3ca454	-0.046055153
246	0xbceda919	-0.029011296
247	0xbdd378f0	-0.10325801
248	0x3d4d413d	0.050111044
249	0x3ce7daf6	0.02830265
250	0xbe23a5e1	-0.15981247
251	0xbe769d6d	-0.2408349
252	0x3dbe44ff	0.09290504
253	0xbe23ef54	-0.16009265
254	0xbd597465	-0.053089518
255	0xbcad89c3	-0.021183854

critic.0.bias f4 [64]
0	0xbe10870e	-0.1411402
1	0x3d0fdd2e	0.035123043
2	0xbdfde624	-0.123974115
3	0xbbb1aa01	-0.0054218774
4	0xbd914247	-0.070927195
5	0x3dba5893	0.090989254
6	0xbd88efdd	-0.06686375
7	0xbe7f778f	-0.24947952
8	0xbe12d9d8	-0.14340913
9	0x3b27a546	0.0025580688
10	0xbd9c8951	-0.076433785
11	0xbd1c2a7e	-0.03812646
12	0xbe0df483	-0.13862805
13	0xbde5cf8a	-0.112212256
14	0xbd912894	-0.07087818
15	0xbdc2d9d0	-0.09514201
16	0xbe1ecd79	-0.15508069
17	0xbd97d4cf	-0.07413637
18	0xbd9be7d5	-0.07612578
19	0x3dd6fd28	0.104975045
20	0xbdb69eb1	-0.08916987
21	0xbd5f84b3	-0.05456991
22	0xbcb789f4	-0.022404648
23	0x3c597250	0.013271883
24	0xbccd0b85	-0.025029907
25	0xbdf81c47	-0.121147685
26	0xbe0a5833	-0.13510208
27	0xbd15b8c6	-0.036553167
28	0xbca11f42	-0.019668225
29	0x3d145e45	0.036222715
30	0x3ea6f12b	0.32605872
31	0x3ce3073a	0.027713407
32	0xbe0d876b	-0.13821189
33	0xbc052919	-0.008127474
34	0xbdd660aa	-0.10467656
35	0xbc256821	-0.010095627
36	0xbd844103	-0.064577125
37	0x3de6bacc	0.112660974
38	0xbd87e78f	-0.06635963
39	0xbbfa48c9	-0.007638071
40	0xbe03e8b7	-0.12881742
41	0xbd36308e	-0.0444799
42	0xbdb92f42	-0.09042217
43	0xbe0f55dd	-0.13997598
44	0xbe0496d5	-0.12948163
45	0xbdb3e297	-0.08783453
46	0xbd064cf0	-0.032788217
47	0x3d398bac	0.045299217
48	0x3e865f39	0.26244524
49	0xbd75adea	-0.05998031
50	0xbcb871ec	-0.02251526
51	0xbdff1fb1	-0.124572165
52	0x3dbab8fc	0.09117314
53	0xbdfbb62d	-0.12290607
54	0xbe1086bd	-0.14113899
55	0xbe427c0c	-0.18992633
56	0xbd994f71	-0.07485855
57	0x3dc434e6	0.09580402
58	0xbe3757c0	-0.17904568
59	0xbd5994bb	-0.053120356
60	0x3e2bf31c	0.16791958
61	0xbd7bb5c5	-0.061452646
62	0xbe116099	-0.14197005
63	0xbe2ffe8b	-0.17186944

critic.2.weight f4 [64, 64]
0	0xbcb7030b	-0.022340318
1	0x3e292bd2	0.16520622
2	0x3d6db0e8	0.05803004
3	0x3c6a6c78	0.0143080875
4	0xbe3b1332	-0.18269041
5	0x3d8a5bc8	0.06755787
6	0x3c2dd840	0.01061064
7	0x3e2df20d	0.16986866
8	0x3e073ac1	0.13206007
9	0xbe234f7c	-0.1594829
10	0x3de1c374	0.11023608
11	0x3ea98b22	0.33113962
12	0xbdb79734	-0.089643866
13	0x3ebed9a2	0.37275416
14	0xbb749d80	-0.0037325323
15	0x3daa44d3	0.083139084
16	0x3d8a5922	0.06755282
17	0x3dee83bb	0.11646219
18	0xbd3c9017	-0.046035852
19	0x3ec12dd7	0.37730286
20	0x3c11b34d	0.008892846
21	0xbd233355	-0.039843876
22	0x3d8db68f	0.06919586
23	0x3d6e105c	0.05812107
24	0xbdf5b2d2	-0.11996998
25	0x3dfbf82d	0.12303195
26	0xbdb00957	-0.085955314
27	0x3ddad078	0.106842935
28	0x3e2b879e	0.16750953
29	0x3e5cff66	0.21581802
30	0x3e8ee15f	0.2790632
31	0xbe1fe85b	-0.1561598
32	0x3ce5160b	0.027964612
33	0xbd767169	-0.06016675
34	0x3da7cc92	0.081933156
35	0x3a75956d	0.00093682745
36	0xbe116a1a	-0.14200631
37	0x3d1c3b75	0.03814264
38	0x3d8a0026	0.067383096
39	0xbdeb72c1	-0.11496497
40	0xbd8bc827	-0.068252854
41	0x3e169cdc	0.14708275
42	0x3e95fa2e	0.29292434
43	0xbdfd49c3	-0.123675846
44	0xbd1acc5c	-0.03779255
45	0xbdb442c1	-0.08801795
46	0x3dacf714	0.08445564
47	0xbd9bbacb	-0.07603987
48	0x3ea151ef	0.31507823
49	0x3dcbd2ae	0.09952293
50	0xbd7c9009	-0.0616608
51	0x3dbb9871	0.09159935
52	0xbdc97c6d	-0.098381855
53	0xbda49331	-0.08035887
54	0x3ddd74ad	0.1081327
55	0x3eb2f39d	0.34951487
56	0xbd41eb94	-0.047343805
57	0x3eb37ce8	0.35056233
58	0xbbc4d4cf	-0.006006814
59	0xbcf4a836	-0.029865365
60	0xbd3c0a03	-0.045907985
61	0x3e80aa46	0.25129908
62	0x3f0b6c6b	0.5446231
63	0xbddbb9a6	-0.10728769
64	0xbd11a6a5	-0.035559315
65	0x3c14883a	0.009065682
66	0xbc1a679d	-0.009424117
67	0xbcbe2949	-0.023213046
68	0xbdeedb72	-0.116629496
69	0xbd9eed9c	-0.07760164
70	0xbdb497fb	-0.088180505
71	0x3df0109e	0.117219195
72	0xbd566e3d	-0.052351225
73	0xbe002121	-0.12512638
74	0xbdc4857f	-0.09595775
75	0xbe0b13f3	-0.13581829
76	0xbd0c8795	-0.03430899
77	0xbd959808	-0.07304388
78	0xbde37a5f	-0.11107325
79	0xbd523aed	-0.051325727
80	0x3da14f15	0.07876412
81	0xbde1d6a4	-0.110272676
82	0xbc5512a5	-0.0130049335
83	0x3dab9409	0.08377845
84	0x3d82224d	0.063541986
85	0xbd81c569	-0.06336481
86	0x3d5c150d	0.053731013
87	0xbd3e9b8e	-0.046535067
88	0xbdb3a3c9	-0.08771474
89	0xbdde6e80	-0.1086092
90	0xbdadad0f	-0.08480274
91	0x3d15e185	0.036592025
92	0xbbdda3cf	-0.0067639123
93	0xbe00bad3	-0.12571268
94	0xbd90521f	-0.07046913
95	0xbd876700	-0.066114426
96	0x3d668384	0.056277767
97	0x3ceced89	0.02892186
98	0x3c965ba4	0.018354245
99	0xbd312805	-0.043251056
100	0xbc5f91d0	-0.013645604
101	0x3d58bcac	0.052914307
102	0x3d2230b1	0.039597217
103	0xbd33cd10	-0.043896735
104	0x3e0b86fe	0.13625714
105	0x3d9dd3c0	0.07706404
106	0x387004af	5.722482e-05
107	0x3d3ffad7	0.04687008
108	0x3d927ec6	0.07153086
109	0xbd08c505	-0.033391017
110	0x3ca8de79	0.020613896
111	0xbdbc3b3b	-0.09190985
112	0xbd3ba827	-0.04581466
113	0xbba633e2	-0.005072103
114	0xbdefea10	-0.11714566
115	0x3dcf1c63	0.10112836
116	0xbe059aee	-0.13047382
117	0xbdce1061	-0.10061718
118	0xbccfc998	-0.025364682
119	0x3d87e27e	0.06634997
120	0xbda0ceb5	-0.07851926
121	0xbd50e962	-0.05100382
122	0x3d7c2289	0.061556373
123	0xbdecb4a4	-0.11557892
124	0x3de22439	0.11042065
125	0x3cdc985b	0.026928117
126	0x3bf199a0	0.00737305
127	0xbc025af7	-0.007956258
128	0x3d6ad444	0.05733134
129	0xbdae7a6b	-0.08519443
130	0xbc8d0818	-0.017215773
131	0x3dc45c12	0.095878735
132	0xbd3131e6	-0.043260477
133	0xbccf91b0	-0.025338024
134	0x3c97e573	0.018542027
135	0xbce4928e	-0.027901914
136	0xbdd01905	-0.10161022
137	0xbcd53d43	-0.026030188
138	0xbd7254cd	-0.059162904
139	0xbe38dfd8	-0.1805414
140	0xbc8de466	-0.017320823
141	0xbd9ee2f8	-0.077581346
142	0x3d52766d	0.05138247
143	0xbd23a5ad	-0.039952923
144	0xbdd00eba	-0.10159059
145	0x3e257c14	0.16160613
146	0xbba48ce7	-0.0050216797
147	0xbd7e6042	-0.062103517
148	0x3c864585	0.016390571
149	0x3d4a7647	0.049429204
150	0x3da87869	0.082260914
151	0x3dabf36a	0.08396037
152	0xbd72dd49	-0.059293065
153	0x3d1f379d	0.038871396
154	0x3d47ce52	0.048780747
155	0xbde45558	-0.111490905
156	0x3d3b579b	0.045737844
157	0xbe038332	-0.12843016
158	0x3db97fdb	0.090575896
159	0xbe0ef9bd	-0.13962455
160	0x3d244aca	0.040110387
161	0xbd46cb3b	-0.04853366
162	0x3c9698fe	0.0183835
163	0xbd087cd4	-0.03332217
164	0x3c0e3186	0.0086787995
165	0xbd7dc904	-0.06195928
166	0x3b889497	0.004168104
167	0xbd8d685b	-0.0690467
168	0x3d701e64	0.058622733
169	0x3c7830d5	0.015148361
170	0xbcfeb5ba	-0.031092513
171	0xbd858436	-0.06519358
172	0x3aa07dc8	0.0012244517
173	0xbe04c9fb	-0.12967674
174	0x3b4eee81	0.0031575265
175	0x3d60bb42	0.054866083
176	0x3d0b671f	0.03403389
177	0xbd463731	-0.04839248
178	0x3cb6d68b	0.022319099
179	0x3d8186b4	0.06324521
180	0x3c50dc95	0.012747903
181	0xbc9b541b	-0.018961003
182	0x3d092495	0.033482153
183	0xbcce1894	-0.025158204
184	0xbb52bc01	-0.0032155516
185	0xbd48e416	-0.049045645
186	0xbde25e0a	-0.11053093
187	0xbdcd8e8e	-0.10036956
188	0xbd5d02a3	-0.053957593
189	0xbdb92080	-0.09039402
190	0x3daa6b7e	0.08321284
191	0xbe48aa3c	-0.1959619
192	0xbb8ca990	-0.0042926744
193	0xbcd07503	-0.02544642
194	0xbdfb013b	-0.12256094
195	0xbdac8929	-0.08424599
196	0xbd77d2bc	-0.060503706
197	0xbe5c7dc4	-0.21532351
198	0x3d8589eb	0.065204464
199	0xbd139036	-0.036026202
200	0x3e1b687f	0.15176581
201	0xbe8efc1f	-0.27926728
202	0x3e320b4d	0.17387123
203	0x3d41322a	0.04716698
204	0x3d8f3e8d	0.069943525
205	0x3dd283f5	0.10279075
206	0x3e0a7a0c	0.1352312
207	0x3e71bdd1	0.23607565
208	0x3d3cb336	0.046069346
209	0xbccbedd2	-0.024893675
210	0xbdd9b8b8	-0.106309354
211	0x3e983961	0.29731277
212	0x3e4223c5	0.18958957
213	0x3e105adc	0.1409716
214	0xbda507cc	-0.08058128
215	0xbd7531ea	-0.059862055
216	0xbd928a05	-0.071552314
217	0x3ccf4544	0.025301583
218	0x3d7185e3	0.058965575
219	0x3e7059a6	0.23471698
220	0x3e510670	0.20412612
221	0x3db1240d	0.08649454
222	0x3ee7afa8	0.45251203
223	0xbdb64fd3	-0.08901944
224	0x3d785e78	0.060636967
225	0x3e09e10d	0.13464756
226	0x3c91f7c4	0.01781834
227	0xbda1862f	-0.078869216
228	0x3c980340	0.018556237
229	0xbea9d5c8	-0.33170915
230	0xbd9e5ce6	-0.07732563
231	0x3c9255a0	0.017863095
232	0xbd86e23c	-0.065861195
233	0xbd2e4008	-0.042541534
234	0x3e4c21ad	0.19934721
235	0xbd78fedb	-0.060789924
236	0xbd519214	-0.0511647
237	0x3e009a8f	0.1255896
238	0xbd4178fc	-0.04723452
239	0xbe3ae0d3	-0.18249826
240	0x3e4d59f3	0.20053844
241	0x3dbe74bd	0.0929961
242	0xbd0647cb	-0.03278331
243	0xbdb029b7	-0.086017065
244	0x3d2de2b8	0.042452544
245	0x3c2acd01	0.010424853
246	0xbc445655	-0.011983474
247	0x3f0faf23	0.5612661
248	0xbe565226	-0.20929775
249	0x3ed73437	0.42032024
250	0xbc87de3c	-0.016585462
251	0xbe80479c	-0.25054634
252	0xbe13210d	-0.14368077
253	0x3dc9e756	0.09858577
254	0x3f13350f	0.57502836
255	0x3d1f3968	0.038873106

critic.2.bias f4 [64]
0	0x3d35f7ba	0.044425704
1	0xbdcbce90	-0.09951508
2	0xbd548e42	-0.05189348
3	0x3b4aa59a	0.003092146
4	0xbdce1c75	-0.100640215
5	0xbd9f7183	-0.077853225
6	0xbd8fb565	-0.0701702
7	0xbe26ee15	-0.16301759
8	0xbde4f04a	-0.11178644
9	0xbde78034	-0.1130375
10	0xbd711262	-0.05885542
11	0x3c064a53	0.008196431
12	0xbb8c3275	-0.004278476
13	0x3bcb5c64	0.006206082
14	0xbdb9b27c	-0.09067246
15	0xbdde1f91	-0.108458646
16	0xbe121e53	-0.1426938
17	0xbe3fe40d	-0.18739338
18	0x3da2e1f3	0.07953253
19	0xbddb31bb	-0.10702845
20	0x3c1bed70	0.009517059
21	0x3bd27ce8	0.0064235814
22	0xbd0af701	-0.033926968
23	0xbe43c1cf	-0.19116901
24	0xb8e92b08	-0.00011118321
25	0xbe30c9df	-0.17264508
26	0xbdb54eea	-0.08852942
27	0xbe09caef	-0.1345632
28	0xbcd44387	-0.025911106
29	0xbcfb6269	-0.030686574
30	0xbd64c9d1	-0.05585653
31	0x3ceefafd	0.029172415
32	0xbde72b53	-0.1128756
33	0xbdfa50f9	-0.122224756
34	0x3cc90331	0.024537655
35	0xbd6eb5be	-0.05827879
36	0xbdb4f846	-0.08836417
37	0xbe26736b	-0.16254966
38	0xbdc80d10	-0.097681165
39	0xbd9bd1cc	-0.07608375
40	0xbe2553d9	-0.16145267
41	0xbdfb8715	-0.12281624
42	0xbd88f093	-0.06686511
43	0xbc9efd7f	-0.019407986
44	0xbd7b0aad	-0.061289478
45	0x3e5c1dff	0.21495818
46	0xbe13c054	-0.14428836
47	0xbd19ea73	-0.037577104
48	0xbd288d52	-0.0411504
49	0xbd49752a	-0.049184002
50	0x3d434a0d	0.047678042
51	0xbdcfe808	-0.10151678
52	0xbd7d3a3e	-0.061823122
53	0xbe499d59	-0.1968893
54	0xbd86983e	-0.06572007
55	0xbdb23ba6	-0.08702783
56	0xbcdc056c	-0.026858054
57	0xbc6757a9	-0.014120021
58	0xbc8b5310	-0.01700738
59	0xbda2556a	-0.07926448
60	0xbdf15f92	-0.11785807
61	0xbd1ebf99	-0.03875694
62	0xbe04850c	-0.12941378
63	0xbe0124e6	-0.12611732

critic.4.weight f4 [1, 64]
0	0xbde8243c	-0.11335036
1	0x3c04bab8	0.008101158
2	0x3cfa5073	0.03055594
3	0xbdd6084e	-0.10450803
4	0xbd90aea1	-0.07064558
5	0xbea57e98	-0.32323146
6	0x3bd63bb0	0.006537877
7	0x3dae5bd5	0.08513609
8	0x3c750059	0.014953696
9	0xbed502e0	-0.41603756
10	0x3c20095c	0.009767856
11	0x3c895c5d	0.016767675
12	0xbc91c97d	-0.017796272
13	0x3c95abd3	0.018270409
14	0xbc1a2834	-0.009408999
15	0xbd0f4942	-0.034981973
16	0x3d3ae89e	0.045631997
17	0xbe7f7191	-0.24945666
18	0xbae89e4f	-0.0017747375
19	0x3c137225	0.008999382
20	0x3d0d88b1	0.034554187
21	0xbd3b6f6f	-0.04576057
22	0xbe089111	-0.13336588
23	0xbcdfc13e	-0.027313825
24	0x3c91e885	0.01781107
25	0xbd14c247	-0.03631809
26	0x3c626f94	0.013820548
27	0xbe81da88	-0.2536204
28	0xbc3b6ec0	-0.011439979
29	0xbcd19b1e	-0.025586661
30	0xbd087a09	-0.033319507
31	0x3da85988	0.08220202
32	0x3d784056	0.06060823
33	0x3d808aba	0.0627646
34	0x3b95c1c6	0.0045702187
35	0x3bfee01f	0.007778182
36	0x3bd1d0bd	0.0064030574
37	0xbe82dd83	-0.25559625
38	0xbe285b58	-0.16441095
39	0x39e7cdee	0.00044213183
40	0x3b5bbee7	0.0033530535
41	0x3d2a87f7	0.041633572
42	0x3d69f910	0.05712229
43	0x3c7b7c7e	0.0153495055
44	0xbd03a43e	-0.032139055
45	0x3dd6571e	0.10465835
46	0x3c4f79d1	0.012663321
47	0x3d03f260	0.03221357
48	0xbd48fd19	-0.049069498
49	0xbbf2f84d	-0.0074148537
50	0xbde9408c	-0.113892645
51	0x3db0868b	0.08619412
52	0x3d8a8330	0.06763303
53	0xbe9ebb98	-0.31002498
54	0xbb9cbc97	-0.004783224
55	0xbebd6e41	-0.3699818
56	0xbb88563b	-0.00416067
57	0x3ac324ae	0.0014888251
58	0xbe0d0be6	-0.1377407
59	0xbe6c9c29	-0.23106445
60	0xbd18723e	-0.037218325
61	0x3bc884cc	0.0061193462
62	0xbdff7ddc	-0.12475178
63	0xbcd4a3f1	-0.02595708
