CybORG/CybORG/Models/bline_train/10000.pth (torch, 78565 bytes, 11 tensors)

actor.0.weight f4 [64, 62]
-0.0009508271 0.0681284 -0.10452683 -0.093464345 -0.24540575 -0.18410832 -0.0268732 0.06503204
-0.07360148 -0.041994374 -0.0873238 -0.20572227 -0.037280526 -0.009370313 -0.0624981 -0.007999029
0.05020762 0.076202966 -0.086098604 -0.055303834 0.04612862 0.10545937 -0.026136648 0.09503569
-0.020470306 0.013438404 0.11499559 -0.11781425 -0.102726705 -0.06995032 0.11754035 0.344212
-0.082318895 -0.058462333 -0.08872742 -0.11894336 0.06973199 0.2649858 0.014153139 0.1649172
-0.021887459 -0.16736534 0.047518395 -0.085679814 -0.061832692 -0.08941726 0.1589586 0.08051217
-0.017035985 0.0654208 0.07103587 0.14427137 0.050404087 0.040290467 0.07258465 -0.057301365
0.08397625 -0.09846389 -0.035942584 -0.10228952 0.1912889 0.14569202 -0.07522884 0.03836764
0.069719516 -0.01602962 -0.061854847 -0.1012912 0.22807942 0.25177136 -0.16988882 -0.03203559
0.103396535 0.33458793 0.11559533 -0.06615086 0.073497735 -0.031263884 0.011683059 -0.079451956
-0.11835829 0.112838656 0.09656578 -0.12668617 0.023770874 -0.021394443 -0.020899286 -0.058135178
0.048838682 -0.07522262 0.108516 0.12584771 0.20785575 0.23715432 -0.1256965 -0.08238459
0.06341307 0.026581297 -0.14735113 -0.10030709 0.11104412 0.074521184 -0.10723061 -0.106436394
-0.1625251 -0.00074464 -0.1275742 -0.011737343 0.11399006 0.108268894 -0.09472944 0.07832024
0.018740296 0.13295801 0.08703317 -0.07780942 -0.03027761 0.058949012 0.023712976 0.030121163
-0.010043944 -0.034469116 0.02433704 0.08021806 -0.12182473 -0.07527382 -0.03179192 -0.061863456
-0.052533187 -0.12879679 -0.18118238 -0.18857385 -0.2928546 -0.054621994 0.13518213 0.17575887
-0.07821384 -0.09919692 0.15862206 0.31787908 0.12030038 0.08065218 0.12057564 -0.009184859
-0.11408694 -0.060207866 0.086475044 -0.000823276 -0.06312495 -0.09732169 -0.11885332 -0.10718915
0.123369 0.21446545 0.051496424 -0.052224647 0.0792204 -0.099378794 -0.026849132 -0.051495075
-0.2076561 -0.25699234 -0.04928854 -0.060512066 -0.17150517 -0.07349407 0.003246378 0.07450949
-0.0055113463 0.090214044 0.11469764 0.039405424 0.21629576 0.12966108 -0.045361537 0.1645706
-0.014655112 0.019386029 0.17908683 -0.025844272 0.029177813 -0.026589852 0.13316901 0.02198723
0.12808044 0.12985036 -0.030540317 -0.026708819 -0.10465844 0.06881427 -0.01278922 -0.04854936
-0.22682564 -0.14625733 -0.18693803 -0.003271804 0.1428533 0.37692472 -0.071357824 0.06597135
-0.09116357 -0.06379323 -0.09600194 -0.08718714 -0.07374409 0.08889163 -0.0456521 0.10712317
0.045924205 0.01608152 -0.00094539195 -0.02510558 0.015934242 -0.028999802 -0.08951051 -0.04802527
-0.09425354 -0.0730612 0.10255168 -0.10306653 -0.009119395 0.12563345 -0.08093844 0.049467877
-0.144079 0.090105586 -0.1301717 -0.3089369 0.09107257 0.049393106 0.121989734 0.1849328
0.00032405046 0.13736746 0.13207452 -0.031690173 0.023325972 -0.053353906 -0.053825844 0.036788967
0.07794081 0.12159601 -0.16246141 0.00020330961 0.019535445 0.01847975 0.17750126 -0.13094202
0.0017503793 -0.02159215 -0.06688753 0.016785737 -0.03454834 -0.2508858 0.07464164 0.023513928
00000000: ed40 79ba e786 8b3d 2a12 d6bd 3c6a bfbd
00000010: a54b 7bbe e486 3cbe 2f25 dcbc 852f 853d
00000020: 5fbc 96bd 4b02 2cbd d2d6 b2bd dca8 52be
00000030: 77b3 18bd f185 19bc 02fe 7fbd 5c0e 03bc
00000040: 81a6 4d3d 4d10 9c3d 7754 b0bd 4686 62bd
00000050: 5df1 3c3d 15fb d73d 861c d6bc 12a2 c23d
00000060: 58b1 a7bc c02c 5c3c cf82 eb3d 9948 f1bd
00000070: 6162 d2bd 1d42 8fbd ffb8 f03d 8e3c b03e
00000080: cf96 a8bd 3376 6fbd b9b6 b5bd 9498 f3bd
00000090: a5cf 8e3d 38ac 873e 91e2 673c 0ee0 283e
000000a0: 544d b3bc d261 2bbe a6a2 423d e678 afbd
000000b0: 4744 7dbd 6520 b7bd 0bc6 223e 91e3 a43d
000000c0: 0d8f 8bbc 57fb 853d 417b 913d e0bb 133e
000000d0: 8474 4e3d 9e07 253d 43a7 943d d6b4 6abd
000000e0: bdfb ab3d 70a7 c9bd 8838 13bd 2b7d d1bd
000000f0: 3de1 433e 4a30 153e 9411 9abd 6327 1d3d
00000100: 1bc9 8e3d 8d50 83bc 825b 7dbd c371 cfbd
00000110: a78d 693e 2de8 803e 56f7 2dbe c037 03bd
00000120: 90c1 d33d 1c4f ab3e 3fbd ec3d 1a7a 87bd
00000130: fb85 963d 8f0e 00bd 4d6a 3f3c b5b7 a2bd
00000140: d565 f2bd f417 e73d 48c4 c53d 05ba 01be
00000150: 23bb c23c 6643 afbc fb34 abbc 271f 6ebd
00000160: 120b 483d 510e 9abd a33d de3d 39de 003e
00000170: 23d8 543e 95d8 723e 95b6 00be 40b9 a8bd
00000180: b6de 813d 05c1 d93c 37e3 16be ce6d cdbd
00000190: 196b e33d 909e 983d b99b dbbd 53fb d9bd
000001a0: fb6c 26be f233 43ba d0a2 02be fc4d 40bc
000001b0: 9f73 e93d 15bc dd3d 8201 c2bd 5d66 a03d
000001c0: 4085 993c 2526 083e 723e b23d 8c5a 9fbd
000001d0: c008 f8bc 8574 713d b741 c23c a8c0 f63c
000001e0: 5b8f 24bc 7d2f 0dbd 795e c73c 5e49 a43d
000001f0: 3e7f f9bd 2929 9abd 3f38 02bd 8964 7dbd
00000200: 0a2d 57bd 4ee3 03be e087 39be 8119 41be
00000210: 0af1 95be 50bb 5fbd 2f6d 0a3e 22fa 333e
00000220: 942e a0bd c127 cbbd d26d 223e 0cc1 a23e
00000230: 0c60 f63d f82c a53d 5cf0 f63d 177c 16bc
00000240: 6aa6 e9bd 869c 76bd d419 b13d 1ed1 57ba
00000250: a747 81bd 9850 c7bd 5f69 f3bd fc85 dbbd
00000260: e3a8 fc3d d59c 5b3e eaed 523d 83e9 55bd
00000270: 4e3e a23d 1c87 cbbd b6f2 dbbc 80ec 52bd
00000280: cda3 54be 8094 83be c8e2 49bd 80db 77bd
00000290: 0d9f 2fbe 0f84 96bd 2fc1 543b 6e98 983d
000002a0: 8698 b4bb 24c2 b83d 99e6 ea3d 9567 213d
000002b0: a37c 5d3e e0c5 043e 05cd 39bd 3285 283e
000002c0: ff1b 70bc 73cf 9e3c 8a62 373e 5eb7 d3bc
000002d0: 4f06 ef3c f6d2 d9bc 755d 083e 901e b43c
000002e0: 8527 033e 7ef7 043e b02f fabc 74cc dabc
000002f0: 2a57 d6bd 7fee 8c3d e089 51bc b2db 46bd
00000300: fb44 68be 7bc4 15be af6c 3fbe c36b 56bb
00000310: 2348 123e 47fc c03e 0d24 92bd fd1b 873d
00000320: f7b3 babd 06a6 82bd aa9c c4bd 2c8f b2bd
00000330: 2407 97bd d10c b63d b2fd 3abd 6463 db3d
00000340: 051b 3c3d 64bd 833c 2ed4 77ba 38aa cdbc
00000350: 8788 823c fe90 edbc 4951 b7bd 25b6 44bd
00000360: 0008 c1bd 1ca1 95bd 9d06 d23d 8b14 d3bd
00000370: 8469 15bc 0ea6 003e 0ec3 a5bd d49e 4a3d
00000380: 7289 13be 4789 b83d bb4b 05be fa2c 9ebe
00000390: 4184 ba3d 6d50 4a3d c1d5 f93d 065f 3d3e
000003a0: 51e5 a939 0eaa 0c3e 8b3e 073e 8ecd 01bd
000003b0: 1c16 bf3c a089 5abd 7d78 5cbd 07b0 163d
000003c0: 6e9f 9f3d 5407 f93d 495c 26be 822f 5539
000003d0: cc08 a03c d862 973c e4c2 353e aa15 06be
000003e0: fc6c e53a 05e2 b0bc 54fc 88bd 3e82 893c
000003f0: 8f82 0dbd 1b74 80be b7dd 983d 48a0 c03c

actor.0.bias f4 [64]
0.023294687 0.07941676 0.08785197 0.036901195 -0.063947715 -0.05908674 0.19365306 0.042972505
0.1395799 0.05104347 0.067880526 -0.060960457 0.06428407 0.12152603 -0.07965194 0.34631294
0.07016669 0.118113786 -0.06605187 0.06132959 -0.041532222 -0.005507525 0.04887877 -0.12559058
0.05230578 0.16307755 0.1161766 0.18535385 0.051097415 -0.011759169 0.004687512 0.09722714
0.14633393 0.003426232 0.13675477 -0.04025631 0.13290548 0.02772623 -0.05833522 -0.042622827
0.18571478 0.09091906 0.03168693 -0.01722753 0.16413617 0.17524691 0.08410843 0.099970035
0.12654077 0.07567731 0.07686133 -0.08258895 0.056802038 0.122240864 0.23642261 0.16176346
0.07089966 0.062053423 -0.1012939 0.16162282 0.043941338 -0.004850164 0.018154832 0.012022088
00000000: 80d4 be3c 41a5 a23d bceb b33d b525 173d
00000010: 05f7 82bd f004 72bd fd4c 463e f003 303d
00000020: 09ee 0e3e f512 513d f204 8b3d acb1 79bd
00000030: 5ea7 833d a4e2 f83d 8e20 a3bd ee4f b13e
00000040: 8eb3 8f3d a4e5 f13d 3446 87bd bc34 7b3d
00000050: b11d 2abd 7878 b4bb 1b35 483d d19a 00be
00000060: 963e 563d cdfd 263e ffed ed3d 66cd 3d3e
00000070: 864b 513d 88a9 40bc b399 993b 061f c73d
00000080: 90d8 153e a28a 603b 7109 0c3e cde3 24bd
00000090: 6018 083e 1e22 e33c e9f0 6ebd 4695 2ebd
000000a0: 042c 3e3e c633 ba3d 28ca 013d c020 8dbc
000000b0: 5013 283e ed73 333e 0a41 ac3d 17bd cc3d
000000c0: e793 013e b5fc 9a3d 7969 9d3d 6524 a9bd
000000d0: 41a9 683d 6b59 fa3d c518 723e 52a5 253e
000000e0: d733 913d bb2b 7e3d 2d73 cfbd 7480 253e
000000f0: d5fb 333d 20ee 9ebb 71b9 943c 4bf8 443c

actor.2.weight f4 [64, 64]
0.04232864 -0.0938175 0.17571342 -0.08540072 0.17277412 0.20237319 0.048599493 -0.11926568
-0.013515406 -0.09516021 -0.17064318 0.0106702605 0.054400165 -0.028627813 0.1266644 -0.07442331
-0.100738615 0.03424311 0.13415958 -0.028501173 0.1998416 -0.046651565 0.16681156 -0.14496218
-0.14176485 0.073277526 -0.027832137 0.138591 0.038668282 0.14036737 0.12298449 0.11424434
0.012101679 0.16891462 -0.122072875 -0.05597049 0.058861025 -0.03662696 -0.21361439 -0.007042433
0.04031054 -0.06352031 0.12491897 -0.2618249 -0.031967502 0.06507962 -0.07269494 0.19139186
0.03485712 0.095895305 0.02325829 0.24155782 0.22429083 0.17846575 0.14957717 0.08958569
-0.18097469 -0.08061463 0.12106203 -0.101025715 0.09379865 0.026115078 0.10124274 -0.17869294
0.15005402 -0.09130252 -0.034741815 0.12899648 -0.081973605 -0.13237783 0.17666586 0.09823043
0.17355803 0.24021907 0.15192081 0.13874707 -0.014300619 -0.11433877 0.030876761 0.24648938
0.069825314 0.13671029 -0.029941674 0.21143135 -0.12340424 0.32279384 -0.17345838 -0.030963108
0.02757021 0.17619257 -0.09945894 0.38777837 -0.030912971 -0.005359261 -0.1860013 -0.059226334
0.06518972 -0.022963775 0.03234272 -0.14939125 0.04131047 -0.10680729 -0.002545653 -0.08112953
-0.018685533 0.016807754 0.017542096 -0.15249376 0.16668071 -0.0073860334 0.18471248 -0.11502956
-0.020705642 0.13765578 -0.15147546 0.046048008 0.19024803 0.089030385 0.342972 0.41312012
-0.04262286 -0.06807924 0.04045957 0.28645232 -0.029591639 -0.04357166 0.06816212 0.08263038
-0.10004845 0.11004832 0.03869938 0.010555924 0.24026734 0.16527909 -0.060402725 -0.16173
0.075692356 -0.14698502 -0.013189232 -0.09020586 0.0672595 0.13391255 0.12041347 -0.28059974
-0.091154836 0.13494572 0.22334757 -0.04837811 0.099206746 -0.100548364 0.024507202 -0.02280835
-0.07986213 0.07693846 0.18512268 -0.055897634 0.22174616 0.051197283 0.19842814 0.17378892
-0.032764062 0.1678882 -0.15866216 0.022687878 0.020976696 -0.0540482 0.2482139 -0.14001866
0.0111872805 0.027960178 0.051963635 0.086936496 -0.14434004 0.0259405 -0.19574827 0.09975268
0.09476347 0.10723946 0.10929494 0.123054296 0.05110195 -0.2999808 -0.18780056 -0.061969653
-0.0058403434 0.10020167 0.23673445 -0.1258267 -0.044365104 0.17663391 0.027925946 -0.103918545
0.07479551 0.16580896 0.26058963 0.3397024 -0.15751156 0.008361352 0.07320008 0.2631904
0.11280601 0.31603014 -0.010556439 0.03452925 0.015752612 0.24851571 0.16718473 -0.03785279
0.16879886 0.16759308 -0.11442635 0.26777458 0.039737597 0.1368014 -0.040405665 0.16352989
0.27136368 0.16626365 0.065045394 -0.1757429 -0.09935149 -0.041166164 0.05957016 0.07100446
0.3331222 0.12665531 0.24601705 0.2115202 -0.18804218 -0.07591108 0.015215132 0.15681198
0.13223258 0.13271457 -0.11874404 0.13816032 0.10554799 -0.055235688 0.025585355 -0.01315585
-0.05788836 0.07292282 -0.27664247 -0.026325189 -0.22259408 -0.06378439 0.15639073 -0.09616614
-0.21876778 0.17973456 -0.12864433 0.104950786 0.3489644 0.14730245 0.13673535 0.08859877
00000000: cc60 2d3d 6423 c0bd 38ee 333e 93e6 aebd
00000010: b3eb 303e eb3a 4f3e 4310 473d 9141 f4bd
00000020: b96f 5dbc 5be3 c2bd 16bd 2ebe 51d2 2e3c
00000030: b5d2 5e3d e084 eabc 50b4 013e 406b 98bd
00000040: 0c50 cebd 8142 0c3d 2161 093e 4b7b e9bc
00000050: 47a3 4c3e b615 3fbd a6d0 2a3e f770 14be
00000060: ce2a 11be 8712 963d 3900 e4bc cdea 0d3e
00000070: a262 1e3d 77bc 0f3e 4bdf fb3d f0f8 e93d
00000080: 1f46 463c f4f7 2c3e 5801 fabd 5041 65bd
00000090: 4218 713d 2706 16bd bbbd 5abe 36c4 e6bb
000000a0: aa1c 253d f016 82bd 84d5 ff3d ea0d 86be
000000b0: 5bf0 02bd 7748 853d 16e1 94bd 3afc 433e
000000c0: 57c6 0e3d c264 c43d 2b88 be3c ef5a 773e
000000d0: 7fac 653e babf 363e c22a 193e b478 b73d
000000e0: 6e51 39be 4819 a5bd 5fef f73d 92e6 cebd
000000f0: 8219 c03d 4aef d53c 5b58 cf3d 48fb 36be
00000100: c3a7 193e d1fc babd 6f4d 0ebd a717 043e
00000110: c7e1 a7bd 0e8e 07be e5e7 343e 092d c93d
00000120: 32b9 313e fdfb 753e 2191 1b3e b613 0e3e
00000130: 254d 6abc 722a eabd 43f1 fc3c b667 7c3e
00000140: 9300 8f3d c8fd 0b3e 3e48 f5bc 7681 583e
00000150: 5dbb fcbd 3c45 a53e 139f 31be 58a6 fdbc
00000160: ecda e13c d36b 343e 21b1 cbbd e38a c63e
00000170: 333d fdbc bd9c afbb 2077 3ebe 5097 72bd
00000180: 3082 853d 871e bcbc cd79 043d 05fa 18be
00000190: 2b35 293d c8bd dabd f8d4 26bb 3d27 a6bd
000001a0: 6712 99bc 6ab0 893c 71b4 8f3c 5327 1cbe
000001b0: 59ae 2a3e 8a06 f2bb 4525 3d3e 9e94 ebbd
000001c0: e19e a9bc a3f5 0c3e 621c 1bbe d69c 3c3d
000001d0: 61d0 423e 9055 b63d 079a af3e 7b84 d33e
000001e0: 4f95 2ebd 216d 8bbd efb8 253d e1a9 923e
000001f0: 2a6a f2bc 3278 32bd 9598 8b3d 1e3a a93d
00000200: 34e6 ccbd 0361 e13d 3e83 1e3d c1f2 2c3c
00000210: a408 763e ec3e 293e d968 77bd 8d9c 25be
00000220: 9804 9b3d 3e83 16be a617 58bc dabd b8bd
00000230: 59bf 893d 5f20 093e 569b f63d c5aa 8fbe
00000240: 63af babd 362f 0a3e 3ab5 643e 2028 46bd
00000250: e82c cb3d 4dec cdbd 54c3 c83c 94d8 babc
00000260: c28e a3bd e991 9d3d cd90 3d3e ebf4 64bd
00000270: 6d11 633e 3eb4 513d bf30 4b3e b9f5 313e
00000280: 9c33 06bd e2ea 2b3e 5578 22be eedb b93c
00000290: 52d7 ab3c a561 5dbd c92b 7e3e 0d61 0fbe
000002a0: db4a 373c be0c e53c d2d7 543d c30b b23d
000002b0: e0cd 13be 2c81 d43c 3c72 48be 224b cc3d
000002c0: 5a13 c23d 5da0 db3d 07d6 df3d e403 fc3d
000002d0: 4750 513d 1597 99be ca4e 40be e4d3 7dbd
000002e0: 5a60 bfbb 8836 cd3d 846a 723e b7d8 00be
000002f0: 2fb8 35bd 85df 343e f4c4 e43c 3fd3 d4bd
00000300: 632e 993d d3c9 293e 016c 853e 79ed ad3e
00000310: b64a 21be 0dfe 083c ece9 953d e4c0 863e
00000320: d606 e73d b4ce a13e eaf4 2cbc 8b6e 0d3d
00000330: 9f0b 813c e77a 7e3e 7932 2b3e 870b 1bbd
00000340: 9cd9 2c3e 859d 2b3e 5d58 eabd c019 893e
00000350: e4c3 223d ab15 0c3e 6980 25bd 6174 273e
00000360: 2ef0 8a3e 0541 2a3e 8536 853d f2f5 33be
00000370: cb78 cbbd da9d 28bd d7ff 733d c96a 913d
00000380: fe8e aa3e eeb1 013e e5eb 7b3e c098 583e
00000390: 218e 40be 4577 9bbd e448 793c 5293 203e
000003a0: fa67 073e 54e6 073e 1330 f3bd e679 0d3e
000003b0: 8b29 d83d d13e 62bd 6198 d13c a28b 57bc
000003c0: 581c 6dbd 8f58 953d 15a4 8dbe eca7 d7bc
000003d0: b4ef 63be 64a1 82bd e424 203e c1f2 c4bd
000003e0: a904 60be 560c 383e 57bb 03be 70f0 d63d
000003f0: 76ab b23e 74d6 163e 5a04 0c3e 4673 b53d

actor.2.bias f4 [64]
-0.013117725 0.17369212 0.064945504 -0.04777761 0.11886689 0.12696992 -0.0680178 0.03806255
-0.08046979 0.08674327 -0.076282695 0.067619465 -0.054908223 0.032310814 0.021414613 0.127123
-0.104875475 0.09540255 0.065296665 0.10166126 -0.10221958 0.087728485 0.014650202 0.11070624
0.16650492 0.030045558 0.09623793 -0.030556208 -0.07967565 0.042191062 0.04549049 -0.009254947
-0.040571816 -0.03181003 -0.019426068 0.12166139 0.020805694 0.034912553 0.10590866 -0.040216412
0.14226149 -0.12839404 0.0996592 -0.09544613 0.042012397 -0.055071216 -0.04176016 -0.038914982
-0.06031069 0.090964206 0.13302657 -0.12964307 -0.054625206 -0.092488214 0.021466939 0.08412207
-0.040692072 0.07642447 0.148287 0.020347856 0.016089173 0.07730615 0.03580035 -0.0065068523
00000000: baeb 56bc 59dc 313e 2602 853d 75b2 43bd
00000010: 7c70 f33d 6704 023e eb4c 8bbd 7ae7 1b3d
00000020: 58cd a4bd 75a6 b13d 1a3a 9cbd 137c 8a3d
00000030: 72e7 60bd 5858 043d b36d af3c 882c 023e
00000040: f4c8 d6bd 6a62 c33d 42ba 853d c733 d03d
00000050: 8058 d1bd feaa b33d 6707 703c f4b9 e23d
00000060: 4480 2a3e 1a22 f63c 6418 c53d 0351 fabc
00000070: fd2c a3bd 89d0 2c3d 3c54 3a3d 10a2 17bc
00000080: a22e 26bd 3c4b 02bd 6b23 9fbc 9b29 f93d
00000090: b470 aa3c 7700 0f3d a4e6 d83d f7b9 24bd
000000a0: ffac 113e ba79 03be 1f1a cc3d 4379 c3bd
000000b0: 3115 2c3d 5b92 61bd b40c 2bbd 5165 1fbd
000000c0: 5808 77bd 714b ba3d 1e38 083e 27c1 04be
000000d0: aebe 5fbd 766a bdbd 6fdb af3c 3148 ac3d
000000e0: bbac 26bd 6f84 9c3d 8cd8 173e 8cb0 a63c
000000f0: 71cd 833c b052 9e3d 63a3 123d 6f37 d5bb

actor.4.weight f4 [36, 64]
0.009198561 -0.34444854 0.26367068 -0.47848353 0.16580561 0.016815307 0.28242922 0.35511076
-0.04402437 -0.019290917 -0.09403453 0.27306554 -0.0698295 -0.16439171 -0.0072083496 0.23641859
0.09139561 -0.25509113 -0.059581384 0.35692832 0.06434033 -0.4841136 -0.0051854337 -0.29416445
0.11956982 0.062413737 0.05261688 0.36399475 -0.23420645 -0.14997086 0.09443945 -0.032583572
-0.4400858 -0.015215492 0.029327674 -0.042217683 0.03824447 0.108797476 0.24189699 0.09031796
-0.11203462 0.18007323 -0.38656354 -0.0633814 -0.090828486 0.045428254 -0.26375523 0.030857578
-0.088891506 0.104267284 -0.4918129 -0.06140547 0.14702028 -0.09074345 0.22195864 0.1668247
-0.07188898 -0.07790238 -0.18957445 -0.069344334 -0.03437503 0.06033177 0.13728353 0.023776542
-0.25027302 -0.24588607 -0.008521178 0.32385552 0.004289227 -0.21419588 -0.15373008 0.09937261
-0.057643976 0.19597676 0.07554882 0.028144786 0.07450162 0.115668654 0.044539407 -0.29251066
-0.09970206 0.39035934 -0.23911206 -0.23493508 0.04443486 0.043854803 0.028810916 0.15193571
-0.23678541 0.0763904 -0.011063354 0.23176022 0.30070904 -0.050845228 -0.325269 -0.07387077
-0.031691108 -0.06439781 0.14509 -0.25277168 0.13581131 0.14439029 0.20349933 -0.11024084
0.10054232 0.05253021 -0.2248264 -0.039094046 0.11258326 0.048434887 -0.092273705 0.046983972
0.028732376 0.10327855 -0.08857004 -0.0260902 0.10812552 0.10682031 0.3059373 -0.14706478
-0.050713137 -0.016991265 -0.25795025 0.12924628 0.19247642 0.07285622 0.123110466 0.0021284765
0.26511547 -0.25531065 0.2665559 -0.039177123 -0.22782628 0.21665286 0.118586816 -0.11481794
0.021079902 -0.020489575 0.054584783 0.16944575 0.30165678 -0.030611752 0.098683074 -0.121864796
0.025984246 0.1400319 0.33455995 0.13481224 0.1098151 -0.098366186 0.08779058 -0.20745757
0.0008095104 0.09416897 0.012965455 0.09117133 0.17535281 -0.01989019 0.12250015 -0.027488342
0.0016737073 0.009133517 0.114535205 0.063447654 0.12695386 0.05748871 0.14531882 0.09479909
0.21091391 0.009209917 -0.15466306 0.018920427 -0.076002985 0.010659124 0.22521488 0.03761992
0.073660925 0.26454368 -0.19782463 0.034871794 0.11591902 -0.02448927 -0.119008064 0.33556893
-0.0876657 -0.11947467 -0.41264468 -0.026843151 -0.030842358 0.20158459 0.054566853 -0.03974438
0.13020715 0.021738524 -0.026690973 -0.041383233 0.070541546 0.029574431 0.10934653 0.083113685
-0.0316684 0.16308141 0.0897044 0.0193758 0.07165306 -0.20110701 0.05760665 0.14096051
-0.049697366 -0.07202055 -0.09926476 0.014180851 -0.032886494 -0.098504454 0.03335498 0.20428869
0.09085418 -0.085191965 -0.055737775 -0.05637201 0.045856737 0.1422031 0.19630943 -0.1466073
0.15065084 0.10218523 -0.05986221 -0.12637508 -0.0503829 0.011775899 0.0075743753 -0.077183545
-0.026558384 0.18626878 0.018289344 -0.07491946 -0.054285865 0.037521556 0.072772585 -0.037147574
-0.060836136 0.08075068 -0.10046398 -0.11032439 0.16287592 0.050462395 -0.000104396095 0.05154938
0.14390364 -0.09152873 -0.054005712 -0.0034157548 -0.18680504 0.15472265 -0.065386824 -0.0016770528
00000000: 90b5 163c 8f5b b0be d8ff 863e cbfb f4be
00000010: f2c8 293e 41c0 893c 909a 903e 14d1 b53e
00000020: e652 34bd fc07 9ebc 2d95 c0bd 3fcf 8b3e
00000030: c502 8fbd 4d56 28be 0534 ecbb b717 723e
00000040: 9f2d bb3d 4e9b 82be 9c0b 74bd 4fbf b63e
00000050: ddc4 833d bddd f7be 92ea a9bb b99c 96be
00000060: 06e1 f43d 8ca5 7f3d cc84 573d 855d ba3e
00000070: d1d3 6fbe f691 19be 7869 c13d 5a76 05bd
00000080: ed52 e1be 664a 79bc 9740 f03c 73ec 2cbd
00000090: 3ca6 1c3d 36d1 de3d d8b3 773e 9ff8 b83d
000000a0: 6872 e5bd 1e65 383e a8eb c5be 1cce 81bd
000000b0: 4904 babd fa12 3a3d ed0a 87be 08c9 fc3c
000000c0: c00c b6bd 168a d53d e7ce fbbe 4d84 7bbd
000000d0: 7c8c 163e b4d7 b9bd 2049 633e 18d4 2a3e
000000e0: 883a 93bd 488b 9fbd ce1f 42be 6704 8ebd
000000f0: d5cc 0cbd 721e 773d 0e94 0c3e 06c7 c23c
00000100: c923 80be 8fc9 7bbe 699c 0bbc 64d0 a53e
00000110: a58c 8c3b 2a56 5bbe 6b6b 1dbe de83 cb3d
00000120: 171c 6cbd 22ae 483e 57b9 9a3d e58f e63c
00000130: 4e94 983d b0e3 ec3d f46e 363d f5c3 95be
00000140: 9830 ccbd 2edd c73e cbd9 74be d292 70be
00000150: 5401 363d 18a1 333d df04 ec3c 0995 1b3e
00000160: e077 72be 9272 9c3d 1243 35bc 8d52 6d3e
00000170: 89f6 993e 1643 50bd a989 a6be 8f49 97bd
00000180: 89ce 01bd 00e3 83bd 7992 143e 4a6b 81be
00000190: 1f12 0b3e 0cdb 133e 2162 503e f3c5 e1bd
000001a0: 22e9 cd3d eb29 573d e438 66be 1421 20bd
000001b0: 0d92 e63d a963 463d fff9 bcbd 4472 403d
000001c0: 2960 eb3c b483 d33d 3664 b5bd 1dbb d5bc
000001d0: ea70 dd3d 9bc4 da3d d0a3 9c3e 2698 16be
000001e0: 94b8 4fbd 4431 8bbc 0e12 84be 2359 043e
000001f0: 8a18 453e a435 953d 5721 fc3d e97d 0b3b
00000200: 37bd 873e 14b8 82be 047a 883e 3178 20bd
00000210: 4b4b 69be 3fda 5d3e a5dd f23d ab25 ebbd
00000220: c2af ac3c c1d9 a7bc 4b94 5f3d 3083 2d3e
00000230: c272 9a3e 7fc5 fabc 5a1a ca3d 4094 f9bd
00000240: eadc d43c 8664 0f3e 714b ab3e 380c 0a3e
00000250: bde6 e03d 3674 c9bd 8ccb b33d c26f 54be
00000260: 5335 543a a9db c03d 0f6d 543c 09b8 ba3d
00000270: b08f 333e c0f0 a2bc 5ce1 fa3d 3b2f e1bc
00000280: 4c60 db3a bfa4 153c 6f91 ea3d d8f0 813d
00000290: 3100 023e 4879 6b3d 75ce 143e 0626 c23d
000002a0: d1f9 573e 31e5 163c fe5f 1ebe 03ff 9a3c
000002b0: 74a7 9bbd 9ba3 2e3c bb9e 663e 5817 1a3d
000002c0: 8adb 963d 4572 873e 8a92 4abe bad5 0e3d
000002d0: f366 ed3d b99d c8bc 80ba f3bd b1cf ab3e
000002e0: 138a b3bd 23af f4bd 2a46 d3be 2be6 dbbc
000002f0: 1da9 fcbc 316c 4e3e 7e81 5f3d 01cb 22bd
00000300: 0655 053e fd14 b23c 07a7 dabc 7781 29bd
00000310: 1678 903d 1446 f23c 13f1 df3d 8237 aa3d
00000320: b9b6 01bd d0fe 263e f1b6 b73d ffb9 9e3c
00000330: d7be 923d ffee 4dbe f3f4 6b3d f457 103e
00000340: 778f 4bbd 837f 93bd 534b cbbd cd56 683c
00000350: fdb3 06bd b4bc c9bd 3b9f 083d 0e31 513e
00000360: c211 ba3d 2079 aebd 4b4d 64bd 56e6 66bd
00000370: 46d4 3b3d b09d 113e 5705 493e 3920 16be
00000380: 3744 1a3e 7d46 d13d 1432 75bd 7868 01be
00000390: 4d5e 4ebd b3ef 403c 7732 f83b 6812 9ebd
000003a0: f890 d9bc 3ebd 3e3e 89d3 953c 606f 99bd
000003b0: db5a 5ebd 34b0 193d cb09 953d 0e28 18bd
000003c0: 502f 79bd 9d60 a53d 0fc0 cdbd c1f1 e1bd
000003d0: f2c8 263e a8b1 4e3d 3aef dab8 7125 533d
000003e0: 7a5b 133e 6a73 bbbd 1835 5dbd dbda 5fbb
000003f0: d249 3fbe 9d6f 1e3e 87e9 85bd 8ed0 dbba

actor.4.bias f4 [36]
-0.10674252 0.044481665 -0.029953029 -0.06717573 0.102573045 -0.158202 0.105126135 0.13749187
-0.012407928 -0.08452305 -0.07237205 -0.008961533 -0.03274713 0.09126188 0.072725445 -0.1137945
-0.10688922 -0.15207925 -0.08705827 -0.013301373 -0.14870484 0.02436182 -0.0012406142 -0.11317372
0.099088356 0.05842303 0.09742605 0.016828202 0.015273603 0.046884604 0.0805926 -0.036435187
-0.018238153 0.07165664 0.05286187 0.20810676
00000000: d39b dabd 6832 363d 0e60 f5bc 6e93 89bd
00000010: d111 d23d b5ff 21be 5f4c d73d abca 0c3e
00000020: 9f4a 4bbc 6c1a adbd cc37 94bd 65d3 12bc
00000030: db21 06bd 82e7 ba3d 14f1 943d 170d e9bd
00000040: bce8 dabd aaba 1bbe 9b4b b2bd 01ee 59bc
00000050: 1546 18be 7192 c73c 1b9c a2ba a0c7 e7bd
00000060: d6ee ca3d fd4c 6f3d 4f87 c73d 4cdb 893c
00000070: 223e 7a3c 120a 403d bc0d a53d 103d 15bd
00000080: 2e68 95bc b7c0 923d b085 583d f019 553e

critic.0.weight f4 [64, 62]
0.07635647 0.08354457 -0.083908446 0.009482246 -0.087362826 -0.02843426 -0.001182271 0.026825828
-0.07507219 -0.020640172 -0.073641 -0.074144855 -0.07396221 -0.08779686 -0.10323299 -0.11229831
-0.008365868 -0.107972465 -0.12109008 0.089093745 -0.09144983 0.08891198 0.0087930765 -0.018583413
0.09826457 -0.09916525 0.060841322 0.084765814 0.061674103 -0.17529689 0.0147794625 -0.054550637
-0.09423055 0.08673783 -0.022362862 0.0858983 -0.068384334 -0.056324437 0.034844782 0.014545759
0.10041739 0.081809185 0.14682205 -0.096229956 0.001081017 0.06671307 -0.056854557 -0.106016256
0.10371083 -0.15678166 -0.08102558 -0.108064055 0.03142459 0.018177057 -0.10103404 0.06331671
0.030927507 0.043020763 -0.13722023 -0.07150515 -0.100440755 -0.052172713 -0.1128423 0.06433067
-0.017239168 -0.050084185 -0.08321161 0.019977339 0.10725305 0.036686752 -0.15651138 -0.19508433
0.03995656 0.22353192 -0.081324264 0.05916041 0.11539576 0.08396904 0.10398414 0.10897633
0.06814908 -0.006805929 -0.032562602 -0.12126438 0.066823736 -0.028784275 0.019905403 -0.028680766
0.08202378 0.0040353225 0.13147151 0.18816641 0.114293404 0.17792244 0.05880494 -0.07486796
0.08931295 0.098380856 -0.0005186842 -0.15684262 0.021738501 0.146447 -0.06095531 -0.024135819
-0.03346416 -0.053416602 -0.14573523 -0.1434454 0.036335576 0.043132782 -0.056259412 -0.15760846
0.02660311 -0.0067306478 -0.046657264 -0.057721473 -0.09116216 -0.052996837 0.11122042 0.04889541
0.0051251333 0.10231779 0.0012762175 0.031319898 -0.10513134 0.07965675 0.105171435 0.048618447
-0.027986325 -0.27388713 0.029784271 -0.16232532 0.20806916 -0.0052867574 0.0111103915 0.06340152
-0.14730625 0.025508052 -0.032754857 -0.10565222 -0.019912245 -0.07501419 0.11838697 -0.10327836
0.11854204 -0.02147506 0.022991564 0.1105881 -0.05876423 -0.04705589 0.052543417 -0.032175787
-0.0522348 0.03225141 -0.03463264 0.009299997 -0.055639885 0.051634572 0.012293336 -0.097683206
0.038504437 0.09230386 -0.08596174 0.11712302 -0.08789119 -0.09099413 0.061962795 -0.01718585
0.11677609 -0.03033131 0.022886908 0.031551875 -0.092409104 0.07534733 -0.03135989 0.0935166
0.06040179 0.1286918 0.12174469 -0.13751091 -0.08738893 -0.007129992 -0.077055216 0.14306079
0.113764286 0.040237118 -0.11501763 -0.11673309 -0.10628424 0.08884689 0.0096278265 -0.13357979
-0.10660131 0.06641173 -0.031945955 -0.16914865 -0.057706736 0.06217143 0.047039587 -0.012799983
-0.016665427 -0.01594303 -0.037932936 -0.07882174 -0.08388044 0.08991102 0.021075178 0.041679714
-0.092292465 0.023545597 0.11313734 0.06955967 -0.0055553075 -0.05846521 0.18040924 -0.07234703
-0.045987826 -0.038682256 -0.03601746 -0.0050054374 -0.029890707 -0.07533561 -0.09535902 -0.03823299
-0.08632862 0.103807166 0.054970797 -0.15057313 0.04811901 0.075528055 -0.03811925 -0.085632496
-0.04429932 0.00855597 -0.043363124 -0.054639082 -0.0620598 -0.1093657 0.08939693 -0.05185674
-0.05210511 -0.03697265 -0.099317804 -0.01956514 -0.012389023 0.078783564 -0.047440767 -0.06570193
0.06834458 0.09007455 -0.1143471 -0.0821262 -0.11804324 -0.05363535 0.040787958 0.10247035
00000000: c860 9c3d 6a19 ab3d 31d8 abbd 6c5b 1b3c
00000010: 48eb b2bd f7ee e8bc 6ff6 9aba d7c1 db3c
00000020: 73bf 99bd 9415 a9bc 18d1 96bd 42d9 97bd
00000030: 8079 97bd d7ce b3bd d16b d3bd a8fc e5bd
00000040: fe10 09bc ab20 ddbd 13fe f7bd c876 b63d
00000050: 0c4a bbbd 7c17 b63d d610 103c 3e3c 98bc
00000060: ef3e c93d 2717 cbbd c034 793d b399 ad3d
00000070: fc9d 7c3d 0781 33be 8f25 723c 7d70 5fbd
00000080: f2fb c0bd 9aa3 b13d 5232 b7bc 73eb af3d
00000090: 160d 8cbd 74b4 66bd 67b9 0e3d 5651 6e3c
000000a0: a2a7 cd3d 938b a73d 8558 163e 3614 c5bd
000000b0: e9b0 8d3a dda0 883d 53e0 68bd 0d1f d9bd
000000c0: 5866 d43d 5f8b 20be bdf0 a5bd b050 ddbd
000000d0: 12b7 003d 0de8 943c efea cebd 31ac 813d
000000e0: af5b fd3c 8a36 303d 7683 0cbe 4b71 92bd
000000f0: e2b3 cdbd 0eb3 55bd dd19 e7bd ccbf 833d
00000100: 2839 8dbc 1325 4dbd d96a aabd 84a7 a33c
00000110: 7da7 db3d d944 163d 8544 20be 30c4 47be
00000120: 7da9 233d 8de5 643e 568d a6bd 3052 723d
00000130: 9d54 ec3d f6f7 ab3d a3f5 d43d fb2e df3d
00000140: bf91 8b3d 4504 dfbb 5d60 05bd 7659 f8bd
00000150: e2da 883d 00cd ebbc a810 a33c edf3 eabc
00000160: 15fc a73d bd3a 843b 78a0 063e b2ae 403e
00000170: a912 ea3d 4d31 363e 73dd 703d 5f54 99bd
00000180: b5e9 b63d e77b c93d 4ff8 07ba 5a9b 20be
00000190: f114 b23c 34f6 153e 46ac 79bd 7bb8 c5bc
000001a0: b711 09bd 5ecb 5abd 9e3b 15be 5ae3 12be
000001b0: 9dd4 143d 00ac 303d 4570 66bd 1d64 21be
000001c0: c4ee d93c c48c dcbb b01b 3fbd 5a6d 6cbd
000001d0: 3ab3 babd 3613 59bd 88c7 e33d 8e46 483d
000001e0: bcf0 a73b fd8b d13d c146 a73a 4b49 003d
000001f0: 1a4f d7bd 1423 a33d 1f64 d73d 2324 473d
00000200: 9443 e5bc ef3a 8cbe 25fe f33c 9c38 26be
00000210: 1510 553e 893c adbb 5c08 363c a8d8 813d
00000220: 73d7 16be 43f6 d03c f529 06bd 3160 d8bd
00000230: 011f a3bc 0aa1 99bd de74 f23d 9b83 d3bd
00000240: 2bc6 f23d 77ec afbc ce58 bc3c 047c e23d
00000250: c3b2 70bd adbd 40bd c437 573d c2ca 03bd
00000260: 28f4 55bd 0e1a 043d f5da 0dbd 045f 183c
00000270: a6e6 63bd c67e 533d fd69 493c 220e c8bd
00000280: d4b6 1d3d ce09 bd3d b50c b0bd 32de ef3d
00000290: 4c00 b4bd 215b babd b3cc 7d3d 57c9 8cbc
000002a0: 4d28 ef3d 5e79 f8bc 537d bb3c 8a3c 013d
000002b0: fc40 bdbd b34f 9a3d 3a73 00bd a285 bf3d
000002c0: de67 773d c9c7 033e 4855 f93d a9cf 0cbe
000002d0: f8f8 b2bd b5a2 e9bb 20cf 9dbd 877e 123e
000002e0: 40fd e83d adcf 243d 5d8e ebbd c211 efbd
000002f0: 8dab d9bd 5cf5 b53d 08be 1d3c 24c9 08be
00000300: ca51 dabd e002 883d c3d9 02bd 4e35 2dbe
00000310: e65d 6cbd 78a7 7e3d 95ac 403d 05b7 51bc
00000320: ef85 88bc f59a 82bc 915f 1bbd 4b6d a1bd
00000330: 82c9 abbd 4523 b83d daa5 ac3c 59b8 2a3d
00000340: d503 bdbd b2e2 c03c 8db4 e73d 4d75 8e3d
00000350: 4c09 b6bb 3779 6fbd 33bd 383e ae2a 94bd
00000360: bb5d 3cbd 4971 1ebd 0b87 13bd a704 a4bb
00000370: 5bdd f4bc 8e49 9abd 974b c3bd 329a 1cbd
00000380: 0fcd b0bd da98 d43d 0f29 613d d82f 1abe
00000390: 7018 453d 74ae 9a3d ee22 1cbd 1760 afbd
000003a0: 3473 35bd 572e 0c3c 889d 31bd 3bcd 5fbd
000003b0: 6b32 7ebd 20fb dfbd bd15 b73d bc67 54bd
000003c0: 2b6c 55bd a270 17bd 2267 cbbd 1347 a0bc
000003d0: 54fb 4abc 4759 a13d 4051 42bd bc8e 86bd
000003e0: 3ef8 8b3d 0179 b83d d02e eabd c831 a8bd
000003f0: a7c0 f1bd beb0 5bbd 4611 273d fadb d13d

critic.0.bias f4 [64]
-0.13654141 0.076512024 -0.016477417 0.0133037055 -0.047130164 -0.005211855 -0.03795689 -0.14925952
-0.14403221 -0.074224524 -0.054526575 0.0028352772 -0.016026253 -0.1318833 -0.0734032 0.03351765
-0.09647091 -0.014087705 -0.05728811 -0.013766071 -0.0020540443 0.0094886655 -0.016630132 -0.016614806
0.050714687 -0.009315517 -0.09844271 0.00480307 0.11003124 -0.0008596925 -0.04891927 -0.08385385
-0.035007432 -0.049484655 -0.054007344 0.049379103 0.02160567 0.11866755 -0.04001803 0.111491546
-0.14052254 -0.07187211 -0.07272049 -0.020120503 -0.16416709 -0.05513825 0.03783408 0.0442738
0.05209323 -0.042628195 0.08301391 -0.08622172 0.05065353 -0.12559906 -0.1193729 -0.1371126
0.01463432 -0.024670761 -0.11564227 0.0047965315 0.06017231 -0.13358037 -0.1663004 -0.11216
00000000: 83d1 0bbe 56b2 9c3d a6fb 86bc c9f7 593c
00000010: 8f0b 41bd 35c8 aabb af78 1bbd 7dd7 18be
00000020: 2e7d 13be 0703 98bd 4257 5fbd 0fd0 393b
00000030: 7d49 83bc 6a0c 07be 6b54 96bd ce49 093d
00000040: 8a92 c5bd 1ed0 66bc f0a6 6abd 168b 61bc
00000050: 259d 06bb 5976 1b3c ea3b 88bc c61b 88bc
00000060: 34ba 4f3d 1ca0 18bc 559c c9bd 1263 9d3b
00000070: 0f58 e13d fd5c 61ba 935f 48bd 91bb abbd
00000080: f463 0fbd 6cb0 4abd ce36 5dbd be41 4a3d
00000090: 60fe b03c f907 f33d f2e9 23bd ae55 e43d
000000a0: 24e5 0fbe af31 93bd 7bee 94bd c1d3 a4bc
000000b0: 6b1b 28be a5d8 61bd e9f7 1a3d 7258 353d
000000c0: b65f 553d e79a 2ebd 3203 aa3d 0395 b0bd
000000d0: 137a 4f3d 0a9d 00be c779 f4bd 3f67 0cbe
000000e0: c9c4 6f3c 561a cabc dbd5 ecbd 392c 9d3b
000000f0: 3d77 763d 4bc9 08be a74a 2abe 24b4 e5bd

critic.2.weight f4 [64, 64]
-0.0065988167 0.14162269 0.015903374 -0.019848932 0.06292152 -0.035159018 0.041383367 0.1324087
0.0064182472 -0.047283605 -0.08980155 0.19987544 -0.09112121 0.081190325 0.039349195 -0.02129724
0.106270246 0.19578025 -0.06404972 0.11169004 -0.06510811 -0.16020605 0.062102184 0.122029185
-0.18339589 -0.080888204 -0.119931445 -0.02114722 -0.04541485 0.08249255 0.016192436 -0.028996931
0.12108618 -0.06734843 0.025218599 0.11881071 -0.1610925 0.044109467 -0.0054568592 -0.2557708
-0.07269614 0.10662987 0.02652782 -0.15560092 -0.038259465 -0.122975804 0.02058356 -0.1119654
0.11904843 0.040965572 -0.036070786 0.116637275 -0.009926753 -0.086366415 -0.10891888 -0.050649036
0.07644034 -0.0199994 0.01072172 -0.07683968 -0.007174284 -0.06530302 0.0956249 -0.11534894
0.018165475 -0.0026542114 -0.009604753 -0.02474858 -0.1239225 -0.06327793 -0.07848721 0.12952542
-0.041766882 -0.116831705 -0.10938679 -0.07375473 -0.047765758 -0.09303797 -0.08757389 -0.03935304
0.08135062 -0.0900967 -0.00876217 0.07871351 0.08449313 0.039772835 0.0518515 -0.030197479
-0.08340347 -0.11186542 -0.10428394 0.06649073 0.0109528415 -0.12439808 -0.09141522 -0.044148684
0.08895271 -0.005088868 -0.0048270877 -0.016789747 -0.00487334 0.050069634 0.012680653 -0.03660238
0.124907136 0.05698754 0.030513579 0.05739265 0.06973865 -0.021692606 -0.0077846353 -0.07110032
-0.072664574 -0.008916592 -0.100185074 0.07870021 -0.10443469 -0.07456337 -0.013306046 0.06261483
-0.08504745 -0.04545222 0.082129285 -0.12401374 0.12010993 0.04522128 0.010970833 -0.0055886363
0.0893957 -0.052258946 0.053851157 0.12313108 -0.17443591 0.028617604 0.06870697 0.000872287
-0.0051586847 -0.013751302 -0.031436324 -0.2120931 -0.0795832 -0.004429191 0.030867847 -0.0595826
-0.16481972 0.04401095 0.04122479 -0.10481891 0.049563568 0.15870999 0.1168206 0.13194199
-0.02801529 0.098382436 0.08903225 -0.13127145 0.118758045 -0.14553824 0.09312309 -0.09025214
-0.053422064 -0.03183606 0.07689475 -0.15436096 0.11993836 0.021513453 0.052750267 0.05254426
0.004506932 0.07743696 -0.030946413 -0.011884281 -0.039068166 -0.10005334 0.049062245 0.11344154
0.0681053 -0.0056750304 -0.06619447 -0.075256 0.10947958 0.022213047 -0.019989228 0.03839503
-0.03788679 -0.043164793 -0.09465507 -0.06866935 -0.03613814 -0.03372483 0.10199131 -0.11255778
0.010623517 -0.07184032 -0.14388739 -0.014323601 -0.0106591005 -0.10937573 0.055280723 -0.03613325
-0.12700649 -0.08732339 -0.010866367 -0.07229612 0.054026134 -0.21097203 0.09958186 0.0928146
0.06758109 -0.09652807 -0.18323743 0.03781361 0.0026043367 0.038506724 -0.09390841 0.021423047
-0.12439594 -0.102041565 -0.0011403011 -0.00033748086 0.008275305 -0.105782226 0.09413973 -0.11689898
-0.0015298206 0.076652795 -0.0684607 -0.15986757 -0.019966688 -0.13758834 -0.09119986 -0.11834987
-0.065861195 0.13418645 -0.10057297 0.051202755 -0.13459317 0.09367572 -0.083397776 0.00474293
-0.0406412 -0.03576153 -0.12645103 -0.07352356 0.0027045852 0.047737624 -0.06795169 0.12993686
-0.03380389 0.11498069 -0.11517973 -0.051950283 -0.093566574 -0.06532879 0.090264075 0.1363313
00000000: e33a d8bb 8a05 113e cb47 823c 3a9a a2bc
00000010: ffdc 803d e702 10bd 9b81 293d 2596 073e
00000020: 2950 d23b 74ac 41bd e0e9 b7bd 26ac 4c3e
00000030: c29d babd 1d47 a63d 9f2c 213d 8d77 aebc
00000040: 37a4 d93d 9e7a 483e 802c 83bd bfbd e43d
00000050: 6757 85bd 0e0d 24be dc5e 7e3d 70ea f93d
00000060: 22cc 3bbe b7a8 a5bd 9e9e f5bd ef3c adbc
00000070: ec04 3abd dbf1 a83d 00a6 843c f98a edbc
00000080: 08fc f73d f9ed 89bd 3c97 ce3c 0853 f33d
00000090: 6ff5 24be 21ac 343d 74cf b2bb 64f4 82be
000000a0: b7e1 94bd c360 da3d df50 d93c d955 1fbe
000000b0: f5b5 1cbd bdda fbbd db9e a83c 1e4e e5bd
000000c0: aacf f33d 84cb 273d f6be 13bd 86df ee3d
000000d0: d2a3 22bc e0e0 b0bd dd10 dfbd 5d75 4fbd
000000e0: c18c 9c3d c8d5 a3bc 27aa 2f3c 1f5e 9dbd
000000f0: 4216 ebbb 97bd 85bd fdd6 c33d 113c ecbd
00000100: c3cf 943c 47f2 2dbb 415d 1dbc 89bd cabc
00000110: 14cb fdbd dc97 81bd e7bd a0bd 50a2 043e
00000120: c013 2bbd 7645 efbd 2e06 e0bd b80c 97bd
00000130: 07a6 43bd b18a bebd f159 b3bd a730 21bd
00000140: 279b a63d 9e84 b8bd 348f 0fbc 8c34 a13d
00000150: bc0a ad3d d7e8 223d 3d62 543d b460 f7bc
00000160: 70cf aabd b319 e5bd d192 d5bd 4b2c 883d
00000170: 8c73 333c 6cc4 febd e737 bbbd 40d5 34bd
00000180: d72c b63d 85c0 a6bb 8c2c 9ebb a78a 89bc
00000190: 8ab0 9fbb d115 4d3d 83c2 4f3c 61ec 15bd
000001a0: 50cf ff3d c46b 693d 9df7 f93c 8e14 6b3d
000001b0: 23d3 8e3d b1b4 b1bc 4116 ffbb 0b9d 91bd
000001c0: 2ad1 94bd e616 12bc d52d cdbd 932d a13d
000001d0: dbe1 d5bd aeb4 98bd 9a01 5abc 343c 803d
000001e0: 5c2d aebd 1b2c 3abd 6633 a83d eafa fdbd
000001f0: 32fc f53d f339 393d 02bf 333c e120 b7bb
00000200: 1815 b73d 7a0d 56bd 0893 5c3d 262c fc3d
00000210: 549f 32be 776f ea3c 3db6 8c3d 31aa 643a
00000220: 2f0a a9bb 244d 61bc 60c3 00bd ef2e 59be
00000230: 84fc a2bd bf22 91bb 91de fc3c e20c 74bd
00000240: 80c6 28be d344 343d 53db 283d 4cab d6bd
00000250: 2b03 4b3d df84 223e a43f ef3d cd1b 073e
00000260: 5280 e5bc bb7c c93d 8a56 b63d 066c 06be
00000270: 6b37 f33d fa07 15be 52b7 be3d 1dd6 b8bd
00000280: 18d1 5abd 8766 02bd ff7a 9d3d cd10 1ebe
00000290: 3ea2 f53d fb3c b03c aa10 583d a638 573d
000002a0: e3ae 933b 4597 9e3d 5583 fdbc 4ab6 42bc
000002b0: f105 20bd c4e8 ccbd 7ef5 483d 0a54 e83d
000002c0: cb7a 8b3d 9bf5 b9bb f790 87bd d11f 9abd
000002d0: d436 e03d 23f8 b53c 73c0 a3bc 1b44 1d3d
000002e0: 2e2f 1bbd 91cd 30bd 84da c1bd 84a2 8cbd
000002f0: 9605 14bd 0c23 0abd d2e0 d03d b284 e6bd
00000300: 430e 2e3c 0521 93bd 3757 13be 89ad 6abc
00000310: 82a3 2ebc 6200 e0bd 0a6e 623d 7500 14bd
00000320: fd0d 02be 9bd6 b2bd d908 32bc fd0f 94bd
00000330: 824a 5d3d 0d09 58be 93f1 cb3d 9515 be3d
00000340: f467 8a3d 82b0 c5bd 98a2 3bbe 72e2 1a3d
00000350: 85ad 2a3b 3ab9 1d3d 0d53 c0bd 637f af3c
00000360: 4cc3 febd 2bfb d0bd 2876 95ba eaef b0b9
00000370: 2595 073c 5aa4 d8bd 55cc c03d bc68 efbd
00000380: 4384 c8ba 24fc 9c3d 2035 8cbd 53b4 23be
00000390: 2e91 a3bc f5e3 0cbe fec6 babd 6b61 f2bd
000003a0: 3ce2 86bd 2c68 093e 34f9 cdbd fbb9 513d
000003b0: cbd2 09be 0ed9 bf3d 74cc aabd 956a 9b3b
000003c0: 6377 26bd af7a 12bd 617c 01be 8593 96bd
000003d0: 693f 313b 8788 433d 412a 8bbd 2b0e 053e
000003e0: f375 0abd ff7a eb3d 5ae3 ebbd d2c9 54bd
000003f0: d59f bfbd 1acb 85bd 5fdc b83d 6f9a 0b3e

critic.2.bias f4 [64]
0.05397104 -0.068873584 0.016991928 -0.07926744 -0.08017373 -0.07548738 -0.051272005 -0.12077129
-0.08989886 0.03540084 0.028337454 0.11937673 0.025974631 0.07726517 0.027168771 0.0009058903
-0.071164526 -0.10362745 0.096023194 0.052920826 0.117958255 0.07022575 -0.035150595 -0.1325691
0.123465315 -0.01197839 -0.0920071 -0.05258382 0.009926003 0.08795187 -0.02057631 -0.016073583
-0.031832974 -0.02421931 0.087286726 -0.0018872728 -0.058167584 -0.06364001 0.00086030917 -0.027380446
0.069923066 -0.08793427 -0.024290124 0.051347442 0.031288516 0.06045099 -0.08634255 -0.013080484
-0.037186585 0.1052954 0.108918354 -0.10098898 -0.043940436 -0.09359228 0.043880876 0.035598807
0.066448905 0.006759448 -0.031234486 -0.00805413 -0.12008475 -0.022799628 -0.08859249 -0.11442471
00000000: bd10 5d3d 980d 8dbd a832 8b3c f856 a2bd
00000010: 2032 a4bd 2199 9abd 9802 52bd f056 f7bd
00000020: e51c b8bd 7900 113d f323 e83c c97b f43d
00000030: c0c8 d43c 343d 9e3d 0b91 de3c 4579 6d3a
00000040: b5be 91bd a13a d4bd cfa7 c43d 82c3 583d
00000050: 1994 f13d 85d2 8f3d 12fa 0fbd 32c0 07be
00000060: 62db fc3d 0241 44bc 386e bcbd 2262 57bd
00000070: ada0 223c 1c20 b43d a68f a8bc bfac 83bc
00000080: 4b63 02bd 9367 c6bc 62c3 b23d 5e5e f7ba
00000090: 2241 6ebd b255 82bd 5f86 613a f54c e0bc
000000a0: d333 8f3d e216 b4bd 15fc c6bc b251 523d
000000b0: 6328 003d 759b 773d 5dd4 b0bd 874f 56bc
000000c0: f650 18bd 1da5 d73d 9610 df3d 4fd3 cebd
000000d0: e3fa 33bd 4fad bfbd 6fbc 333d 0ed0 113d
000000e0: 5d16 883d 5c7e dd3b 77df ffbc 78f5 03bc
000000f0: feee f5bd 49c6 babc fb6f b5bd 8157 eabd

critic.4.weight f4 [1, 64]
-0.09764388 0.03467778 0.09451187 -0.029500825 -0.19055855 -0.04115412 0.04302887 0.093683474
0.10230279 -0.10187329 0.088957675 0.007669755 0.0062806103 0.08408308 -0.062386923 -0.0015341368
-0.007319072 0.040205117 0.044304423 0.06476039 -0.007925852 0.0030864375 -0.10842191 0.09052752
0.024623295 -0.11756051 -0.002307367 -0.10634966 -0.0059717507 -0.0075450707 -0.062964864 0.038578037
0.026441384 0.12904406 -0.061540246 0.0008268281 -0.06162409 -0.041377295 -0.18411519 0.11116776
0.0030174567 0.078067675 0.09424182 -0.013392857 -0.10461762 0.12430514 0.032802537 0.076058626
-0.034413047 -0.09230356 -0.12603411 0.027318045 0.10208867 -0.006940323 -0.004472614 0.015902054
0.01576495 -0.00823074 -0.035878204 -0.016552154 -0.03583455 0.024786292 -0.08547119 -0.091658935
00000000: 84f9 c7bd 4a0a 0e3d 708f c13d b7ab f1bc
00000010: c821 43be 3991 28bd 0a3f 303d 1fdd bf3d
00000020: 2084 d13d f2a2 d0bd 712f b63d 9152 fb3b
00000030: 94cd cd3b c033 ac3d 6e89 7fbd 1715 c9ba
00000040: d3d4 efbb 1fae 243d 8e78 353d 18a1 843d
00000050: 6fdb 01bc d445 4a3b 4e0c debd 7e66 b93d
00000060: cbb6 c93c 91c3 f0bd 3237 17bb dacd d9bd
00000070: adae c3bb a43c f7bb b9f3 80bd 0104 1e3d
00000080: 9a9b d83c 2024 043e a011 7cbd 7fbf 583a
00000090: 8b69 7cbd 3d7b 29bd b188 3cbe ecab e33d
000000a0: 86c0 453b f2e1 9f3d db01 c13d b76d 5bbc
000000b0: c341 d6bd b193 fe3d f45b 063d a0c4 9b3d
000000c0: b2f4 0cbd a609 bdbd 160f 01be 18ca df3c
000000d0: dd13 d13d a66b e3bb 018f 92bb 0645 823c
000000e0: 7f25 813c 3ada 06bc 06f5 12bd 6298 87bc
000000f0: 40c7 12bd 9f0c cb3c 850b afbd aeb7 bbbd
