CybORG/CybORG/Models/bline_train/100000.pth (torch, 78579 bytes, 11 tensors)

actor.0.weight f4 [64, 62]
0	0xba7940ed	-0.0009508271
1	0x3d8b86e7	0.0681284
2	0xbdd6122a	-0.10452683
3	0xbdbf6a3c	-0.093464345
4	0xbeb6dea6	-0.35716742
5	0xbe39946b	-0.18123023
6	0xbd85097b	-0.06495949
7	0x3e41e375	0.18934424
8	0xbe9abd40	-0.3022251
9	0xbe4fdd3f	-0.20299242
10	0xbe77ba1d	-0.2419209
11	0xbef9a27f	-0.48756787
12	0xbea75038	-0.3267839
13	0x3d3de77a	0.04636333
14	0xbd9eefb1	-0.07760561
15	0xbdc69008	-0.096954405
16	0x3d4da681	0.05020762
17	0x3d9c104d	0.076202966
18	0xbdb05477	-0.086098604
19	0xbd628646	-0.055303834
20	0x3d3cf15d	0.04612862
21	0x3dd7fb15	0.10545937
22	0xbcd61c86	-0.026136648
23	0x3dc2a212	0.09503569
24	0xbca7b158	-0.020470306
25	0x3c5c2cc0	0.013438404
26	0x3deb82cf	0.11499559
27	0xbdf14899	-0.11781425
28	0xbf1e1cff	-0.61762995
29	0xbdc7340f	-0.09726726
30	0x3e11dd32	0.14244536
31	0x3f1d79db	0.6151406
32	0xbda896cf	-0.082318895
33	0xbd6f7633	-0.058462333
34	0xbdb5b6b9	-0.08872742
35	0xbdf39894	-0.11894336
36	0x3f27f02e	0.6560086
37	0x3f0fed9c	0.5622194
38	0x3e5d3c7f	0.21605109
39	0x3dcc312f	0.099703185
40	0x3cde5590	0.027140409
41	0x3f07075c	0.52745605
42	0x3c727d20	0.01480034
43	0x3d92e7de	0.071731314
44	0xbd81997e	-0.063281044
45	0xbed6334f	-0.4183602
46	0x3d966156	0.07342784
47	0xbd90b01a	-0.07064839
48	0x3d8fed35	0.070276655
49	0x3e35ee9b	0.17766802
50	0x3e42f67f	0.19039343
51	0x3e0dff17	0.1386684
52	0x3d4e7484	0.050404087
53	0xbe7cd7b5	-0.2469166
54	0x3d745377	0.05964991
55	0xbe1d6a73	-0.15372638
56	0x3e926a32	0.28596646
57	0xbdc9a770	-0.09846389
58	0xbd8c7401	-0.068580635
59	0xbd9cbe0e	-0.076534376
60	0x3e5f530a	0.2180902
61	0x3dbdbf65	0.09265021
62	0xbd9a1194	-0.07522884
63	0x3d1d2763	0.03836764
64	0x3d8ec91b	0.069719516
65	0xbc83508d	-0.01602962
66	0xbd0f82fd	-0.03503703
67	0x3e48c287	0.19605456
68	0x3ebc78e9	0.36810997
69	0x3e70e26a	0.2352387
70	0xbd4eef58	-0.050521225
71	0x3ecb3ae1	0.3969336
72	0x3e0e7b9f	0.13914345
73	0x3f555473	0.83331984
74	0x3e3722f5	0.17884429
75	0xbe8c17bb	-0.27361855
76	0x3e646596	0.22304377
77	0xbdfc1384	-0.1230841
78	0x3c3f6a4d	0.011683059
79	0xbda2b7b5	-0.079451956
80	0xbdf265d5	-0.11835829
81	0x3de717f4	0.112838656
82	0x3dc5c448	0.09656578
83	0xbe01ba05	-0.12668617
84	0x3cc2bb23	0.023770874
85	0xbcaf4366	-0.021394443
86	0xbcab34fb	-0.020899286
87	0xbd6e1f27	-0.058135178
88	0x3d480b12	0.048838682
89	0xbd9a0e51	-0.07522262
90	0x3db7d65f	0.08976435
91	0x3dd7b7f8	0.10533136
92	0x3e98f62a	0.29875308
93	0x3ee59bf2	0.4484554
94	0xbe00b695	-0.1256965
95	0xbda8b940	-0.08238459
96	0x3d81deb6	0.06341307
97	0x3cd9c105	0.026581297
98	0xbe8846c5	-0.26616493
99	0xbe025848	-0.12728989
100	0x3d57875e	0.05261933
101	0x3dc3c548	0.09559113
102	0xbe30a78f	-0.17251419
103	0xbebb09ca	-0.36530906
104	0xbe3a779d	-0.18209691
105	0xbda9760c	-0.08274469
106	0xbe2894c8	-0.16463006
107	0x3d95026e	0.07275854
108	0x3d92c107	0.07165723
109	0x3e2cb0ef	0.1686437
110	0xbca068ae	-0.019581165
111	0x3e85969c	0.26091468
112	0x3d89cc85	0.06728462
113	0x3dda5e77	0.10662549
114	0x3db23e72	0.08703317
115	0xbeef1404	-0.46694958
116	0xbe2a7eb2	-0.16649893
117	0x3da29eaf	0.07940423
118	0x3e65c48d	0.2243826
119	0x3cf6c0a8	0.030121163
120	0x3c3f270f	0.011667027
121	0xbe80f8a4	-0.25189698
122	0xbd2c12bc	-0.042010054
123	0x3e0a1805	0.13485725
124	0xbdf97f3e	-0.12182473
125	0xbd9a2929	-0.07527382
126	0xbd02383f	-0.03179192
127	0xbd7d6489	-0.061863456
128	0xbd9dd6a8	-0.07706958
129	0xbe9e09f3	-0.30866966
130	0xbecf94b2	-0.40543133
131	0xbea1b6c3	-0.3158475
132	0xbef284ac	-0.47366846
133	0xbc6dfd69	-0.01452575
134	0x3e1372ba	0.14399233
135	0x3e354d04	0.1770516
136	0xbe991009	-0.29895046
137	0xbe468888	-0.1938802
138	0x3e6477b2	0.22311285
139	0x3ed5a3a5	0.41726413
140	0x3df6600c	0.12030038
141	0x3da52cf8	0.08065218
142	0x3df6f05c	0.12057564
143	0xbc167c17	-0.009184859
144	0xbde9a66a	-0.11408694
145	0xbd769c86	-0.060207866
146	0x3db119d4	0.086475044
147	0xba57d11e	-0.000823276
148	0xbd8147a7	-0.06312495
149	0xbdc75098	-0.09732169
150	0xbdf3695f	-0.11885332
151	0xbddb85fc	-0.10718915
152	0x3eb22660	0.34794903
153	0x3df50f3b	0.119657956
154	0x3d2dd12f	0.04243582
155	0xbc3331bb	-0.01093715
156	0x3da23e4e	0.0792204
157	0xbdcb871c	-0.099378794
158	0xbcdbf2b6	-0.026849132
159	0xbd52ec80	-0.051495075
160	0xbef90a4e	-0.48640674
161	0xbed4165f	-0.41423318
162	0xba16d424	-0.00057536573
163	0xbdf21f31	-0.118223555
164	0xbeb35749	-0.3502753
165	0xbf232152	-0.6372272
166	0xbd7d9cde	-0.06191718
167	0x3c7924db	0.015206541
168	0xbe918ed1	-0.28429273
169	0xbda74bcc	-0.08168754
170	0x3e0276ff	0.12740706
171	0x3d305adf	0.04305541
172	0xbd7f0f66	-0.062270544
173	0xbd96cdf9	-0.07363505
174	0xbe5f6031	-0.21814038
175	0x3e0f5867	0.13998567
176	0xbc701bff	-0.014655112
177	0xbe497854	-0.19674808
178	0x3e06a57a	0.13149062
179	0x3df90042	0.12158252
180	0x3d07ee60	0.033186316
181	0xbcd9d2f6	-0.026589852
182	0x3d8e5a10	0.06950772
183	0xbd6e5277	-0.058184113
184	0x3dd84904	0.105608016
185	0x3e08b6f2	0.13351038
186	0xbcfa2fb0	-0.030540317
187	0xbcdacc74	-0.026708819
188	0xbdd6572a	-0.10465844
189	0x3d8cee7f	0.06881427
190	0xbe4dc373	-0.20094089
191	0xbe93a9c0	-0.28840446
192	0xbeca0749	-0.39458683
193	0xbf1f480e	-0.6221932
194	0xbded63e3	-0.115913175
195	0x3eda1bac	0.42599237
196	0x3e501cd8	0.20323503
197	0x3f50602e	0.8139676
198	0xbdd8dd2a	-0.10589059
199	0x3e35cb87	0.17753421
200	0xbe2abe53	-0.16674165
201	0xbd597ef8	-0.053099602
202	0xbdc49caa	-0.09600194
203	0xbdb28f2c	-0.08718714
204	0xbd970724	-0.07374409
205	0x3db60cd1	0.08889163
206	0xbd3afdb2	-0.0456521
207	0x3ddb6364	0.10712317
208	0x3d3c1b05	0.045924205
209	0x3c83bd64	0.01608152
210	0xba77d42e	-0.00094539195
211	0xbccdaa38	-0.02510558
212	0x3c828887	0.015934242
213	0xbced90fe	-0.028999802
214	0x3ddb4e58	0.10708302
215	0x3d04e088	0.032440692
216	0xbe1184b7	-0.14210783
217	0xbe705547	-0.2347003
218	0x3dd2069d	0.10255168
219	0xbdd3148b	-0.10306653
220	0xbc156984	-0.009119395
221	0x3e00a60e	0.12563345
222	0xbe772435	-0.24134906
223	0x3d9b32de	0.075780615
224	0xbe61d69e	-0.22054526
225	0xbd277dee	-0.04089158
226	0x3d91fb04	0.071279556
227	0xbf16a665	-0.5884765
228	0x3eb683aa	0.35647327
229	0xbccd942d	-0.02509507
230	0xbdd47dcf	-0.103755586
231	0x3de1d4ba	0.110269025
232	0x3e53a1b6	0.20667157
233	0xbd140e6f	-0.036146577
234	0x3e197db0	0.14989352
235	0xbc732818	-0.014841102
236	0x3ef368a2	0.47540766
237	0x3d9487aa	0.07252438
238	0xbd5c787d	-0.053825844
239	0xbe40f24c	-0.18842429
240	0xbd427fff	-0.047485348
241	0x3e8396ce	0.25700992
242	0xbdccacb9	-0.09993882
243	0x39552f82	0.00020330961
244	0xbe1e743b	-0.15474026
245	0x3d8782b8	0.066167295
246	0x3e0c1c2b	0.1368262
247	0x3bbe15b9	0.0058009294
248	0x3ae56cfc	0.0017503793
249	0xbcb0e205	-0.02159215
250	0xbd88fc54	-0.06688753
251	0x3c89823e	0.016785737
252	0xbccde5a1	-0.02513391
253	0xbe8037dc	-0.25042617
254	0x3d0347ae	0.03205078
255	0xbe26237f	-0.16224478

actor.0.bias f4 [64]
0	0xbe305870	-0.17221236
1	0xbd8092e5	-0.06278018
2	0x3cab9e27	0.020949436
3	0xbda5f3c3	-0.081031345
4	0xbde107b7	-0.109877996
5	0xbe34fe76	-0.17675194
6	0xbd82716f	-0.06369292
7	0xbbdd1161	-0.0067464565
8	0xbcbb9f68	-0.02290316
9	0xbd3c44ac	-0.045963928
10	0x3d8230b3	0.06356945
11	0xbd569dfb	-0.052396756
12	0x3d66ce25	0.05634894
13	0x3d2aaf53	0.04167111
14	0xbc4b91a0	-0.012424856
15	0x3ea3e3e2	0.32009798
16	0xbd8825c2	-0.06647827
17	0x3d709f17	0.05874547
18	0xbdd62c4f	-0.1045767
19	0x3d909dd4	0.07061353
20	0xbe25a428	-0.16175902
21	0xbe14f5c7	-0.14546882
22	0xbc775cfd	-0.015097854
23	0xbe0bd591	-0.13655688
24	0xbd395ad9	-0.045252655
25	0x3da49999	0.08037109
26	0xbd65b079	-0.0560765
27	0x3e1e1ad6	0.15439925
28	0xbd0f7364	-0.035022154
29	0xbd997a9f	-0.07494091
30	0xbd8a8c23	-0.0676501
31	0x3cc79b8a	0.024366159
32	0x3da779b7	0.08177512
33	0x3bd5211c	0.006504191
34	0xbc1c994d	-0.009558034
35	0xbdc40cc6	-0.09572749
36	0xbd1a5972	-0.037682958
37	0x3deebdf6	0.11657326
38	0xbdfbc56f	-0.12293517
39	0xbd5e4ff5	-0.05427547
40	0x3da635ee	0.08115755
41	0xbd3c3d8c	-0.045957133
42	0xbce502db	-0.027955463
43	0xbdebecf0	-0.115198016
44	0x3e32cec6	0.1746169
45	0x3d4d9906	0.050194763
46	0x3c8bd009	0.017066972
47	0x3d800dc7	0.06252628
48	0xbd9973a4	-0.0749276
49	0x3da6e6c0	0.08149481
50	0x3d4c4b16	0.049876295
51	0xbddfd190	-0.10928643
52	0xbd45f294	-0.048327044
53	0xbda6a5cf	-0.08137094
54	0x3b537ea5	0.003227153
55	0x3cd4560e	0.02591994
56	0x3d692c00	0.056926727
57	0xbcbbb8d9	-0.02291529
58	0xbd49228a	-0.049105205
59	0x3e2d48fa	0.1692237
60	0x3ca867a7	0.020557238
61	0xbd3d0699	-0.04614887
62	0xbd9ecc9e	-0.077538714
63	0xbd5cee75	-0.053938348

actor.2.weight f4 [64, 64]
0	0x3db5e58d	0.08881674
1	0xbd95ac4e	-0.07308255
2	0x3e4c869c	0.19973224
3	0xbe19409b	-0.14966051
4	0x3ecf38d8	0.40473056
5	0x3ed80fc9	0.42199543
6	0xbd018fac	-0.031631157
7	0xbe6d4603	-0.23171239
8	0x3e811ac1	0.25215724
9	0xbe40dc35	-0.18834002
10	0xbeb44271	-0.3520694
11	0xbd115d6e	-0.035489492
12	0xbd067e96	-0.032835566
13	0x3ccef294	0.025262155
14	0x3dbfd5b8	0.093669355
15	0xbe60f577	-0.21968637
16	0xbe2d9e4c	-0.16954917
17	0x3eb39d25	0.3508083
18	0x3ec9496a	0.39313823
19	0xbdfe58cc	-0.124192804
20	0x3ef8fe35	0.48631445
21	0xbe5ef399	-0.21772613
22	0x3eab4327	0.3344967
23	0xbe9ebc65	-0.3100311
24	0xbe989a71	-0.2980533
25	0x3d657d8b	0.05602793
26	0xbca8d248	-0.020608082
27	0x3dab5016	0.083648846
28	0x3dfc26b3	0.12312069
29	0x3e82bd8d	0.2553524
30	0x3ea5673d	0.32305327
31	0x3eb04331	0.34426263
32	0xbe197fb8	-0.14990127
33	0x3e8b2822	0.27179056
34	0xbdf49a95	-0.11943547
35	0xbdc88e43	-0.09792759
36	0x3df98b3a	0.121847585
37	0xbe1fc7ab	-0.15603511
38	0xbe8933b9	-0.26797274
39	0xbd663cb1	-0.056210224
40	0xbce21874	-0.02759955
41	0x3de25166	0.11050682
42	0x3eba69cf	0.3640885
43	0xbe9c69f6	-0.30549592
44	0xbeb31e59	-0.3498409
45	0xbbe11d6d	-0.006869963
46	0xbdd1498c	-0.10219106
47	0x3e4ccfc4	0.20001131
48	0x3c9fc19a	0.019501496
49	0x3d236fcf	0.03990155
50	0x3d3fb779	0.046805833
51	0x3ef540e6	0.47901076
52	0x3e1a1d62	0.15050271
53	0x3e017c21	0.12645008
54	0x3dae8431	0.08521307
55	0x3dbae086	0.09124856
56	0xbe9e578a	-0.30926162
57	0xbdf7e460	-0.12104106
58	0x3e23a80a	0.1598207
59	0xbeb3507b	-0.3502234
60	0x3e26ac45	0.16276653
61	0xbe242f16	-0.16033587
62	0x3e722657	0.23647438
63	0xbd92a297	-0.07159918
64	0x3e3f5a2b	0.1868674
65	0xbdce1ef4	-0.100644976
66	0xbd7a2bc9	-0.061076913
67	0x3e1ab3dd	0.15107675
68	0xbe46388c	-0.19357508
69	0xbe0eabbd	-0.139327
70	0x3e5971d0	0.21234822
71	0xbdf455b2	-0.119304076
72	0x3e137d44	0.14403254
73	0x3edbcdab	0.4293035
74	0x3e6aaefb	0.22918312
75	0x3d5143dd	0.05109011
76	0xbd0e4a51	-0.034738842
77	0xbc8e5276	-0.017373305
78	0x3ef9af59	0.48766592
79	0x3e473008	0.19451916
80	0xbdcf572b	-0.10124048
81	0x3e3a0edb	0.1816973
82	0xbe0268e0	-0.12735319
83	0x3d4ff59a	0.050771333
84	0xbed3c59f	-0.4136171
85	0x3e9e20b9	0.3088434
86	0xbe630c5d	-0.22172685
87	0xbe73b12d	-0.23798056
88	0x3dc645e4	0.09681299
89	0x3e8ed9e9	0.27900627
90	0xbc5f3a06	-0.013624674
91	0x3efe64c1	0.49686244
92	0xbd4e2ffc	-0.05033873
93	0x3c5a40cf	0.013321116
94	0xbe33e434	-0.17567521
95	0xbdadb422	-0.08481623
96	0x3e19d4d0	0.15022588
97	0x3d0b6425	0.034031052
98	0x3e0bf434	0.13667375
99	0xbe36dec5	-0.17858417
100	0x3e2b8fd8	0.16754091
101	0xbed0428d	-0.40675774
102	0x3dc6e9b0	0.09712541
103	0xbd852dea	-0.06502898
104	0xbe747c8e	-0.23875639
105	0x3d44c278	0.048037022
106	0x3d8c510e	0.068513975
107	0xbe845b6b	-0.25850996
108	0xbcbe9f64	-0.023269363
109	0x3d536b3e	0.051615946
110	0xbdabdaa1	-0.083913095
111	0xbe479934	-0.19492036
112	0x3e0d8ca4	0.13823181
113	0xbdb27db3	-0.087153815
114	0xbeb3fd9c	-0.35154426
115	0x3e366815	0.17813142
116	0x3e615fa7	0.22009145
117	0x3e177884	0.14792067
118	0x3eaff5eb	0.34367308
119	0x3ecacb34	0.39608157
120	0xbcec7392	-0.028863702
121	0xbe4ec631	-0.20192792
122	0xbe183d97	-0.14867245
123	0x3e0daf8d	0.13836499
124	0x3b955480	0.0045571923
125	0x3e0502ea	0.12989393
126	0xbe87bcaa	-0.26511127
127	0x3dcbb954	0.09947458
128	0xbd8a28d2	-0.06746067
129	0x3e36f0a7	0.17865239
130	0xbd209b1f	-0.039210435
131	0xbe1edf52	-0.15514877
132	0x3f27ebd2	0.6559421
133	0x3eb6cb49	0.3570197
134	0xbe57e628	-0.21083891
135	0xbf05a0a4	-0.52198243
136	0x3e4cea68	0.20011294
137	0xbee4f250	-0.4471612
138	0xbe32511c	-0.17413753
139	0xbdca9eab	-0.09893545
140	0x3c7fd3d5	0.01561447
141	0x3ad7f30f	0.0016475635
142	0x3df59a95	0.11992375
143	0xbec38988	-0.38190866
144	0xbec92b20	-0.39290714
145	0x3cfda2fd	0.030961508
146	0x3eec41d1	0.46143964
147	0xbda50b68	-0.08058816
148	0x3e962cb6	0.29330987
149	0xbe2aa06a	-0.16662756
150	0x3ded876d	0.11598096
151	0x3e0a73cb	0.13520734
152	0xbe78c396	-0.2429336
153	0xbd20bc3b	-0.03924201
154	0x3eb809fb	0.35945114
155	0xbd1146d2	-0.03546793
156	0x3ebdb948	0.3705542
157	0x3c12620c	0.008934509
158	0x3e80f1fe	0.25184625
159	0x3e3a4bb7	0.18192945
160	0xbea32b53	-0.3186899
161	0x3e18a378	0.14906108
162	0xbe417339	-0.1889161
163	0x3e3f5350	0.18684125
164	0x3dc13f64	0.09435919
165	0xbd69383a	-0.056938387
166	0x3e6b360d	0.22969837
167	0xbe271093	-0.16314916
168	0xbd8df6d4	-0.06931844
169	0xbe3eae53	-0.18621187
170	0x3e614b08	0.22001278
171	0x3d6831e6	0.05668821
172	0xbf11036f	-0.56645864
173	0x3decf145	0.11569456
174	0xbeaec085	-0.34131256
175	0x3e85e469	0.26150826
176	0x3e904835	0.2818009
177	0x3d90a9aa	0.07063611
178	0x3e248b57	0.16068779
179	0x3e517a31	0.20456769
180	0xbd69dc2d	-0.05709474
181	0xbea1dd4c	-0.3161415
182	0xbe808530	-0.25101614
183	0xbe6c39ad	-0.23068877
184	0x3c86812b	0.016419014
185	0x3df656eb	0.12028297
186	0x3ee950ea	0.45569545
187	0xbe597fde	-0.21240184
188	0xbdacbd06	-0.08434491
189	0x3d6b37f8	0.057426423
190	0xbd8a9b5a	-0.06767912
191	0xbb1fe63c	-0.0024398705
192	0x3e2238bd	0.15841956
193	0x3e9f13e2	0.31069857
194	0x3e5af96b	0.21384208
195	0x3edc6f65	0.43053737
196	0xbc8bce66	-0.017066192
197	0x3ddeb515	0.108743824
198	0xbdbaa7a7	-0.091140084
199	0x3ebcd611	0.3688207
200	0x3ddb91cb	0.10721167
201	0x3e8cc0d4	0.27490866
202	0x3e4e43ef	0.20143102
203	0xbbcfd503	-0.0063425316
204	0x3e0193a8	0.12653983
205	0x3ecfbb4e	0.4057259
206	0x3f1e3ba9	0.61809784
207	0xbe46171f	-0.19344757
208	0x3e80c06e	0.25146812
209	0x3e82c0c6	0.255377
210	0xbe1de4ee	-0.15419361
211	0x3e7456a2	0.23861173
212	0x3d0ceae0	0.03440368
213	0xbdd14aaa	-0.10219319
214	0x3c54928f	0.012974395
215	0x3ded01a7	0.11572581
216	0x3eec206a	0.4611848
217	0x3eb34cfc	0.35019672
218	0x3e2e2efd	0.17010112
219	0xbe9fb615	-0.31193605
220	0xbd838909	-0.06422622
221	0xbe7fbb8c	-0.24973887
222	0x3dae4b4b	0.08510455
223	0x3cf8a7fe	0.030353542
224	0x3ece97cd	0.4035019
225	0x3e842124	0.25806534
226	0x3ed821c3	0.42213258
227	0x3dd4e0f0	0.10394466
228	0xbe4de55e	-0.20107028
229	0xbdba36e7	-0.09092503
230	0xbd10d6f7	-0.035361256
231	0x3d194988	0.03742364
232	0x3e4e9eae	0.20177719
233	0x3d8f552d	0.06998668
234	0xbe5991e7	-0.21247064
235	0x3e8b3642	0.27189833
236	0x3d9d2afd	0.07674215
237	0xbe430e2c	-0.19048375
238	0xbcd15d72	-0.025557254
239	0x3e468f74	0.1939066
240	0xbd8a80cc	-0.06762847
241	0x3d888162	0.06665303
242	0xbe6ad4d9	-0.22932757
243	0x3e023544	0.12715632
244	0xbe6d5858	-0.23178232
245	0xbe8ca6bb	-0.27470955
246	0xbcc58134	-0.02410946
247	0xbe809abd	-0.25118056
248	0xbe4fa133	-0.20276336
249	0x3eb72fbf	0.35778615
250	0xbe12dd1a	-0.14342156
251	0x3cc3a180	0.02388072
252	0x3ec43d70	0.38328123
253	0x3ea592a4	0.3233844
254	0x3de36db1	0.11104906
255	0x3d8d2aa9	0.068929024

actor.2.bias f4 [64]
0	0xbe189155	-0.1489919
1	0x3de41a27	0.11137801
2	0x3d27a863	0.04093207
3	0xbd20a419	-0.039218996
4	0x3e044c21	0.12919666
5	0xbc8fcad7	-0.017552776
6	0xbd7e4588	-0.06207803
7	0xbca620c4	-0.020279296
8	0xbde605b3	-0.11231556
9	0x3d9e4072	0.07727136
10	0xbde83857	-0.11338871
11	0x3d535513	0.051594805
12	0xbe69392c	-0.22775716
13	0xbdcfc2c3	-0.1014457
14	0xbc575cb5	-0.013144662
15	0x3d920cb2	0.07131328
16	0xbe0081a2	-0.12549451
17	0x3c205be6	0.009787535
18	0xbc64c6c6	-0.013963407
19	0xbe258f69	-0.16167988
20	0xbde29c18	-0.11064929
21	0xbc38232f	-0.011238857
22	0xbd08b569	-0.03337613
23	0x3d6e9eff	0.0582571
24	0x3e97de7e	0.29661936
25	0x3d96d0cc	0.073640436
26	0x3d83f60e	0.064434156
27	0x3d2f2ff6	0.04277035
28	0xbd6a6b7a	-0.057231404
29	0xbd9a9cbf	-0.07549428
30	0xbd42b70c	-0.04753785
31	0xbe3ffc1c	-0.18748516
32	0xbe5273fc	-0.20552057
33	0xbc50844b	-0.012726854
34	0xbd24a9d4	-0.040201023
35	0xbd8543b3	-0.06507053
36	0xbbbf0701	-0.0058296924
37	0xbd956825	-0.072952546
38	0x3d300944	0.042977586
39	0xbd521250	-0.051286995
40	0x3e0754d2	0.1321595
41	0xbe42acdb	-0.19011252
42	0x3df11e47	0.11773353
43	0xbdc37a84	-0.095448524
44	0x3c99a4b2	0.01875529
45	0xbd626e8a	-0.0552812
46	0xbe380a34	-0.17972642
47	0xbd8e17b1	-0.069381125
48	0xbda645d7	-0.0811879
49	0x3df1d848	0.118088305
50	0x3e39d948	0.18149292
51	0xbe359bb3	-0.17735176
52	0xbde09bc5	-0.10967211
53	0xbde80aec	-0.11330208
54	0x3d842fb7	0.064544134
55	0xbd01b53b	-0.031666975
56	0xbd807312	-0.06271948
57	0x3d57ccd5	0.052685577
58	0x3de42071	0.11139
59	0xbcbcb942	-0.023037557
60	0xbd2a0e0f	-0.041517314
61	0x3cbf4617	0.023348851
62	0x3d91a6ed	0.07111917
63	0x3befc74d	0.0073174597

actor.4.weight f4 [36, 64]
0	0x3de9509a	0.11392327
1	0xbf957af5	-1.1678149
2	0x3ef8b9aa	0.4857915
3	0xbfb3b45b	-1.4039415
4	0x3e8501a3	0.2597781
5	0x3cb162a2	0.021653477
6	0x3ef9326c	0.4867128
7	0x3f16abae	0.5885571
8	0xbd85e1c0	-0.06537199
9	0xbe95204b	-0.291262
10	0xbc880419	-0.016603516
11	0x3ee66f99	0.45007017
12	0xbdca3c5c	-0.09874794
13	0xbf09a760	-0.5377102
14	0x3cb45d86	0.022017252
15	0x3ecdf277	0.40224048
16	0x3dbb299a	0.09138794
17	0xbf367033	-0.7126495
18	0xbe6bdab2	-0.23032644
19	0x3f469297	0.7756743
20	0x3d83f5a7	0.06443339
21	0xbfaaa702	-1.3332217
22	0xbb36457b	-0.002781241
23	0xbeb34f31	-0.35021356
24	0x3dda21ea	0.10651
25	0x3d6ea9c7	0.05826738
26	0x3cb97070	0.022636622
27	0x3f1b7381	0.6072312
28	0xbf5adf9c	-0.8549745
29	0xbea7007c	-0.32617557
30	0x3e91191e	0.28339475
31	0xbcbff40f	-0.023431806
32	0xbfa3d083	-1.2798008
33	0x3dcb3cd6	0.09923713
34	0x3cf044f9	0.029329764
35	0xbe426544	-0.18983942
36	0x3d4376ae	0.047720604
37	0x3e2edc07	0.17076121
38	0x3ebb2702	0.36553198
39	0x3db8f89f	0.09031796
40	0xbee27b5d	-0.44234744
41	0x3ead2a57	0.33821365
42	0xbfacc749	-1.3498317
43	0xbd81ce4a	-0.06338175
44	0x3d512ff6	0.05107113
45	0x3d3a12e9	0.04542819
46	0xbf516aef	-0.8180379
47	0xbe8b2ef5	-0.27184263
48	0xbdb60d35	-0.08889238
49	0x3e00522c	0.12531346
50	0xbfea385d	-1.8298451
51	0xbd7b93f0	-0.06142038
52	0x3e5f3f72	0.21801546
53	0xbdb9ed8f	-0.09078514
54	0x3e46b0c4	0.19403368
55	0x3e259768	0.16171038
56	0xbd933a86	-0.07188897
57	0xbd9f6b39	-0.07784123
58	0xbf1d6eb4	-0.61497045
59	0xbd8f1ad8	-0.06987542
60	0xbe0f42a7	-0.1399027
61	0xbddf02c1	-0.10889197
62	0x3e97f7d1	0.29681256
63	0x3eb998ca	0.3624938
64	0xbe94edd5	-0.290877
65	0xbf9d97e0	-1.2311974
66	0xbe2dabc4	-0.16960055
67	0x3ec60398	0.38674617
68	0xbf075d43	-0.5287668
69	0xbed01a47	-0.40645048
70	0xbeeb2638	-0.45927596
71	0x3bd87e2b	0.0066068373
72	0xbd0ffce5	-0.03515329
73	0x3f01fc0d	0.50775224
74	0x3e0e1778	0.1387614
75	0x3cfb1c2f	0.030653087
76	0x3eca1f51	0.39477018
77	0x3eb21212	0.34779412
78	0x3d366ef2	0.0445394
79	0xbefeb832	-0.49749905
80	0xbdcc3053	-0.099701546
81	0x3f1248e3	0.57142466
82	0xbf774fd9	-0.9660621
83	0xbdf99879	-0.12187285
84	0x3d14a04c	0.036285684
85	0xbedf6ac9	-0.43636158
86	0x3cf3ca15	0.029759446
87	0x3e269ef6	0.16271576
88	0xbf6be3dd	-0.92144567
89	0x3ebc84be	0.36820024
90	0xbcd76696	-0.026294034
91	0x3f0c8aa9	0.5489908
92	0x3ee08397	0.43850395
93	0xbe561d61	-0.20909645
94	0xbee99dbc	-0.45628154
95	0xbf130c60	-0.5744076
96	0xbf3aa5a7	-0.72909015
97	0xbcfdd0de	-0.030983385
98	0x3e14927f	0.14509009
99	0xbf69e782	-0.9136888
100	0x3e061fe2	0.130981
101	0x3eb2faf9	0.34957102
102	0x3ed0f7f0	0.4081416
103	0xbde1c5f3	-0.11024084
104	0x3daa8d64	0.08327749
105	0x3dcb7f73	0.099364184
106	0xbfb18d82	-1.387131
107	0xbd202455	-0.03909715
108	0x3e1b5337	0.15168463
109	0x3d46639a	0.04843483
110	0xbe229e99	-0.15880813
111	0xbd58febf	-0.05297732
112	0x3ceb307a	0.028709639
113	0x3ec8a9f8	0.39192176
114	0xbf48e13f	-0.784687
115	0xbcdf3880	-0.027248621
116	0x3e7deaf9	0.24796666
117	0x3ddac35f	0.10681795
118	0x3f07b978	0.5301738
119	0xbe3ca2f3	-0.18421535
120	0xbd4fbb12	-0.050715514
121	0xbc8b013c	-0.016968362
122	0xbfab2236	-1.3369815
123	0x3e046035	0.12927325
124	0x3ebf2239	0.37330797
125	0x3e965172	0.29359013
126	0xbd8e666f	-0.069531314
127	0xbe92fb9c	-0.28707588
128	0x3f0296cf	0.51011366
129	0xbf91b8fc	-1.1384578
130	0x3f18cbc6	0.59685934
131	0xbe533979	-0.20627393
132	0xbf0fe04f	-0.5620164
133	0x3ee8c486	0.45462435
134	0x3e589eb6	0.21154293
135	0xbe1d996e	-0.1539056
136	0x3da188a9	0.07887394
137	0xbdbcf070	-0.09225547
138	0x3df5db2a	0.12004693
139	0x3ed9c81f	0.42535493
140	0x3f173957	0.5907187
141	0xbdd8a8c1	-0.10579062
142	0x3dca5919	0.09880275
143	0xbe31f96c	-0.17380303
144	0x3cd4e014	0.025985755
145	0x3dee3f22	0.116331354
146	0x3ed46e1c	0.41490257
147	0x3e9e2bbe	0.30892748
148	0x3de3ce98	0.11123389
149	0xbf86374e	-1.0485628
150	0x3dff0e13	0.12453856
151	0xbea99efb	-0.33129105
152	0x3ce2c27f	0.027680634
153	0x3d83b36e	0.06430708
154	0x3da4770f	0.08030521
155	0x3e0dd0ea	0.13849226
156	0x3e6b1d95	0.22960503
157	0xbe398fc2	-0.18121246
158	0x3e90fd40	0.28318214
159	0xbecf4c65	-0.40487972
160	0xbf0a6d5f	-0.5407314
161	0xbdb10730	-0.08643949
162	0x3dea9287	0.11453729
163	0xbed89a9b	-0.42305455
164	0x3e025349	0.12727083
165	0x3e41e599	0.18935241
166	0x3ead688f	0.33868834
167	0x3dc22606	0.09479909
168	0x3eb011de	0.34388632
169	0x3c20a739	0.009805494
170	0xbf92e9ca	-1.1477597
171	0x3c9afef6	0.018920403
172	0xbe045e90	-0.12926698
173	0x3c2e9817	0.010656378
174	0x3efc91a0	0.49329853
175	0xbe1ebd8d	-0.15501995
176	0x3d96ce07	0.07363515
177	0x3ee4f332	0.44716793
178	0xbf8fd533	-1.1236938
179	0x3d938cb4	0.07204571
180	0x3e885793	0.26629314
181	0xbcc8f3a4	-0.02453024
182	0xbe530423	-0.20607047
183	0x3f313d0d	0.6923378
184	0xbdb38abc	-0.08766696
185	0xbdf49489	-0.11942393
186	0xbfb35317	-1.4009732
187	0xbceab2b1	-0.02864966
188	0xbd55ead7	-0.052225914
189	0x3ee14928	0.44001126
190	0x3e1bf350	0.15229535
191	0xbe824b63	-0.2544814
192	0x3eaaec45	0.33383384
193	0xbf60b644	-0.87778115
194	0x3d359194	0.044328287
195	0xbe82effe	-0.25573725
196	0xbe7cfb57	-0.24705254
197	0x3dee2a99	0.116292186
198	0x3e961981	0.29316333
199	0x3e808284	0.25099576
200	0xbd3aad6e	-0.04557555
201	0x3e970c6b	0.29501662
202	0x3db0cd18	0.086328685
203	0x3cbb69bf	0.022877572
204	0x3ee66b7b	0.45003876
205	0xbee60902	-0.44928747
206	0x3d6ed1a5	0.0583054
207	0x3e971fbd	0.29516402
208	0xbd4b90d0	-0.04969865
209	0xbce906df	-0.02844566
210	0xbf15652d	-0.58357507
211	0xbc8e02a9	-0.017335253
212	0xbd39d88c	-0.04537253
213	0xbf8ce515	-1.100741
214	0x3be415f1	0.0069606234
215	0x3ef4b43c	0.47793758
216	0xbca07b49	-0.019590037
217	0xbe3dab9f	-0.185225
218	0xbc84fa0a	-0.01623251
219	0xbd439b97	-0.047755804
220	0x3ddf27ca	0.10896261
221	0x3e5228ba	0.20523348
222	0x3e9e5a64	0.30928338
223	0xbf2f4713	-0.68467826
224	0xbe3fbbc4	-0.1872397
225	0xbd6ed7fa	-0.05831144
226	0xbd752a6e	-0.059854917
227	0xbf260ef3	-0.6486656
228	0xbd4c52bf	-0.0498836
229	0x3dcbd7af	0.09953248
230	0x3e1f8477	0.15577875
231	0xbd9e1268	-0.077183545
232	0xbef1b408	-0.47207665
233	0x3f1778a0	0.59168434
234	0xbf763314	-0.9617169
235	0xbd997006	-0.0749207
236	0xbb3e3b5b	-0.0029027078
237	0x3d1991db	0.037492614
238	0x3dbcc62c	0.09217486
239	0xbd9dd375	-0.07706348
240	0xbd7942e1	-0.060854796
241	0x3e7aae7e	0.24480626
242	0xbf98259d	-1.1886479
243	0xbddf0030	-0.10888708
244	0x3eca30d1	0.3949037
245	0x3d5bc2dd	0.053652633
246	0x3d3e243c	0.046421275
247	0x3e9675c7	0.29386732
248	0x3e135a97	0.14390026
249	0xbdbaeeb2	-0.09127559
250	0xbf91bee1	-1.1386377
251	0xbb622c8b	-0.0034511413
252	0xbec14795	-0.37749925
253	0x3eba78d2	0.36420304
254	0xbe093f6c	-0.134031
255	0xbe042aec	-0.12906998

actor.4.bias f4 [36]
0	0xbf114e99	-0.56760556
1	0xbf2775e2	-0.6541425
2	0xbeec6795	-0.46172777
3	0xbf368294	-0.71292996
4	0x3e636dee	0.22209904
5	0x3de53c2e	0.11193119
6	0x3e297e2e	0.1655204
7	0x3df3fd22	0.119135156
8	0x3e107de3	0.14110522
9	0x3be8dc79	0.0071063605
10	0x3e161b24	0.14658791
11	0x3d3a9950	0.045556366
12	0x3da43db7	0.08019584
13	0x3e68d5c7	0.227378
14	0x3e561e78	0.2091006
15	0x3d99109c	0.07473871
16	0xbf1be6f5	-0.6089929
17	0xbf14dbd0	-0.5814791
18	0xbf0db23a	-0.5535008
19	0xbf1d2f98	-0.6140075
20	0xbf1721f1	-0.59036165
21	0x3d92fa65	0.07176665
22	0x3d8be822	0.06831385
23	0x3d57c873	0.052681398
24	0x3e8ddaf9	0.27706125
25	0x3e1402e8	0.14454234
26	0x3e34c6cf	0.17653964
27	0x3c7a0b35	0.015261461
28	0x3d88972a	0.06669457
29	0x3e3f9f7b	0.1871318
30	0x3e38c55a	0.18044034
31	0xbd043988	-0.03228143
32	0x3d58e13e	0.052949183
33	0x3e8f3230	0.27967978
34	0x3e684188	0.22681248
35	0x3e03f79e	0.12887427

critic.0.weight f4 [64, 62]
0	0x3d9c60c8	0.07635647
1	0x3dab196a	0.08354457
2	0xbdabd831	-0.083908446
3	0x3c1b5b6c	0.009482246
4	0xbdb2eb48	-0.087362826
5	0xbce8eef7	-0.02843426
6	0xba9af66f	-0.001182271
7	0x3cdb9d35	0.02680836
8	0xbdad908e	-0.08474837
9	0xbd58776a	-0.052848257
10	0xbe18e8c0	-0.14932537
11	0xbe100339	-0.1406373
12	0xbdba354d	-0.090921976
13	0xbc4f983a	-0.012670571
14	0xbde67214	-0.112522274
15	0xbdb6beae	-0.08923088
16	0xbc0910fe	-0.008365868
17	0xbddd20ab	-0.107972465
18	0xbdf7fe13	-0.12109008
19	0x3db676c8	0.089093745
20	0xbdbb4a0c	-0.09144983
21	0x3db6177c	0.08891198
22	0x3c1010d6	0.0087930765
23	0xbc983c3e	-0.018583413
24	0x3dc93eef	0.09826457
25	0xbdcb1727	-0.09916525
26	0x3d7934c0	0.060841322
27	0x3dad99b3	0.084765814
28	0x3c92eb98	0.017934605
29	0xbe02358d	-0.1271574
30	0x3c7389c5	0.01486439
31	0xbd8cf400	-0.06882477
32	0xbdc0fbf2	-0.09423055
33	0x3db1a39a	0.08673783
34	0xbcb73252	-0.022362862
35	0x3dafeb73	0.0858983
36	0xbd8c0d16	-0.068384334
37	0xbd66b474	-0.056324437
38	0xbba684a6	-0.005081731
39	0xbd0c628f	-0.03427368
40	0x3df3bb8a	0.119010046
41	0x3d83ca40	0.064350605
42	0x3e14f0e1	0.14545013
43	0xbdbec635	-0.09315149
44	0x3a8db0e9	0.001081017
45	0x3d88a0dd	0.06671307
46	0xba7a0d7d	-0.0009538753
47	0xbdd91f0d	-0.106016256
48	0x3dd46658	0.10371083
49	0xbe208b5f	-0.15678166
50	0xbdbad5a4	-0.0912278
51	0xbde555bb	-0.111979924
52	0x3d00b712	0.03142459
53	0x3ca003d2	0.019533072
54	0xbde5d83a	-0.112228826
55	0xbd9742d6	-0.07385795
56	0x3d2d2de3	0.04228009
57	0x3d30368a	0.043020763
58	0xbe3d857f	-0.18507956
59	0xbd3f2649	-0.04666737
60	0xbda1ee4e	-0.07906781
61	0xbd65a3f1	-0.05606455
62	0xbde719dd	-0.1128423
63	0x3d83bfcc	0.06433067
64	0xbc8d3928	-0.017239168
65	0xbd4d2513	-0.050084185
66	0xbe3720c6	-0.17883596
67	0x3df404fa	0.11915012
68	0x3e367f66	0.17822036
69	0x3d59e531	0.05319709
70	0xbec9f29f	-0.39442918
71	0xbef265aa	-0.4734319
72	0xbd738daf	-0.059461292
73	0x3e39df69	0.1815163
74	0xbe1facf9	-0.15593328
75	0xbca347ae	-0.01993164
76	0x3dbeda7c	0.09319016
77	0xbcb63a49	-0.02224459
78	0x3dd4f5a3	0.10398414
79	0x3ddf2efb	0.10897633
80	0x3d8b91bf	0.06814908
81	0xbbdf0445	-0.006805929
82	0xbd05605d	-0.032562602
83	0xbdf85976	-0.12126438
84	0x3d88dae2	0.066823736
85	0xbcebcd00	-0.028784275
86	0x3ca310a8	0.019905403
87	0xbceaf3ed	-0.028680766
88	0x3da7fc15	0.08202378
89	0x3b843abd	0.0040353225
90	0xbda8e07f	-0.08245944
91	0x3dd42dd5	0.10360304
92	0x3e767291	0.24067141
93	0x3ec9fd62	0.39451128
94	0x3d70dd73	0.05880494
95	0xbd99545f	-0.07486796
96	0x3db6e9b5	0.08931295
97	0x3dc97be7	0.098380856
98	0xbe4566d5	-0.19277509
99	0xbef2c21c	-0.4741372
100	0xbd389ffb	-0.045074444
101	0x3e0c9521	0.13728763
102	0xbced05ba	-0.028933395
103	0xbed98bfb	-0.4248961
104	0xbd8c6688	-0.06855494
105	0xbe65e49a	-0.22450486
106	0xbedcb272	-0.43104893
107	0xbe91711f	-0.28406617
108	0xbe259165	-0.16168745
109	0xbd6e385e	-0.058159225
110	0x3ba209bb	0.0049450076
111	0xbcc7d5f3	-0.024394011
112	0xbdba64ee	-0.09101282
113	0xbdf36f4a	-0.11886461
114	0xbd3f1bb0	-0.046657264
115	0xbe518fda	-0.20465031
116	0xbe878362	-0.26467425
117	0xbe551820	-0.20809984
118	0x3e019622	0.12654927
119	0x3d48468e	0.04889541
120	0xbca5cae9	-0.020238357
121	0x3e0abf83	0.13549618
122	0xbe05ade0	-0.1305461
123	0xbd7e6bd4	-0.06211455
124	0xbdd74f1a	-0.10513134
125	0x3da32314	0.07965675
126	0x3dd7641f	0.105171435
127	0x3d472423	0.048618447
128	0xbd9a1ba7	-0.075248055
129	0xbe8d6413	-0.27615413
130	0xbdabf280	-0.083958626
131	0xbe57e677	-0.21084009
132	0x3d851468	0.06498033
133	0xbe4bb728	-0.19894087
134	0xbbbd9c6c	-0.005786469
135	0xbdc078e1	-0.09398056
136	0xbe16ed5f	-0.14738987
137	0x3cd0f643	0.025508052
138	0xbd04b0cb	-0.032395165
139	0xbddb18b7	-0.10698073
140	0xbca31f01	-0.019912245
141	0xbd99a10a	-0.07501419
142	0x3df274de	0.11838697
143	0xbdd3839b	-0.10327836
144	0x3df2c62b	0.11854204
145	0xbcafec77	-0.02147506
146	0x3cbc58ce	0.022991564
147	0x3de27c04	0.1105881
148	0xbd70b2c3	-0.05876423
149	0xbd40bdad	-0.04705589
150	0x3d5737c4	0.052543417
151	0xbd03cac2	-0.032175787
152	0xbd588907	-0.052865054
153	0x3d0385f9	0.03211019
154	0xbd105fee	-0.035247736
155	0xbb2b1451	-0.0026104639
156	0xbd63e6a6	-0.055639885
157	0x3d537ec6	0.051634572
158	0x3c4969fd	0.012293336
159	0xbdc80e22	-0.097683206
160	0xbd966b9a	-0.07344742
161	0xbca0bd49	-0.019621508
162	0xbe236306	-0.15955743
163	0x3d779b05	0.060450573
164	0xbe5e0b82	-0.21684077
165	0xbe2b895d	-0.16751619
166	0x3c396850	0.011316374
167	0x3c422051	0.011848525
168	0x3e0c71b1	0.13715245
169	0xbdaf88c2	-0.08571006
170	0xbdae3ff4	-0.08508292
171	0xbd9c6454	-0.076363236
172	0xbdfd9ae5	-0.123830594
173	0x3d1b8690	0.037970126
174	0xbd5249b9	-0.05133984
175	0x3d37f40a	0.04491047
176	0x3d7767de	0.06040179
177	0x3b6f0c77	0.0036475935
178	0xbd0594d7	-0.032612648
179	0xbe337820	-0.17526293
180	0xbda9cca8	-0.08290988
181	0xbbe9a2b5	-0.007129992
182	0xbe0e32a4	-0.13886505
183	0x3d8303f0	0.063972354
184	0x3d3e0eaf	0.046400722
185	0xbc121368	-0.00891576
186	0xbdeb8e5d	-0.11501763
187	0xbdef11c2	-0.11673309
188	0xbdd9ab8d	-0.10628424
189	0x3db5f55c	0.08884689
190	0xbc8bb139	-0.01705228
191	0xbe08c924	-0.13357979
192	0xbdda51d7	-0.10660141
193	0xbce2f576	-0.027704936
194	0xbc258b03	-0.010103944
195	0xbe4d1bd9	-0.20030154
196	0xbe237a5a	-0.15964642
197	0xbd1c9ed9	-0.038237426
198	0xbdff1b50	-0.12456381
199	0xbdc952ac	-0.098302215
200	0x3d8ffc0f	0.07030498
201	0x3d5fdc44	0.05465342
202	0xbd1b5f91	-0.037932936
203	0xbda16d4b	-0.07882174
204	0xbdabc982	-0.08388044
205	0x3db82345	0.08991102
206	0x3caca5da	0.021075178
207	0x3d2ab859	0.041679714
208	0xbdbd03d5	-0.092292465
209	0x3cc0e2b2	0.023545597
210	0x3de7b48d	0.11313734
211	0x3d8e754d	0.06955967
212	0xbbb6094c	-0.0055553075
213	0xbd6f7937	-0.05846521
214	0x3e82f8e4	0.25580513
215	0xbda728ec	-0.08162102
216	0xbd3c5dbb	-0.045987826
217	0xbd941db5	-0.07232229
218	0xbd13870b	-0.03601746
219	0xbba404a7	-0.0050054374
220	0xbcf4dd5b	-0.029890707
221	0xbd9a498e	-0.07533561
222	0xbe0d196c	-0.13779229
223	0xbd3c68b4	-0.04599829
224	0xbce00de5	-0.027350375
225	0x3d9b42db	0.07581111
226	0xbe5fcfc2	-0.21856597
227	0xbee57857	-0.44818375
228	0xbe0a081c	-0.13479656
229	0x3c1d3e67	0.009597397
230	0xbd1c27dc	-0.03812395
231	0xbdaf6017	-0.085632496
232	0xbd128838	-0.03577444
233	0x3c86dd27	0.016462876
234	0xbd319d88	-0.043363124
235	0xbd5fcd3b	-0.054639082
236	0xbc5b468d	-0.01338352
237	0xbdb45f44	-0.08807233
238	0x3db715bd	0.08939693
239	0xbd946720	-0.07246232
240	0xbea7c8c2	-0.32770354
241	0xbda88ee3	-0.082303785
242	0xbd7c82b6	-0.061648093
243	0xbca04713	-0.01956514
244	0xbd62f02c	-0.055404827
245	0x3e113b01	0.14182664
246	0xbdf32160	-0.118716
247	0xbd6c20b0	-0.05764836
248	0x3d8bf83e	0.06834458
249	0x3db87901	0.09007455
250	0xbdea2ed0	-0.1143471
251	0xbda831c8	-0.0821262
252	0xbdf1d8d7	-0.11808937
253	0xbd5be20c	-0.053682372
254	0x3b11d31f	0.0022251082
255	0x3d6600a2	0.056152947

critic.0.bias f4 [64]
0	0xbe40c9ae	-0.18826935
1	0x3d464ce7	0.048413184
2	0xbe7fc629	-0.24977936
3	0xbcb3be94	-0.02194146
4	0xbdadf041	-0.084930904
5	0xbd6ae105	-0.0573435
6	0x3bb5ec46	0.0055518476
7	0xbe84106d	-0.25793782
8	0xbe5d3fcc	-0.21606368
9	0xbdd0c724	-0.10194233
10	0x3c477f1d	0.012176302
11	0xbc834328	-0.016023234
12	0xbda3aa0c	-0.07991418
13	0xbe8e4afe	-0.2779159
14	0xbcc7c534	-0.024386026
15	0x3cefb1d6	0.029259603
16	0xbe541a4c	-0.20713156
17	0xbdc39222	-0.09549357
18	0xbe55c6e9	-0.2087666
19	0xbd22a73e	-0.039710276
20	0xbda03f36	-0.078245565
21	0xbc3a25e2	-0.011361571
22	0xbd92710e	-0.0715047
23	0xbcf4a72b	-0.029864868
24	0x3c578440	0.013154089
25	0xbde656ed	-0.112470485
26	0xbe8dd42e	-0.27700943
27	0xbb625fef	-0.0034542044
28	0xbdcc5e9a	-0.09978981
29	0xbc89737f	-0.016778706
30	0xbd4c33e8	-0.04985419
31	0xbe409cdd	-0.18809839
32	0xbd683fdd	-0.05670153
33	0xbe2a3043	-0.16619973
34	0xbe27f916	-0.16403612
35	0xbd893522	-0.066995874
36	0xbd1b92a2	-0.037981637
37	0xbdabebc9	-0.08394582
38	0xb9dfffeb	-0.00042724548
39	0x3e3a187e	0.18173406
40	0xbe0fe524	-0.14052254
41	0x3c8f73b0	0.017511219
42	0xbd9bf029	-0.07614166
43	0x3cdacaed	0.02670809
44	0xbe4f2bb3	-0.20231514
45	0xbd9d05a5	-0.07667092
46	0x3db3dac0	0.087819576
47	0x3c3b4b5e	0.011431543
48	0xbd8c4c01	-0.06850434
49	0xbe556a4a	-0.20841327
50	0x3d1a7fe6	0.03771963
51	0xbdf4118b	-0.119174086
52	0xbd978674	-0.07398692
53	0xbe2a492c	-0.16629475
54	0xbe7a1f6b	-0.24426048
55	0xbddb18a2	-0.10698058
56	0x3a99d726	0.0011737093
57	0x3d06e18c	0.032929942
58	0xbdece971	-0.11567963
59	0x3d016422	0.031589635
60	0x3e97facb	0.29683527
61	0xbd325593	-0.04353864
62	0xbe6994d8	-0.22810686
63	0xbdc9857c	-0.09839913

critic.2.weight f4 [64, 64]
0	0xbd6d1407	-0.057880428
1	0x3da9beea	0.08288367
2	0x3c9b6c4f	0.018972544
3	0xbb9661e1	-0.004589305
4	0xbe3c1fc8	-0.18371499
5	0xbcb24956	-0.021763485
6	0xbe387087	-0.18011676
7	0x3d84f942	0.06492855
8	0xbec07f2f	-0.37597033
9	0xbe1b9d11	-0.15196635
10	0x3dbf5a6e	0.0934342
11	0x3dd4197d	0.10356424
12	0xbddc8a8d	-0.10768614
13	0x3d6103e7	0.054935362
14	0xbd1f3af4	-0.03887458
15	0xbe10ee6b	-0.14153449
16	0x3d2fa6ed	0.042883802
17	0x3dece12c	0.115663856
18	0xbe02911f	-0.12750672
19	0x3eba04bb	0.36331734
20	0xbe3bde0d	-0.18346424
21	0xbedb1b99	-0.42794493
22	0xbddf19c5	-0.10893587
23	0x3e0b5735	0.13607486
24	0xbd1e50dc	-0.038651332
25	0xbcf600ca	-0.030029673
26	0xbea23331	-0.3167968
27	0xbe3ba5ad	-0.18324919
28	0xbd5c74e4	-0.053822413
29	0xbbd4fa70	-0.006499581
30	0x3c84cab4	0.016209938
31	0xbd931d8c	-0.0718337
32	0x3dd6daeb	0.10490974
33	0xbd931387	-0.07181459
34	0xbdcddae1	-0.100515135
35	0x3dafa63f	0.08576631
36	0xbed8708c	-0.42273366
37	0xbde3b9db	-0.111194335
38	0xbe745e1b	-0.23864023
39	0xbec9abf1	-0.39388993
40	0xbd94e1b7	-0.07269614
41	0x3ca06ddc	0.019583635
42	0x3b832650	0.00400237
43	0xbeec3be3	-0.4613944
44	0xbcba36a9	-0.022731142
45	0xbe271028	-0.16314757
46	0xbe2d6e8e	-0.16936705
47	0xbe0e61e0	-0.13904524
48	0x3dd1c53a	0.10242696
49	0x3ceddf65	0.029037187
50	0x3e101471	0.14070298
51	0x3e3dfbf5	0.18553145
52	0xbe00cc78	-0.12577999
53	0xbe148f45	-0.14507778
54	0x3c331ae5	0.010931705
55	0x3d2b9501	0.041890148
56	0xbdd5cb39	-0.10439152
57	0x3e9f671f	0.31133363
58	0xbe335f2e	-0.17516777
59	0xbe27c817	-0.16384922
60	0xbe500ca0	-0.20317316
61	0xbec9d91c	-0.39423454
62	0x3d5fd18e	0.054643206
63	0xbdd575c0	-0.1042285
64	0x3c94cfc3	0.018165475
65	0xbce36aa9	-0.02776082
66	0xbd1852d9	-0.037188385
67	0xbd5a265f	-0.05325925
68	0xbdffaf40	-0.12484598
69	0xbd8197dc	-0.06327793
70	0xbd9fb14a	-0.07797487
71	0x3e04a250	0.12952542
72	0xbd8ee8d4	-0.06978002
73	0xbdef4576	-0.116831705
74	0xbde8d996	-0.11369626
75	0xbd95f67c	-0.07322404
76	0xbd3e6c94	-0.046490267
77	0xbdfaaa98	-0.122395694
78	0xbdb359f1	-0.08757389
79	0xbd210d2b	-0.0393192
80	0x3da69b27	0.08135062
81	0xbdb408bb	-0.08790728
82	0xbc0f8f34	-0.00876217
83	0x3da34c72	0.07973565
84	0x3dad7959	0.08470411
85	0x3c327a3b	0.0108934
86	0x3d546aa1	0.0518595
87	0xbcf760b4	-0.030197479
88	0xbd9f8fef	-0.07791125
89	0xbdf5bc49	-0.11998803
90	0xbe002b86	-0.12516603
91	0x3d8f1004	0.069854766
92	0xbc92c194	-0.01791457
93	0xbdfd8dd5	-0.12380568
94	0xbdbb37e7	-0.09141522
95	0xbd34d540	-0.044148684
96	0x3e0d61a3	0.13806777
97	0xbba6c085	-0.005088868
98	0xbb90fc5f	-0.004424616
99	0xbc895581	-0.016764404
100	0xbd0c6c89	-0.034283195
101	0x3c921b2f	0.017835228
102	0x3c4fc283	0.012680653
103	0xbd15ec61	-0.03660238
104	0x3dffcf50	0.124907136
105	0x3ce0a321	0.027421536
106	0xbba337ad	-0.0049810023
107	0x3ccf8cea	0.025335748
108	0x3d8ed323	0.06973865
109	0xbd19ebdb	-0.037578445
110	0xbd125b42	-0.03573156
111	0xbd919d0b	-0.07110032
112	0xbd94d12a	-0.072664574
113	0xbc10ee20	-0.008845836
114	0xbdab5969	-0.08366663
115	0x3da14749	0.07874925
116	0xbdd5e1db	-0.10443469
117	0xbda9d04e	-0.08291684
118	0xbc7f69f4	-0.015589226
119	0x3d6ebc79	0.05828521
120	0xbdad10b3	-0.08450451
121	0xbd556053	-0.052093815
122	0x3da83366	0.082129285
123	0xbdfa8c8d	-0.12233839
124	0x3df680c7	0.12036281
125	0x3c64a1b4	0.013954569
126	0x3c33bf02	0.010970833
127	0xbbb01230	-0.005373262
128	0x3ccd2ee6	0.025046777
129	0xbd8f0b67	-0.06984597
130	0x3cd2498f	0.025669841
131	0x3d373bc2	0.044734724
132	0xbe99a095	-0.30005327
133	0xbbe1e1bd	-0.006893365
134	0xbdc05602	-0.09391405
135	0xbc552e39	-0.013011509
136	0xbdb00036	-0.0859379
137	0x3e33cfef	0.17559789
138	0xbdafe2af	-0.08588158
139	0xbe589486	-0.21150407
140	0x3db36127	0.08758765
141	0x3da4fe56	0.08056323
142	0xbd3e27e6	-0.04642477
143	0x3e0e05c0	0.13869381
144	0xbdd787e3	-0.10523965
145	0x3d2ce965	0.04221477
146	0xba857e03	-0.0010184649
147	0xbe8998a5	-0.2687427
148	0xbe5aeb5e	-0.21378848
149	0x3ddc2865	0.10749892
150	0x3e497ebf	0.19677256
151	0xbceb6e4e	-0.02873912
152	0xbde0d7b1	-0.1097864
153	0xbcedf48d	-0.029047275
154	0x3db00744	0.08595136
155	0xbdd86d39	-0.105677076
156	0x3cc9c0b5	0.024628023
157	0xbe4221ad	-0.18958159
158	0x3dbeb867	0.09312516
159	0xbe15c00c	-0.14624041
160	0x3dc6a8ff	0.09700202
161	0xbdfe05dd	-0.12403462
162	0x3d78dfd4	0.060760334
163	0xbe8f7fb6	-0.28027123
164	0x3d418aa2	0.04725135
165	0xbc311aa9	-0.010809579
166	0xbd9af1b7	-0.07565635
167	0x3dda716c	0.10666165
168	0x3b93aee3	0.004506932
169	0x3d571fa6	0.052520417
170	0xbdb87273	-0.090062045
171	0xbe12f941	-0.14352895
172	0xbd208f8f	-0.03919941
173	0x3d6737d9	0.056449745
174	0x3e500772	0.2031534
175	0xbe0b909a	-0.1362938
176	0x3e0ea640	0.13930607
177	0xbe859c5f	-0.26095864
178	0x3e27bb2b	0.16379993
179	0xbe8db1e2	-0.27674776
180	0x3d807955	0.06273142
181	0x3dde48c8	0.10853726
182	0x3b5f2617	0.0034049803
183	0x3ea24b11	0.31697896
184	0x3d6d5798	0.057944864
185	0xbf15ba5a	-0.58487475
186	0xbe10ee02	-0.14153293
187	0x3dc338cc	0.095323175
188	0x3e816024	0.25268662
189	0xbe0122ee	-0.12610981
190	0x3ca4335f	0.020044027
191	0xbe03bf06	-0.12865838
192	0x3c2e0e43	0.010623517
193	0xbdd5ae4d	-0.10433636
194	0xbe136020	-0.14392138
195	0xbdab0a55	-0.0835158
196	0xbd1f63c8	-0.03891352
197	0xbde00062	-0.10937573
198	0x3cf50f7e	0.029914614
199	0xbd540917	-0.05176648
200	0xbe04b5e3	-0.1296001
201	0xbdb2bdd1	-0.08727611
202	0xbd4d4b02	-0.05012036
203	0xbdc459c3	-0.09587433
204	0x3d9e7768	0.07737619
205	0xbe1a059f	-0.15041207
206	0x3e0067f0	0.12539649
207	0x3dbdf21d	0.09274695
208	0x3d729e81	0.059233192
209	0xbdc5b082	-0.09652807
210	0xbe3ba2fb	-0.18323891
211	0xbc59c917	-0.013292572
212	0xbbc7d3d1	-0.0060982485
213	0x3d2fb3dc	0.042896137
214	0xbe07a86f	-0.13247846
215	0xbc6747ae	-0.014116211
216	0xbdfec393	-0.124396466
217	0xbdf85a23	-0.12126567
218	0xbd292cf2	-0.04130263
219	0x3cde1a93	0.027112281
220	0x3c06fdd9	0.008239233
221	0xbdcc0689	-0.09962184
222	0x3dc0ca82	0.09413625
223	0xbe118448	-0.14210618
224	0xbace6f66	-0.0015749752
225	0x3d9cfc24	0.076652795
226	0xbddbb233	-0.10727348
227	0xbe23d3f8	-0.15998828
228	0xbcc21e05	-0.023695955
229	0xbe0cecb0	-0.13762164
230	0xbdbaeb13	-0.09126868
231	0xbdf27178	-0.11838049
232	0xbd86e23c	-0.065861195
233	0x3e0c0d9b	0.13677065
234	0xbddf8a6f	-0.10915076
235	0x3d1655b7	0.036702838
236	0xbe09d2cb	-0.13459317
237	0x3d9d7086	0.07687478
238	0xbe181e38	-0.14855278
239	0xbd2d58e6	-0.04232111
240	0xbd26744a	-0.040638246
241	0xbd4769ed	-0.048685003
242	0xbe15d25c	-0.14631027
243	0xbdabbbb8	-0.08385414
244	0xbc784b87	-0.015154726
245	0x3d435c89	0.04769567
246	0xbd8b1d14	-0.067926556
247	0x3dd55f30	0.10418546
248	0xbd96452f	-0.073374145
249	0x3dc84a52	0.097798005
250	0xbdec1cb2	-0.11528911
251	0xbd922d97	-0.07137602
252	0xbde657bf	-0.11247205
253	0xbd898c9f	-0.067162745
254	0x3d9e6476	0.07734005
255	0x3dfb0524	0.1225684

critic.2.bias f4 [64]
0	0xbd7fb0a3	-0.062424313
1	0xbdc09d1a	-0.09404965
2	0x3d0e0e2a	0.034681477
3	0xbdcea816	-0.100906536
4	0xbe6137fb	-0.21994011
5	0xbe602a4b	-0.21891133
6	0xbde5e9bb	-0.11226221
7	0xbe833b87	-0.25631353
8	0xbde8b20d	-0.113620855
9	0xbc58bf58	-0.013229214
10	0xbde11fd0	-0.10992396
11	0xbdbe28f3	-0.09285154
12	0xbd4c10b4	-0.049820617
13	0xbd9aeb34	-0.07564393
14	0x3d88c9d0	0.06679118
15	0xbde01ed6	-0.109433815
16	0xbdae3bec	-0.08507523
17	0xbe0a2e55	-0.13494237
18	0x3c8b57c1	0.017009618
19	0xbde0d657	-0.10978382
20	0xbda5282b	-0.08064302
21	0xbda8c8cf	-0.08241426
22	0xbd25b040	-0.04045129
23	0xbe24fa8a	-0.16111198
24	0xbdac0a40	-0.084003925
25	0xbc6cd4cb	-0.014455031
26	0xbe0b5c61	-0.13609459
27	0xbc6e109a	-0.014530325
28	0xbdd0d5d8	-0.101970375
29	0xbd000a4d	-0.031259824
30	0xbd482d02	-0.048871048
31	0xbda7a1eb	-0.0818518
32	0xbe1b1d49	-0.1514789
33	0x3dc50b83	0.09621336
34	0xbd146527	-0.03622928
35	0xbdbba233	-0.091617964
36	0xbdf533ac	-0.11972746
37	0xbbfcee74	-0.0077188555
38	0xbcd40eab	-0.0258859
39	0x3d8e1e97	0.06939428
40	0xbd1f5ca5	-0.038906712
41	0xbddefc6b	-0.10887989
42	0x3dcccd8f	0.10000145
43	0xbdcc9a61	-0.09990383
44	0xbd27cff3	-0.0409698
45	0xbd556257	-0.052095737
46	0xbe364c78	-0.17802608
47	0xbde64207	-0.112430625
48	0xbe0cac29	-0.13737549
49	0x3d386ba8	0.045024544
50	0x3d8e809e	0.069581255
51	0xbe1a6ba4	-0.15080124
52	0x3d657d18	0.0560275
53	0xbdf4fdb0	-0.119624496
54	0xbda9e933	-0.08296432
55	0xbe55b7a0	-0.20870829
56	0xbcc77348	-0.024346963
57	0xbd2328b5	-0.039833743
58	0xbd848eeb	-0.06472572
59	0xbda56007	-0.080749564
60	0xbe19b5ec	-0.15010804
61	0xbdec8a1b	-0.11549779
62	0xbe04ef2d	-0.12981863
63	0xbe09c2b8	-0.13453186

critic.4.weight f4 [1, 64]
0	0x3b40274d	0.00293203
1	0xbc15f979	-0.009153717
2	0x3cb3aa96	0.021931928
3	0xbb26681a	-0.002539164
4	0xbd19bf34	-0.03753586
5	0xbc9e5a05	-0.019330034
6	0x3d465797	0.048423376
7	0x3c650355	0.013977845
8	0x3e11a367	0.1422249
9	0xbe417b91	-0.18894793
10	0x3c53afdb	0.012920345
11	0xbbe765c5	-0.0070616924
12	0x3bdc466c	0.006722262
13	0x3a8bc341	0.0010663049
14	0xbe607eba	-0.21923342
15	0xbc27f00a	-0.010250101
16	0xbbd5d086	-0.006525102
17	0xbbc423e6	-0.0059857247
18	0x3d567281	0.052355293
19	0x3b7d4d7e	0.0038650925
20	0x3b93c741	0.004509837
21	0xbc8848b6	-0.016636234
22	0xbd5fab33	-0.054606628
23	0x3d77581d	0.060386766
24	0x3c86d3af	0.01645836
25	0xbe1efae3	-0.15525393
26	0x3d85ece5	0.06539325
27	0xbde746db	-0.112928115
28	0xbc45c298	-0.012070321
29	0xbd7ac846	-0.061226152
30	0xbd5f8c95	-0.05457743
31	0xbe368562	-0.17824319
32	0xbe3832aa	-0.17988077
33	0x3dc94d79	0.0982923
34	0xbbd54576	-0.0065085245
35	0xbd0e77e2	-0.034782298
36	0x3bf59ff2	0.0074958736
37	0xbe0ad069	-0.13556065
38	0xbe84e80e	-0.25958294
39	0x3e419da7	0.18907796
40	0x3d004edd	0.03132521
41	0x3d793861	0.060844783
42	0x3d94b2a2	0.07260634
43	0xbb6e0050	-0.0036316104
44	0xbd4e570f	-0.050375994
45	0x3d5c70e8	0.053818613
46	0xbcd3aecc	-0.025840186
47	0xbc1d5054	-0.009601671
48	0x3d00dafe	0.031458847
49	0xbe0e7620	-0.13912249
50	0xbd91367c	-0.0709047
51	0xbb150d1e	-0.0022743414
52	0x3dc91b45	0.098196544
53	0x3d8f9fd3	0.07012906
54	0xba5a86a4	-0.0008336103
55	0xbca8c82e	-0.020603266
56	0xbb1a347a	-0.0023529814
57	0x3da1510a	0.07876785
58	0xbdba82d6	-0.09106986
59	0x3b16187c	0.0022902777
60	0xbbfeee39	-0.007779863
61	0x3d900e63	0.07033994
62	0xbd925ae3	-0.071462415
63	0xbdb3a55a	-0.08771773
