CybORG/CybORG/Models/bline_train/20000.pth (torch, 78565 bytes, 11 tensors)

actor.0.weight f4 [64, 62]
0	0xba7940ed	-0.0009508271
1	0x3d8b86e7	0.0681284
2	0xbdd6122a	-0.10452683
3	0xbdbf6a3c	-0.093464345
4	0xbe953f31	-0.29149774
5	0xbe51ae8a	-0.20476738
6	0xbdcd88fb	-0.100358926
7	0xbc97d743	-0.018535262
8	0xbddaa949	-0.1067682
9	0xbe33d85b	-0.17563002
10	0xbe150b60	-0.1455512
11	0xbeb1b33b	-0.34707054
12	0xbd179f9d	-0.037017453
13	0x3dd65542	0.104654804
14	0xbdb868f3	-0.090043925
15	0xbb36a84e	-0.0027871314
16	0x3d4da681	0.05020762
17	0x3d9c104d	0.076202966
18	0xbdb05477	-0.086098604
19	0xbd628646	-0.055303834
20	0x3d3cf15d	0.04612862
21	0x3dd7fb15	0.10545937
22	0xbcd61c86	-0.026136648
23	0x3dc2a212	0.09503569
24	0xbca7b158	-0.020470306
25	0x3c5c2cc0	0.013438404
26	0x3deb82cf	0.11499559
27	0xbdf14899	-0.11781425
28	0xbe62e8a3	-0.22159056
29	0xbcc73a6b	-0.024319848
30	0x3e07d51d	0.1326489
31	0x3f00f2c2	0.5037042
32	0xbda896cf	-0.082318895
33	0xbd6f7633	-0.058462333
34	0xbdb5b6b9	-0.08872742
35	0xbdf39894	-0.11894336
36	0x3e665416	0.22493014
37	0x3efa2393	0.48855266
38	0x3d63f396	0.055652224
39	0x3e54b92e	0.20773765
40	0xbcc45c1d	-0.023969704
41	0xbd48f482	-0.049061306
42	0x3de2ea0a	0.11079796
43	0x3c4af9c2	0.012388648
44	0xbc8a9e59	-0.01692121
45	0xbd8d11db	-0.06888171
46	0x3dc94566	0.0982769
47	0x3bca31ce	0.006170488
48	0x3d0da294	0.034578875
49	0x3dbcf896	0.092271015
50	0xbc828c9c	-0.015936188
51	0x3dcf9bbb	0.10137125
52	0x3d4e7484	0.050404087
53	0xbdc84892	-0.09779467
54	0x3e13386c	0.14376992
55	0xbd0720f9	-0.03299043
56	0x3e16cf95	0.14727624
57	0xbdc9a770	-0.09846389
58	0x3cf31937	0.02967511
59	0xbd7ebbd3	-0.062190842
60	0x3e0cb89d	0.137423
61	0x3e056bbb	0.13029377
62	0xbd9a1194	-0.07522884
63	0x3d1d2763	0.03836764
64	0x3d8ec91b	0.069719516
65	0xbc83508d	-0.01602962
66	0xbdb3b89d	-0.087754466
67	0x3b47fe65	0.0030516621
68	0x3dfa6d72	0.12227906
69	0x3e5290ba	0.20563021
70	0xbd017705	-0.031607646
71	0x3c9ec30a	0.019380111
72	0x3e3f5b74	0.1868723
73	0x3ee605f0	0.44926405
74	0x3e1cdf89	0.15319647
75	0xbe067b10	-0.13132882
76	0x3d5fcbf0	0.05463785
77	0xbd29f013	-0.04148872
78	0x3c3f6a4d	0.011683059
79	0xbda2b7b5	-0.079451956
80	0xbdf265d5	-0.11835829
81	0x3de717f4	0.112838656
82	0x3dc5c448	0.09656578
83	0xbe01ba05	-0.12668617
84	0x3cc2bb23	0.023770874
85	0xbcaf4366	-0.021394443
86	0xbcab34fb	-0.020899286
87	0xbd6e1f27	-0.058135178
88	0x3d480b12	0.048838682
89	0xbd9a0e51	-0.07522262
90	0x3e3f997d	0.18710895
91	0x3e1e5958	0.1546377
92	0x3e946e59	0.2899044
93	0x3ecc2534	0.39872134
94	0xbe00b695	-0.1256965
95	0xbda8b940	-0.08238459
96	0x3d81deb6	0.06341307
97	0x3cd9c105	0.026581297
98	0xbe4bf9b8	-0.19919479
99	0xbe2b7fe6	-0.16748008
100	0x3e162d71	0.14665772
101	0x3ddd7471	0.10813225
102	0x3aeb545e	0.001795422
103	0xbea4a99d	-0.32160655
104	0xbe42d218	-0.19025457
105	0x3d266406	0.040622734
106	0xbdd16b59	-0.10225553
107	0x3d5b82fd	0.053591717
108	0x3dc62e41	0.09676791
109	0x3de579a9	0.112048455
110	0xbd553dd8	-0.052060932
111	0x3db040a0	0.08606076
112	0xbd81d198	-0.06338805
113	0x3e109b57	0.14121757
114	0x3db23e72	0.08703317
115	0xbe4a6aea	-0.19767347
116	0x3b6b69e9	0.0035921282
117	0x3dc2fd48	0.09520966
118	0x3ddf05f7	0.108898096
119	0x3cf6c0a8	0.030121163
120	0x3c2918f5	0.010320892
121	0xbbf07388	-0.007337991
122	0x3b88c2c5	0.004173609
123	0x3df9801a	0.121826366
124	0xbdf97f3e	-0.12182473
125	0xbd9a2929	-0.07527382
126	0xbd02383f	-0.03179192
127	0xbd7d6489	-0.061863456
128	0xbdb9bae4	-0.0906885
129	0xbe570d48	-0.2100116
130	0xbe7acfbd	-0.24493308
131	0xbe6919d7	-0.22763763
132	0xbe8111f8	-0.25209022
133	0x3ce0a372	0.027421687
134	0x3ddf0436	0.10889475
135	0x3e85bc27	0.2612011
136	0xbe34d895	-0.17660744
137	0xbe449896	-0.19198832
138	0x3e4a840e	0.19776937
139	0x3ec46398	0.38357234
140	0x3df6600c	0.12030038
141	0x3da52cf8	0.08065218
142	0x3df6f05c	0.12057564
143	0xbc167c17	-0.009184859
144	0xbde9a66a	-0.11408694
145	0xbd769c86	-0.060207866
146	0x3db119d4	0.086475044
147	0xba57d11e	-0.000823276
148	0xbd8147a7	-0.06312495
149	0xbdc75098	-0.09732169
150	0xbdf3695f	-0.11885332
151	0xbddb85fc	-0.10718915
152	0x3e05e4dd	0.13075586
153	0x3e0763b1	0.13221623
154	0x3d36d608	0.04463771
155	0xbd84e77f	-0.06489467
156	0x3da23e4e	0.0792204
157	0xbdcb871c	-0.099378794
158	0xbcdbf2b6	-0.026849132
159	0xbd52ec80	-0.051495075
160	0xbe66f0de	-0.22552821
161	0xbeb7dbd3	-0.359099
162	0xbc795b9d	-0.015219596
163	0xbb017356	-0.0019752583
164	0xbe0d79d6	-0.13816008
165	0xbeaa84a8	-0.33304334
166	0x3d0a400a	0.03375248
167	0x3da013ea	0.07816298
168	0xbdb84f13	-0.08999457
169	0xba41508e	-0.00073743693
170	0x3df98078	0.121827066
171	0x3d68c0b3	0.056824397
172	0x3e52a4e3	0.20570712
173	0x3dc245e7	0.09485989
174	0xbc85ca61	-0.016331853
175	0x3e02c748	0.12771332
176	0xbc701bff	-0.014655112
177	0xbd631b58	-0.055446
178	0x3e5cfa29	0.21579804
179	0x3cced898	0.025249764
180	0x3c929335	0.01789246
181	0xbcd9d2f6	-0.026589852
182	0x3e3f198b	0.18662088
183	0x3d602e4d	0.054731656
184	0x3e2299d6	0.15878996
185	0x3e1ba0d6	0.15198073
186	0xbcfa2fb0	-0.030540317
187	0xbcdacc74	-0.026708819
188	0xbdd6572a	-0.10465844
189	0x3d8cee7f	0.06881427
190	0xbbc214a5	-0.005922871
191	0xbdc0dc1d	-0.09416983
192	0xbe95b0e9	-0.29236534
193	0xbe4682db	-0.19385855
194	0xbe79149b	-0.24324267
195	0x3d7c26e1	0.061560515
196	0x3e4ba52e	0.1988723
197	0x3ee21e40	0.44163704
198	0xbe5df9fd	-0.21677394
199	0xbc2c58ae	-0.01051919
200	0xbdcc1866	-0.09965591
201	0xbe1a9277	-0.15094934
202	0xbdc49caa	-0.09600194
203	0xbdb28f2c	-0.08718714
204	0xbd970724	-0.07374409
205	0x3db60cd1	0.08889163
206	0xbd3afdb2	-0.0456521
207	0x3ddb6364	0.10712317
208	0x3d3c1b05	0.045924205
209	0x3c83bd64	0.01608152
210	0xba77d42e	-0.00094539195
211	0xbccdaa38	-0.02510558
212	0x3c828887	0.015934242
213	0xbced90fe	-0.028999802
214	0xbcf67c4e	-0.03008857
215	0xbd8ab416	-0.0677263
216	0xbdc9b0c4	-0.098481685
217	0xbe198ec0	-0.14995861
218	0x3dd2069d	0.10255168
219	0xbdd3148b	-0.10306653
220	0xbc156984	-0.009119395
221	0x3e00a60e	0.12563345
222	0xbe174eea	-0.14776197
223	0xbddb372f	-0.10703885
224	0xbe6781c7	-0.226081
225	0x3db7ae11	0.089687474
226	0xbdc1df6d	-0.09466443
227	0xbeeff9bc	-0.4687022
228	0x3d77bbf1	0.06048197
229	0x3cd0f57f	0.025507687
230	0x3de47204	0.11154559
231	0x3e2dc980	0.16971397
232	0x3cdcf812	0.026973758
233	0x3e22f939	0.15915383
234	0x3e198910	0.14993691
235	0xbc0c5c87	-0.008566982
236	0x3d20e492	0.03928048
237	0xbdaadeb6	-0.0834326
238	0xbd5c787d	-0.053825844
239	0xbc770cc6	-0.015078729
240	0x3d345578	0.04402682
241	0x3e313025	0.17303522
242	0xbe189856	-0.14901862
243	0x39552f82	0.00020330961
244	0x3cff82d1	0.031190308
245	0x3cc5bd6f	0.02413818
246	0x3e62938a	0.22126594
247	0xbe19703b	-0.14984219
248	0x3ae56cfc	0.0017503793
249	0xbcb0e205	-0.02159215
250	0xbd88fc54	-0.06688753
251	0x3c89823e	0.016785737
252	0xbd8cbbf6	-0.06871788
253	0xbe886c06	-0.26644915
254	0x3da7be4f	0.08190595
255	0xbd37cd28	-0.044873387

actor.0.bias f4 [64]
0	0x3cb9e3b3	0.022691583
1	0x3dbdb2ab	0.09262594
2	0x3de47810	0.111557126
3	0x3c6eeb73	0.014582503
4	0xbd9bce00	-0.07607651
5	0xbdbfdc96	-0.09368245
6	0x3e20baf0	0.15696311
7	0x3d21b338	0.039477557
8	0x3e140b29	0.14457382
9	0x3d45fb13	0.048335146
10	0x3d4ea2a6	0.050448082
11	0xbd3abc54	-0.04558976
12	0x3d4bec27	0.04978576
13	0x3dee3a15	0.11632172
14	0xbc336fa4	-0.01095191
15	0x3eb7d014	0.3590094
16	0x3d5d6119	0.054047678
17	0x3de94fd5	0.1139218
18	0xbd87c9d6	-0.06630294
19	0x3dad4ddc	0.08462116
20	0xbd552d2c	-0.052045032
21	0xbc1c0eb3	-0.009524989
22	0x3d71d856	0.059044205
23	0xbdff80a8	-0.12475711
24	0x3d5d3857	0.054008808
25	0x3e19f895	0.15036233
26	0x3e038ca4	0.12846619
27	0x3e42504e	0.18975946
28	0x3d57d938	0.05269739
29	0xbcea8405	-0.028627405
30	0x3b0fb982	0.002193064
31	0x3de93e98	0.11388892
32	0x3e01a4f8	0.12660587
33	0xbb9ff7af	-0.004881821
34	0x3defb0c2	0.11703636
35	0xbcbcda92	-0.023053441
36	0x3de18bb8	0.11012977
37	0x3d8e08f7	0.06935304
38	0xbd5fb0f8	-0.05461213
39	0xbd050ca8	-0.032482773
40	0x3e568be3	0.209518
41	0x3dc23eee	0.09484659
42	0xbc976096	-0.018478673
43	0x3b692298	0.0035573598
44	0x3e15bc93	0.14622717
45	0x3e496a3f	0.19669436
46	0x3db94a13	0.09047332
47	0x3daf18fb	0.085496865
48	0x3e147fd1	0.14501883
49	0x3d8b4d07	0.06801801
50	0x3dc29ee8	0.09502965
51	0xbdac0275	-0.08398906
52	0x3d9ba148	0.07599121
53	0x3e0b57b3	0.13607673
54	0x3e6cf628	0.23140776
55	0x3e2654da	0.16243306
56	0x3da417fe	0.08012389
57	0x3d82aa7c	0.063801736
58	0xbddf0c6a	-0.1089104
59	0x3e287441	0.16450597
60	0x3d679519	0.056538675
61	0x3afb553d	0.0019175183
62	0x3a1329ea	0.00056138507
63	0x3cfb314a	0.030663151

actor.2.weight f4 [64, 64]
0	0x3d517670	0.05113834
1	0xbdcb84ee	-0.09937464
2	0x3e497675	0.19674094
3	0xbdbd1dd5	-0.09234206
4	0x3e632188	0.2218076
5	0x3e7a9561	0.24471046
6	0xbcd31d03	-0.02577067
7	0xbe18b7d4	-0.14913875
8	0x3c0118be	0.007879434
9	0xbe1564a8	-0.14589179
10	0xbe67ffd6	-0.22656187
11	0xbd4868cc	-0.048928067
12	0x3cc28713	0.023746049
13	0xbc745ae9	-0.014914253
14	0x3db534b1	0.08847941
15	0xbe13adba	-0.1442174
16	0xbe18ac5a	-0.14909497
17	0x3dd093fe	0.10184477
18	0x3e30cb03	0.17264943
19	0xbd3e36a6	-0.046438836
20	0x3e861798	0.26189876
21	0xbe011dbf	-0.12609003
22	0x3e4c7f58	0.19970453
23	0xbe1b15c6	-0.15145025
24	0xbe389a51	-0.18027617
25	0x3d8c0b6d	0.06838117
26	0xbcec9942	-0.028881673
27	0x3df5e309	0.12006194
28	0x3d96cbc2	0.073630825
29	0x3e3e68c9	0.1859466
30	0x3e1aa9ab	0.15103786
31	0x3e1c8a8b	0.15287225
32	0x3c5d3529	0.013501444
33	0x3e577ea6	0.21044406
34	0xbe2311f1	-0.15924813
35	0xbc62c34e	-0.01384051
36	0x3d1384ef	0.036015447
37	0xbd98fe1d	-0.07470343
38	0xbe7cb3fe	-0.24678037
39	0xbc473bfe	-0.012160299
40	0x3c4a42fb	0.012345071
41	0xbdb88d4b	-0.090113245
42	0x3e398965	0.18118818
43	0xbea658f2	-0.32489735
44	0xbdf51dcd	-0.11968575
45	0x3a85f444	0.0010219892
46	0xbde2ca22	-0.1107371
47	0x3e58f295	0.21186288
48	0x3d30615b	0.043061595
49	0x3ddacaf8	0.106832445
50	0x3d03cca8	0.032177597
51	0x3e9b5933	0.3034149
52	0x3e5b1c35	0.21397479
53	0x3e12f3e0	0.14350843
54	0x3dcfcd3a	0.10146566
55	0x3d7a2416	0.06106957
56	0xbe760705	-0.24026115
57	0xbdb92cc1	-0.09041739
58	0x3e277cc4	0.16356188
59	0xbe1083ee	-0.14112827
60	0x3dd8f1e8	0.10593015
61	0x3c2fdf03	0.0107343225
62	0x3e168d76	0.147024
63	0xbe4ab53c	-0.19795698
64	0x3e3a4102	0.18188861
65	0xbe2116e5	-0.1573139
66	0xbda184f7	-0.07886689
67	0x3e05d2ce	0.13068697
68	0xbda93370	-0.08261764
69	0xbdfc1ad1	-0.12309802
70	0x3e237897	0.1596397
71	0x3d53515d	0.051591266
72	0x3e4395ca	0.19100109
73	0x3e7a9d4e	0.2447407
74	0x3e3b8e82	0.18316081
75	0x3e2e152e	0.17000267
76	0x3c9c0f5b	0.01905029
77	0xbdfae37a	-0.12250419
78	0x3e2e2316	0.17005572
79	0x3e93d01b	0.2886971
80	0x3d9f7c3f	0.0778737
81	0x3e3c4068	0.18383944
82	0xbcff9988	-0.03120114
83	0x3e53035e	0.20606753
84	0xbe3b2f0b	-0.18279664
85	0x3ea80a62	0.3282042
86	0xbe4f3629	-0.20235504
87	0xbda66ffc	-0.08126828
88	0x3c37753a	0.011197383
89	0x3e465b13	0.1937068
90	0xbe129836	-0.14315876
91	0x3eea54df	0.45767877
92	0xbd4f8b55	-0.050669987
93	0x3c61e878	0.013788335
94	0xbe4ad293	-0.1980689
95	0xbdad7d5f	-0.08471178
96	0x3cf667dd	0.030078823
97	0xbdb993e3	-0.0906141
98	0x3d080a29	0.033212814
99	0xbe800547	-0.25004026
100	0x3dc65130	0.09683454
101	0xbe35b59e	-0.17745063
102	0xbb6e90cd	-0.0036402226
103	0xbe0f98fd	-0.14023204
104	0xbda924e3	-0.08258989
105	0x3d0699e1	0.032861594
106	0x3d8da819	0.06916828
107	0xbe384229	-0.17993988
108	0x3e2e1c5d	0.17003007
109	0xbcc86e77	-0.024466736
110	0x3e157133	0.14593963
111	0xbe0cb439	-0.13740624
112	0x3babc11a	0.0052415254
113	0x3dff02ce	0.12451707
114	0xbe3a0693	-0.1816657
115	0x3d7497fe	0.059715264
116	0x3e582056	0.21106085
117	0x3d46878e	0.04846912
118	0x3ec83560	0.39103222
119	0x3ef22da7	0.47300455
120	0xbd89078a	-0.06690891
121	0xbe195da2	-0.14977124
122	0xbc7a1835	-0.0152645605
123	0x3e832cac	0.2562002
124	0xbd984b2c	-0.07436213
125	0xbd75783b	-0.059929114
126	0x3c888340	0.016664147
127	0x3e074faa	0.13213983
128	0xbd90c1ca	-0.07068212
129	0x3e0fb56e	0.14034054
130	0x3dca87d2	0.09889187
131	0x3dae846b	0.085213505
132	0x3e8e63ce	0.2781052
133	0x3e4b747b	0.19868653
134	0x3b4946b0	0.00307123
135	0xbe1a83f1	-0.15089394
136	0x3e03f3eb	0.12886016
137	0xbe19dcec	-0.15025681
138	0xbb3b8657	-0.0028614008
139	0xbdfde2b6	-0.12396757
140	0x3ddc327b	0.10751816
141	0x3e3252b0	0.17414355
142	0x3e3dcbf8	0.18534839
143	0xbe995f4e	-0.29955524
144	0xbd8ffbf9	-0.07030482
145	0x3e3eafac	0.18621701
146	0x3e95810f	0.29200026
147	0xbba1213d	-0.0049172924
148	0x3e16fe4f	0.14745449
149	0xbe1a4199	-0.15064086
150	0x3d9fcf25	0.078031816
151	0x3c8ac6fa	0.016940583
152	0xbda3083c	-0.07960555
153	0x3de9318b	0.11386403
154	0x3e62c6d7	0.22146164
155	0xbcee1923	-0.02906472
156	0x3e84e3f0	0.25955153
157	0x3da91910	0.082567334
158	0x3e61d3cd	0.22053452
159	0x3e6d0103	0.23144917
160	0x3bc13935	0.005896712
161	0x3e6adc5c	0.22935623
162	0xbe3d49c0	-0.18485165
163	0x3d87960a	0.066204146
164	0x3d8976bc	0.067121
165	0x3ceb913b	0.028755775
166	0x3e9e57bd	0.30926314
167	0xbdac4dd3	-0.08413281
168	0x3cbd426e	0.023102965
169	0x3d0ae923	0.033913743
170	0x3dc42568	0.09577447
171	0x3df5ee0a	0.12008293
172	0xbe2f97bd	-0.17147727
173	0x3d86fdf6	0.06591408
174	0xbe5fd0f6	-0.21857056
175	0x3defe0ec	0.11712822
176	0x3df113d2	0.117713585
177	0x3e21bc3b	0.1579446
178	0x3e1becd3	0.1522706
179	0x3e36b637	0.17842947
180	0x3d920d16	0.07131402
181	0xbe5fb6f4	-0.21847135
182	0xbe64484f	-0.22293209
183	0xbd8998e1	-0.067186125
184	0x3cae32c1	0.021264436
185	0x3e03d155	0.12872823
186	0x3e84604c	0.2585472
187	0xbe267654	-0.16256076
188	0x3c3fa79c	0.011697676
189	0x3e87e1c6	0.2653944
190	0x3d7374b4	0.05943747
191	0xbdeb7d35	-0.11498491
192	0x3d3db49d	0.046314824
193	0x3e60ebb0	0.21964908
194	0x3e98ca2f	0.29841754
195	0x3ed4fe78	0.41600394
196	0xbda33616	-0.079693004
197	0x3d5078b1	0.05089635
198	0x3dd4a9b5	0.103839315
199	0x3e9c398e	0.3051266
200	0x3de56e1c	0.11202642
201	0x3ec02984	0.37531674
202	0xbb062758	-0.0020470228
203	0x3d872426	0.06598692
204	0x3d6d6aa8	0.057963043
205	0x3e9f8898	0.311589
206	0x3eaf3b40	0.34224892
207	0xbdfe0363	-0.1240299
208	0x3e2a98d3	0.1665986
209	0x3e337f49	0.17529024
210	0xbd97c68a	-0.07410915
211	0x3e86283f	0.2620258
212	0x3d10cda5	0.035352368
213	0x3d9af79b	0.07566758
214	0x3d2e7a30	0.042596996
215	0x3e41bc8c	0.18919581
216	0x3eb20f34	0.34777224
217	0x3e3c2c16	0.18376192
218	0x3d9affc7	0.07568317
219	0xbe8a603d	-0.2702655
220	0xbd873048	-0.06601006
221	0xbdacc1ba	-0.08435388
222	0x3d9f28d5	0.0777146
223	0x3daf573a	0.08561559
224	0x3ebae96c	0.36506212
225	0x3e4ccc19	0.19999732
226	0x3e9cb5f9	0.30607584
227	0x3e64eea2	0.22356656
228	0xbe33f2a3	-0.17573027
229	0xbd70c468	-0.058781058
230	0x3d4ef570	0.050527036
231	0x3e54046f	0.20704816
232	0x3e048ea4	0.12945038
233	0x3e1d515a	0.15363064
234	0xbdfc8cc4	-0.123315364
235	0x3e54750e	0.20747778
236	0x3dc255ca	0.09489019
237	0xbdd21b62	-0.10259129
238	0xbc340302	-0.010987045
239	0xbc01f8d5	-0.007932861
240	0xbdd18826	-0.102310464
241	0x3d5df4a4	0.054188386
242	0xbe82e383	-0.25564203
243	0xbbdad770	-0.006678514
244	0xbe8e4026	-0.27783316
245	0xbdeb172e	-0.114790305
246	0x3dae564d	0.08512554
247	0xbe1d0b20	-0.15336275
248	0xbe5ffae0	-0.21873045
249	0x3e814971	0.25251344
250	0xbe2a2094	-0.1661399
251	0x3d720622	0.05908788
252	0x3edadf3d	0.42748442
253	0x3e7a4364	0.2443977
254	0x3e233ec7	0.15941916
255	0x3dac9939	0.084276624

actor.2.bias f4 [64]
0	0xbd147359	-0.036242817
1	0x3e20e5cd	0.15712662
2	0x3dbe5cb4	0.092950255
3	0xbd790753	-0.060798
4	0x3e09d033	0.13458328
5	0x3dbedcb6	0.09319441
6	0xbcfacc10	-0.030614883
7	0x3d33e0d1	0.043915574
8	0xbda4cd58	-0.08046979
9	0x3caf1d3b	0.021376243
10	0xbdbfd30d	-0.093664266
11	0x3d89bd91	0.0672561
12	0xbd2c9671	-0.04213566
13	0xbbe5a026	-0.0070076166
14	0x3caf6db3	0.021414613
15	0x3def49d5	0.11684004
16	0xbdd6c9a9	-0.10487682
17	0x3dd8b34b	0.105810724
18	0x3d6572ec	0.0560178
19	0x3d176e9b	0.036970716
20	0xbde29c18	-0.11064929
21	0x3dbc95b8	0.09208244
22	0x3c700767	0.014650202
23	0x3dc31616	0.09525697
24	0x3e3ac5ce	0.18239519
25	0x3cf6221a	0.030045558
26	0x3dc51864	0.09623793
27	0xbcf9a0e7	-0.030472232
28	0xbd9d136d	-0.07669721
29	0x3d47d679	0.04878852
30	0xba985ece	-0.0011624934
31	0x3cb5bd49	0.022184985
32	0xbbfb955d	-0.0076777176
33	0xbd0256aa	-0.03182093
34	0xbc9f236b	-0.019426068
35	0x3e0de44c	0.1385662
36	0x3caa4c80	0.020788431
37	0x3c70062d	0.01464991
38	0x3ded639c	0.115912646
39	0xbd24b9f7	-0.040216412
40	0x3dfc4e0a	0.12319572
41	0xbdc75212	-0.097324505
42	0x3d9cd68c	0.07658109
43	0xbdc37a84	-0.095448524
44	0x3d68180e	0.056663565
45	0xbd626e8a	-0.0552812
46	0xbd39939c	-0.045306787
47	0xbd1f6551	-0.038914982
48	0xbd770858	-0.06031069
49	0x3dd81995	0.105517544
50	0x3e119e43	0.14220528
51	0xbe0b34cd	-0.1359436
52	0xbd486b6b	-0.048930567
53	0xbdbd6a76	-0.092488214
54	0xbc12cc5f	-0.008959859
55	0x3d879f6c	0.06622204
56	0xbd26acc5	-0.04069211
57	0x3d95d207	0.0731545
58	0x3e097681	0.13424112
59	0x3ca657ac	0.020305477
60	0xbc453315	-0.012036105
61	0x3d85bb70	0.065298915
62	0x3c908e17	0.017645879
63	0x3d9370fb	0.07199284

actor.4.weight f4 [36, 64]
0	0xbd17fb0b	-0.037104648
1	0xbeefd458	-0.46841693
2	0x3e8ee600	0.2790985
3	0xbf18e209	-0.597199
4	0x3e5303e2	0.2060695
5	0xbcec0b42	-0.028813962
6	0x3ea14307	0.3149645
7	0x3ed64886	0.41852206
8	0xbd3452e6	-0.04402437
9	0xbd0eb841	-0.034843687
10	0xbd8e42e8	-0.06946355
11	0x3e9906cf	0.29888007
12	0xbde25115	-0.110506214
13	0xbe3bb17d	-0.18329425
14	0xbbec3405	-0.0072083496
15	0x3e8100f8	0.25196052
16	0x3dbb2ce7	0.09139424
17	0xbe9d4702	-0.30718237
18	0xbdf86c44	-0.12130025
19	0x3ecbcd52	0.39805084
20	0x3d83f5a7	0.06443339
21	0xbf177eb9	-0.5917774
22	0xbba9ea92	-0.0051854337
23	0xbeb4fe62	-0.3535033
24	0x3deb25b2	0.11481799
25	0x3d7fa58c	0.062413737
26	0x3d5784cc	0.05261688
27	0x3ed99da0	0.4250307
28	0xbeac4bf9	-0.33651713
29	0xbe46af16	-0.19402727
30	0x3d8e8034	0.069580466
31	0xbdaac856	-0.08338992
32	0xbf0f3baa	-0.55950415
33	0xbc794aa2	-0.015215548
34	0x3cf04097	0.029327674
35	0xbe1cb0b3	-0.1530178
36	0x3d1ca31d	0.038241494
37	0x3e00d600	0.12581635
38	0x3e8a472d	0.27007428
39	0x3db8f89f	0.09031796
40	0xbe41ee43	-0.18938546
41	0x3e5b2cbc	0.21403784
42	0xbf010243	-0.50394076
43	0xbd81ce4a	-0.06338175
44	0xbd33c978	-0.043893307
45	0x3d3a12e9	0.04542819
46	0xbecef997	-0.40424797
47	0x3cfcc908	0.030857578
48	0xbdb60cc0	-0.088891506
49	0x3db769fb	0.08955761
50	0xbf20ce88	-0.6281514
51	0xbd7b8872	-0.06140942
52	0x3e265e48	0.16246903
53	0xbdb9d7b4	-0.09074345
54	0x3e82fbb8	0.2558267
55	0x3e10a659	0.14125957
56	0xbd933a88	-0.07188898
57	0xbd9f6b7f	-0.07784175
58	0xbe586194	-0.21130973
59	0xbd8e0467	-0.069344334
60	0x3bd95120	0.0066319853
61	0x3c5594ec	0.013035994
62	0x3e0e3ea7	0.13891087
63	0x3e5410e5	0.2070957
64	0xbea07f46	-0.31347102
65	0xbec568fa	-0.38556653
66	0xbcc8b4df	-0.024500309
67	0x3ebd0418	0.36917186
68	0xbc0a88d0	-0.00845547
69	0xbe8bbdb9	-0.27293184
70	0xbe58ef6e	-0.21185085
71	0x3ddc6acf	0.107625596
72	0xbd6c1c17	-0.057643976
73	0x3e7ca3de	0.24671885
74	0x3d985c61	0.07439495
75	0x3a3b337a	0.00071411545
76	0x3e1b84d4	0.15187389
77	0x3e1e6994	0.15469962
78	0x3d366ef4	0.044539407
79	0xbeb93221	-0.36171058
80	0xbdcc3053	-0.099701546
81	0x3eecf37e	0.4627952
82	0xbeacfc1d	-0.33786097
83	0xbe8991cf	-0.26869056
84	0x3d14a04c	0.036285684
85	0x3c3c2fda	0.011486018
86	0x3cec04df	0.028810916
87	0x3e293237	0.16523062
88	0xbeb728e7	-0.35773394
89	0x3d9c7292	0.0763904
90	0xbc354312	-0.011063354
91	0x3ea38696	0.31938618
92	0x3eb611f5	0.35560575
93	0xbd980eaa	-0.07424672
94	0xbedb5e9b	-0.42845616
95	0xbe23f7f8	-0.16012561
96	0xbdae7e53	-0.08520188
97	0xbd83e36a	-0.0643986
98	0x3e149279	0.14509
99	0xbed37696	-0.4130141
100	0x3e0b1c29	0.13584961
101	0x3e4ba2ee	0.19886371
102	0x3e87255b	0.26395687
103	0xbde1c5f3	-0.11024084
104	0x3e03b2e0	0.12861204
105	0x3de09071	0.1096505
106	0xbeb5c230	-0.35499716
107	0xbd202455	-0.03909715
108	0x3d48f4a8	0.049061447
109	0x3d46639a	0.04843483
110	0xbe39b09f	-0.18133782
111	0x3d407244	0.046983972
112	0x3ceb6029	0.028732376
113	0x3e2ffca4	0.17186219
114	0xbdfa9b6a	-0.12236674
115	0xbcd717ea	-0.02625652
116	0x3e1c4b33	0.15263061
117	0x3ddac49b	0.10682031
118	0x3ec025b0	0.37528753
119	0xbdf4e5ce	-0.11957894
120	0xbd4fb894	-0.050713137
121	0xbc8b01d9	-0.016968654
122	0xbec7dbb5	-0.3903481
123	0x3e045923	0.12924628
124	0x3e5d5d4f	0.21617626
125	0x3dc037c2	0.09385635
126	0x3dfe9fa9	0.124327965
127	0xbd85b495	-0.06528584
128	0x3ea98071	0.33105806
129	0xbeb48ebe	-0.35265154
130	0x3eb1a33b	0.34694847
131	0xbd237e00	-0.039915085
132	0xbebbca72	-0.3667789
133	0x3e9077d0	0.2821641
134	0x3e0dd33a	0.13850108
135	0xbe2ee1ec	-0.1707837
136	0x3cacafc2	0.021079902
137	0xbd2887a7	-0.041144993
138	0x3d5e8a2d	0.054330993
139	0x3e83a1cf	0.25709388
140	0x3ec17ea9	0.37791947
141	0xbd465b36	-0.04842683
142	0x3dca1a5a	0.098683074
143	0xbe201319	-0.15632285
144	0x3cd4e054	0.025985874
145	0x3e1e0092	0.15429905
146	0x3ecf6732	0.4050842
147	0x3e389551	0.1802571
148	0x3de3ce98	0.11123389
149	0xbe448b7f	-0.19193839
150	0x3db3cb8c	0.08779058
151	0xbe96722f	-0.2938399
152	0x3c02158e	0.007939709
153	0x3dc0dba9	0.09416897
154	0x3c546d0f	0.012965455
155	0x3de2e7a6	0.1107934
156	0x3e49e95d	0.19717927
157	0xbd48fd11	-0.049069468
158	0x3e21bf65	0.15795667
159	0xbdd583cd	-0.1042553
160	0xbd11582c	-0.035484478
161	0x3c15a28d	0.009132993
162	0x3dea916f	0.114535205
163	0x3a0fe5f9	0.00054892857
164	0x3e01fe70	0.12694716
165	0x3d9d670c	0.0768567
166	0x3e51db63	0.20493846
167	0x3dc22606	0.09479909
168	0x3e84ea9c	0.25960243
169	0xbce970e4	-0.028496213
170	0xbe81b4da	-0.2533329
171	0x3c9afef6	0.018920403
172	0xbe2ccf6e	-0.16876003
173	0x3c2e9817	0.010656378
174	0x3ea33081	0.31872943
175	0x3d1a1758	0.03761992
176	0x3d96db8a	0.073660925
177	0x3e9ef04c	0.31042707
178	0xbe99a828	-0.30011106
179	0x3d0e74b5	0.03477927
180	0x3e1b9892	0.1519492
181	0xbcc89db9	-0.02448927
182	0xbe2d4ded	-0.16924258
183	0x3ecd6a44	0.40120137
184	0xbdb38a13	-0.0876657
185	0xbdf494da	-0.11942454
186	0xbf0a8b18	-0.5411849
187	0xbcdbe62d	-0.026843155
188	0xbd63430f	-0.055483874
189	0x3e82b064	0.255252
190	0x3d7004f0	0.05859846
191	0xbe3042ab	-0.17212932
192	0x3e3ec5de	0.18630168
193	0xbdbd77c6	-0.092513606
194	0x3c8c1bdd	0.01710313
195	0xbd2d0de8	-0.04224959
196	0xbd1edb5c	-0.038783416
197	0x3daa4e59	0.08315725
198	0x3dfdc6ee	0.123914585
199	0x3d6ce436	0.057834826
200	0xbd01b6b9	-0.0316684
201	0x3e4534fc	0.19258493
202	0x3d885bd7	0.06658142
203	0xbd31a1d0	-0.043367207
204	0x3e5e5a29	0.21714081
205	0xbe97147d	-0.2950782
206	0x3d6bf4f3	0.05760665
207	0x3e213aec	0.15745133
208	0xbd4b909b	-0.049698453
209	0xbd811cf6	-0.06304352
210	0xbdf2d26a	-0.118565395
211	0xbd38a12e	-0.045075588
212	0xbd39d88c	-0.04537253
213	0xbe916d0e	-0.28403515
214	0x3d089f3b	0.03335498
215	0x3e8a108f	0.26965758
216	0x3da2c6e2	0.0794809
217	0xbdae7920	-0.085191965
218	0xbd644d4b	-0.055737775
219	0xbddc3480	-0.10752201
220	0x3db6b6c6	0.0892158
221	0x3e2f1bf1	0.17100503
222	0x3e6b9932	0.23007658
223	0xbeae5a1e	-0.3405313
224	0x3dd8c2fc	0.10584065
225	0x3dd145e7	0.10218411
226	0xbd753214	-0.05986221
227	0xbe88fdfe	-0.2675628
228	0xbd4e5f80	-0.050384045
229	0x3cbf93f2	0.023385976
230	0x3d385814	0.045005873
231	0xbd9e1268	-0.077183545
232	0xbd43a4f9	-0.047764752
233	0x3ea4bd65	0.32175747
234	0xbddbd881	-0.10734654
235	0xbd997006	-0.0749207
236	0xbd815f9b	-0.063170634
237	0x3d1991db	0.037492614
238	0x3dd8344b	0.10556849
239	0xbd18280e	-0.037147574
240	0xbd792f50	-0.060836136
241	0x3e182a9f	0.14860009
242	0xbe9e25d0	-0.30888224
243	0xbde237e2	-0.11045815
244	0x3e7a18ed	0.24423571
245	0x3d4eb1a8	0.050462395
246	0x3d3420ce	0.043976597
247	0x3e1af492	0.15132359
248	0x3e135b7a	0.14390364
249	0xbdbaef0d	-0.091276266
250	0xbe73106c	-0.23736733
251	0xbb5fdae3	-0.0034157566
252	0xbe7bca0b	-0.24588792
253	0x3e73ca78	0.23807704
254	0xbd8e27e1	-0.069412
255	0xbe44b286	-0.19208726

actor.4.bias f4 [36]
0	0xbde489b4	-0.11159077
1	0x3c4cf55f	0.012509673
2	0xbd460265	-0.048342127
3	0xbdeec422	-0.11658503
4	0x3e3b6676	0.18300804
5	0xbd395ad2	-0.04525263
6	0x3e1b4643	0.15163521
7	0x3e014a32	0.1262596
8	0xbcc2dd88	-0.023787275
9	0xbc449d46	-0.012000388
10	0xbd77ef69	-0.060531054
11	0xbc277698	-0.010221146
12	0x3b6369e0	0.0034700558
13	0x3e139373	0.14411716
14	0x3db6b745	0.08921675
15	0xbe124298	-0.14283216
16	0xbe4f568d	-0.2024786
17	0xbe69a7b0	-0.22817874
18	0xbde42000	-0.11138916
19	0xbdb8576a	-0.09001048
20	0xbe4d1bdd	-0.2003016
21	0x3c7bff2d	0.015380663
22	0xbc645bd0	-0.013937905
23	0xbe1e11f4	-0.15436536
24	0x3e3a51cf	0.1819527
25	0x3d701ccc	0.058621213
26	0x3de3e75d	0.111281134
27	0xbce308df	-0.027714191
28	0xbc1ea8af	-0.009683772
29	0x3d247dae	0.04015892
30	0x3dfffb95	0.12499157
31	0xbc3ed40c	-0.011647236
32	0xbb9d6530	-0.0048033223
33	0x3e202a6e	0.15641186
34	0x3e0ca15c	0.13733429
35	0x3e50a388	0.20374882

critic.0.weight f4 [64, 62]
0	0x3d9c60c8	0.07635647
1	0x3dab196a	0.08354457
2	0xbdabd831	-0.083908446
3	0x3c1b5b6c	0.009482246
4	0xbdb2eb48	-0.087362826
5	0xbce8eef7	-0.02843426
6	0xba9af66f	-0.001182271
7	0x3cdb9d35	0.02680836
8	0xbdad908e	-0.08474837
9	0xbd58776a	-0.052848257
10	0xbe18e8c0	-0.14932537
11	0xbe100339	-0.1406373
12	0xbdba354d	-0.090921976
13	0xbc4f983a	-0.012670571
14	0xbde67214	-0.112522274
15	0xbdb6beae	-0.08923088
16	0xbc0910fe	-0.008365868
17	0xbddd20ab	-0.107972465
18	0xbdf7fe13	-0.12109008
19	0x3db676c8	0.089093745
20	0xbdbb4a0c	-0.09144983
21	0x3db6177c	0.08891198
22	0x3c1010d6	0.0087930765
23	0xbc983c3e	-0.018583413
24	0x3dc93eef	0.09826457
25	0xbdcb1727	-0.09916525
26	0x3d7934c0	0.060841322
27	0x3dad99b3	0.084765814
28	0x3d1882d4	0.037234142
29	0xbe02358d	-0.1271574
30	0x3c7389c5	0.01486439
31	0xbd8cf400	-0.06882477
32	0xbdc0fbf2	-0.09423055
33	0x3db1a39a	0.08673783
34	0xbcb73252	-0.022362862
35	0x3dafeb73	0.0858983
36	0xbd8c0d16	-0.068384334
37	0xbd66b474	-0.056324437
38	0xbba6849b	-0.005081726
39	0xbd0c628f	-0.03427368
40	0x3e154d95	0.14580376
41	0x3db76fe2	0.08956887
42	0x3e172907	0.14761744
43	0xbdd2050a	-0.102548674
44	0x3a8db0e9	0.001081017
45	0x3d88a0dd	0.06671307
46	0xba7a0dd6	-0.0009538805
47	0xbdd91f0d	-0.106016256
48	0x3dd46658	0.10371083
49	0xbe208b5f	-0.15678166
50	0xbdbad5a4	-0.0912278
51	0xbde555bb	-0.111979924
52	0x3d00b712	0.03142459
53	0x3ca003d2	0.019533072
54	0xbdcbf3a2	-0.09958579
55	0xbd964c30	-0.0733875
56	0x3cefdd3d	0.0292803
57	0x3d30368a	0.043020763
58	0xbe3d857f	-0.18507956
59	0xbc9ed4e4	-0.019388624
60	0xbda1ee4e	-0.07906781
61	0xbd65a3f1	-0.05606455
62	0xbde719dd	-0.1128423
63	0x3d83bfcc	0.06433067
64	0xbc8d3928	-0.017239168
65	0xbd4d2513	-0.050084185
66	0xbd6d4df7	-0.05793568
67	0x3e3edcff	0.18638991
68	0x3dc5c897	0.096574
69	0x3d6e220e	0.058137946
70	0xbe5d0cb3	-0.21586876
71	0xbe8f4a9e	-0.27986616
72	0xbcf93bde	-0.030424055
73	0x3e25b4bd	0.16182227
74	0xbd46fd9f	-0.048581716
75	0x3dd32909	0.10310561
76	0x3dd75b88	0.10515505
77	0x3db0c9e1	0.08632255
78	0x3dd4f5a3	0.10398414
79	0x3ddf2efb	0.10897633
80	0x3d8b91bf	0.06814908
81	0xbbdf0445	-0.006805929
82	0xbd05605d	-0.032562602
83	0xbdf85976	-0.12126438
84	0x3d88dae2	0.066823736
85	0xbcebcd00	-0.028784275
86	0x3ca310a8	0.019905403
87	0xbceaf3ed	-0.028680766
88	0x3da7fc15	0.08202378
89	0x3b843abd	0.0040353225
90	0x3e6f44af	0.23366044
91	0x3e4af119	0.19818534
92	0x3e1fb61d	0.15596814
93	0x3eb9c41f	0.3628244
94	0x3d70dd73	0.05880494
95	0xbd99545f	-0.07486796
96	0x3db6e9b5	0.08931295
97	0x3dc97be7	0.098380856
98	0xbd903235	-0.07040826
99	0xbe536fa9	-0.20648064
100	0xba83d50a	-0.0010057997
101	0x3dc1332f	0.094335906
102	0xbc7d8904	-0.015474562
103	0xbe2abb0e	-0.16672918
104	0xbbe3c8eb	-0.0069514415
105	0xbd858431	-0.06519354
106	0xbe99815d	-0.2998151
107	0xbe840a2f	-0.2578902
108	0x3d1eb652	0.038748093
109	0x3de0963a	0.109661534
110	0xbdee759b	-0.11643525
111	0xbe2d09e6	-0.16898307
112	0xbcc65abc	-0.024213187
113	0xbd0b369d	-0.03398763
114	0xbd3f1bb0	-0.046657264
115	0xbdba9a99	-0.091115184
116	0xbdf01fa5	-0.11724786
117	0xbd5b1c4d	-0.053493787
118	0x3e63022a	0.22168794
119	0x3d48468e	0.04889541
120	0xbd065766	-0.032798193
121	0x3dfef7f3	0.12449636
122	0x3d18f0f1	0.037339155
123	0xbd328a5a	-0.043588974
124	0xbdd74f1a	-0.10513134
125	0x3da32314	0.07965675
126	0x3dd7641f	0.105171435
127	0x3d472423	0.048618447
128	0xbd22549b	-0.039631467
129	0xbe8d6413	-0.27615413
130	0x3cb78989	0.022404449
131	0xbe3b2422	-0.18275502
132	0x3dcef8c6	0.101060435
133	0xbdd4a575	-0.10383121
134	0x3d9b6f9e	0.07589649
135	0x3cf8a044	0.030349858
136	0xbe16ed5f	-0.14738987
137	0x3cd0f643	0.025508052
138	0xbd04b0cb	-0.032395165
139	0xbddb18b7	-0.10698073
140	0xbca31f01	-0.019912245
141	0xbd99a10a	-0.07501419
142	0x3df274de	0.11838697
143	0xbdd3839b	-0.10327836
144	0x3df2c62b	0.11854204
145	0xbcafec77	-0.02147506
146	0x3cbc58ce	0.022991564
147	0x3de27c04	0.1105881
148	0xbd70b2c3	-0.05876423
149	0xbd40bdad	-0.04705589
150	0x3d5737c4	0.052543417
151	0xbd03cac2	-0.032175787
152	0xbd588907	-0.052865054
153	0x3d0385f9	0.03211019
154	0xbd105fee	-0.035247736
155	0xbb2b1451	-0.0026104639
156	0xbd63e6a6	-0.055639885
157	0x3d537ec6	0.051634572
158	0x3c4969fd	0.012293336
159	0xbdc80e22	-0.097683206
160	0xbd3fb98c	-0.04680781
161	0x3be65850	0.0070295706
162	0xbde6197c	-0.112353295
163	0x3d9bdf61	0.076109655
164	0xbdd53bd2	-0.104118004
165	0xbe2b8923	-0.16751532
166	0xbd217891	-0.03942162
167	0xbdafcacb	-0.085836016
168	0x3e0fca6a	0.14042059
169	0xbc581aad	-0.013189954
170	0xbca42ac4	-0.020039923
171	0x3cf1178e	0.029430177
172	0xbdbd348c	-0.09238538
173	0x3d99026d	0.07471166
174	0xbcbca7ab	-0.023029169
175	0x3dbc6ea5	0.09200791
176	0x3d7767de	0.06040179
177	0x3e03b89b	0.1286339
178	0x3cbd44f1	0.023104163
179	0xbdfef45b	-0.12448951
180	0xbd818e68	-0.0632599
181	0xbbe9a2b5	-0.007129992
182	0xbdf9b248	-0.121922076
183	0x3de314d0	0.11087954
184	0x3de6bf84	0.112669975
185	0x3d1bc33d	0.03802799
186	0xbdeb8e5d	-0.11501763
187	0xbdef11c2	-0.11673309
188	0xbdd9ab8d	-0.10628424
189	0x3db5f55c	0.08884689
190	0x3c1d9269	0.009617426
191	0xbe08c924	-0.13357979
192	0xbdda51d7	-0.10660141
193	0x3d87fb35	0.06639711
194	0xba4bbc6f	-0.0007771914
195	0xbe4d1bd9	-0.20030154
196	0xbdca44b2	-0.09876384
197	0x3d1d5cae	0.038418464
198	0x3ccee27c	0.02525448
199	0xbb21a733	-0.002466631
200	0xbc8c5b34	-0.017133333
201	0xbc1a7db3	-0.009429383
202	0xbd1b5f91	-0.037932936
203	0xbda16d4b	-0.07882174
204	0xbdabc982	-0.08388044
205	0x3db82345	0.08991102
206	0x3caca5da	0.021075178
207	0x3d2ab859	0.041679714
208	0xbdbd03d5	-0.092292465
209	0x3cc0e2b2	0.023545597
210	0x3de7b48d	0.11313734
211	0x3d8e754d	0.06955967
212	0xbbb6094c	-0.0055553075
213	0xbd6f7937	-0.05846521
214	0x3e500004	0.20312506
215	0xbd942aae	-0.07234703
216	0xbd3c5dbb	-0.045987826
217	0xbd1e715c	-0.038682327
218	0xbd13870b	-0.03601746
219	0xbba404a7	-0.0050054374
220	0xbcf4dd5b	-0.029890707
221	0xbd9a498e	-0.07533561
222	0xbdc3df44	-0.09564069
223	0xbd1da299	-0.038485143
224	0xbdb10d1d	-0.08645079
225	0x3dd7689c	0.105179995
226	0x3d6ddffa	0.05807493
227	0xbe9f21cb	-0.3108047
228	0xbd027ad8	-0.031855434
229	0x3cbd2e4c	0.023093365
230	0xbd1c27dc	-0.03812395
231	0xbdaf6017	-0.085632496
232	0xbd35764e	-0.044302277
233	0x3c0be206	0.008537775
234	0xbd319d88	-0.043363124
235	0xbd5fcd3b	-0.054639082
236	0xbd7e326b	-0.0620598
237	0xbddffb20	-0.1093657
238	0x3db715bd	0.08939693
239	0xbd54776e	-0.05187171
240	0xbddbcd20	-0.10732484
241	0xbdaa402c	-0.08313021
242	0xbdd0bded	-0.101924755
243	0xbca04713	-0.01956514
244	0xba9ce604	-0.0011970405
245	0x3d9dd9b7	0.077075414
246	0xbd4261ef	-0.047456678
247	0xbd868ed7	-0.06570213
248	0x3d8bf83e	0.06834458
249	0x3db87901	0.09007455
250	0xbdea2ed0	-0.1143471
251	0xbda831c8	-0.0821262
252	0xbdf1d8d7	-0.11808937
253	0xbd5be20c	-0.053682372
254	0x3d26c4bc	0.040714964
255	0x3dd1de22	0.102474466

critic.0.bias f4 [64]
0	0xbe250b0c	-0.16117495
1	0x3d8bf6ff	0.0683422
2	0xbd40d865	-0.04708137
3	0x3bfd04f4	0.0077215377
4	0xbda34f7f	-0.07974147
5	0xbbb590ad	-0.0055409283
6	0xbdec6749	-0.115431376
7	0xbe3a70b5	-0.18207057
8	0xbe43a61b	-0.19106333
9	0xbdc00122	-0.09375216
10	0xbd71eced	-0.05906384
11	0x3bb3fb80	0.0054926276
12	0xbd40c8e2	-0.047066577
13	0xbe1725bb	-0.14760487
14	0xbda2f7b5	-0.079574026
15	0x3cee7e99	0.0291131
16	0xbddf75ba	-0.109111264
17	0xbd7279de	-0.059198253
18	0xbda78504	-0.081796676
19	0xbd264bcb	-0.040599626
20	0xbd0f8f02	-0.035048492
21	0xbc836e6c	-0.016043864
22	0xbce94af6	-0.028478127
23	0xbb9759f1	-0.004618876
24	0x3d3f545d	0.046711314
25	0xbd1d6630	-0.03842753
26	0xbe1b7be7	-0.15183984
27	0xbb8fbbb8	-0.0043863915
28	0x3d9c2536	0.07624285
29	0xbc39a121	-0.01132992
30	0xbd4c33e8	-0.04985419
31	0xbdf2d6bb	-0.11857363
32	0xbce5b865	-0.028042028
33	0xbd395036	-0.04524251
34	0xbdba4bca	-0.09096487
35	0xbc83ee68	-0.016104892
36	0xbb942a5c	-0.004521651
37	0x3dc7f8e1	0.09764267
38	0xbcb2a9a1	-0.021809401
39	0x3e00e7ab	0.12588374
40	0xbe0fe524	-0.14052254
41	0xbd39160d	-0.045187045
42	0xbce30952	-0.027714405
43	0x3ca0336a	0.019555766
44	0xbe2c71f4	-0.16840345
45	0xbdc157f9	-0.094406076
46	0x3d05cf26	0.032668255
47	0x3ce66cf7	0.02812813
48	0x3d5df213	0.054185938
49	0xbd5709a0	-0.052499413
50	0x3dd7fb72	0.10546006
51	0xbdc4bac0	-0.09605932
52	0x3cb66900	0.022266865
53	0xbdfba9e0	-0.122882605
54	0xbe0a005d	-0.13476701
55	0xbdb4d738	-0.08830112
56	0xbb29652e	-0.0025847661
57	0xbd0ea092	-0.0348211
58	0xbe1db55f	-0.15401219
59	0xbc0d8eda	-0.0086400155
60	0x3d5545d4	0.052068546
61	0xbd9869b4	-0.07442036
62	0xbe1b2ac2	-0.1515303
63	0xbdc249da	-0.09486742

critic.2.weight f4 [64, 64]
0	0xbd7a3c1c	-0.06109248
1	0x3e511334	0.20417482
2	0x3c1c55ca	0.009541938
3	0xbd674ce3	-0.05646981
4	0xbb9e2d86	-0.004827204
5	0xbd12deb5	-0.03585692
6	0xbc810d94	-0.015753545
7	0x3e0b7d72	0.13622072
8	0xbaaced67	-0.001319331
9	0xbd412712	-0.0471564
10	0xbddf3ff0	-0.10900867
11	0x3e7c6f66	0.2465187
12	0xbd49f5ab	-0.049306553
13	0x3da870f9	0.08224673
14	0x3d19fd7f	0.03759527
15	0x3ccf9fe8	0.025344804
16	0x3dd19dee	0.10235201
17	0x3e1d2bb7	0.15348707
18	0xbd770050	-0.060303032
19	0x3dfe05f2	0.12403478
20	0xbda382f4	-0.07983962
21	0xbe2d520d	-0.16925831
22	0x3d9dd8fe	0.077074036
23	0x3e04c94a	0.1296741
24	0xbe1905c8	-0.14943612
25	0xbcaeea65	-0.021352002
26	0xbe118cde	-0.14213893
27	0xbc022885	-0.007944231
28	0xbcf65fe3	-0.03007502
29	0x3dd807c9	0.1054836
30	0x3c84cab4	0.016209938
31	0xbda34411	-0.07971967
32	0x3e6e837d	0.23292346
33	0xbb0e9440	-0.0021755844
34	0x3baa0608	0.0051887073
35	0x3dbfe30e	0.09369479
36	0xbe2ab040	-0.16668797
37	0x3d0b7e06	0.034055732
38	0x3d364bc1	0.04450584
39	0xbe7a59fc	-0.24448389
40	0xbd94e1b7	-0.07269614
41	0x3dc6c9ed	0.09706483
42	0x3dae892c	0.08522257
43	0xbe7b5ff8	-0.24548328
44	0xbd1215d0	-0.035665333
45	0xbdd3561c	-0.103191584
46	0x3c98fab1	0.018674226
47	0xbde49da6	-0.111628816
48	0x3e492db6	0.19646344
49	0xbc80d60d	-0.015727067
50	0x3dcdf577	0.10056584
51	0x3e135ba7	0.14390431
52	0xbc19c041	-0.009384216
53	0xbda62fa9	-0.08114559
54	0xbdeee78b	-0.11665257
55	0x3d8b0945	0.067888774
56	0x3d098c60	0.033581138
57	0x3c8ae1b4	0.016953327
58	0xbcda54e7	-0.026651813
59	0xbd468752	-0.048468895
60	0xbd503721	-0.050833825
61	0xbdc4c525	-0.09607915
62	0x3d92ec1e	0.07173942
63	0xbd906f93	-0.07052531
64	0x3c94cfc3	0.018165475
65	0xbce36aa9	-0.02776082
66	0xbd1852d9	-0.037188385
67	0xbd5a265f	-0.05325925
68	0xbdffaf40	-0.12484598
69	0xbd8197dc	-0.06327793
70	0xbd9fb14a	-0.07797487
71	0x3e04a250	0.12952542
72	0xbd8ee8d4	-0.06978002
73	0xbdef4576	-0.116831705
74	0xbde8d996	-0.11369626
75	0xbd95f67c	-0.07322404
76	0xbd3e6c94	-0.046490267
77	0xbdfaaa98	-0.122395694
78	0xbdb359f1	-0.08757389
79	0xbd210d2b	-0.0393192
80	0x3da69b27	0.08135062
81	0xbdb408bb	-0.08790728
82	0xbc0f8f34	-0.00876217
83	0x3da34c72	0.07973565
84	0x3dad7959	0.08470411
85	0x3c327a3b	0.0108934
86	0x3d546aa1	0.0518595
87	0xbcf760b4	-0.030197479
88	0xbd9f8fef	-0.07791125
89	0xbdf5bc49	-0.11998803
90	0xbe002b86	-0.12516603
91	0x3d8f1004	0.069854766
92	0xbc92c194	-0.01791457
93	0xbdfd8dd5	-0.12380568
94	0xbdbb37e7	-0.09141522
95	0xbd34d540	-0.044148684
96	0x3e0d61a3	0.13806777
97	0xbba6c085	-0.005088868
98	0xbb90fc5f	-0.004424616
99	0xbc895581	-0.016764404
100	0xbd0c6c89	-0.034283195
101	0x3c921b2f	0.017835228
102	0x3c4fc283	0.012680653
103	0xbd15ec61	-0.03660238
104	0x3dffcf50	0.124907136
105	0x3ce0a321	0.027421536
106	0xbba337ad	-0.0049810023
107	0x3ccf8cea	0.025335748
108	0x3d8ed323	0.06973865
109	0xbd19ebdb	-0.037578445
110	0xbd125b42	-0.03573156
111	0xbd919d0b	-0.07110032
112	0xbd94d12a	-0.072664574
113	0xbc10ee20	-0.008845836
114	0xbdab5969	-0.08366663
115	0x3da14749	0.07874925
116	0xbdd5e1db	-0.10443469
117	0xbda9d04e	-0.08291684
118	0xbc7f69f4	-0.015589226
119	0x3d6ebc79	0.05828521
120	0xbdad10b3	-0.08450451
121	0xbd556053	-0.052093815
122	0x3da83366	0.082129285
123	0xbdfa8c8d	-0.12233839
124	0x3df680c7	0.12036281
125	0x3c64a1b4	0.013954569
126	0x3c33bf02	0.010970833
127	0xbbb01230	-0.005373262
128	0x3da03442	0.078224674
129	0x3c568b76	0.0130947735
130	0x3cb45814	0.022014655
131	0x3def8239	0.1169476
132	0xbe428c2b	-0.18998782
133	0x3cec24a8	0.028826073
134	0x3d9daca4	0.07698944
135	0xbc23e1cc	-0.010002565
136	0x3b0dc3af	0.002163153
137	0xbc0ae3d0	-0.008477166
138	0xbcbc70a2	-0.023002926
139	0xbe7d597a	-0.24741164
140	0xbd946674	-0.07246104
141	0xbcb55b2a	-0.022138197
142	0x3cf96f44	0.030448563
143	0xbd730a0e	-0.05933576
144	0xbe28cf9f	-0.16485451
145	0x3d4f59ed	0.05062287
146	0x3ca42fd9	0.020042347
147	0xbdd60877	-0.10450833
148	0x3d0b97b5	0.034080226
149	0x3e1aa6fa	0.15102759
150	0x3de9dc41	0.11418963
151	0x3da9bccf	0.082879655
152	0xbd89e84e	-0.06733762
153	0x3dfeded3	0.12444844
154	0x3dabe800	0.0839386
155	0xbe1948b1	-0.14969136
156	0x3d9ff14e	0.07809697
157	0xbe2cfa26	-0.16892299
158	0x3dbeb867	0.09312516
159	0xbdc68dff	-0.09695052
160	0xbcdb26a9	-0.026751833
161	0xbcdfec12	-0.027334247
162	0x3d8b56ed	0.06803689
163	0xbe7ad1d7	-0.2449411
164	0x3dc70e98	0.097195804
165	0x3d59076d	0.052985597
166	0x3c906b8e	0.017629411
167	0xbd29bc83	-0.041439544
168	0x3b93aee3	0.004506932
169	0x3def128d	0.1167346
170	0x3c0d6fba	0.008632595
171	0xbd816df3	-0.06319799
172	0xbd208f8f	-0.03919941
173	0xbdeb9602	-0.11503221
174	0x3d8287f9	0.06373591
175	0x3df6b0ef	0.12045466
176	0x3da4a863	0.0803993
177	0xbd06455d	-0.032780994
178	0xbd4fa949	-0.050698552
179	0xbda65923	-0.0812247
180	0x3d771424	0.060321942
181	0x3cc75afd	0.024335379
182	0xbcd98bb6	-0.026555877
183	0x3d5ecf04	0.054396644
184	0xbd571681	-0.052511696
185	0xbd39543e	-0.045246355
186	0xbdcefe33	-0.101070784
187	0xbd7da3ec	-0.061923906
188	0xbb1ca0b2	-0.0023899493
189	0xbbde2943	-0.006779821
190	0x3dc2697a	0.09492774
191	0xbe0487cb	-0.12942426
192	0x3c2e0e43	0.010623517
193	0xbd932a44	-0.07185796
194	0xbe136020	-0.14392138
195	0xbc6aae0f	-0.014323725
196	0xbc2eeeae	-0.010677023
197	0xbde00062	-0.10937573
198	0x3d625235	0.05525418
199	0xbd140075	-0.03613325
200	0xbe0211d7	-0.12702118
201	0xbdb2bdd1	-0.08727611
202	0xbc320a85	-0.010866766
203	0xbd942add	-0.07234738
204	0x3d5cf753	0.053946804
205	0xbe5812f7	-0.21100985
206	0x3dcbf0bc	0.09958026
207	0x3dbdf21d	0.09274695
208	0x3d8a6787	0.067580275
209	0xbdc5b082	-0.09652807
210	0xbe3ba2fb	-0.18323891
211	0x3d1ac5d9	0.03778634
212	0x3b26d389	0.0025455675
213	0x3d1db8a4	0.038506165
214	0xbdc05322	-0.09390856
215	0x3caf57ca	0.021404166
216	0xbdfec393	-0.124396466
217	0xbdd0fe0b	-0.10204705
218	0xba952186	-0.0011377789
219	0xb9c907ee	-0.00038343616
220	0x3c06fdd9	0.008239233
221	0xbdd8c3b5	-0.10584203
222	0x3dc0ca82	0.09413625
223	0xbdef68bc	-0.11689898
224	0xbace6f66	-0.0015749752
225	0x3d9cfc24	0.076652795
226	0xbd8c3520	-0.0684607
227	0xbe23d3f8	-0.15998828
228	0xbca3c021	-0.019989075
229	0xbe0cecb0	-0.13762164
230	0xbdbaeb13	-0.09126868
231	0xbdf27178	-0.11838049
232	0xbd86e23c	-0.065861195
233	0x3e09667b	0.13418
234	0xbdce0d3e	-0.100611195
235	0x3d51b656	0.05119928
236	0xbe09d2cb	-0.13459317
237	0x3dbfd2fa	0.093664125
238	0xbdaac47e	-0.08338259
239	0x3b9b1cbd	0.0047336505
240	0xbd26744a	-0.040638246
241	0xbd127aaf	-0.03576153
242	0xbe017e49	-0.1264583
243	0xbd96b511	-0.073587544
244	0x3b2fd24a	0.0026828223
245	0x3d435c89	0.04769567
246	0xbd8b1d14	-0.067926556
247	0x3e050e2b	0.12993686
248	0xbd0a7808	-0.033805877
249	0x3deb5f05	0.11492733
250	0xbdec1cb2	-0.11528911
251	0xbd54eec6	-0.051985525
252	0xbdbf9fd5	-0.093566574
253	0xbd85c8fe	-0.06532477
254	0x3db8d4c4	0.09024957
255	0x3e0b84da	0.13624898

critic.2.bias f4 [64]
0	0x3ca99682	0.02070165
1	0xbdc09d1a	-0.09404965
2	0xbb7ef765	-0.0038904783
3	0xbda275f5	-0.07932655
4	0xbdf3a184	-0.11896041
5	0xbda45585	-0.08024124
6	0xbd551eee	-0.05203145
7	0xbe343705	-0.17599113
8	0xbdbf5a90	-0.09343445
9	0x3bebc2ca	0.0071948515
10	0x3c541ff2	0.0129470695
11	0x3d97df00	0.07415581
12	0x3c8be5c2	0.01707733
13	0x3d46727c	0.048449025
14	0xbc1ab971	-0.009443627
15	0x3a1fb3b3	0.0006092146
16	0xbd97b4c4	-0.07407525
17	0xbdd43aa1	-0.10362745
18	0x3e03edd2	0.1288369
19	0x3cbf62e9	0.023362594
20	0x3d19aa7f	0.037516113
21	0x3c8a1199	0.016854094
22	0xbd4a2a7e	-0.04935693
23	0xbe07c032	-0.1325691
24	0x3de1bb39	0.11022038
25	0xbcfae194	-0.030625142
26	0xbdb9f513	-0.09079947
27	0xbd2aeafd	-0.04172801
28	0x3a7d59e2	0.00096645777
29	0x3c20db0c	0.00981785
30	0xbcbe7a4e	-0.023251679
31	0xbcd9c4c8	-0.02658309
32	0xbd9b1955	-0.07573191
33	0xbd2303d2	-0.039798565
34	0x3d701052	0.058609314
35	0xba1c5ac2	-0.00059644517
36	0xbdc4d856	-0.09611575
37	0xbda93741	-0.08262492
38	0xbc85662a	-0.016284067
39	0xbcc72f27	-0.024314476
40	0x3d987903	0.07444956
41	0xbdb416e2	-0.08793427
42	0x3d609347	0.054827955
43	0x3bf56f5f	0.007490083
44	0x3c518fa5	0.012790595
45	0x3dc09738	0.09403843
46	0xbdc96bc3	-0.09835007
47	0xbd61c7a0	-0.055122018
48	0xbd7e4d7a	-0.062085606
49	0x3d750743	0.05982138
50	0x3d9bb253	0.07602372
51	0xbdf34344	-0.11878064
52	0xbd33fae3	-0.043940436
53	0xbdbd6607	-0.09247976
54	0xbbf93e52	-0.007606306
55	0x3cdb9ebc	0.026809089
56	0x3c42a1df	0.011879413
57	0xbc231357	-0.009953341
58	0xbd0a3c76	-0.033749066
59	0xbaa3d828	-0.0012500333
60	0xbdf5eefe	-0.12008475
61	0xbd477989	-0.04869989
62	0xbdb6413a	-0.0889916
63	0xbdea5781	-0.11442471

critic.4.weight f4 [1, 64]
0	0xbdf17688	-0.11790186
1	0xbc15f979	-0.009153717
2	0x3d75fe54	0.060057
3	0xbcf14416	-0.029451411
4	0xbe06bb75	-0.13157447
5	0xbce60157	-0.02807681
6	0x3d2da355	0.042392094
7	0x3d926e7d	0.0714998
8	0x3dd14837	0.10218852
9	0xbe1a007c	-0.15039247
10	0x3d05798f	0.03258663
11	0xba7edf38	-0.0009722593
12	0x3c37f33a	0.011227423
13	0x3d2f59d7	0.042810287
14	0xbdf4b570	-0.11948669
15	0xbac03996	-0.00146656
16	0xbc019502	-0.007909061
17	0x3d24ae1f	0.040205117
18	0x3d7320f9	0.059357617
19	0x3c3526d3	0.01105662
20	0xbc26ff17	-0.010192654
21	0xbc71cfe7	-0.01475904
22	0xbe245740	-0.16048908
23	0x3db9667e	0.09052752
24	0x3cb6c59f	0.02231103
25	0xbe25e080	-0.16198921
26	0xbb6ae9f9	-0.0035845025
27	0xbe25f24d	-0.16205712
28	0xbd072729	-0.03299633
29	0x3ae0ecb2	0.0017160384
30	0xbdcbc853	-0.09950318
31	0xbc04c3fe	-0.008103369
32	0xbc4a7f2b	-0.012359421
33	0x3db4f3dd	0.08835576
34	0xbd31fb1d	-0.04345237
35	0xbad7c0f6	-0.0016460705
36	0xbc7d7d7e	-0.015471814
37	0xbdd116f3	-0.10209455
38	0xbe72f5bc	-0.23726553
39	0x3defbbcc	0.11705741
40	0x3c49d2a7	0.01231829
41	0x3d9fe1f2	0.078067675
42	0x3dc24034	0.09484902
43	0xbcf8f084	-0.030388124
44	0xbe12f186	-0.14349946
45	0x3e008e1d	0.12554212
46	0xbc86c2bf	-0.016450284
47	0x3d6c9db9	0.057767604
48	0xbc41b9e2	-0.011824103
49	0xbdf1b5f9	-0.11802287
50	0xbe28c7c5	-0.16482456
51	0x3be4ff92	0.006988474
52	0x3dd113dd	0.10208867
53	0xbbfcd8e4	-0.007716285
54	0xbb9c8cc3	-0.0047775223
55	0x3d03f7ad	0.032218624
56	0xbbe43788	-0.0069646277
57	0x3bb23534	0.005438471
58	0xbde22211	-0.11041654
59	0xbbdc9727	-0.006731886
60	0xbd12c740	-0.03583455
61	0x3b2ea967	0.0026651265
62	0xbdae98d3	-0.08525243
63	0xbdbbb7ae	-0.091658935
