CybORG/CybORG/Models/bline_train/30000.pth (torch, 78565 bytes, 11 tensors)

actor.0.weight f4 [64, 62]
000000 ed 40 79 ba e7 86 8b 3d 2a 12 d6 bd 3c 6a bf bd
       -0.0009508271 0.0681284 -0.10452683 -0.093464345
000010 65 eb a8 be ec ed 42 be 31 0c 5f be cc 17 d0 bc
       -0.32992092 -0.19036072 -0.21781994 -0.025401972
000020 00 f0 1f be e4 e3 3e be 1b e0 10 be a0 85 b5 be
       -0.15618896 -0.18641621 -0.1414799 -0.3545351
000030 93 5c ae bd e1 7a 0e 3e e6 7d 12 be 86 43 87 3d
       -0.08513751 0.13914062 -0.14305839 0.06604676
000040 81 a6 4d 3d 4d 10 9c 3d 77 54 b0 bd 46 86 62 bd
       0.05020762 0.076202966 -0.086098604 -0.055303834
000050 5d f1 3c 3d 15 fb d7 3d 86 1c d6 bc 12 a2 c2 3d
       0.04612862 0.10545937 -0.026136648 0.09503569
000060 58 b1 a7 bc c0 2c 5c 3c cf 82 eb 3d 99 48 f1 bd
       -0.020470306 0.013438404 0.11499559 -0.11781425
000070 30 24 9d be 15 b7 b3 3d e5 14 20 3e f7 f0 14 3f
       -0.3069167 0.087751545 0.1563297 0.58180183
000080 cf 96 a8 bd 33 76 6f bd b9 b6 b5 bd 94 98 f3 bd
       -0.082318895 -0.058462333 -0.08872742 -0.11894336
000090 b0 51 9c 3e a0 d3 0f 3f fd 88 a6 3d 1d 8d 19 3e
       0.30531073 0.5618229 0.08131597 0.14995237
0000a0 e6 ba d6 3c f6 d7 3a 3e 08 b4 51 3e 7a be 4b 3d
       0.026212167 0.18246445 0.20478833 0.0497422
0000b0 79 e9 b5 3c d2 a6 99 bc 00 4f 13 3d 22 ad 27 bd
       0.022206055 -0.018756304 0.035964012 -0.040936597
0000c0 a2 b1 25 3d 5e 3d d5 3d 8e 40 cf 3c 11 62 35 3e
       0.040452607 0.104120955 0.025299337 0.1771319
0000d0 84 74 4e 3d d6 d7 f4 bd ee a1 21 3e 4d 2d 7f bd
       0.050404087 -0.1195523 0.15784428 -0.06229906
0000e0 1d 24 8c 3e 70 a7 c9 bd 74 7d fc bc c8 c6 38 bd
       0.27371302 -0.09846389 -0.03082154 -0.045111448
0000f0 89 3e 0a 3e fe 47 43 3e 94 11 9a bd 63 27 1d 3d
       0.13500418 0.19070432 -0.07522884 0.03836764
000100 1b c9 8e 3d 8d 50 83 bc de 47 6f bd 25 8a ac 3d
       0.069719516 -0.01602962 -0.058418147 0.084247865
000110 1e 68 38 3e a7 4f 64 3e 60 04 fb bc 15 5b cb 3d
       0.18008468 0.2229601 -0.030641735 0.09929482
000120 07 0e 54 3e f0 1b 06 3f 9a 41 02 3e 4e d0 3d be
       0.20708476 0.5238638 0.12720338 -0.18536493
000130 6a fd 2a 3d 26 79 6b bd 4d 6a 3f 3c b5 b7 a2 bd
       0.04174558 -0.057488583 0.011683059 -0.079451956
000140 d5 65 f2 bd f4 17 e7 3d 48 c4 c5 3d 05 ba 01 be
       -0.11835829 0.112838656 0.09656578 -0.12668617
000150 23 bb c2 3c 66 43 af bc fb 34 ab bc 27 1f 6e bd
       0.023770874 -0.021394443 -0.020899286 -0.058135178
000160 12 0b 48 3d 51 0e 9a bd 7a 4e cd 3d 77 8e 49 3e
       0.048838682 -0.07522262 0.10024734 0.19683252
000170 e0 61 92 3e a3 ed ce 3e 95 b6 00 be 40 b9 a8 bd
       0.28590298 0.40415677 -0.1256965 -0.08238459
000180 b6 de 81 3d 05 c1 d9 3c a7 8c 4b be e9 c1 28 be
       0.06341307 0.026581297 -0.19877873 -0.16480221
000190 82 4b 07 3e f8 b7 ab 3d ad fc 8f bd 04 c9 9f be
       0.13212398 0.08384699 -0.07030616 -0.3120805
0001a0 65 7b 24 be 6c ac 74 3d ac 34 32 bd 96 46 08 3e
       -0.16062696 0.059734747 -0.043507263 0.13308176
0001b0 1b 0c ce 3b 04 bd 03 3e 03 d0 2c bd 94 66 dc 3d
       0.006288064 0.12865072 -0.042190563 0.10761753
0001c0 98 8e da bd c7 b8 3d 3e 72 3e b2 3d b8 ae 77 be
       -0.10671729 0.18527518 0.08703317 -0.24187744
0001d0 27 2c f9 bc c3 e4 c9 3d ee 6a bc 3d a8 c0 f6 3c
       -0.030416561 0.09858086 0.09200083 0.030121163
0001e0 b1 60 9b bc b6 b5 47 bd 8b dd 26 3d ab f2 33 3e
       -0.018967004 -0.048757277 0.040738624 0.17573039
0001f0 3e 7f f9 bd 29 29 9a bd 3f 38 02 bd 89 64 7d bd
       -0.12182473 -0.07527382 -0.03179192 -0.061863456
000200 02 53 24 be 2b 88 56 be fd 22 b4 be a1 a6 60 be
       -0.1604729 -0.20950381 -0.35182944 -0.21938564
000210 08 77 41 be c6 6f 8e 3d f2 77 07 3e 0c 72 97 3e
       -0.18893063 0.06954913 0.1322935 0.29579198
000220 9a fc 59 be a0 00 91 be df cd 4c 3e 88 7f 93 3e
       -0.21287766 -0.2832079 0.20000409 0.28808236
000230 0c 60 f6 3d f8 2c a5 3d 5c f0 f6 3d 17 7c 16 bc
       0.12030038 0.08065218 0.12057564 -0.009184859
000240 6a a6 e9 bd 86 9c 76 bd d4 19 b1 3d 1e d1 57 ba
       -0.11408694 -0.060207866 0.086475044 -0.000823276
000250 a7 47 81 bd 98 50 c7 bd 5f 69 f3 bd fc 85 db bd
       -0.06312495 -0.09732169 -0.11885332 -0.10718915
000260 7d 15 3e 3e d0 98 25 3d 65 6d 9f 3c 9b b2 e6 bd
       0.18562885 0.040428936 0.019461343 -0.11264535
000270 4e 3e a2 3d 1c 87 cb bd b6 f2 db bc 80 ec 52 bd
       0.0792204 -0.099378794 -0.026849132 -0.051495075
000280 ab a3 9f be b9 58 de be bc ea 8b bd a6 b6 be 3c
       -0.31179556 -0.43427065 -0.068318814 0.023280453
000290 5c ad 2d be f7 0f 02 bf 99 24 48 bd 68 c9 b2 3d
       -0.16960663 -0.5080561 -0.048863027 0.087298214
0002a0 5d 96 12 be 80 d4 8c bd 14 0b 97 3d 05 22 7f 3c
       -0.14315172 -0.06876469 0.0737516 0.015572076
0002b0 1d ce 38 3e 37 26 ad 3d 89 34 e8 bd 39 c4 03 3e
       0.18047376 0.084545545 -0.11338145 0.12867822
0002c0 ff 1b 70 bc 40 c9 05 be 15 02 69 3e d3 ea 05 3d
       -0.014655112 -0.13065052 0.227547 0.03269465
0002d0 65 9c d2 bd f6 d2 d9 bc 09 17 54 3e 33 dc 43 3d
       -0.10283736 -0.026589852 0.20711912 0.04781742
0002e0 6a fa 14 3e 81 b2 26 3e b0 2f fa bc 74 cc da bc
       0.1454865 0.16279031 -0.030540317 -0.026708819
0002f0 2a 57 d6 bd 7f ee 8c 3d 77 fa 3d bd c2 3e 3e be
       -0.10465844 0.06881427 -0.04638144 -0.18578628
000300 4e 0d 8f be 23 74 92 be d0 b1 29 be 8d 1d f1 3d
       -0.27939838 -0.2860423 -0.16571736 0.117732145
000310 a3 9b 57 3e 25 f4 fd 3e 8d 37 3c be c7 fe cb bc
       0.21055464 0.4960033 -0.18380566 -0.02490176
000320 00 39 9f bd 36 0a 44 be aa 9c c4 bd 2c 8f b2 bd
       -0.07774544 -0.1914452 -0.09600194 -0.08718714
000330 24 07 97 bd d1 0c b6 3d b2 fd 3a bd 64 63 db 3d
       -0.07374409 0.08889163 -0.0456521 0.10712317
000340 05 1b 3c 3d 64 bd 83 3c 2e d4 77 ba 38 aa cd bc
       0.045924205 0.01608152 -0.00094539195 -0.02510558
000350 87 88 82 3c fe 90 ed bc ca bf fe 3c 3c 30 9c bd
       0.015934242 -0.028999802 0.031097312 -0.076263875
000360 99 88 11 be 72 27 26 be 9d 06 d2 3d 8b 14 d3 bd
       -0.14212264 -0.16225985 0.10255168 -0.10306653
000370 84 69 15 bc 0e a6 00 3e 98 d9 8e be 27 92 1c be
       -0.009119395 0.12563345 -0.27900386 -0.15290128
000380 52 2d 8e be 84 52 02 3e 0f 50 03 be 08 3d fa be
       -0.27768952 0.1272679 -0.12823509 -0.48874688
000390 a5 df 9f 3c 21 aa 6c 3d 6f 37 d2 3d 19 ea 2e 3e
       0.019515822 0.057779435 0.10264479 0.17081489
0003a0 bf b6 00 3d 15 f8 21 3e 8b 90 21 3e a8 98 89 bb
       0.03142428 0.15817292 0.15777795 -0.0041991062
0003b0 d4 b9 38 3c f4 a6 cb bd 7d 78 5c bd 4a 76 49 bd
       0.011274774 -0.09943953 -0.053825844 -0.049185075
0003c0 a6 df c2 3d e0 69 4a 3e 7d b3 23 be 82 2f 55 39
       0.09515314 0.1976695 -0.15986438 0.00020330961
0003d0 fe b7 5c 3d 90 09 02 3d 9d 57 7f 3e 14 5c 1b be
       0.053886406 0.0317474 0.24935766 -0.15171844
0003e0 fc 6c e5 3a 05 e2 b0 bc 54 fc 88 bd 3e 82 89 3c
       0.0017503793 -0.02159215 -0.06688753 0.016785737
0003f0 18 ca 54 be 17 42 9c be 46 db f9 3d 14 93 9c bb
       -0.20780218 -0.30519173 0.12200026 -0.0047782753

actor.0.bias f4 [64]
000000 a9 15 cf 3c 90 ce b1 3d 86 3c ea 3d b2 4e 49 3d
       0.025278883 0.08681977 0.11437325 0.049147315
000010 0d 60 9f bd 7c ea e2 bd 40 a9 31 3e 24 5a 89 3d
       -0.07781992 -0.110798806 0.1734972 0.06706646
000020 24 d9 f7 3d fd af a4 3d 91 b5 b3 3a d3 3d ed 3b
       0.12101963 0.080413796 0.0013710727 0.007240036
000030 6a 62 a9 3d 76 c3 0d 3e 76 81 7c 3b d0 62 b8 3e
       0.08270724 0.13844094 0.0038529313 0.36012888
000040 24 e7 5a 3d 3e 9e e3 3d 1f 2a 4b bd 2e 19 02 3e
       0.05344309 0.11114167 -0.049600717 0.12704918
000050 a1 44 9e bd ca 36 8c bc f4 98 8d 3d 03 d7 be bd
       -0.07727934 -0.01711597 0.06913939 -0.09318354
000060 2f f4 a5 3d f5 e8 19 3e 6b c0 b7 3d f9 5f 3e 3e
       0.08103215 0.15030272 0.08972248 0.18591298
000070 70 16 c6 3c 81 58 08 bd 33 02 09 bc 64 7d cf 3d
       0.02418062 -0.03328753 -0.008362341 0.10131338
000080 9c 3c fd 3d b0 18 5b 3d 7d 13 16 3e b0 ba a1 bc
       0.12365076 0.05349034 0.14655872 -0.01974234
000090 f8 27 f2 3d 07 02 72 3d 6c ac a2 bd 8f 6c 83 bd
       0.1182403 0.059083965 -0.07943043 -0.0641719
0000a0 3a 4a 4b 3e 7c b7 bf 3d d7 99 56 3b 72 e4 1a bc
       0.19852534 0.09361169 0.0032745504 -0.00945388
0000b0 4b 02 43 3e fd ee 18 3e 43 8f 88 3d a5 4c 92 3d
       0.19043843 0.14934917 0.0666795 0.07143525
0000c0 b5 dc 14 3e 36 7b 95 3d 90 7e 2e 3d 97 3a 11 bd
       0.14537318 0.07298891 0.04260117 -0.035456266
0000d0 bb 4a 82 3d 2f 01 f9 3d 51 d5 66 3e e5 fe 1e 3e
       0.0636191 0.12158429 0.22542311 0.15526922
0000e0 bc 24 c2 3b 53 d2 64 3d 25 43 04 be a0 41 51 3e
       0.0059247892 0.055864643 -0.12916239 0.2043519
0000f0 0f 36 aa 3d d0 ee 36 3d 28 94 0e bd 14 ef af bc
       0.08311092 0.044661343 -0.03480926 -0.021476306

actor.2.weight f4 [64, 64]
000000 ed 60 08 3d f7 0d da bd 95 14 2f 3e ff 75 b5 bd
       0.03329556 -0.10647195 0.17097695 -0.088603966
000010 4c 48 7f 3e 13 f9 82 3e 84 6b 7d 3a fa 66 34 be
       0.24929923 0.25580654 0.0009667205 -0.17617407
000020 89 0d 1e 3d 5b 92 19 be 0e 5d 56 be 67 6c 73 bd
       0.038587127 -0.14997236 -0.20933935 -0.059429552
000030 07 cf 7a bc c8 17 a4 bc 55 92 c0 3d 2c 5b 0c be
       -0.015308148 -0.020030871 0.094029106 -0.13706654
000040 f2 99 20 be 84 d0 0f 3e c4 9d 6d 3e 3b df 98 bd
       -0.15683725 0.14044386 0.23204714 -0.07464453
000050 d3 b6 89 3e ee 04 02 be 6a f2 45 3e 32 75 51 be
       0.26897296 -0.12697193 0.19330755 -0.20454863
000060 d8 6c 64 be 41 62 a6 3d 20 82 26 bd a9 a9 15 3e
       -0.22307146 0.08124209 -0.04065144 0.14615501
000070 c5 4e 9b 3d 4c c6 4c 3e 66 50 30 3e 36 3a 57 3e
       0.075833835 0.19997519 0.1721817 0.210183
000080 18 d0 a4 ba 07 8b 6d 3e 5f de 11 be 57 15 8c bd
       -0.0012574224 0.23197566 -0.14244984 -0.06840008
000090 f3 ec c3 3d 78 7f ce bd 97 27 46 be d0 a0 4e bd
       0.09566679 -0.100829065 -0.1935104 -0.05044633
0000a0 63 58 29 3c fd 9a 18 bd 27 68 71 3e 8f 43 a9 be
       0.010336014 -0.037257183 0.23574887 -0.33059356
0000b0 61 38 09 be 78 15 08 3c f6 0e 04 be e7 b6 5c 3e
       -0.13400413 0.0083059 -0.12896332 0.21554147
0000c0 9f 18 09 3d 75 49 16 3e 12 4f 6d 3b 95 37 a8 3e
       0.033470746 0.14676459 0.003621046 0.32854906
0000d0 21 04 6c 3e c1 a9 0e 3e 44 c7 00 3e cf c1 a3 3d
       0.2304845 0.13931943 0.12576014 0.079959504
0000e0 c9 32 64 be 1d 00 e5 bd ea 42 0c 3e 13 89 23 be
       -0.22284998 -0.11181662 0.136974 -0.15970258
0000f0 c9 9b c2 3d 9d f2 09 3d 4a 81 0c 3e a3 ee 39 be
       0.0950237 0.03367864 0.13721195 -0.18157439
000100 3b 85 81 3e a3 55 18 be c1 81 76 bd 87 b0 0d 3e
       0.2529696 -0.14876418 -0.060182337 0.13836871
000110 9e c4 07 be c1 3e f5 bd 37 6f 3e 3e 65 19 a7 3d
       -0.13258597 -0.1197486 0.18597113 0.081591405
000120 7f 6e 3a 3e 3a 06 9b 3e a8 57 27 3e dc 91 1f 3e
       0.18206213 0.30278188 0.16342032 0.15582985
000130 79 01 5a 3d 49 e3 f1 bd ab f0 83 3e d5 f9 9d 3e
       0.05322406 -0.11810929 0.25769553 0.3085467
000140 ef 37 c3 3d 0e 1a 76 3e c1 80 97 bd dd c8 68 3e
       0.09532153 0.24033377 -0.07397605 0.22732873
000150 8f cd 09 be 2d ff bf 3e c5 5c 61 be 2e 91 ce bd
       -0.1345732 0.3749937 -0.22008045 -0.100862846
000160 61 bd ba 3c 1c 08 5e 3e 9d b5 01 be cc 5a f5 3e
       0.022795381 0.21682781 -0.12666936 0.47920835
000170 91 c1 88 bd e0 b7 82 3d 83 2c 43 be 28 bd ba bd
       -0.06677545 0.063827276 -0.19059949 -0.0911811
000180 32 5f 4b 3d da 99 9c bd 4c fd 9d 3d d6 2e 70 be
       0.049651332 -0.07646532 0.07714328 -0.23455366
000190 31 21 2b 3d 57 4e 37 be fa 6e 75 bd 26 84 0d be
       0.0417797 -0.17900978 -0.05992029 -0.13819942
0001a0 6f 0f 90 bd 54 b7 ad 3b 67 59 68 3d aa cc 5f be
       -0.07034194 0.0053013954 0.056725886 -0.21855417
0001b0 5d 87 30 3e 78 7a bc bc 67 b7 2c 3e 6e cd fc bd
       0.17239137 -0.023007616 0.16866837 -0.1234387
0001c0 ca 43 89 3d fc 8c 10 3e 63 e9 1a be 31 9d d7 3d
       0.06702383 0.14116281 -0.15128092 0.10528029
0001d0 72 49 74 3e 10 55 ab 3d 11 f1 cc 3e 11 66 f0 3e
       0.23856142 0.08365834 0.4002767 0.4695287
0001e0 c9 12 8e bd cb 78 41 be bc b3 7a bc e2 7b 82 3e
       -0.06937177 -0.18893735 -0.015301641 0.2548514
0001f0 83 b9 39 bd 8d d3 d5 bc 30 de 99 3c f6 a2 07 3e
       -0.045342933 -0.026101852 0.018782705 0.13245758
000200 05 fe 2b be c0 e8 14 3e 06 bb 50 3d ba 15 58 3d
       -0.1679612 0.14541912 0.05095961 0.052755095
000210 67 91 8e 3e 87 0e 53 3e 76 7d 5d bb 53 5a 72 be
       0.27845308 0.2061101 -0.0033796704 -0.23667268
000220 bf ae 91 3d 76 18 5e be b0 94 d5 bc 3a ae 09 be
       0.07113408 -0.21689019 -0.026071876 -0.13445368
000230 cd 26 b1 3d 7d 54 3c 3e c8 b2 1f 3e fa 1d 92 be
       0.08649979 0.18391605 0.15595543 -0.28538495
000240 d4 0b d1 bd 26 86 fb 3d 9a b6 9b 3e ea 5a 92 bd
       -0.10207334 0.12281446 0.3041275 -0.07146247
000250 9d 44 69 3d 5f 44 75 be 09 f5 d0 3d 21 94 e1 3c
       0.0569502 -0.23951863 0.10202987 0.027536454
000260 1a f9 f6 bd 16 39 b1 3d ba 12 54 3e d6 01 1e bd
       -0.12059231 0.086534664 0.20710269 -0.03857597
000270 8d f4 84 3e 9a 13 df 3b 42 70 54 3e 80 0b 7c 3e
       0.25967827 0.0068077566 0.20745948 0.24613762
000280 11 f1 1b bd d4 34 35 3e a2 eb 5e be 20 b4 04 bc
       -0.038071696 0.17695934 -0.21769574 -0.008099586
000290 52 28 dd 3d e6 43 01 3d 4c 01 b1 3e 70 ca 02 be
       0.10798706 0.031558894 0.34571302 -0.12772536
0002a0 db 8b 6c bd 72 88 d1 3c 11 52 d4 3d 5a b7 08 3e
       -0.057750564 0.025577758 0.103672154 0.13351193
0002b0 e0 6c 39 be af 7e c8 3d fe 54 93 be 6c 5c c6 3d
       -0.18107939 0.09789788 -0.2877578 0.09685597
0002c0 25 19 80 3d f5 00 19 3e d3 da 13 3e a0 d0 1d 3e
       0.06254796 0.14941771 0.14438944 0.15411615
0002d0 56 6a 1a 3d 01 26 73 be 0e 13 3a be f7 ae b5 bd
       0.037699066 -0.23744966 -0.18171331 -0.088712625
0002e0 16 73 82 3d 96 ef ff 3d c3 a5 41 3e 4e 73 5c be
       0.06369607 0.12496869 0.1891089 -0.2152836
0002f0 52 8c d5 bb 10 84 8f 3e 7b 31 f0 39 04 af fb bd
       -0.0065169716 0.28030443 0.00045813233 -0.12289241
000300 1f b9 18 3d 58 f5 6a 3e cd 1c a5 3e 32 51 f7 3e
       0.03728592 0.22945154 0.32248536 0.48304135
000310 fd c1 87 bd c0 a5 ec 3b 57 b7 05 3e 1f 4e 9a 3e
       -0.06628797 0.0072219074 0.1305822 0.30137727
000320 c9 60 a3 3d cc d4 cb 3e 17 b4 52 3c e0 5e 62 3d
       0.07977445 0.3981079 0.01286032 0.05526626
000330 d5 34 1b 3d c1 01 bf 3e b7 99 b3 3e f0 a4 09 be
       0.03789218 0.37306026 0.35078213 -0.13441825
000340 8e f8 3c 3e a3 73 36 3e 06 82 b8 bd 89 46 80 3e
       0.18454191 0.1781755 -0.09009175 0.25053814
000350 5f bd 5d bc 5f 30 7c 3c ea 0e 28 3c 22 f0 8f 3e
       -0.013533919 0.015392392 0.010257462 0.28112894
000360 7f b5 ef 3e ae 8d 54 3e 24 9e df 3d 27 7a 78 be
       0.46818158 0.20757172 0.10918835 -0.24265347
000370 3e 7f 94 bd ac c3 0a be 53 1f ce 3d 0f dd 94 3d
       -0.07250832 -0.13551205 0.10064568 0.07268726
000380 7d d5 ce 3e b1 07 42 3e 93 f1 b7 3e 2e 67 75 3e
       0.40397254 0.18948247 0.35926494 0.23965141
000390 3e 69 2f be f9 0e 1c bb 90 48 20 3d 73 58 65 3e
       -0.1712999 -0.0023812635 0.0391317 0.22397022
0003a0 60 43 09 3e 5d 1f 4d 3e 87 75 e0 bd ff 19 69 3e
       0.13404608 0.20031495 -0.109599166 0.22763823
0003b0 54 08 b4 3d 2c 0b f1 bd be 8a 75 bc c0 d7 80 bd
       0.08790651 -0.11769709 -0.014986692 -0.06291151
0003c0 f4 e6 d1 bd 8f a0 5f 3d 35 7d 8e be 79 24 06 bd
       -0.10249129 0.05459648 -0.278299 -0.032749627
0003d0 bd 48 87 be 07 0d d6 bd 1e 29 b2 3d 07 37 05 be
       -0.26422682 -0.104517035 0.08699249 -0.13009273
0003e0 f4 21 43 be af 34 81 3e 61 cb 73 be e5 34 22 3d
       -0.19055921 0.25235507 -0.23808052 0.039601225
0003f0 3b ef e1 3e 8b e0 9a 3e 5d a5 22 3e e7 db 7e 3d
       0.4412783 0.30249438 0.15883394 0.062221434

actor.2.bias f4 [64]
000000 3c 81 3e bd 6b 0c 32 3e a9 8a b2 3d 6f 6c 43 bd
       -0.046509966 0.1738755 0.087178536 -0.047710832
000010 69 d1 ef 3d 85 56 b6 3d 1b 93 76 bd f1 30 cc 3c
       0.11709864 0.08903221 -0.060198884 0.02492568
000020 4e d0 cb bd 31 62 70 3d 57 38 e8 bd 25 c6 4e 3d
       -0.0995184 0.058687393 -0.11338871 0.050481934
000030 25 ea 77 bc c6 81 65 bd b3 6d af 3c 86 4d ee 3d
       -0.015131508 -0.056031965 0.021414613 0.1163588
000040 a9 c9 d6 bd d9 0c 0f 3e 04 11 8b 3d aa 7f 44 3b
       -0.10487682 0.13969745 0.06790355 0.002998332
000050 18 9c e2 bd c0 37 dd 3d 67 07 70 3c b4 3f 87 3d
       -0.11064929 0.10801649 0.014650202 0.06603947
000060 5b b8 32 3e 1a 22 f6 3c 0f 71 97 3d 2c f0 6a bc
       0.17453139 0.030045558 0.07394611 -0.014339488
000070 0b c8 d5 bd 16 7e 13 3d 2e 9c 0c 3d 1e f0 c6 bc
       -0.10438546 0.036008917 0.034328632 -0.024284419
000080 3b 15 a1 bc aa 56 02 bd 6b 23 9f bc 3b 5c 0a 3e
       -0.019663444 -0.03182093 -0.019426068 0.13511746
000090 80 4c aa 3c 92 12 0b 3d 67 b8 f5 3d fa 0d 4f bd
       0.020788431 0.033953257 0.119980626 -0.05055044
0000a0 ec 2c 14 3e ab 65 e5 bd 16 ed e7 3d 84 7a c3 bd
       0.14470261 -0.11201032 0.113245174 -0.095448524
0000b0 52 5c 59 3d 8a 6e 62 bd 4d 9d 0d bd 51 65 1f bd
       0.05306656 -0.0552812 -0.03457384 -0.038914982
0000c0 58 08 77 bd d6 1f e4 3d ea c2 15 3e cd 34 0b be
       -0.06031069 0.11138885 0.14625135 -0.1359436
0000d0 1e 27 83 bc 76 6a bd bd 80 75 83 3b a6 d0 3e 3d
       -0.016009863 -0.092488214 0.00401181 0.0465857
0000e0 29 68 2f bd 07 d2 95 3d a1 82 2a 3e 1a 53 9a 3c
       -0.042823944 0.0731545 0.16651393 0.018838454
0000f0 cf 07 4d bd bd 3f 5d 3d 49 22 bd 3c 0a 67 86 3d
       -0.050056275 0.054015864 0.023087637 0.06562622

actor.4.weight f4 [36, 64]
000000 66 fa f5 bc 89 e3 10 bf 9a ba ae 3e 7b 02 38 bf
       -0.030026626 -0.5659719 0.3412674 -0.71878785
000010 d5 e7 82 3e 25 d4 78 bc 49 f5 c5 3e 72 d5 fe 3e
       0.255675 -0.015187298 0.386637 0.4977222
000020 14 a9 9b bd 21 fb 9e bd 19 04 88 bc 18 b9 bb 3e
       -0.076006085 -0.07762743 -0.016603516 0.36664653
000030 6c 6e b6 bd 94 bc 8d be 05 34 ec bb d0 36 9a 3e
       -0.0890778 -0.27682936 -0.0072083496 0.30119944
000040 e7 2c bb 3d bd d8 d2 be 87 e1 e1 bd e9 74 ff 3e
       0.09139424 -0.41180983 -0.11029344 0.49893883
000050 a7 f5 83 3d 79 29 35 bf 92 ea a9 bb b7 ed b2 be
       0.06443339 -0.7076641 -0.0051854337 -0.34946987
000060 22 9a 0c 3e 8c a5 7f 3d 82 69 b9 3c 04 77 00 3f
       0.13730672 0.062413737 0.022633318 0.50181603
000070 19 35 da be 29 0e 5a be 3b d7 1b 3e 71 7f 4f bd
       -0.42618635 -0.21294464 0.15218823 -0.050658647
000080 38 e9 2f bf a2 4a 79 bc 97 40 f0 3c c9 77 1a be
       -0.6871524 -0.015215548 0.029327674 -0.15084757
000090 1d a3 1c 3d dc 52 2a 3e 91 0d a5 3e 9f f8 b8 3d
       0.038241494 0.16633171 0.32236913 0.09031796
0000a0 3c 8f 74 be a6 cf 90 3e d7 50 15 bf 4a ce 81 bd
       -0.23882765 0.28283423 -0.58326477 -0.06338175
0000b0 67 c9 33 bd e9 12 3a 3d 57 72 f5 be 08 c9 fc 3c
       -0.043893244 0.04542819 -0.47938797 0.030857578
0000c0 c0 0c b6 bd 27 bb 06 3e 0b 32 4c bf 72 88 7b bd
       -0.088891506 0.1315733 -0.7976386 -0.06140942
0000d0 04 f0 5d 3e b4 d7 b9 bd f9 ac 8e 3e f2 48 22 3e
       0.2167359 -0.09074345 0.27866343 0.15848139
0000e0 c7 3a 93 bd 7f 6b 9f bd b9 63 61 be 5b 04 8e bd
       -0.07188945 -0.07784175 -0.22010697 -0.069344245
0000f0 9c 65 18 3c c6 1c e9 3c bd 9f 17 3e 29 fe 91 3e
       0.009301569 0.028456103 0.14807029 0.2851422
000100 39 b3 a4 be 7a c8 0f bf 5b 91 29 bd 1a 46 c2 3e
       -0.32167986 -0.5616528 -0.041398387 0.37944108
000110 7f 63 a7 bd ff c4 ac be a4 de 98 be 44 d5 b0 3d
       -0.08173274 -0.33744046 -0.2985736 0.08634427
000120 34 17 10 bd 93 82 9e 3e 78 17 0e 3e bd dd a2 3c
       -0.03517838 0.30958995 0.1387614 0.019881124
000130 c5 22 49 3e 8e c3 3f 3e f4 6e 36 3d 1c 1d e6 be
       0.1964217 0.18726942 0.044539407 -0.44944084
000140 53 30 cc bd 47 2d f9 3e c8 2e 07 bf ea 91 90 be
       -0.099701546 0.48667356 -0.5280576 -0.28236324
000150 4c a0 14 3d 50 04 e3 bd df 04 ec 3c ea 35 05 3e
       0.036285684 -0.11084807 0.028810916 0.13008848
000160 a6 95 eb be 92 72 9c 3d 9b 35 c5 bc 4a a6 c7 3e
       -0.4601261 0.0763904 -0.024073413 0.38994056
000170 f8 96 bf 3e 67 03 2d be fd b7 fd be f1 8e a9 be
       0.37419868 -0.16895829 -0.49554434 -0.33116868
000180 dd f2 55 be 6a e3 83 bd 79 92 14 3e 20 98 1d bf
       -0.20893426 -0.0643986 0.14509 -0.6156025
000190 29 1c 0b 3e 5b 8b 7f 3e fc cc a9 3e f3 c5 e1 bd
       0.13584961 0.24955504 0.33164203 -0.11024084
0001a0 63 ea df 3d f8 b5 03 3e ed 4d 0a bf 55 24 20 bd
       0.109333776 0.12862384 -0.54025155 -0.03909715
0001b0 c9 f4 48 3d 9a 63 46 3d 1e 5e 6a be 44 72 40 3d
       0.04906157 0.04843483 -0.22887465 0.046983972
0001c0 29 60 eb 3c 28 e2 76 3e 16 32 59 be ea 17 d7 bc
       0.028732376 0.2410971 -0.21210513 -0.02625652
0001d0 06 a0 2d 3e 9b c4 da 3d 19 ad e1 3e f3 db 13 be
       0.16955575 0.10682031 0.44077376 -0.14439373
0001e0 66 bb 4f bd d9 01 8b bc 6e 96 0c bf 2b 59 04 3e
       -0.050715826 -0.016968654 -0.5491704 0.1292464
0001f0 fa e6 80 3e 64 62 03 3e 3f 0e 21 3e 1f 49 cc bd
       0.2517622 0.12830502 0.1572809 -0.09974884
000200 3d 01 a5 3e 4f 17 d8 be d1 46 bb 3e df 25 33 bd
       0.32227507 -0.42205283 0.36577466 -0.04373729
000210 c5 91 df be cc bd 98 3e bd b6 e5 3d 01 fb 5b be
       -0.436659 0.29832304 0.11216495 -0.21482469
000220 0d 62 a1 3d b9 a7 3c bd 2a db f5 3d 17 90 9b 3e
       0.0788003 -0.04605839 0.12004693 0.3038337
000230 f6 aa b7 3e 94 3c 25 bd 5a 1a ca 3d 8f 8b 37 be
       0.3587262 -0.040340975 0.098683074 -0.17924331
000240 54 e0 d4 3c 19 be 12 3e b6 8a cf 3e e3 5d 4f 3e
       0.025985874 0.14330329 0.40535516 0.20250659
000250 98 ce e3 3d 3a ad 8f be 8c cb b3 3d 58 09 b2 be
       0.11123389 -0.2806185 0.08779058 -0.34772754
000260 02 ba 48 ba a9 db c0 3d e1 31 4a 3d 18 53 b2 3d
       -0.0007657112 0.09416897 0.049363974 0.08707255
000270 0a 44 4a 3e e5 cf e6 bd d4 52 1f 3e c8 39 4c be
       0.19752517 -0.112701215 0.1555894 -0.19943917
000280 b2 a6 cd bd 8d a2 15 3c 6f 91 ea 3d a3 01 b1 bd
       -0.1004156 0.009132993 0.114535205 -0.0864289
000290 70 fe 01 3e e7 5d b3 3d 70 f5 62 3e 06 26 c2 3d
       0.12694716 0.08758145 0.2216394 0.09479909
0002a0 2a be 88 3e 41 ee c6 bd cd 16 b1 be f6 fe 9a 3c
       0.26707584 -0.09713412 -0.34587708 0.018920403
0002b0 65 cf 2c be 17 98 2e 3c b2 db aa 3e 58 17 1a 3d
       -0.1687599 0.010656378 0.3337074 0.03761992
0002c0 8a db 96 3d 4e 4f 9c 3e 2b 9e c3 be b5 74 0e 3d
       0.073660925 0.30529255 -0.3820661 0.03477927
0002d0 d7 14 17 3e b9 9d c8 bc 95 1c 29 be b3 2a cf 3e
       0.14754044 -0.02448927 -0.1651481 0.40462264
0002e0 0e 8b b3 bd da 94 f4 bd 95 52 1d bf bc e3 db bc
       -0.08766757 -0.11942454 -0.61454135 -0.02684199
0002f0 94 35 59 bd f1 58 86 3e 1e 46 c2 3d e9 dc 92 be
       -0.05302961 0.26239732 0.0948603 -0.28684166
000300 32 f2 76 3e 68 01 4b be 44 83 dd 3c 1e 8e 21 bd
       0.24115828 -0.19824755 0.027040131 -0.039442174
000310 87 9d 07 be 84 9a c8 3d dd 29 f5 3d 83 f6 5a 3d
       -0.13243686 0.097950965 0.119708754 0.05345775
000320 2a b0 3a bd a5 e2 50 3e 18 cd b0 3d 6d 20 51 bd
       -0.04557816 0.20398958 0.086328685 -0.051056314
000330 58 1f 9f 3e 42 f6 9a be f3 f4 6b 3d b4 46 10 3e
       0.310786 -0.30266005 0.05760665 0.14089471
000340 9b 90 4b bd 01 d3 12 bd 2a ce 20 be 40 67 7f bd
       -0.049698453 -0.03584576 -0.15703645 -0.062354326
000350 8c d8 39 bd 85 17 e3 be 3b 9f 08 3d 63 52 9a 3e
       -0.04537253 -0.4435388 0.03335498 0.3014098
000360 ee 1f 3e 3d 20 79 ae bd 57 d5 92 bc 97 75 a4 bd
       0.04641717 -0.085191965 -0.017923994 -0.08030241
000370 6e cd f6 3d c2 d2 29 3e 29 6a 7d 3e ad a9 f3 be
       0.12050901 0.16584304 0.24747528 -0.4759039
000380 d9 63 1e 3d e7 45 d1 3d 14 32 75 bd c2 89 c9 be
       0.03866944 0.10218411 -0.05986221 -0.39362913
000390 80 5f 4e bd 38 46 0b 3d 9c ce 9f 3d 68 12 9e bd
       -0.050384045 0.034002513 0.078030795 -0.077183545
0003a0 cc 2e a1 bd 36 2e cb 3e 84 82 61 be 06 70 99 bd
       -0.07870254 0.39683694 -0.22022444 -0.0749207
0003b0 53 5f 81 bd db 91 19 3d 2c 0c 01 3e 0e 28 18 bd
       -0.0631701 0.037492614 0.126023 -0.037147574
0003c0 50 2f 79 bd 1c ec 53 3e ac 35 df be e2 37 e2 bd
       -0.060836136 0.20695537 -0.43595636 -0.11045815
0003d0 c9 50 8f 3e a8 b1 4e 3d b5 bd 7c 3d e1 7d 50 3e
       0.27991322 0.050462395 0.061704356 0.20360519
0003e0 64 5a 13 3e 0d ef ba bd a5 a7 bc be 9e d8 5f bb
       0.1438995 -0.091276266 -0.36846653 -0.0034156214
0003f0 e8 cc 8c be b3 da 90 3e dc b4 f7 bd 77 a1 53 be
       -0.2750008 0.28291854 -0.12095043 -0.20667063

actor.4.bias f4 [36]
000000 e5 c5 e1 bd 7d e6 87 bd 28 bb 88 bd bc aa 40 be
       -0.110240735 -0.06635759 -0.06676322 -0.1881513
000010 ed 2d 64 3e 00 d8 cf bd 0f 42 35 3e dc af 2b 3e
       0.22283144 -0.101486206 0.1770098 0.16766304
000020 4e 0a 17 3d 1a 90 b6 bb 67 be 87 bc 6e 38 4f 3c
       0.03687506 -0.0055713775 -0.016570283 0.012647731
000030 a4 be 3f 3d 8e 51 b9 3d 56 2e b2 3d a0 76 e5 bd
       0.04681267 0.090487584 0.08700244 -0.112042665
000040 3e 71 7d be e1 4b 36 be 2e f9 18 be d0 90 34 be
       -0.2475023 -0.17802383 -0.14938805 -0.17633367
000050 f5 e7 84 be 06 83 8d 3b e7 a2 3f 3d 53 39 4d be
       -0.2595822 0.0043185977 0.046786215 -0.20041399
000060 4d bc 1d 3e 39 66 f5 3d 89 dd c2 3d c9 93 01 bd
       0.15403862 0.11982388 0.09514911 -0.03163508
000070 72 f6 2f bd eb 1d 92 3d 83 37 01 3e 2b 22 17 3d
       -0.042959638 0.07134613 0.12618832 0.03689782
000080 2b ee 41 3b a8 d8 61 3e 2f 12 e9 3d df 75 6d 3e
       0.0029591422 0.22055304 0.11380421 0.23189496

critic.0.weight f4 [64, 62]
000000 c8 60 9c 3d 6a 19 ab 3d 31 d8 ab bd 6c 5b 1b 3c
       0.07635647 0.08354457 -0.083908446 0.009482246
000010 48 eb b2 bd f7 ee e8 bc 6f f6 9a ba 35 9d db 3c
       -0.087362826 -0.02843426 -0.001182271 0.02680836
000020 8e 90 ad bd 6a 77 58 bd c0 e8 18 be 39 03 10 be
       -0.08474837 -0.052848257 -0.14932537 -0.1406373
000030 4d 35 ba bd 3a 98 4f bc 14 72 e6 bd ae be b6 bd
       -0.090921976 -0.012670571 -0.112522274 -0.08923088
000040 fe 10 09 bc ab 20 dd bd 13 fe f7 bd c8 76 b6 3d
       -0.008365868 -0.107972465 -0.12109008 0.089093745
000050 0c 4a bb bd 7c 17 b6 3d d6 10 10 3c 3e 3c 98 bc
       -0.09144983 0.08891198 0.0087930765 -0.018583413
000060 ef 3e c9 3d 27 17 cb bd c0 34 79 3d b3 99 ad 3d
       0.09826457 -0.09916525 0.060841322 0.084765814
000070 b3 1f 93 3c 8d 35 02 be c5 89 73 3c 00 f4 8c bd
       0.017959451 -0.1271574 0.01486439 -0.06882477
000080 f2 fb c0 bd 9a a3 b1 3d 52 32 b7 bc 73 eb af 3d
       -0.09423055 0.08673783 -0.022362862 0.0858983
000090 16 0d 8c bd 74 b4 66 bd a6 84 a6 bb 8f 62 0c bd
       -0.068384334 -0.056324437 -0.005081731 -0.03427368
0000a0 83 55 0e 3e 43 c9 83 3d f5 46 2c 3e 4a bc be bd
       0.13899808 0.06434872 0.16823943 -0.09313257
0000b0 e9 b0 8d 3a dd a0 88 3d 7d 0d 7a ba 0d 1f d9 bd
       0.001081017 0.06671307 -0.0009538753 -0.106016256
0000c0 58 66 d4 3d 5f 8b 20 be a4 d5 ba bd bb 55 e5 bd
       0.10371083 -0.15678166 -0.0912278 -0.111979924
0000d0 12 b7 00 3d d2 03 a0 3c ad f4 cf bd 88 39 97 bd
       0.03142459 0.019533072 -0.1015409 -0.0738402
0000e0 82 3d 2d 3d 8a 36 30 3d 7f 85 3d be b7 bd da bc
       0.042294987 0.043020763 -0.18507956 -0.026701791
0000f0 4e ee a1 bd f1 a3 65 bd dd 19 e7 bd cc bf 83 3d
       -0.07906781 -0.05606455 -0.1128423 0.06433067
000100 28 39 8d bc 13 25 4d bd 06 09 f3 bd 07 34 24 3e
       -0.017239168 -0.050084185 -0.118669555 0.16035472
000110 b1 72 1a 3e a0 c5 d3 3d d9 87 71 be a9 49 9c be
       0.15082814 0.10340428 -0.23586978 -0.30524948
000120 a5 bd 6e bd ed c5 2c 3e 90 4d 9a bd 93 8e 0f 3e
       -0.058286328 0.16872378 -0.07534325 0.14019231
000130 14 51 c0 3d 0a 31 0e 3e a3 f5 d4 3d fb 2e df 3d
       0.093904644 0.13885894 0.10398414 0.10897633
000140 bf 91 8b 3d 45 04 df bb 5d 60 05 bd 76 59 f8 bd
       0.06814908 -0.006805929 -0.032562602 -0.12126438
000150 e2 da 88 3d 00 cd eb bc a8 10 a3 3c ed f3 ea bc
       0.066823736 -0.028784275 0.019905403 -0.028680766
000160 15 fc a7 3d bd 3a 84 3b 24 9c 3d 3e 5b 1d 43 3e
       0.08202378 0.0040353225 0.18516594 0.19054167
000170 56 c4 3d 3e bb 86 c9 3e 73 dd 70 3d 5f 54 99 bd
       0.18531927 0.39360604 0.05880494 -0.07486796
000180 b5 e9 b6 3d e7 7b c9 3d b8 e7 ca bd ce 79 8a be
       0.08931295 0.098380856 -0.09907478 -0.27046055
000190 d7 c1 a2 bd 39 67 e5 3d 0e 70 27 3c 4f fe 3e be
       -0.07947128 0.11201329 0.010219587 -0.18651699
0001a0 ae b1 50 bd b1 34 ca bd 88 5f c4 be 1f 71 91 be
       -0.0509507 -0.09873331 -0.38354135 -0.28406617
0001b0 41 95 7b 3d dc ec 80 3d 99 de 21 3c 9f 9f da 3c
       0.061421636 0.06295177 0.009879732 0.026687441
0001c0 bf e6 83 3d c9 c9 0d bc b0 1b 3f bd 6c be 80 bd
       0.06440496 -0.008654066 -0.046657264 -0.0628632
0001d0 d5 00 14 be c9 dd 57 bd 06 3c 8c 3e 8e 46 48 3d
       -0.14453442 -0.052701745 0.27389544 0.04889541
0001e0 2b c4 46 bc fc c6 ef 3d 41 37 f0 3b b5 27 20 3d
       -0.012131731 0.11707875 0.0073308055 0.039100368
0001f0 1a 4f d7 bd 14 23 a3 3d 1f 64 d7 3d 23 24 47 3d
       -0.10513134 0.07965675 0.105171435 0.048618447
000200 a6 92 99 bd 13 64 8d be a1 45 58 3c 31 e5 57 be
       -0.07498674 -0.27615413 0.013200195 -0.21083523
000210 ef fa 8c 3d 4e 0e e5 bd f7 be 63 3d 8e 1a 83 ba
       0.06883799 -0.11184369 0.05560204 -0.0010002421
000220 5f ed 16 be 43 f6 d0 3c cb b0 04 bd b7 18 db bd
       -0.14738987 0.025508052 -0.032395165 -0.10698073
000230 01 1f a3 bc 0a a1 99 bd de 74 f2 3d 9b 83 d3 bd
       -0.019912245 -0.07501419 0.11838697 -0.10327836
000240 2b c6 f2 3d 77 ec af bc ce 58 bc 3c 04 7c e2 3d
       0.11854204 -0.02147506 0.022991564 0.1105881
000250 c3 b2 70 bd ad bd 40 bd c4 37 57 3d c2 ca 03 bd
       -0.05876423 -0.04705589 0.052543417 -0.032175787
000260 07 89 58 bd f9 85 03 3d ee 5f 10 bd 51 14 2b bb
       -0.052865054 0.03211019 -0.035247736 -0.0026104639
000270 a6 e6 63 bd c6 7e 53 3d fd 69 49 3c 22 0e c8 bd
       -0.055639885 0.051634572 0.012293336 -0.097683206
000280 9a 6b 96 bd 49 bd a0 bc 06 63 23 be 05 9b 77 3d
       -0.07344742 -0.019621508 -0.15955743 0.060450573
000290 5a 45 07 be 5d 89 2b be 8e 8f 6e bb fb 23 b9 bc
       -0.1321005 -0.16751619 -0.0036401483 -0.022600165
0002a0 ff 80 ec 3d 2d 60 7c bd f5 30 b9 bd 82 40 07 bd
       0.115480416 -0.061615158 -0.09042541 -0.033020504
0002b0 a5 89 fd bd aa a9 1b 3d 0f 14 52 bd db de 38 3d
       -0.12379769 0.0380036 -0.05128866 0.045134407
0002c0 de 67 77 3d 58 fd 3b 3d 8b ec 9f 3c 30 5c 15 be
       0.06040179 0.045895904 0.019521972 -0.14585948
0002d0 88 5e 42 bd b5 a2 e9 bb a4 32 0e be d5 96 07 3e
       -0.047453433 -0.007129992 -0.13886505 0.13241132
0002e0 2f e7 85 3d 2d 75 0e bc 5d 8e eb bd c2 11 ef bd
       0.065382354 -0.008694929 -0.11501763 -0.11673309
0002f0 8d ab d9 bd 5c f5 b5 3d bb da 89 bc 24 c9 08 be
       -0.10628424 0.08884689 -0.016827932 -0.13357979
000300 d7 51 da bd 09 b9 87 3c e8 48 25 bc d9 1b 4d be
       -0.10660141 0.016567724 -0.010088183 -0.20030154
000310 0a 4a 20 be ab 5c 0e bd 4a 02 ff bd 03 3d c9 bd
       -0.15653244 -0.034756344 -0.124516085 -0.0982609
000320 fd cc be bb 76 25 b1 bb 91 5f 1b bd 4b 6d a1 bd
       -0.0058227764 -0.005406077 -0.037932936 -0.07882174
000330 82 c9 ab bd 45 23 b8 3d da a5 ac 3c 59 b8 2a 3d
       -0.08388044 0.08991102 0.021075178 0.041679714
000340 d5 03 bd bd b2 e2 c0 3c 8d b4 e7 3d 4d 75 8e 3d
       -0.092292465 0.023545597 0.11313734 0.06955967
000350 4c 09 b6 bb 37 79 6f bd ba 9f 90 3e 66 37 64 bd
       -0.0055553075 -0.05846521 0.28246862 -0.055716895
000360 bb 5d 3c bd 55 d5 3d bd 0b 87 13 bd a7 04 a4 bb
       -0.045987826 -0.046346027 -0.03601746 -0.0050054374
000370 5b dd f4 bc 8e 49 9a bd a0 18 0d be 42 63 3c bd
       -0.029890707 -0.07533561 -0.13778925 -0.045993097
000380 31 63 5c bd e9 97 cb 3d df ef 3e 3d 20 f6 bf be
       -0.053805534 0.09941084 0.046615478 -0.37492466
000390 f5 22 c0 bd b6 b5 1a 3d dc 27 1c bd 17 60 af bd
       -0.093816675 0.03777095 -0.03812395 -0.085632496
0003a0 94 20 af bd 15 8b 48 3d 88 9d 31 bd 3b cd 5f bd
       -0.08551136 0.048960764 -0.043363124 -0.054639082
0003b0 f1 b8 fb bc 86 35 ee bd bd 15 b7 3d fd fb f7 bc
       -0.030727835 -0.116313025 0.08939693 -0.030271525
0003c0 79 ce 21 be de 22 75 bd ba 75 a5 bc 13 47 a0 bc
       -0.1580142 -0.059847705 -0.020197738 -0.01956514
0003d0 c6 be 05 bb e7 ce db 3d 67 ec 41 bd a9 df 58 bd
       -0.00204079 0.10732823 -0.04734459 -0.052947674
0003e0 3e f8 8b 3d 01 79 b8 3d d0 2e ea bd c8 31 a8 bd
       0.06834458 0.09007455 -0.1143471 -0.0821262
0003f0 d7 d8 f1 bd 0c e2 5b bd bc c4 26 3d c9 17 d1 3d
       -0.11808937 -0.053682372 0.040714964 0.10209615

critic.0.bias f4 [64]
000000 65 b7 2c be 58 87 c8 3d c1 e3 09 be 20 c8 b1 3c
       -0.16866834 0.0979144 -0.13465787 0.021701872
000010 11 c5 aa bd 14 c7 04 bd ca e5 f1 bd 86 81 38 be
       -0.08338369 -0.03241642 -0.11811407 -0.1801816
000020 c3 7b 14 be f2 44 95 bd 57 9a 76 bd cd f5 c2 bb
       -0.14500336 -0.07288541 -0.060205784 -0.005949712
000030 11 a9 70 bd eb 92 2f be c0 d8 a2 bd f1 75 26 3d
       -0.058754984 -0.17145889 -0.07951498 0.04063982
000040 0b 0d cf bd 2a f1 8a bd bd d4 3a bd b9 0a 46 bd
       -0.101099096 -0.0678428 -0.04561304 -0.04835007
000050 c3 8d 0a bd c6 96 3d 3c ac 30 53 bc 6e 95 f8 bc
       -0.0338266 0.011571592 -0.012890022 -0.030344691
000060 d5 ff 42 3d 9a ec 70 bd bd 0f 26 be 3b 64 3c bc
       0.04760726 -0.05881939 -0.16216941 -0.011498506
000070 9b b4 b1 3c f0 1e 79 b9 e8 33 4c bd 32 93 0c be
       0.021692565 -0.00023758016 -0.04985419 -0.13728026
000080 16 65 2b bc 25 e3 30 bd eb 2e ce bd 8e 08 26 bd
       -0.0104611125 -0.043185372 -0.10067543 -0.040535502
000090 cd c0 f1 bc 09 19 db 3c f2 f7 1d bc ea 3b 02 3e
       -0.02951088 0.026745336 -0.009641634 0.12718168
0000a0 24 e5 0f be 35 62 34 bc f6 ca e5 bc 46 41 9f 3b
       -0.14052254 -0.0110097425 -0.02805088 0.004860076
0000b0 b3 2b 4f be a4 7a af bd 67 05 70 3d 72 85 7d 3c
       -0.20231514 -0.08568314 0.058598902 0.01547371
0000c0 2f 30 34 3d b1 4a 93 bd f6 cf ea 3d b9 4d e2 bd
       0.043991264 -0.07191981 0.11465447 -0.11049981
0000d0 6a 97 be 3c 39 7f 01 be df b9 19 be 26 8b 92 bd
       0.02326556 -0.12646188 -0.1501231 -0.07155447
0000e0 2a b8 cc bc c4 06 61 bd d0 f6 2e be ff f0 37 3c
       -0.02499016 -0.054938093 -0.17086339 0.011226892
0000f0 14 6b 59 3e bd 58 ae bd 2f 39 46 be ad b7 b7 bd
       0.21232253 -0.08513019 -0.19357751 -0.0897058

critic.2.weight f4 [64, 64]
000000 94 1b 6d bd 39 d5 4f 3e 68 83 ea 3b b8 81 81 bd
       -0.05788763 0.20296182 0.007156778 -0.0632357
000010 90 66 a1 bc 4f 6e 08 bd 5d c3 34 bd d1 78 0b 3e
       -0.019702226 -0.033308323 -0.044131625 0.13620307
000020 41 b3 08 be 8a 05 6d bd 44 41 c3 bd 24 e2 83 3e
       -0.1334963 -0.05786661 -0.09533933 0.2575847
000030 4d 40 2e bd 8d ea 43 3d 4c 89 18 3d 6d ed 1a 3d
       -0.04254179 0.047831107 0.03724031 0.037824083
000040 b7 75 cc 3d 5a 49 07 3e 06 7c f7 bd 07 de 10 3e
       0.0998339 0.13211575 -0.120842025 0.14147197
000050 3d ef 71 bd ae 26 52 be 65 28 5e 3d 05 d4 b1 3d
       -0.059066046 -0.20522568 0.054237742 0.08683018
000060 08 44 82 bd 45 8f c3 3c c0 b1 d8 bd e3 8c 1f bc
       -0.06360632 0.023872027 -0.10580778 -0.00973818
000070 5c a5 41 3d 4d 82 ed 3d b4 ca 84 3c be 5b a7 bd
       0.04727684 0.115971185 0.016209938 -0.08171795
000080 d9 17 8e 3e e4 c4 e8 bb 4b d9 98 bb cb e6 8f 3d
       0.2775257 -0.0071035493 -0.004664575 0.07026442
000090 b5 8f 3c be f5 6b ad 3d 65 e4 fe 3c 46 3f 92 be
       -0.18414195 0.08467857 0.031114766 -0.285639
0000a0 b7 e1 94 bd ba dc 0d 3e 10 c7 b7 3d 40 c5 85 be
       -0.07269614 0.13853732 0.08973515 -0.26127052
0000b0 a9 36 ba bc 90 8e 3c be 30 57 3e bd f8 d3 9a bd
       -0.022731142 -0.18413758 -0.046469867 -0.07559961
0000c0 00 de 5a 3e 5d 97 0e bc 39 b1 28 3e 36 b2 07 3e
       0.21373749 -0.00870308 0.16473855 0.13251576
0000d0 ce 07 b2 bc 5f c1 a1 bd 80 bc fb bd 32 6e f8 3d
       -0.021732237 -0.07898211 -0.12291813 0.12130393
0000e0 c7 0e 62 3c 65 a2 53 3c 42 b1 94 bd 9b 76 53 bd
       0.0137974685 0.012917136 -0.07260372 -0.051626783
0000f0 f6 15 1b be 83 8c ce bd 3c fe bd 3d 49 f8 c8 bd
       -0.15145096 -0.10085394 0.09277007 -0.09812982
000100 c3 cf 94 3c a9 6a e3 bc d9 52 18 bd 5f 26 5a bd
       0.018165475 -0.02776082 -0.037188385 -0.05325925
000110 40 af ff bd dc 97 81 bd 4a b1 9f bd 50 a2 04 3e
       -0.12484598 -0.06327793 -0.07797487 0.12952542
000120 d4 e8 8e bd 76 45 ef bd 96 d9 e8 bd 7c f6 95 bd
       -0.06978002 -0.116831705 -0.11369626 -0.07322404
000130 94 6c 3e bd 98 aa fa bd f1 59 b3 bd 2b 0d 21 bd
       -0.046490267 -0.122395694 -0.08757389 -0.0393192
000140 27 9b a6 3d bb 08 b4 bd 34 8f 0f bc 72 4c a3 3d
       0.08135062 -0.08790728 -0.00876217 0.07973565
000150 59 79 ad 3d 3b 7a 32 3c a1 6a 54 3d b4 60 f7 bc
       0.08470411 0.0108934 0.0518595 -0.030197479
000160 ef 8f 9f bd 49 bc f5 bd 86 2b 00 be 04 10 8f 3d
       -0.07791125 -0.11998803 -0.12516603 0.069854766
000170 94 c1 92 bc d5 8d fd bd e7 37 bb bd 40 d5 34 bd
       -0.01791457 -0.12380568 -0.09141522 -0.044148684
000180 a3 61 0d 3e 85 c0 a6 bb 5f fc 90 bb 81 55 89 bc
       0.13806777 -0.005088868 -0.004424616 -0.016764404
000190 89 6c 0c bd 2f 1b 92 3c 83 c2 4f 3c 61 ec 15 bd
       -0.034283195 0.017835228 0.012680653 -0.03660238
0001a0 50 cf ff 3d 21 a3 e0 3c ad 37 a3 bb ea 8c cf 3c
       0.124907136 0.027421536 -0.0049810023 0.025335748
0001b0 23 d3 8e 3d db eb 19 bd 42 5b 12 bd 0b 9d 91 bd
       0.06973865 -0.037578445 -0.03573156 -0.07110032
0001c0 2a d1 94 bd 20 ee 10 bc 69 59 ab bd 49 47 a1 3d
       -0.072664574 -0.008845836 -0.08366663 0.07874925
0001d0 db e1 d5 bd 4e d0 a9 bd f4 69 7f bc 79 bc 6e 3d
       -0.10443469 -0.08291684 -0.015589226 0.05828521
0001e0 b3 10 ad bd 53 60 55 bd 66 33 a8 3d 8d 8c fa bd
       -0.08450451 -0.052093815 0.082129285 -0.12233839
0001f0 c7 80 f6 3d b4 a1 64 3c 02 bf 33 3c 30 12 b0 bb
       0.12036281 0.013954569 0.010970833 -0.005373262
000200 30 36 ee 3c 80 ed ab 3d a7 cf db 3c 7f c4 ef 3d
       0.029078573 0.08394909 0.026832415 0.117074005
000210 46 9e 41 be 09 dd f0 3c 8c f2 b4 3d 72 6a 23 bc
       -0.18908033 0.029402273 0.08835325 -0.009974109
000220 95 36 0f 3d fb 2b 04 3d c4 42 0c bc a9 f1 58 be
       0.034964163 0.032268506 -0.00856084 -0.21185936
000230 bd 49 a2 bd 6b 3d 51 bb f1 95 fc 3c 85 8a 00 bd
       -0.07924221 -0.0031927477 0.030833216 -0.031382103
000240 9f cf 28 be fe 8e 4f 3d f5 8b 76 3b 93 78 c0 bd
       -0.16485451 0.050673477 0.0037620042 -0.09397998
000250 8d 44 9d 3b 0b 1d 2f 3e 36 06 57 3e 3f a7 f1 3d
       0.0047994317 0.17100923 0.20998463 0.11799478
000260 9d 48 a3 bd 3a 6f f5 3d 3a a7 1f 3d 7d 3a 25 be
       -0.07972834 0.119841054 0.03897784 -0.16135593
000270 14 69 96 3d e0 48 38 be 67 b8 be 3d cb 8e c6 bd
       0.07344261 -0.1799655 0.09312516 -0.09695204
000280 27 9b 5d bc 5a e5 df bc 51 40 8b 3d 66 94 82 be
       -0.013525761 -0.027331043 0.06799377 -0.25503844
000290 6c 4a de 3d bf ea 44 3d 64 32 30 bc f6 22 40 bd
       0.108540386 0.048075434 -0.010754202 -0.04690834
0002a0 e3 ae 93 3b 4c 9d 11 3e c5 f6 8e 3b df 20 b6 bd
       0.004506932 0.1422016 0.0043629133 -0.088929884
0002b0 8f 8f 20 bd 97 f2 31 bd ac 16 06 3e 49 74 03 3e
       -0.03919941 -0.043444242 0.13094586 0.12837328
0002c0 fb 22 f4 3d b2 35 dc bd 30 c4 37 bd 21 83 e7 bd
       0.119207345 -0.10752429 -0.044864833 -0.11304308
0002d0 c6 c0 34 3d 21 1e d0 3c 62 1c f9 bc 5a 83 8a 3d
       0.044129156 0.025404992 -0.030409042 0.067633346
0002e0 91 9a 59 bd e4 5d 78 bd 43 bf 79 bd d0 7d c9 bd
       -0.05312592 -0.060636416 -0.060973417 -0.0983845
0002f0 55 64 54 3e ae 66 13 bc d5 70 5e 3d 5e a4 12 be
       0.20741399 -0.008996649 0.054306824 -0.14320514
000300 43 0e 2e 3c 44 2a 93 bd 20 60 13 be 0f ae 6a bc
       0.010623517 -0.07185796 -0.14392138 -0.014323725
000310 ae ee 2e bc 62 00 e0 bd 35 52 62 3d 75 00 14 bd
       -0.010677023 -0.10937573 0.05525418 -0.03613325
000320 d7 11 02 be d1 bd b2 bd 85 0a 32 bc dd 2a 94 bd
       -0.12702118 -0.08727611 -0.010866766 -0.07234738
000330 53 f7 5c 3d f7 12 58 be bc f0 cb 3d 1d f2 bd 3d
       0.053946804 -0.21100985 0.09958026 0.09274695
000340 87 67 8a 3d 82 b0 c5 bd fb a2 3b be d9 c5 1a 3d
       0.067580275 -0.09652807 -0.18323891 0.03778634
000350 89 d3 26 3b a4 b8 1d 3d 22 53 c0 bd ca 57 af 3c
       0.0025455675 0.038506165 -0.09390856 0.021404166
000360 93 c3 fe bd 0b fe d0 bd 86 21 95 ba ee 07 c9 b9
       -0.124396466 -0.10204705 -0.0011377789 -0.00038343616
000370 d9 fd 06 3c b5 c3 d8 bd 82 ca c0 3d bc 68 ef bd
       0.008239233 -0.10584203 0.09413625 -0.11689898
000380 66 6f ce ba 24 fc 9c 3d 20 35 8c bd f8 d3 23 be
       -0.0015749752 0.076652795 -0.0684607 -0.15998828
000390 21 c0 a3 bc b0 ec 0c be 13 eb ba bd 78 71 f2 bd
       -0.019989075 -0.13762164 -0.09126868 -0.11838049
0003a0 3c e2 86 bd 7b 66 09 3e 3e 0d ce bd 56 b6 51 3d
       -0.065861195 0.13418 -0.100611195 0.05119928
0003b0 cb d2 09 be fa d2 bf 3d 7e c4 aa bd bd 1c 9b 3b
       -0.13459317 0.093664125 -0.08338259 0.0047336505
0003c0 4a 74 26 bd af 7a 12 bd 49 7e 01 be 11 b5 96 bd
       -0.040638246 -0.03576153 -0.1264583 -0.073587544
0003d0 4a d2 2f 3b 89 5c 43 3d 14 1d 8b bd 2b 0e 05 3e
       0.0026828223 0.04769567 -0.067926556 0.12993686
0003e0 08 78 0a bd 05 5f eb 3d b2 1c ec bd c6 ee 54 bd
       -0.033805877 0.11492733 -0.11528911 -0.051985525
0003f0 d5 9f bf bd fe c8 85 bd c4 d4 b8 3d da 84 0b 3e
       -0.093566574 -0.06532477 0.09024957 0.13624898

critic.2.bias f4 [64]
000000 ae 40 55 3c 1a 9d c0 bd d4 3e 6f bb f5 75 a2 bd
       0.013015909 -0.09404965 -0.0036505954 -0.07932655
000010 2b b6 02 be c6 aa d2 bd 4d e5 75 bd 6d 4b 34 be
       -0.12764804 -0.10286479 -0.06003313 -0.17606898
000020 62 5c bf bd 00 8f e3 bc b2 ef 58 bb c1 df 99 3d
       -0.093437925 -0.027778149 -0.0033101854 0.07513381
000030 d9 7b cc bc d9 df 82 3b 26 a7 13 3c e2 40 67 3c
       -0.024961399 0.00399397 0.009012019 0.01411459
000040 cd ba a4 bd a1 3a d4 bd 7b c0 a0 3d 39 52 ca bc
       -0.08043442 -0.10362745 0.07849213 -0.02469741
000050 91 8c 97 b9 ff 8f d1 bb 97 96 fd bc 32 c0 07 be
       -0.00028905694 -0.0063953395 -0.030955596 -0.1325691
000060 27 e7 f6 3d 14 ee ed bc bc f6 bd bd 70 e3 8c bd
       0.120558076 -0.029044189 -0.092755765 -0.06879318
000070 ee cd 0e bd 12 61 1a bd bc 64 8d 3b 1c 0b 14 bd
       -0.03486436 -0.03769023 0.004314987 -0.036143407
000080 f9 46 c3 bd 6e b8 40 bd c1 6d f7 3c c5 fc e3 bc
       -0.09535021 -0.047050886 0.030203702 -0.02783049
000090 a2 2c ca bd 4e 73 a2 bd e0 ab 0a bd 15 6a 24 3c
       -0.09871794 -0.07932149 -0.03385532 0.010035058
0000a0 fc c6 e9 3b e2 16 b4 bd 5b f9 7b 3d 3a ce 24 bd
       0.0071343165 -0.08793427 0.0615171 -0.040235735
0000b0 86 6e 91 3c 9d 31 d9 3d d6 dc fa bd a0 c7 61 bd
       0.017752897 0.10605166 -0.12249152 -0.055122018
0000c0 c6 d2 6b bd 70 5c 93 3d e4 13 d3 3d 76 07 02 be
       -0.057574056 0.071953654 0.10306528 -0.12698159
0000d0 e3 fa 33 bd bb 42 bf bd db 8b 70 bd 78 a9 21 bd
       -0.043940436 -0.093389 -0.058727127 -0.03946826
0000e0 ac 80 8b bc 9a a8 1e bc 1e 62 13 bd 5f a9 92 3c
       -0.017029129 -0.009683752 -0.035982244 0.017903028
0000f0 fe ee f5 bd 89 79 47 bd 15 53 c5 bd 81 57 ea bd
       -0.12008475 -0.04869989 -0.09634987 -0.11442471

critic.4.weight f4 [1, 64]
000000 e1 15 10 be 79 f9 15 bc c7 63 98 3d 16 44 f1 bc
       -0.14070846 -0.009153717 0.07440906 -0.029451411
000010 92 95 d2 bd ec a8 17 bc 63 46 0c 3d 4c 67 92 3d
       -0.102824345 -0.009256583 0.034246814 0.071486086
000020 24 48 d1 3d ab a4 39 be 7f f4 47 3d ed 52 cb 3a
       0.10218838 -0.18129222 0.048817154 0.0015512385
000030 14 5e 6d 3a 53 0d 1c 3d e0 05 29 be a1 ad a6 bc
       0.0009054851 0.038098644 -0.16506147 -0.020346465
000040 10 80 da bb 1f ae 24 3d 7f d5 dc 3c d8 57 a2 ba
       -0.0066680983 0.040205117 0.026957272 -0.0012385799
000050 83 b0 3d bb 5c d8 43 3c bc 55 3c be 7e 66 b9 3d
       -0.002894432 0.01195344 -0.1839208 0.09052752
000060 b5 00 c9 3c 46 65 4d be f7 7d 9b bb 4f c7 32 be
       0.02453647 -0.20058164 -0.004745241 -0.17458843
000070 ea 1f 0c 3d bf 14 cc bb 4d d3 bf bd 2e ad 8f bc
       0.034210123 -0.006228059 -0.09366474 -0.017538633
000080 f0 6c 6c b9 0c 24 e7 3d 4a f6 6b bb 10 bc 72 3a
       -0.00022547296 0.11286172 -0.0036004954 0.0009259591
000090 c8 9b 68 ba 58 82 12 be 9b 05 8d be 63 27 1d 3e
       -0.0008873311 -0.14307535 -0.2754334 0.15347056
0000a0 1e d9 3a bc f2 e1 9f 3d 12 c7 de 3d 34 7f a1 3b
       -0.011404304 0.078067675 0.108778134 0.004928494
0000b0 80 7b 32 be ad 09 f8 3d cf 1e 0a 3c b9 9d 6c 3d
       -0.17429924 0.121112205 0.008430197 0.057767604
0000c0 7d 73 a8 bc c0 50 09 be 6d 50 4b be 4d 0d 9b bb
       -0.020562882 -0.1340971 -0.19854899 -0.00473181
0000d0 dd 13 d1 3d af a2 88 bb eb 30 1d 3b a4 71 01 3d
       0.10208867 -0.004169784 0.0023985456 0.031602517
0000e0 33 42 60 bb 9d 12 92 3a bf 57 0c be 91 6e f3 bc
       -0.0034219145 0.0011144463 -0.13705347 -0.029715808
0000f0 40 c7 12 bd 67 a9 2e 3b ca 7b ae bd ae b7 bb bd
       -0.03583455 0.0026651265 -0.08519705 -0.091658935
