CybORG/CybORG/Models/bline_train/40000.pth (torch, 78565 bytes, 11 tensors)

actor.0.weight f4 [64, 62]
0	0xba7940ed	-0.0009508271
1	0x3d8b86e7	0.0681284
2	0xbdd6122a	-0.10452683
3	0xbdbf6a3c	-0.093464345
4	0xbe68bfc4	-0.22729403
5	0xbcfac02c	-0.030609213
6	0xbe3ba3ef	-0.18324254
7	0x3dda7e64	0.10668638
8	0xbe4b4661	-0.19851066
9	0xbe438fc2	-0.19097808
10	0xbe291458	-0.16511667
11	0xbecac782	-0.39605337
12	0xbd5c6faa	-0.05381743
13	0x3e1aa226	0.15100917
14	0xbe01510a	-0.1262857
15	0x3d3887a8	0.045051247
16	0x3d4da681	0.05020762
17	0x3d9c104d	0.076202966
18	0xbdb05477	-0.086098604
19	0xbd628646	-0.055303834
20	0x3d3cf15d	0.04612862
21	0x3dd7fb15	0.10545937
22	0xbcd61c86	-0.026136648
23	0x3dc2a212	0.09503569
24	0xbca7b158	-0.020470306
25	0x3c5c2cc0	0.013438404
26	0x3deb82cf	0.11499559
27	0xbdf14899	-0.11781425
28	0xbeca3fac	-0.39501703
29	0x3d9f4615	0.07777039
30	0x3e11dd32	0.14244536
31	0x3f18556f	0.5950536
32	0xbda896cf	-0.082318895
33	0xbd6f7633	-0.058462333
34	0xbdb5b6b9	-0.08872742
35	0xbdf39894	-0.11894336
36	0x3eab6e97	0.3348281
37	0x3f03f826	0.5155052
38	0x3e2b2ffe	0.16717526
39	0x3da4ad60	0.08040881
40	0xbd0fa775	-0.03507181
41	0x3e975b18	0.29561687
42	0x3e025b59	0.12730159
43	0xbad91acf	-0.0016563776
44	0xbc78d0f5	-0.015186538
45	0xbcde1b2d	-0.027112568
46	0x3e01af6a	0.12664571
47	0x3dd61f83	0.10455229
48	0x3cd1eaee	0.025624719
49	0x3d8d05fe	0.068859085
50	0x3d84a827	0.06477385
51	0x3e192796	0.14956507
52	0x3d4e7484	0.050404087
53	0xbe046ba7	-0.12931691
54	0x3d84cc23	0.064842485
55	0x3c4136c3	0.011792841
56	0x3eb4249a	0.35184175
57	0xbdc9a770	-0.09846389
58	0xbdb2ae3a	-0.08724637
59	0xbdded8dd	-0.10881207
60	0x3e82db5d	0.25557986
61	0x3e22b9f4	0.15891248
62	0xbd9a1194	-0.07522884
63	0x3d1d2763	0.03836764
64	0x3d8ec91b	0.069719516
65	0xbc83508d	-0.01602962
66	0xbe3afb05	-0.18259819
67	0x3d5e0668	0.05420533
68	0x3e7156aa	0.23568216
69	0x3e2bd51a	0.1678051
70	0xbd3fe601	-0.04685021
71	0x3e2e170f	0.17000984
72	0x3e5e734c	0.2172367
73	0x3f142f3c	0.57884574
74	0x3e140827	0.14456235
75	0xbe52fadd	-0.20603509
76	0x3d809ab0	0.06279504
77	0xbd8d25df	-0.06891989
78	0x3c3f6a4d	0.011683059
79	0xbda2b7b5	-0.079451956
80	0xbdf265d5	-0.11835829
81	0x3de717f4	0.112838656
82	0x3dc5c448	0.09656578
83	0xbe01ba05	-0.12668617
84	0x3cc2bb23	0.023770874
85	0xbcaf4366	-0.021394443
86	0xbcab34fb	-0.020899286
87	0xbd6e1f27	-0.058135178
88	0x3d480b12	0.048838682
89	0xbd9a0e51	-0.07522262
90	0x3dbf42b3	0.09338894
91	0x3e56926c	0.20954293
92	0x3e98f62a	0.29875308
93	0x3ee283f7	0.44241306
94	0xbe00b695	-0.1256965
95	0xbda8b940	-0.08238459
96	0x3d81deb6	0.06341307
97	0x3cd9c105	0.026581297
98	0xbe423a83	-0.18967633
99	0xbe077718	-0.13229024
100	0x3e826031	0.25464013
101	0x3d89832f	0.067144744
102	0xbdca9c76	-0.09893124
103	0xbebac4d6	-0.364783
104	0xbe418da5	-0.1890169
105	0x3d3382fa	0.04382608
106	0xbd7ed301	-0.062212948
107	0x3dbba27f	0.09161853
108	0xbaa0a2e8	-0.0012255581
109	0x3e35d6d8	0.17757738
110	0xbd03cdf0	-0.03217882
111	0x3de3454b	0.11097201
112	0xbd99f265	-0.07516936
113	0x3e1c3f92	0.15258625
114	0x3db23e72	0.08703317
115	0xbe9c8d41	-0.30576518
116	0xbda96efe	-0.08273123
117	0x3db316f3	0.087446116
118	0x3e3f68f2	0.18692377
119	0x3cf6c0a8	0.030121163
120	0xbcfa7309	-0.030572431
121	0xbd8b9f62	-0.06817509
122	0x3d928938	0.07155079
123	0x3e089190	0.13336778
124	0xbdf97f3e	-0.12182473
125	0xbd9a2929	-0.07527382
126	0xbd02383f	-0.03179192
127	0xbd7d6489	-0.061863456
128	0xbe09a98b	-0.13443582
129	0xbe56882b	-0.20950381
130	0xbe86e1c7	-0.2634413
131	0xbe810682	-0.25200278
132	0xbe7b02c8	-0.2451278
133	0x3d8bce06	0.06826405
134	0x3e29aaac	0.16569012
135	0x3e8edade	0.27901357
136	0xbe2fec99	-0.17180099
137	0xbe9902d0	-0.29884958
138	0x3dece47f	0.1156702
139	0x3e93c839	0.28863695
140	0x3df6600c	0.12030038
141	0x3da52cf8	0.08065218
142	0x3df6f05c	0.12057564
143	0xbc167c17	-0.009184859
144	0xbde9a66a	-0.11408694
145	0xbd769c86	-0.060207866
146	0x3db119d4	0.086475044
147	0xba57d11e	-0.000823276
148	0xbd8147a7	-0.06312495
149	0xbdc75098	-0.09732169
150	0xbdf3695f	-0.11885332
151	0xbddb85fc	-0.10718915
152	0x3e5f0524	0.21779305
153	0xbb3ef811	-0.0029139558
154	0x3d2dd12f	0.04243582
155	0xbdf60d39	-0.12014241
156	0x3da23e4e	0.0792204
157	0xbdcb871c	-0.099378794
158	0xbcdbf2b6	-0.026849132
159	0xbd52ec80	-0.051495075
160	0xbeb95149	-0.36194828
161	0xbeccea2d	-0.40022412
162	0xbd2f3e5b	-0.042784076
163	0xbd478773	-0.04871316
164	0xbe2f6f35	-0.17132266
165	0xbf14ac9a	-0.5807587
166	0x3ce29141	0.027657153
167	0x3dd98e08	0.106227934
168	0xbe4d2d12	-0.20036724
169	0xbe168073	-0.14697437
170	0x3ddc8d82	0.10769178
171	0x3d41b8e4	0.047295466
172	0x3e10839c	0.14112705
173	0x3d7c98b8	0.06166908
174	0xbe06c582	-0.13161281
175	0x3e18186f	0.1485307
176	0xbc701bff	-0.014655112
177	0xbdd36df7	-0.103237085
178	0x3e56b5c7	0.2096778
179	0x3d4a9b88	0.049464732
180	0xbcd6d131	-0.026222797
181	0xbcd9d2f6	-0.026589852
182	0x3dfba44a	0.12287195
183	0x3d53b823	0.05168928
184	0x3e32af3a	0.17449656
185	0x3e1e7c64	0.15477139
186	0xbcfa2fb0	-0.030540317
187	0xbcdacc74	-0.026708819
188	0xbdd6572a	-0.10465844
189	0x3d8cee7f	0.06881427
190	0x3a07ac5b	0.0005175524
191	0xbe3f432c	-0.18677968
192	0xbe982631	-0.29716638
193	0xbeb2134d	-0.3478035
194	0xbe32bdef	-0.17455266
195	0x3e48bfeb	0.19604461
196	0x3e825dce	0.25462192
197	0x3f0ff810	0.5623789
198	0xbe25fb39	-0.16209115
199	0xbd08638d	-0.033298064
200	0xbe08582b	-0.13314883
201	0xbe6bc5e9	-0.23024715
202	0xbdc49caa	-0.09600194
203	0xbdb28f2c	-0.08718714
204	0xbd970724	-0.07374409
205	0x3db60cd1	0.08889163
206	0xbd3afdb2	-0.0456521
207	0x3ddb6364	0.10712317
208	0x3d3c1b05	0.045924205
209	0x3c83bd64	0.01608152
210	0xba77d42e	-0.00094539195
211	0xbccdaa38	-0.02510558
212	0x3c828887	0.015934242
213	0xbced90fe	-0.028999802
214	0x3d07c3a1	0.03314555
215	0xbdb69ff9	-0.08917231
216	0xbe1184b7	-0.14210783
217	0xbe164aae	-0.14676926
218	0x3dd2069d	0.10255168
219	0xbdd3148b	-0.10306653
220	0xbc156984	-0.009119395
221	0x3e00a60e	0.12563345
222	0xbe8745a6	-0.26420325
223	0xbdca0d66	-0.09865837
224	0xbe40a797	-0.1881393
225	0x3e081fc8	0.13293374
226	0xbdf83d9d	-0.12121127
227	0xbf0ad539	-0.542316
228	0x3dc46e34	0.09591332
229	0x3d97f9b9	0.07420678
230	0xbd240663	-0.040045153
231	0x3d292b7a	0.041301228
232	0x3e0f04d4	0.13966686
233	0x3dd5f043	0.10446217
234	0x3e2284b8	0.1587094
235	0x3c170b8c	0.009219062
236	0xbc8b1bdf	-0.016981063
237	0xbdaa5282	-0.08316518
238	0xbd5c787d	-0.053825844
239	0xbd91dc19	-0.071220584
240	0x3ddd104e	0.107941255
241	0x3e7165e9	0.23574032
242	0xbdc0980a	-0.09403999
243	0x39552f82	0.00020330961
244	0x3d3b948f	0.045795973
245	0x3d27a1cc	0.040925786
246	0x3e7239ba	0.23654833
247	0xbe1e25b2	-0.15444067
248	0x3ae56cfc	0.0017503793
249	0xbcb0e205	-0.02159215
250	0xbd88fc54	-0.06688753
251	0x3c89823e	0.016785737
252	0xbe246d84	-0.16057402
253	0xbe8c5bc3	-0.2741376
254	0x3e685df5	0.22692092
255	0xbd811d9e	-0.06304477

actor.0.bias f4 [64]
0	0xbcbe9312	-0.023263488
1	0x3d806770	0.06269729
2	0x3dfb88d3	0.122819565
3	0x3d5a80b2	0.05334539
4	0xbd25253c	-0.040318713
5	0xbdf53673	-0.11973276
6	0x3e1d5941	0.15366079
7	0x3d2db68f	0.04241043
8	0x3dabb4f0	0.083841205
9	0x3b23820b	0.0024949338
10	0xbb074339	-0.0020639433
11	0xbd3dbbd6	-0.046321712
12	0x3dea7e32	0.11449851
13	0x3e135189	0.14386572
14	0xbb56d615	-0.0032781411
15	0x3eb1deef	0.34740397
16	0x3c137658	0.009000383
17	0x3d37dcf1	0.04488844
18	0xbd959aff	-0.07304954
19	0x3dd1d5bb	0.10245844
20	0xbdb0d2f0	-0.08633983
21	0xbd655496	-0.05598887
22	0x3d864652	0.06556381
23	0xbdbb20bd	-0.09137104
24	0x3d9d08c0	0.076676846
25	0x3df40734	0.119154364
26	0x3db32ace	0.08748399
27	0x3e14a157	0.14514671
28	0x3d1807cd	0.037116814
29	0xbd22795a	-0.03966651
30	0xbc978162	-0.018494312
31	0x3def598f	0.11687004
32	0x3dbcb306	0.092138335
33	0x3d3c59b3	0.04598398
34	0x3dc25692	0.09489168
35	0xbd330ff8	-0.0437164
36	0x3dc124f9	0.0943088
37	0x3d2b3f65	0.041808505
38	0xbd8b2d30	-0.06795728
39	0xbd7eda5d	-0.062219966
40	0x3df89465	0.12137679
41	0x3d6669d3	0.056253266
42	0xbc0c13d3	-0.008549648
43	0xbcb3d6c7	-0.021953
44	0x3e5f3831	0.21798779
45	0x3e1ba0b0	0.15198016
46	0x3d2dcd5e	0.04243218
47	0x3d49e7d4	0.049293354
48	0x3dcd3f81	0.10021878
49	0x3d24a3cd	0.040195275
50	0x3ce92199	0.028458403
51	0xbcee6ef1	-0.029105635
52	0xbb6948df	-0.0035596413
53	0x3dc9eb0b	0.09859284
54	0x3e373501	0.17891313
55	0x3e007fd6	0.12548766
56	0x3d562fd2	0.0522917
57	0x3d2d0786	0.042243503
58	0xbe0856c1	-0.13314344
59	0x3e439c62	0.19102624
60	0x3d874700	0.06605339
61	0x3cf24a02	0.029576305
62	0xbcb30c33	-0.021856403
63	0x3c159c16	0.009131452

actor.2.weight f4 [64, 64]
0	0x3d855205	0.065097846
1	0xbe04963e	-0.12947938
2	0x3e3145f0	0.17311835
3	0xbe08bf57	-0.1335424
4	0x3eabd7e3	0.33563146
5	0x3ea0e931	0.3142791
6	0xbd7d64a1	-0.061863545
7	0xbe5aabf6	-0.2135466
8	0x3d96e7ae	0.07368408
9	0xbdeb4130	-0.11487043
10	0xbe7cd3ea	-0.24690214
11	0xbdbaa6b5	-0.09113828
12	0x3d81a57c	0.06330392
13	0xbd72651e	-0.059178464
14	0x3db41f6b	0.08795055
15	0xbe54b497	-0.20772015
16	0xbe614109	-0.21997465
17	0x3e4d9361	0.20075752
18	0x3e6c65aa	0.23085657
19	0xbd732f44	-0.059371248
20	0x3eb9878a	0.3623622
21	0xbdb4444e	-0.088020906
22	0x3e406c11	0.18791224
23	0xbe6175d8	-0.2201761
24	0xbe838580	-0.2568779
25	0x3d39fadc	0.045405254
26	0x3d1ebf80	0.038756847
27	0x3e0957b6	0.13412365
28	0x3dbe7917	0.0930044
29	0x3e80d776	0.25164384
30	0x3e3f8113	0.18701582
31	0x3e7754b7	0.2415341
32	0xbd9f7b23	-0.07787158
33	0x3e7b6dde	0.2455363
34	0xbe14a2a0	-0.14515162
35	0xbcedb60e	-0.029017475
36	0x3d910313	0.070806645
37	0xbdb7581d	-0.08952353
38	0xbe72924f	-0.23688625
39	0x3c882174	0.016617514
40	0x3cae74bc	0.021295898
41	0xbd80604b	-0.062683664
42	0x3e8157a0	0.25262165
43	0xbeaef255	-0.3416926
44	0xbe9f4e71	-0.31114534
45	0x3d483a87	0.04888394
46	0xbe27c5dc	-0.16384071
47	0x3e8ceecf	0.27525946
48	0x3e02763e	0.12740418
49	0x3dc5e3e8	0.0966261
50	0x3d899469	0.0671776
51	0x3eb30ceb	0.34970793
52	0x3e708cbd	0.23491187
53	0x3e1eacf5	0.15495665
54	0x3d785c60	0.06063497
55	0x3d43b2e7	0.047778036
56	0xbe665792	-0.22494343
57	0xbe1041dc	-0.14087623
58	0x3e4f400b	0.20239274
59	0xbe5d66ca	-0.21621242
60	0x3de3cc52	0.111229554
61	0xbd5a0471	-0.053226892
62	0x3e4ae1ab	0.19812648
63	0xbe353a9e	-0.17698142
64	0x3e5953ff	0.21223448
65	0xbde70847	-0.11280876
66	0xbdbb8258	-0.091557205
67	0x3dc6d904	0.09709361
68	0xbe4ba8c4	-0.19888598
69	0xbe0c0d49	-0.13676943
70	0x3e742ae0	0.2384448
71	0x3d1d72b4	0.038439468
72	0x3e5e7bd2	0.21726921
73	0x3e9c5b7b	0.30538544
74	0x3e2c48c7	0.16824637
75	0x3e18b7df	0.14913891
76	0x3d554cb3	0.0520751
77	0xbdd98529	-0.106211014
78	0x3ea0ed7e	0.31431192
79	0x3e87b543	0.2650548
80	0x3d834eb3	0.06411495
81	0x3e5f9e95	0.21837838
82	0xbdc22d8c	-0.094813436
83	0x3e3d36cf	0.18477939
84	0xbe8185c8	-0.2529738
85	0x3eb576fd	0.35442343
86	0xbe644d1a	-0.22295037
87	0xbdc7b263	-0.097508214
88	0x3ce6af8a	0.028159875
89	0x3e1320aa	0.14367929
90	0xbde37d8f	-0.11107933
91	0x3eeb1ce4	0.4592048
92	0xbdb15272	-0.08658303
93	0x3d5d2b25	0.053996224
94	0xbe5023f4	-0.20326215
95	0xbdee31de	-0.11630605
96	0x3d1f6fa8	0.038924843
97	0xbd21481f	-0.03937542
98	0x3d91185b	0.070847236
99	0xbe8c55ba	-0.27409154
100	0x3dbdda35	0.09270135
101	0xbe1863ed	-0.14881869
102	0xbda7171f	-0.08158707
103	0xbe2124e7	-0.15736733
104	0xbdb0f557	-0.08640545
105	0x3a8c3637	0.001069731
106	0x3d816f03	0.06320002
107	0xbe50acde	-0.20378444
108	0x3df6d5cf	0.120524995
109	0xbcc06741	-0.023486735
110	0x3e0b9a95	0.13633187
111	0xbe0f051d	-0.13966794
112	0x3d644c6e	0.05573695
113	0x3e0ca621	0.13735248
114	0xbe403349	-0.18769564
115	0x3d66af9d	0.05631982
116	0x3e5aef99	0.21380462
117	0x3dae6268	0.08514863
118	0x3eb6e234	0.35719454
119	0x3ee5c0bd	0.4487361
120	0xbd39ffa5	-0.045409817
121	0xbe2f5fee	-0.17126438
122	0xbd05c520	-0.032658696
123	0x3e4d55a9	0.20052208
124	0xbd58a815	-0.05289467
125	0xbd02596e	-0.031823568
126	0xbd8f887f	-0.070084564
127	0x3e5d8fe6	0.21636924
128	0xbe0a4c19	-0.13505591
129	0x3e20e42b	0.15712039
130	0x3d210ab8	0.039316863
131	0x3d296994	0.041360453
132	0x3ec70806	0.3887331
133	0x3e8884dc	0.26663864
134	0xbc96cc85	-0.01840807
135	0xbe80e9b6	-0.25178307
136	0x3dbdb3ca	0.09262808
137	0xbe5153bf	-0.20442103
138	0xbc38f7b3	-0.011289525
139	0xbe340faf	-0.17584108
140	0x3df7bd5d	0.12096665
141	0x3e2fa570	0.17152953
142	0x3e1caae2	0.15299562
143	0xbe9a5ce2	-0.3014899
144	0xbe1efe9c	-0.15526813
145	0x3e09e4a5	0.13466127
146	0x3eb68776	0.35650223
147	0xbd3f772c	-0.04674451
148	0x3e1597f2	0.14608744
149	0xbe424dd1	-0.18974997
150	0x3e2251a8	0.15851462
151	0x3d756420	0.05990994
152	0xbe0176c8	-0.12642968
153	0x3daef124	0.08542088
154	0x3e88e779	0.267391
155	0xbccbcbbb	-0.02487742
156	0x3e9ead12	0.30991417
157	0x3cca9a19	0.024731683
158	0x3e71f92a	0.23630205
159	0x3e98dfb8	0.29858184
160	0xbd9308ab	-0.07179388
161	0x3e3a7a6a	0.1821076
162	0xbe418a8e	-0.1890051
163	0x3bc362a3	0.005962686
164	0x3df265a4	0.11835793
165	0x3c7b6d3a	0.015345866
166	0x3ec272e3	0.37978277
167	0xbdcb841d	-0.09937308
168	0xbcaafb7c	-0.02087187
169	0x3c1014b9	0.008794003
170	0x3e06321c	0.13105053
171	0x3e207fcf	0.15673755
172	0xbe87c675	-0.26518598
173	0x3e0a4ee9	0.13506664
174	0xbeb3e46c	-0.3513521
175	0x3e5032de	0.20331904
176	0x3e12eb5e	0.14347598
177	0x3dec2685	0.115307845
178	0x3e5d2794	0.21597129
179	0x3e4e68ae	0.2015712
180	0x3d5f3a8e	0.0544992
181	0xbe588321	-0.21143772
182	0xbe69d4c1	-0.22835065
183	0xbd9aa847	-0.075516276
184	0x3dabf9e2	0.08397271
185	0x3e06bff4	0.13159162
186	0x3e9cf5ad	0.30656186
187	0xbe3d3220	-0.18476152
188	0x3c19d88d	0.009390009
189	0x3e64ea6d	0.22355051
190	0xbb3db07e	-0.002894431
191	0xbdd220f2	-0.1026019
192	0x3d664fbe	0.05622839
193	0x3e658895	0.22415383
194	0x3e84df7d	0.25951758
195	0x3ef5d65b	0.48015103
196	0xbdda728b	-0.106663786
197	0x3c66407b	0.014053459
198	0x3d3ca251	0.046053234
199	0x3eab0312	0.3340078
200	0xbcc0b38a	-0.02352311
201	0x3eb7ec05	0.35922256
202	0x3ca39ac4	0.019971259
203	0x3dc2f36b	0.095190845
204	0xbcffff0a	-0.031249542
205	0x3ea85116	0.32874364
206	0x3eac2965	0.33625332
207	0xbe114a4d	-0.141885
208	0x3e08a6e5	0.13344915
209	0x3e385f3f	0.18005084
210	0xbddf0c0a	-0.10890968
211	0x3e810091	0.25195745
212	0xbd1089c6	-0.03528764
213	0x3d68e0d4	0.056855038
214	0xb9ec7cd6	-0.00045106438
215	0x3e604a18	0.21903265
216	0x3eeb0e61	0.45909408
217	0x3e38fae8	0.18064463
218	0x3d901968	0.07036096
219	0xbe957f3f	-0.29198644
220	0xbdb26223	-0.08710124
221	0xbe4ce7cc	-0.20010298
222	0x3da0ebbc	0.07857463
223	0x3d652ade	0.055949084
224	0x3eb5b89c	0.35492408
225	0x3e40bafe	0.18821332
226	0x3ec45860	0.38348675
227	0x3e3a8c7f	0.18217658
228	0xbe1327c2	-0.14370635
229	0xbddfdf19	-0.109312244
230	0x3d443272	0.04789967
231	0x3e57cc74	0.21074086
232	0x3dd855c2	0.10563232
233	0x3e49265c	0.19643539
234	0xbe243740	-0.16036701
235	0x3e63d5f2	0.22249582
236	0x3da74db7	0.0816912
237	0xbe1c974b	-0.15292089
238	0xbd2b5a6f	-0.04183429
239	0xbdb56557	-0.0885722
240	0xbe065b23	-0.13120703
241	0x3d8a01df	0.06738638
242	0xbe8feb2d	-0.28109112
243	0xbc97d5aa	-0.0185345
244	0xbe92843a	-0.28616506
245	0xbe04423c	-0.12915891
246	0x3d1667ef	0.036720213
247	0xbe3b408a	-0.18286338
248	0xbe497d93	-0.19676809
249	0x3e923ddc	0.2856282
250	0xbe73e4d5	-0.23817761
251	0x3d6de2a3	0.058077466
252	0x3eba3b41	0.36373332
253	0x3e82643a	0.25467092
254	0x3dea4240	0.114384174
255	0x3d852e26	0.06502943

actor.2.bias f4 [64]
0	0xbd774d94	-0.06037672
1	0x3e0da1d5	0.13831265
2	0x3e153989	0.14572729
3	0xbd43570a	-0.04769043
4	0x3e09bac1	0.13450147
5	0x3d9110b3	0.07083263
6	0xbd809165	-0.06277732
7	0x3ce2d87d	0.02769112
8	0xbdcc1bbb	-0.09966227
9	0x37207203	9.563289e-06
10	0xbde83857	-0.11338871
11	0x3d270a4a	0.040781297
12	0xbd910650	-0.07081282
13	0xbdcd8c92	-0.10036577
14	0x3c125f40	0.008933842
15	0x3d5861e2	0.052827723
16	0xbdd6c9a9	-0.10487682
17	0x3e010250	0.12598538
18	0x3c9c8fb9	0.019111501
19	0x3d2a0bdc	0.041515216
20	0xbde29c18	-0.11064929
21	0x3d34f9b1	0.044183437
22	0xbbc039c5	-0.0058662617
23	0xbcb6c045	-0.022308478
24	0x3e66a242	0.22522834
25	0x3cf6221a	0.030045558
26	0x3d97710f	0.07394611
27	0xbd72a73d	-0.059241522
28	0xbe07520e	-0.13214895
29	0xbd580824	-0.05274214
30	0xbd83cb9f	-0.06435322
31	0xbcac772f	-0.021052925
32	0xbdab20de	-0.08355878
33	0xbd0256aa	-0.03182093
34	0xbc9f236b	-0.019426068
35	0x3dd3ca73	0.103413485
36	0x3caa4c80	0.020788431
37	0x3dde5149	0.10855348
38	0x3dbad4d8	0.09122628
39	0xbd521250	-0.051286995
40	0x3e02b856	0.12765631
41	0xbde53997	-0.11192625
42	0x3dbaa93f	0.091143124
43	0xbdc37a84	-0.095448524
44	0x3d1b023e	0.037843935
45	0xbd626e8a	-0.0552812
46	0xbbbc357c	-0.0057436805
47	0xbd63802c	-0.055542156
48	0xbd770858	-0.06031069
49	0x3d8d2224	0.068912774
50	0x3e187916	0.1488994
51	0xbe0b34cd	-0.1359436
52	0xbcef3b43	-0.029203063
53	0xbde80aec	-0.11330208
54	0x3c387418	0.011258148
55	0x3dbd48d5	0.09242407
56	0xbd3d8ce6	-0.04627695
57	0x3d859d1e	0.06524108
58	0x3e383fc6	0.17993078
59	0xbb0c842b	-0.0021441083
60	0xbd643200	-0.055711746
61	0x3d599c9d	0.053127874
62	0x3d2bcce6	0.041943453
63	0x3dc1ebd4	0.09468809

actor.4.weight f4 [36, 64]
0	0x3cc7ecf3	0.024404978
1	0xbf28b6be	-0.6590384
2	0x3eb700df	0.35742852
3	0xbf4d25e8	-0.80135965
4	0x3e806b82	0.25082022
5	0xbca63201	-0.020287516
6	0x3eca377d	0.3949546
7	0x3f0037af	0.50084966
8	0xbd9b7af8	-0.07591814
9	0xbe0b2eff	-0.13592146
10	0xbc880419	-0.016603516
11	0x3ebc5260	0.36781597
12	0xbd593cc1	-0.053036455
13	0xbea9ee59	-0.33189657
14	0xbbec464f	-0.00721053
15	0x3e90e70a	0.2830127
16	0x3dbb2ce7	0.09139424
17	0xbeedfd67	-0.46482393
18	0xbdd824aa	-0.10553868
19	0x3f085ed8	0.5326972
20	0x3d83f5a7	0.06443339
21	0xbf434243	-0.7627298
22	0xbb4c8a4d	-0.0031210363
23	0xbec692fd	-0.38784018
24	0x3df18114	0.11792198
25	0x3d7fa58c	0.062413737
26	0x3cb96982	0.022633318
27	0x3f0304d4	0.5117924
28	0xbefbc3d5	-0.49172845
29	0xbe643315	-0.22285111
30	0x3e1af035	0.15130694
31	0xbd402925	-0.04691424
32	0xbf4b6486	-0.7945026
33	0xbc794aa2	-0.015215548
34	0x3cf04097	0.029327674
35	0xbe2cdeec	-0.16881913
36	0x3d1ca31d	0.038241494
37	0x3e0e7927	0.13913403
38	0x3ea11ea3	0.31468686
39	0x3db8f89f	0.09031796
40	0xbe7b4efc	-0.24541849
41	0x3e89c5d4	0.26908743
42	0xbf268bd1	-0.6505709
43	0xbd81ce4a	-0.06338175
44	0xbd33b620	-0.04387486
45	0x3d3a12e9	0.04542819
46	0xbf0a6287	-0.5405659
47	0x3b2c2370	0.002626624
48	0xbdb60cc0	-0.088891506
49	0x3e1219e1	0.14267685
50	0xbf60ee3e	-0.8786353
51	0xbd7b8872	-0.06140942
52	0x3e4e96bd	0.2017469
53	0xbdb9ed8f	-0.09078514
54	0x3e801d7a	0.2502249
55	0x3e6cab8f	0.2311232
56	0xbd933ac7	-0.07188945
57	0xbd9f6b66	-0.077841565
58	0xbe8567ba	-0.260557
59	0xbd8f1d6a	-0.06988032
60	0xbcd60537	-0.026125534
61	0x3b686e44	0.0035466114
62	0x3e08abc3	0.13346772
63	0x3e9125f1	0.2834926
64	0xbeae3fbd	-0.34033003
65	0xbf2ef48e	-0.6834191
66	0xbd97791b	-0.07396146
67	0x3eca057a	0.39457303
68	0xbe11cdd5	-0.14238675
69	0xbecbd90d	-0.39814034
70	0xbea5c14f	-0.32374045
71	0x3d591390	0.052997172
72	0xbd0ffce5	-0.03515329
73	0x3ebcc1fa	0.36866742
74	0x3e0e1778	0.1387614
75	0xbc35d687	-0.011098511
76	0x3e854968	0.26032567
77	0x3e6a2516	0.2286571
78	0x3d366efa	0.04453943
79	0xbf00f9ae	-0.5038098
80	0xbdcc3053	-0.099701546
81	0x3f064861	0.5245419
82	0xbf144bd0	-0.5792818
83	0xbe9b393c	-0.30317104
84	0x3d14a04c	0.036285684
85	0xbe16cf99	-0.1472763
86	0x3cf3b818	0.029750869
87	0x3e1ca926	0.152989
88	0xbf1b5de4	-0.6069014
89	0x3d9c7292	0.0763904
90	0xbcc5359b	-0.024073413
91	0x3eda7ab9	0.42671755
92	0x3ed12996	0.4085204
93	0xbe316f52	-0.17327622
94	0xbf031f15	-0.512193
95	0xbee662cd	-0.44997254
96	0xbe8a6c26	-0.27035636
97	0xbd83e36a	-0.0643986
98	0x3e149279	0.14509
99	0xbf3f0eed	-0.7463215
100	0x3e0b1c29	0.13584961
101	0x3e8d42c3	0.27589998
102	0x3ebcba5d	0.36860934
103	0xbde1c5f3	-0.11024084
104	0x3e0bb695	0.13643868
105	0x3df29189	0.11844165
106	0xbf2d2212	-0.6763011
107	0xbd202455	-0.03909715
108	0x3d48f965	0.049065966
109	0x3d46639a	0.04843483
110	0xbe83aecb	-0.25719294
111	0x3be4e3b1	0.0069851507
112	0x3ceb6029	0.028732376
113	0x3e988ef1	0.29796556
114	0xbe8e3bb1	-0.27779916
115	0xbcd717ea	-0.02625652
116	0x3e459a54	0.19297153
117	0x3ddac35f	0.10681795
118	0x3ef7191e	0.4826135
119	0xbe22543a	-0.15852442
120	0xbd4fbb66	-0.050715826
121	0xbc8b019e	-0.016968545
122	0xbf324f7d	-0.6965254
123	0x3e045e94	0.12926704
124	0x3e88a911	0.26691487
125	0x3e2e8065	0.17041166
126	0xbc7be6d0	-0.015374854
127	0xbe406c14	-0.18791229
128	0x3ec98a36	0.3936326
129	0xbeff2ac2	-0.4983731
130	0x3ee4ea6e	0.44710106
131	0xbd99ad0d	-0.0750371
132	0xbf05da5c	-0.52286315
133	0x3ebc3c28	0.36764646
134	0x3e1579cf	0.14597248
135	0xbe5dbfbd	-0.21655174
136	0x3da188f9	0.078874536
137	0xbd74f80d	-0.059806872
138	0x3df5db2a	0.12004693
139	0x3ebfda37	0.37471172
140	0x3ed0d182	0.40784842
141	0xbe0d5fa4	-0.13806015
142	0x3dca1a4f	0.09868299
143	0xbe2aacef	-0.16667531
144	0x3cd4e054	0.025985874
145	0x3dc7d4bc	0.09757373
146	0x3eed9fc7	0.46410963
147	0x3e78798c	0.24265116
148	0x3de3ce98	0.11123389
149	0xbeca4213	-0.39503536
150	0x3dfefc5d	0.12450478
151	0xbebe18ea	-0.37128383
152	0x3d00bb97	0.0314289
153	0x3dc0dba9	0.09416897
154	0x3d4a31e1	0.049363974
155	0x3da6567d	0.08121965
156	0x3e588e5c	0.21148056
157	0xbe0cb5f2	-0.13741282
158	0x3e3e335d	0.18574281
159	0xbea58e91	-0.32335332
160	0xbe1b3c47	-0.15159713
161	0x3c15a28d	0.009132993
162	0x3dea916f	0.114535205
163	0xbe5c588a	-0.2151815
164	0x3e01fe70	0.12694716
165	0x3dfa2efb	0.12215992
166	0x3e8dc128	0.2768643
167	0x3dc22606	0.09479909
168	0x3e970c5d	0.2950162
169	0xbdc74bbe	-0.097312436
170	0xbee87581	-0.45402148
171	0x3c9afef6	0.018920403
172	0xbe2ccd42	-0.16875175
173	0x3c2e9817	0.010656378
174	0x3ec3abbb	0.38216957
175	0x3ce2f999	0.027706908
176	0x3d96db8a	0.073660925
177	0x3eba7d17	0.3642356
178	0xbefd1959	-0.494334
179	0x3d0e74b5	0.03477927
180	0x3e3d5d05	0.18492515
181	0xbcc8f3a4	-0.02453024
182	0xbe49e588	-0.19716465
183	0x3f005dd1	0.5014315
184	0xbdb38b0e	-0.08766757
185	0xbdf494bb	-0.119424306
186	0xbf453d8d	-0.77047044
187	0xbcead415	-0.028665582
188	0xbdd4755d	-0.10373948
189	0x3ea63fea	0.32470638
190	0x3e3ec396	0.18629298
191	0xbe8c68d2	-0.27423722
192	0x3e82e268	0.2556336
193	0xbe91a41e	-0.28445524
194	0x3cb884dc	0.02252429
195	0xbd9052c6	-0.07047038
196	0xbde97e65	-0.11401061
197	0x3dc0864f	0.09400617
198	0x3e115ece	0.14196321
199	0x3d921d74	0.07134524
200	0xbd3aa968	-0.045571715
201	0x3e39a021	0.1812749
202	0x3db0cd18	0.086328685
203	0xbd9426c8	-0.072339594
204	0x3eace3e7	0.33767626
205	0xbe97ae20	-0.29625034
206	0x3d6bf4e1	0.05760658
207	0x3e102b88	0.14079106
208	0xbd4b909b	-0.049698453
209	0xbc64b343	-0.013958755
210	0xbe24b5fd	-0.16085048
211	0xbd9aa450	-0.07550871
212	0xbd39d88c	-0.04537253
213	0xbf0540ee	-0.520522
214	0x3be2c939	0.0069209603
215	0x3ea8b1a3	0.32948026
216	0x3cd08873	0.025455689
217	0xbdae7920	-0.085191965
218	0xbc92d557	-0.017923994
219	0xbd9a0657	-0.075207405
220	0x3dfa895a	0.12233229
221	0x3e318730	0.17336726
222	0x3e7ea8c3	0.24869065
223	0xbf0a1ede	-0.5395335
224	0x3cd7aae9	0.026326614
225	0x3dd145e7	0.10218411
226	0xbd753214	-0.05986221
227	0xbeee24c3	-0.46512422
228	0xbd4e5f80	-0.050384045
229	0x3cbea977	0.023274167
230	0x3d9ac310	0.075567365
231	0xbd9e1268	-0.077183545
232	0xbe01993b	-0.12656109
233	0x3edd5c19	0.43234327
234	0xbe986905	-0.29767624
235	0xbd997006	-0.0749207
236	0xbd815ca5	-0.06316499
237	0x3d1991db	0.037492614
238	0x3dca256c	0.09870419
239	0xbda2cdde	-0.07949422
240	0xbd792f50	-0.060836136
241	0x3e5ee36c	0.21766442
242	0xbf0d97dd	-0.5530985
243	0xbde237e2	-0.11045815
244	0x3e98f44a	0.29873878
245	0x3d5bc2dd	0.053652633
246	0x3d770abf	0.060312983
247	0x3e57c3f2	0.21070841
248	0x3e135a64	0.1438995
249	0xbdbaeeeb	-0.09127601
250	0xbef7c0dc	-0.48389328
251	0xbb62f75e	-0.0034632306
252	0xbe881114	-0.2657553
253	0x3e9177ad	0.28411618
254	0xbe226278	-0.15857875
255	0xbe412245	-0.18860729

actor.4.bias f4 [36]
0	0xbe08ad3d	-0.13347335
1	0xbe235c91	-0.1595328
2	0xbdb1b912	-0.086778775
3	0xbe8c792a	-0.2743619
4	0x3e2bbcff	0.16771315
5	0x3bb3ef1c	0.0054911505
6	0x3e3677d0	0.17819142
7	0x3e21de36	0.15807423
8	0xbcbc33e4	-0.022973962
9	0xbd469c69	-0.048489008
10	0xbd01c6b7	-0.03168365
11	0x3c337ecf	0.0109555265
12	0x3dea7708	0.11448485
13	0x3de2c82a	0.110733345
14	0x3e2f0907	0.17093287
15	0xbd35d28a	-0.04439024
16	0xbe60478c	-0.21902293
17	0xbe927328	-0.28603482
18	0xbe8bbffb	-0.27294907
19	0xbe633602	-0.22188571
20	0xbec3d310	-0.38246965
21	0xbc4e6a86	-0.012598639
22	0x3da11c32	0.07866706
23	0xbe097f81	-0.13427545
24	0x3e5c1230	0.21491313
25	0x3e088546	0.1333209
26	0x3d169f78	0.036773175
27	0xbc05bee9	-0.008163192
28	0xbcbafbf9	-0.022825228
29	0x3de8a682	0.11359884
30	0x3d4ca39a	0.04996071
31	0x3d134c30	0.03596133
32	0x3dc5756b	0.09641536
33	0x3e3a5a80	0.18198586
34	0x3e2c2fb8	0.16815078
35	0x3e4007b4	0.18752939

critic.0.weight f4 [64, 62]
0	0x3d9c60c8	0.07635647
1	0x3dab196a	0.08354457
2	0xbdabd831	-0.083908446
3	0x3c1b5b6c	0.009482246
4	0xbdb2eb48	-0.087362826
5	0xbce8eef7	-0.02843426
6	0xba9af66f	-0.001182271
7	0x3cdb9d35	0.02680836
8	0xbdad908e	-0.08474837
9	0xbd58776a	-0.052848257
10	0xbe18e8c0	-0.14932537
11	0xbe100339	-0.1406373
12	0xbdba354d	-0.090921976
13	0xbc4f983a	-0.012670571
14	0xbde67214	-0.112522274
15	0xbdb6beae	-0.08923088
16	0xbc0910fe	-0.008365868
17	0xbddd20ab	-0.107972465
18	0xbdf7fe13	-0.12109008
19	0x3db676c8	0.089093745
20	0xbdbb4a0c	-0.09144983
21	0x3db6177c	0.08891198
22	0x3c1010d6	0.0087930765
23	0xbc983c3e	-0.018583413
24	0x3dc93eef	0.09826457
25	0xbdcb1727	-0.09916525
26	0x3d7934c0	0.060841322
27	0x3dad99b3	0.084765814
28	0x3c92eb98	0.017934605
29	0xbe02358d	-0.1271574
30	0x3c7389c5	0.01486439
31	0xbd8cf400	-0.06882477
32	0xbdc0fbf2	-0.09423055
33	0x3db1a39a	0.08673783
34	0xbcb73252	-0.022362862
35	0x3dafeb73	0.0858983
36	0xbd8c0d16	-0.068384334
37	0xbd66b474	-0.056324437
38	0xbba684a6	-0.005081731
39	0xbd0c628f	-0.03427368
40	0x3e0f54e8	0.13997233
41	0x3d83ca40	0.064350605
42	0x3e2d810d	0.1694376
43	0xbdbec635	-0.09315149
44	0x3a8db0e9	0.001081017
45	0x3d88a0dd	0.06671307
46	0xba7a0d7d	-0.0009538753
47	0xbdd91f0d	-0.106016256
48	0x3dd46658	0.10371083
49	0xbe208b5f	-0.15678166
50	0xbdbad5a4	-0.0912278
51	0xbde555bb	-0.111979924
52	0x3d00b712	0.03142459
53	0x3ca003d2	0.019533072
54	0xbdd1271e	-0.10212539
55	0xbd9742d6	-0.07385795
56	0x3d2d2de3	0.04228009
57	0x3d30368a	0.043020763
58	0xbe3d857f	-0.18507956
59	0xbcd2d29b	-0.02573519
60	0xbda1ee4e	-0.07906781
61	0xbd65a3f1	-0.05606455
62	0xbde719dd	-0.1128423
63	0x3d83bfcc	0.06433067
64	0xbc8d3928	-0.017239168
65	0xbd4d2513	-0.050084185
66	0xbe03d582	-0.12874416
67	0x3e228ea0	0.1587472
68	0x3e0df447	0.13862716
69	0x3d912d1c	0.07088682
70	0xbe90d280	-0.282856
71	0xbeb993bb	-0.36245522
72	0xbd17976e	-0.03700965
73	0x3e2d6d22	0.16936162
74	0xbde0f321	-0.10983873
75	0x3dbfc9de	0.09364675
76	0x3d2066df	0.039160606
77	0x3dcd81b4	0.100345045
78	0x3dd4f5a3	0.10398414
79	0x3ddf2efb	0.10897633
80	0x3d8b91bf	0.06814908
81	0xbbdf0445	-0.006805929
82	0xbd05605d	-0.032562602
83	0xbdf85976	-0.12126438
84	0x3d88dae2	0.066823736
85	0xbcebcd00	-0.028784275
86	0x3ca310a8	0.019905403
87	0xbceaf3ed	-0.028680766
88	0x3da7fc15	0.08202378
89	0x3b843abd	0.0040353225
90	0x3e35efef	0.17767309
91	0x3e358df9	0.1772994
92	0x3e767291	0.24067141
93	0x3ec46f27	0.38366053
94	0x3d70dd73	0.05880494
95	0xbd99545f	-0.07486796
96	0x3db6e9b5	0.08931295
97	0x3dc97be7	0.098380856
98	0xbe15fe9e	-0.1464791
99	0xbeb2d722	-0.34929758
100	0xbcdbeea8	-0.026847199
101	0x3df7df90	0.12103188
102	0x3cd66f68	0.02617617
103	0xbe5b1f5d	-0.21398683
104	0xbdfbf55c	-0.12302658
105	0xbe0ff7f2	-0.14059427
106	0xbedcb272	-0.43104893
107	0xbe91711f	-0.28406617
108	0x3b7937ae	0.0038027572
109	0x3d8945b7	0.0670275
110	0xbd07ef0d	-0.03318696
111	0xbcfc0a1f	-0.030766545
112	0x3c84b6c9	0.01620044
113	0xbd94fc42	-0.07274677
114	0xbd3f1bb0	-0.046657264
115	0xbdd586df	-0.10426115
116	0xbe65fa5c	-0.22458786
117	0xbdbe3a32	-0.092884436
118	0x3e8290ac	0.25501
119	0x3d48468e	0.04889541
120	0xbaa44c1d	-0.001253489
121	0x3df83c8c	0.121209234
122	0x3c84be59	0.016204046
123	0xbcbb29b1	-0.022847028
124	0xbdd74f1a	-0.10513134
125	0x3da32314	0.07965675
126	0x3dd7641f	0.105171435
127	0x3d472423	0.048618447
128	0xbd9a1ba7	-0.075248055
129	0xbe8d6413	-0.27615413
130	0xba72a52c	-0.000925618
131	0xbe57e677	-0.21084009
132	0x3d86f8bb	0.0659041
133	0xbe4bb720	-0.19894075
134	0xbbbd977f	-0.005785882
135	0xbdc078c3	-0.093980335
136	0xbe16ed5f	-0.14738987
137	0x3cd0f643	0.025508052
138	0xbd04b0cb	-0.032395165
139	0xbddb18b7	-0.10698073
140	0xbca31f01	-0.019912245
141	0xbd99a10a	-0.07501419
142	0x3df274de	0.11838697
143	0xbdd3839b	-0.10327836
144	0x3df2c62b	0.11854204
145	0xbcafec77	-0.02147506
146	0x3cbc58ce	0.022991564
147	0x3de27c04	0.1105881
148	0xbd70b2c3	-0.05876423
149	0xbd40bdad	-0.04705589
150	0x3d5737c4	0.052543417
151	0xbd03cac2	-0.032175787
152	0xbd588907	-0.052865054
153	0x3d0385f9	0.03211019
154	0xbd105fee	-0.035247736
155	0xbb2b1451	-0.0026104639
156	0xbd63e6a6	-0.055639885
157	0x3d537ec6	0.051634572
158	0x3c4969fd	0.012293336
159	0xbdc80e22	-0.097683206
160	0xbd966b9a	-0.07344742
161	0xbca0bd49	-0.019621508
162	0xbe236306	-0.15955743
163	0x3d779b05	0.060450573
164	0xbe5e0a77	-0.2168368
165	0xbe2b895d	-0.16751619
166	0x3d208841	0.03919244
167	0x3d0be68e	0.03415542
168	0x3dc89129	0.09793312
169	0xbd9dd74f	-0.077070825
170	0xbda540aa	-0.08068974
171	0xbd3b7501	-0.04576588
172	0xbdfd9ae5	-0.123830594
173	0x3d1b8690	0.037970126
174	0xbd5249b9	-0.05133984
175	0x3d37f40a	0.04491047
176	0x3d7767de	0.06040179
177	0x3d1bafed	0.038009573
178	0xbc93e55c	-0.018053703
179	0xbe0a1616	-0.13484988
180	0xbd425dbc	-0.047452673
181	0xbbe9a2b5	-0.007129992
182	0xbe0e32a4	-0.13886505
183	0x3daf9714	0.08573738
184	0x3d592fd5	0.05302413
185	0xbc121368	-0.00891576
186	0xbdeb8e5d	-0.11501763
187	0xbdef11c2	-0.11673309
188	0xbdd9ab8d	-0.10628424
189	0x3db5f55c	0.08884689
190	0xbc8bb139	-0.01705228
191	0xbe08c924	-0.13357979
192	0xbdda51d7	-0.10660141
193	0xbd3c1cbb	-0.045925837
194	0xbc258b03	-0.010103944
195	0xbe4d1bd9	-0.20030154
196	0xbe237a5a	-0.15964642
197	0xbd1c9e8b	-0.038237136
198	0xbdff1b50	-0.12456381
199	0xbdc952ac	-0.098302215
200	0x3d774a41	0.06037355
201	0x3cfeec32	0.031118486
202	0xbd1b5f91	-0.037932936
203	0xbda16d4b	-0.07882174
204	0xbdabc982	-0.08388044
205	0x3db82345	0.08991102
206	0x3caca5da	0.021075178
207	0x3d2ab859	0.041679714
208	0xbdbd03d5	-0.092292465
209	0x3cc0e2b2	0.023545597
210	0x3de7b48d	0.11313734
211	0x3d8e754d	0.06955967
212	0xbbb6094c	-0.0055553075
213	0xbd6f7937	-0.05846521
214	0x3e81b91a	0.25336534
215	0xbd6da98e	-0.058023028
216	0xbd3c5dbb	-0.045987826
217	0xbd47aa12	-0.048746176
218	0xbd13870b	-0.03601746
219	0xbba404a7	-0.0050054374
220	0xbcf4dd5b	-0.029890707
221	0xbd9a498e	-0.07533561
222	0xbe0d196c	-0.13779229
223	0xbd3c68b4	-0.04599829
224	0xbd0bae41	-0.03410173
225	0x3da9ccdc	0.08291027
226	0x3d57141c	0.052509412
227	0xbeda7577	-0.42667744
228	0xbda814f2	-0.0820712
229	0x3d332846	0.04373958
230	0xbd1c27dc	-0.03812395
231	0xbdaf6017	-0.085632496
232	0xbd449fee	-0.048004083
233	0x3c4e84ff	0.012604951
234	0xbd319d88	-0.043363124
235	0xbd5fcd3b	-0.054639082
236	0xbc89d285	-0.016824016
237	0xbde8b20b	-0.11362084
238	0x3db715bd	0.08939693
239	0xbda1794b	-0.07884463
240	0xbe26263d	-0.16225524
241	0xbc1a5cff	-0.009421586
242	0xbd43cd17	-0.04780301
243	0xbca04713	-0.01956514
244	0xbcc931a6	-0.024559807
245	0x3e077056	0.13226447
246	0xbdeedabb	-0.11662813
247	0xbd0850a1	-0.03328002
248	0x3d8bf83e	0.06834458
249	0x3db87901	0.09007455
250	0xbdea2ed0	-0.1143471
251	0xbda831c8	-0.0821262
252	0xbdf1d8d7	-0.11808937
253	0xbd5be20c	-0.053682372
254	0x3d26c4bc	0.040714964
255	0x3ddc40e7	0.10754567

critic.0.bias f4 [64]
0	0xbe2bc180	-0.16773033
1	0x3d76eb65	0.060283083
2	0xbe3f1e7b	-0.18663971
3	0x3d3ba59a	0.045812227
4	0xbdbfcee8	-0.09365636
5	0x3c9768d8	0.01848261
6	0xbdc18cf2	-0.09450711
7	0xbe62b3ae	-0.22138855
8	0xbe2b19db	-0.16709082
9	0xbdad4411	-0.08460248
10	0xbddafa47	-0.10692268
11	0x3b566e37	0.0032719502
12	0xbd812742	-0.06306316
13	0xbe24f3ae	-0.16108581
14	0xbda2cbc9	-0.07949025
15	0x3d421c5b	0.047390323
16	0xbdeae08a	-0.11468609
17	0xbda04a43	-0.07826664
18	0xbdc040bc	-0.09387347
19	0xbdbfc08b	-0.093628965
20	0xbd8007c8	-0.06251484
21	0xbb1cb85e	-0.0023913602
22	0xbd17d12d	-0.03706472
23	0xbc9487c2	-0.01813114
24	0x3c872d21	0.016501011
25	0xbd9a0db6	-0.075221464
26	0xbe3da82b	-0.18521182
27	0x3aceb5d3	0.001577074
28	0xbc757920	-0.014982492
29	0x3cb2b9b2	0.021817062
30	0xbd4c33e8	-0.04985419
31	0xbe0b753b	-0.13618939
32	0xbd1df0c0	-0.038559675
33	0xbd757768	-0.059928328
34	0xbdddf177	-0.108370714
35	0xbcf4b82b	-0.029872974
36	0xbd0856c6	-0.03328588
37	0xbd1b0731	-0.037848655
38	0xbc35cea6	-0.011096632
39	0x3ddcce94	0.10781589
40	0xbe0fe524	-0.14052254
41	0xbc7aab3d	-0.015299615
42	0xbcc1f7ec	-0.023677789
43	0xbcc08cb0	-0.023504585
44	0xbe4f2bb3	-0.20231514
45	0xbd49b842	-0.049247988
46	0x3d70a670	0.058752477
47	0x3cce2b88	0.025167242
48	0x3cf36dd8	0.029715464
49	0xbd15dc1a	-0.03658686
50	0x3d81932e	0.063269004
51	0xbdd4a123	-0.10382297
52	0x3b53f031	0.003233921
53	0xbe24cdc5	-0.1609412
54	0xbe344a9a	-0.17606583
55	0xbdefb634	-0.11704674
56	0xbd763ae0	-0.06011474
57	0xbd990516	-0.07471673
58	0xbe486fb6	-0.19573864
59	0x3c72e5d9	0.014825308
60	0x3e72e11b	0.23718683
61	0xbd71a151	-0.058991734
62	0xbe41c90c	-0.1892435
63	0xbda87b9a	-0.082267

critic.2.weight f4 [64, 64]
0	0xbd6d1407	-0.057880428
1	0x3e29bc21	0.16575672
2	0x3c9baa1d	0.019002015
3	0xbce67d46	-0.028135907
4	0xbd19d1f7	-0.037553754
5	0xbdad8f27	-0.0847457
6	0xbd940d44	-0.07229093
7	0x3e075597	0.13216244
8	0xbe246415	-0.16053803
9	0xbd778092	-0.06042535
10	0xbdd70d47	-0.10500579
11	0x3e87c8cc	0.26520383
12	0xbdc6d3cf	-0.09708368
13	0x3e0a1b36	0.13486943
14	0x3d184152	0.03717167
15	0x3b81f5d2	0.0039660716
16	0x3d50fea0	0.05102408
17	0x3dffb723	0.124861024
18	0xbe223266	-0.15839538
19	0x3e163782	0.14669612
20	0xbd877388	-0.06613833
21	0xbe899b3f	-0.26876256
22	0x3cdfa309	0.02729942
23	0x3d628d38	0.055310458
24	0xbdcb50e6	-0.099275395
25	0x3c487d46	0.012236899
26	0xbdf3d52a	-0.11905892
27	0xbca52bef	-0.02016255
28	0x3ce1cbc2	0.02756298
29	0x3ddce51f	0.10785889
30	0x3c84cab4	0.016209938
31	0xbda68bc7	-0.08132129
32	0x3e7aac81	0.24479868
33	0xbcdb6186	-0.026779901
34	0xbcb0bb52	-0.021573696
35	0x3d347894	0.044060305
36	0xbe56025f	-0.20899342
37	0x3d21dd2a	0.03951756
38	0xbc860a60	-0.016362369
39	0xbe8eab2d	-0.27864972
40	0xbd94e1b7	-0.07269614
41	0x3ddbaea1	0.10726667
42	0x3d67f68f	0.05663162
43	0xbea33ce3	-0.3188239
44	0xbcba36a9	-0.022731142
45	0xbe487e30	-0.19579387
46	0xbbf2efb7	-0.00741383
47	0xbdc1b757	-0.094587974
48	0x3e553ef8	0.20824802
49	0x3c942e42	0.018088464
50	0x3e215b40	0.15757465
51	0x3e1e7c97	0.15477215
52	0xbdcd46f6	-0.100233
53	0xbdadb630	-0.08482015
54	0xbdf4252e	-0.11921154
55	0x3dcfc102	0.10144235
56	0xbce0f45e	-0.027460273
57	0x3d21adfd	0.03947257
58	0xbdc4753b	-0.095926724
59	0xbd830792	-0.06397928
60	0xbe2a6847	-0.16641341
61	0xbddd62d0	-0.108098626
62	0x3e01d7e3	0.1268001
63	0xbdc7246a	-0.09723742
64	0x3c94cfc3	0.018165475
65	0xbce36aa9	-0.02776082
66	0xbd1852d9	-0.037188385
67	0xbd5a265f	-0.05325925
68	0xbdffaf40	-0.12484598
69	0xbd8197dc	-0.06327793
70	0xbd9fb14a	-0.07797487
71	0x3e04a250	0.12952542
72	0xbd8ee8d4	-0.06978002
73	0xbdef4576	-0.116831705
74	0xbde8d996	-0.11369626
75	0xbd95f67c	-0.07322404
76	0xbd3e6c94	-0.046490267
77	0xbdfaaa98	-0.122395694
78	0xbdb359f1	-0.08757389
79	0xbd210d2b	-0.0393192
80	0x3da69b27	0.08135062
81	0xbdb408bb	-0.08790728
82	0xbc0f8f34	-0.00876217
83	0x3da34c72	0.07973565
84	0x3dad7959	0.08470411
85	0x3c327a3b	0.0108934
86	0x3d546aa1	0.0518595
87	0xbcf760b4	-0.030197479
88	0xbd9f8fef	-0.07791125
89	0xbdf5bc49	-0.11998803
90	0xbe002b86	-0.12516603
91	0x3d8f1004	0.069854766
92	0xbc92c194	-0.01791457
93	0xbdfd8dd5	-0.12380568
94	0xbdbb37e7	-0.09141522
95	0xbd34d540	-0.044148684
96	0x3e0d61a3	0.13806777
97	0xbba6c085	-0.005088868
98	0xbb90fc5f	-0.004424616
99	0xbc895581	-0.016764404
100	0xbd0c6c89	-0.034283195
101	0x3c921b2f	0.017835228
102	0x3c4fc283	0.012680653
103	0xbd15ec61	-0.03660238
104	0x3dffcf50	0.124907136
105	0x3ce0a321	0.027421536
106	0xbba337ad	-0.0049810023
107	0x3ccf8cea	0.025335748
108	0x3d8ed323	0.06973865
109	0xbd19ebdb	-0.037578445
110	0xbd125b42	-0.03573156
111	0xbd919d0b	-0.07110032
112	0xbd94d12a	-0.072664574
113	0xbc10ee20	-0.008845836
114	0xbdab5969	-0.08366663
115	0x3da14749	0.07874925
116	0xbdd5e1db	-0.10443469
117	0xbda9d04e	-0.08291684
118	0xbc7f69f4	-0.015589226
119	0x3d6ebc79	0.05828521
120	0xbdad10b3	-0.08450451
121	0xbd556053	-0.052093815
122	0x3da83366	0.082129285
123	0xbdfa8c8d	-0.12233839
124	0x3df680c7	0.12036281
125	0x3c64a1b4	0.013954569
126	0x3c33bf02	0.010970833
127	0xbbb01230	-0.005373262
128	0x3d0def3c	0.03465198
129	0x3e03d6ee	0.12874958
130	0x3cf000c3	0.029297238
131	0x3de9c0e3	0.11413743
132	0xbe58cd95	-0.21172173
133	0x3cab57fc	0.020915978
134	0x3d3a8057	0.04553255
135	0xbcc3e584	-0.023913153
136	0x3d008912	0.03138072
137	0x3d037ce7	0.032101538
138	0x3cc98a7f	0.024602173
139	0xbe5a07fa	-0.21292105
140	0xbd58ad28	-0.05289951
141	0xbc093bfa	-0.008376116
142	0x3d05ac57	0.03263506
143	0x3c2ef738	0.010679059
144	0xbe3d397f	-0.18478964
145	0x3d2cf499	0.042225454
146	0xbcab9027	-0.02094276
147	0xbe09f101	-0.13470842
148	0xbc7abdfa	-0.015304083
149	0x3e3c008d	0.18359585
150	0x3e657fe9	0.22412075
151	0x3db69b52	0.08916344
152	0xbdcb8871	-0.099381335
153	0x3dcd18d0	0.10014498
154	0x3d31264d	0.043249417
155	0xbe29f9da	-0.16599217
156	0x3d81547d	0.06314943
157	0xbe32b056	-0.1745008
158	0x3dbeb867	0.09312516
159	0xbe15b712	-0.14620617
160	0x3d4a091c	0.049325094
161	0xbc9eb4f6	-0.019373398
162	0x3d761028	0.060074
163	0xbe8c2f1d	-0.27379695
164	0x3df055e2	0.11735131
165	0x3d9b40ab	0.07580694
166	0xbcb09c4c	-0.021558903
167	0xbd70fcc7	-0.058834817
168	0x3b93aee3	0.004506932
169	0x3e12ddc2	0.14342406
170	0xbd1afecb	-0.037840646
171	0xbda6f671	-0.08152474
172	0xbd208f8f	-0.03919941
173	0x3db0126e	0.08597265
174	0x3e70b7f0	0.23507667
175	0x3df1b645	0.11802343
176	0x3dc33b6d	0.09532819
177	0xbe1fd02e	-0.15606758
178	0xbbc84266	-0.006111431
179	0xbe2a7c3e	-0.16648957
180	0x3ce3bd28	0.027800158
181	0x3cd4b54f	0.02596536
182	0xbcf91e07	-0.030409826
183	0x3db5eef2	0.08883466
184	0xbda7854b	-0.081797205
185	0xbd7dce5b	-0.061964374
186	0xbda58188	-0.08081347
187	0xbd876b84	-0.06612304
188	0x3e880c96	0.26572102
189	0xbc183c13	-0.009291667
190	0x3d84c71c	0.064832896
191	0xbe22f92e	-0.15915367
192	0x3c2e0e43	0.010623517
193	0xbd932a44	-0.07185796
194	0xbe136020	-0.14392138
195	0xbc6aae0f	-0.014323725
196	0xbc2eeeae	-0.010677023
197	0xbde00062	-0.10937573
198	0x3d625235	0.05525418
199	0xbd140075	-0.03613325
200	0xbe0211d7	-0.12702118
201	0xbdb2bdd1	-0.08727611
202	0xbc320a85	-0.010866766
203	0xbd942add	-0.07234738
204	0x3d5cf753	0.053946804
205	0xbe5812f7	-0.21100985
206	0x3dcbf0bc	0.09958026
207	0x3dbdf21d	0.09274695
208	0x3d8a6787	0.067580275
209	0xbdc5b082	-0.09652807
210	0xbe3ba2fb	-0.18323891
211	0x3d1ac5d9	0.03778634
212	0x3b26d389	0.0025455675
213	0x3d1db8a4	0.038506165
214	0xbdc05322	-0.09390856
215	0x3caf57ca	0.021404166
216	0xbdfec393	-0.124396466
217	0xbdd0fe0b	-0.10204705
218	0xba952186	-0.0011377789
219	0xb9c907ee	-0.00038343616
220	0x3c06fdd9	0.008239233
221	0xbdd8c3b5	-0.10584203
222	0x3dc0ca82	0.09413625
223	0xbdef68bc	-0.11689898
224	0xbace6f66	-0.0015749752
225	0x3d9cfc24	0.076652795
226	0xbd8c3520	-0.0684607
227	0xbe23d3f8	-0.15998828
228	0xbca3c021	-0.019989075
229	0xbe0cecb0	-0.13762164
230	0xbdbaeb13	-0.09126868
231	0xbdf27178	-0.11838049
232	0xbd86e23c	-0.065861195
233	0x3e09667b	0.13418
234	0xbdce0d3e	-0.100611195
235	0x3d51b656	0.05119928
236	0xbe09d2cb	-0.13459317
237	0x3dbfd2fa	0.093664125
238	0xbdaac47e	-0.08338259
239	0x3b9b1cbd	0.0047336505
240	0xbd26744a	-0.040638246
241	0xbd127aaf	-0.03576153
242	0xbe017e49	-0.1264583
243	0xbd96b511	-0.073587544
244	0x3b2fd24a	0.0026828223
245	0x3d435c89	0.04769567
246	0xbd8b1d14	-0.067926556
247	0x3e050e2b	0.12993686
248	0xbd0a7808	-0.033805877
249	0x3deb5f05	0.11492733
250	0xbdec1cb2	-0.11528911
251	0xbd54eec6	-0.051985525
252	0xbdbf9fd5	-0.093566574
253	0xbd85c8fe	-0.06532477
254	0x3db8d4c4	0.09024957
255	0x3e0b84da	0.13624898

critic.2.bias f4 [64]
0	0x3d048c36	0.032360278
1	0xbdc09d1a	-0.09404965
2	0x3ab6104b	0.0013890354
3	0xbda275f5	-0.07932655
4	0xbe200c0b	-0.15629594
5	0xbdf02029	-0.11724884
6	0xbdc339c4	-0.09532502
7	0xbe2e3b16	-0.17014727
8	0xbdbf5c62	-0.093437925
9	0xbc46bd5f	-0.0121301105
10	0x3b26d73c	0.002545788
11	0x3ddc93b8	0.107703626
12	0xbce1fc02	-0.027585987
13	0xbbe9cc99	-0.0071349856
14	0x3ca3a28a	0.019974966
15	0xbc0cb317	-0.00858762
16	0xbdae3bec	-0.08507523
17	0xbda01577	-0.07816594
18	0xbbc79d2d	-0.006091735
19	0xbdac972a	-0.0842727
20	0xbce7127f	-0.028207062
21	0xbcd0a367	-0.025468541
22	0xbcc49448	-0.023996487
23	0xbe07c032	-0.1325691
24	0x3d8b5f56	0.06805293
25	0xbc3f8f1f	-0.011691838
26	0xbdc3a725	-0.09553365
27	0xbd4e4194	-0.05035551
28	0xbd8de806	-0.069290206
29	0xbd188520	-0.037236333
30	0x3ccb7e50	0.024840504
31	0xbcf74ee2	-0.030188981
32	0xbdcefba9	-0.10106594
33	0xbce1d476	-0.02756713
34	0xbbced16d	-0.0063115866
35	0xbd99d421	-0.075111635
36	0xbddde031	-0.10833777
37	0xbda3c4bd	-0.07996509
38	0x3bd16640	0.006390363
39	0x3d1fc4d4	0.03900607
40	0xbcf534fe	-0.029932495
41	0xbdb416e2	-0.08793427
42	0x3d92232f	0.07135617
43	0xbd373bf1	-0.0447349
44	0x3c0a5717	0.008443615
45	0x3d9c33da	0.076270774
46	0xbe0c2d4f	-0.13689159
47	0xbd8efd50	-0.06981909
48	0xbd87c95d	-0.06630204
49	0x3d3296a3	0.04360069
50	0x3db3df67	0.08782845
51	0xbe02e2d1	-0.12781836
52	0xbd81816f	-0.063235156
53	0xbdcff34d	-0.10153828
54	0xbd8ed318	-0.06973857
55	0xbd97c51d	-0.07410643
56	0xbcc77348	-0.024346963
57	0x3d07c486	0.033146404
58	0xbce85c38	-0.028364286
59	0xbca0d89f	-0.019634543
60	0xbdf5eefe	-0.12008475
61	0xbd477989	-0.04869989
62	0xbdc5aeca	-0.09652479
63	0xbdea5781	-0.11442471

critic.4.weight f4 [1, 64]
0	0xbdd2b740	-0.102888584
1	0xbc15f979	-0.009153717
2	0x3da571af	0.08078324
3	0xbcf14416	-0.029451411
4	0xbd921d25	-0.07134465
5	0x3c363441	0.011120857
6	0x3d9b4e02	0.07583238
7	0x3d9ae5fd	0.07563398
8	0x3dd14824	0.10218838
9	0xbe20ce90	-0.15703797
10	0x3d318f96	0.043349825
11	0x393d51c9	0.00018054912
12	0x3b5d2404	0.003374339
13	0x3d026ede	0.031844012
14	0xbe0dec9e	-0.13859794
15	0xbb6d30ac	-0.003619234
16	0xbbd5d086	-0.006525102
17	0x3d1391f8	0.03602788
18	0xb9f0d085	-0.00045931726
19	0x3c60bfdf	0.013717621
20	0x3b10475f	0.0022015197
21	0x3c14e016	0.009086629
22	0xbe1ace56	-0.15117773
23	0x3db9667e	0.09052752
24	0x3d6eff45	0.058348913
25	0xbe2d97de	-0.16952464
26	0x3b137309	0.0022498986
27	0xbe0c4b17	-0.1370052
28	0xbb36f7b1	-0.0027918632
29	0xbbbe93a2	-0.005815939
30	0xbdd4e4d9	-0.10395212
31	0xbd82631c	-0.0636656
32	0xbbcd1d7c	-0.0062596183
33	0x3dfd784c	0.123764604
34	0x3c05199f	0.008123784
35	0xbd03ef3d	-0.032210577
36	0x3a7d59ce	0.0009664566
37	0xbdd09301	-0.10184289
38	0xbe817e50	-0.2529168
39	0x3e35fa29	0.1777121
40	0x3cd19186	0.025582086
41	0x3d9fe1f2	0.078067675
42	0x3de14806	0.110000655
43	0x3b93c37c	0.0045093875
44	0xbe0d6e4d	-0.13811608
45	0x3d9185b6	0.071055815
46	0xbbc112ea	-0.0058921473
47	0x3cd31e28	0.025771216
48	0xbc636803	-0.013879779
49	0xbe0d78f0	-0.13815665
50	0xbe30fc73	-0.17283802
51	0xbb826577	-0.0039793807
52	0x3dcb1602	0.09916307
53	0xbaac360a	-0.0013138663
54	0xbb31ee87	-0.002715023
55	0x3c2b58b1	0.010458157
56	0xbb1a347a	-0.0023529814
57	0x3caa5ca8	0.020796135
58	0xbdc8e314	-0.09808937
59	0x3b024ad3	0.0019881024
60	0xbd12c740	-0.03583455
61	0x3b2ea967	0.0026651265
62	0xbdae7b1d	-0.08519576
63	0xbdbbb7ae	-0.091658935
