CybORG/CybORG/Models/bline_train/50000.pth (torch, 78565 bytes, 11 tensors)

actor.0.weight f4 [64, 62]
000000 ed 40 79 ba e7 86 8b 3d 2a 12 d6 bd 3c 6a bf bd
       -0.0009508271 0.0681284 -0.10452683 -0.093464345
000010 3a 02 b4 be ca f8 09 be 04 e5 f7 bd bb a4 ab 3d
       -0.3515795 -0.13473812 -0.12104228 0.08381029
000020 67 c8 4b be b9 c0 44 be b1 5f 48 be e0 ee c3 be
       -0.19900666 -0.19214143 -0.19567753 -0.38268185
000030 c2 7a 1a be 96 00 ad 3d cb 11 13 be f5 4c ad bc
       -0.15085891 0.084473774 -0.14362256 -0.02115486
000040 81 a6 4d 3d 4d 10 9c 3d 77 54 b0 bd 46 86 62 bd
       0.05020762 0.076202966 -0.086098604 -0.055303834
000050 5d f1 3c 3d 15 fb d7 3d 86 1c d6 bc 12 a2 c2 3d
       0.04612862 0.10545937 -0.026136648 0.09503569
000060 58 b1 a7 bc c0 2c 5c 3c cf 82 eb 3d 99 48 f1 bd
       -0.020470306 0.013438404 0.11499559 -0.11781425
000070 54 6e de be d7 47 89 3d 32 dd 11 3e 21 7a 11 3f
       -0.4344355 0.067031555 0.14244536 0.5682698
000080 cf 96 a8 bd 33 76 6f bd b9 b6 b5 bd 94 98 f3 bd
       -0.082318895 -0.058462333 -0.08872742 -0.11894336
000090 15 1e e0 3e 51 ce 28 3f fb 36 1d 3e 7f 74 ee 3c
       0.4377295 0.65939814 0.15353005 0.029108284
0000a0 6c 9e d3 bc 6d 1c b6 3e a7 1e f6 3d 8e 6a 35 bc
       -0.025832377 0.35568562 0.12017565 -0.011072768
0000b0 0e 35 99 bd 84 53 d2 bd 0c 5f b2 bc 5f 5e 75 3d
       -0.074808225 -0.102698356 -0.021773838 0.059904452
0000c0 5f 39 f6 3c 74 23 84 3d 0b a8 b0 3d 5c fd 19 3e
       0.030056654 0.06452075 0.08625802 0.15038055
0000d0 84 74 4e 3d d0 95 4a be 60 b6 0a 3c ab ae 47 bc
       0.050404087 -0.19783711 0.008466333 -0.01218764
0000e0 76 36 a2 3e 70 a7 c9 bd ad bc fe bd b1 14 e6 bd
       0.31682175 -0.09846389 -0.12438331 -0.11234415
0000f0 de 71 59 3e a2 9a 38 3e 94 11 9a bd 63 27 1d 3d
       0.21234843 0.18027738 -0.07522884 0.03836764
000100 1b c9 8e 3d 8d 50 83 bc 60 ae de bd ac 12 19 3e
       0.069719516 -0.01602962 -0.10873103 0.14948529
000110 8e bd 9b 3e b6 5c 3f 3e 60 aa 52 3d 44 d9 6a 3e
       0.30418056 0.1868771 0.051432014 0.22934443
000120 1f ad 86 3e 98 5e 22 3f aa 55 cc 3d a6 df 2f be
       0.26303956 0.6342559 0.099772766 -0.17175159
000130 c1 71 c2 3d a9 93 0f bd 4d 6a 3f 3c b5 b7 a2 bd
       0.09494353 -0.03505293 0.011683059 -0.079451956
000140 d5 65 f2 bd f4 17 e7 3d 48 c4 c5 3d 05 ba 01 be
       -0.11835829 0.112838656 0.09656578 -0.12668617
000150 23 bb c2 3c 66 43 af bc fb 34 ab bc 27 1f 6e bd
       0.023770874 -0.021394443 -0.020899286 -0.058135178
000160 12 0b 48 3d 51 0e 9a bd 57 f3 88 3d b6 51 47 3e
       0.048838682 -0.07522262 0.066870384 0.19464764
000170 2a f6 98 3e 9d e9 ea 3e 95 b6 00 be 40 b9 a8 bd
       0.29875308 0.45881358 -0.1256965 -0.08238459
000180 b6 de 81 3d 05 c1 d9 3c 4f 4f 39 be a9 52 3b be
       0.06341307 0.026581297 -0.1809666 -0.18293251
000190 81 82 a3 3e 97 af d5 3d 8b 1f 07 be ca 09 bb be
       0.31935504 0.10433882 -0.13195626 -0.36530906
0001a0 c2 6a ee bd 95 2a d5 bb b7 b7 3c 3d 76 6d 02 3e
       -0.11641456 -0.0065053203 0.04607364 0.12737069
0001b0 4f 9b 4c bd 00 58 49 3e 08 eb 2b bd 20 4d 02 3e
       -0.0499528 0.19662476 -0.04197219 0.12724733
0001c0 90 89 83 bd 4e a6 25 3e 72 3e b2 3d 94 d2 a1 be
       -0.06422722 0.16176721 0.08703317 -0.3160597
0001d0 bf 7e 60 bd 58 60 da 3d 37 a0 28 3e a8 c0 f6 3c
       -0.054808374 0.10662907 0.16467367 0.030121163
0001e0 b3 ff a3 3b d3 7d b6 bd 15 8d f1 3d af e6 fb 3d
       0.005004847 -0.08910718 0.117944874 0.12299859
0001f0 3e 7f f9 bd 29 29 9a bd 3f 38 02 bd 89 64 7d bd
       -0.12182473 -0.07527382 -0.03179192 -0.061863456
000200 79 07 8a bd 1e c5 65 be dd 35 5d be 93 14 9b be
       -0.067397065 -0.22438475 -0.21602578 -0.30289134
000210 86 eb 68 be 03 a1 34 3d 79 06 28 3e 8d 3d 68 3e
       -0.22746095 0.044098865 0.16408719 0.2267973
000220 a7 85 4e be 2f 21 87 be 04 5e 4b 3e ac 5c a5 3e
       -0.20168172 -0.26392505 0.19860083 0.32297266
000230 0c 60 f6 3d f8 2c a5 3d 5c f0 f6 3d 17 7c 16 bc
       0.12030038 0.08065218 0.12057564 -0.009184859
000240 6a a6 e9 bd 86 9c 76 bd d4 19 b1 3d 1e d1 57 ba
       -0.11408694 -0.060207866 0.086475044 -0.000823276
000250 a7 47 81 bd 98 50 c7 bd 5f 69 f3 bd fc 85 db bd
       -0.06312495 -0.09732169 -0.11885332 -0.10718915
000260 71 7f 67 3e 7f c6 07 3c 2f d1 2d 3d a6 b4 a7 bd
       0.22607209 0.008287071 0.04243582 -0.08188753
000270 4e 3e a2 3d 1c 87 cb bd b6 f2 db bc 80 ec 52 bd
       0.0792204 -0.099378794 -0.026849132 -0.051495075
000280 e1 73 b3 be 6c 43 ca be ce 27 1e bc 30 13 f3 bc
       -0.35049346 -0.39504564 -0.009653045 -0.029672235
000290 68 8a 31 be 3d 3f 1f bf ed d7 b3 3c fd fe 30 3e
       -0.17337954 -0.6220587 0.021953547 0.1728477
0002a0 09 58 6f be 74 64 7e be c4 18 8c 3d e5 41 23 3d
       -0.23373426 -0.24843007 0.06840661 0.039857764
0002b0 86 1d 30 3e 3e 3b c9 3d 37 74 e2 bd 08 35 0c 3e
       0.17198762 0.09825753 -0.110573225 0.13692105
0002c0 ff 1b 70 bc 93 f2 c8 bd 4f 4d 78 3e e8 b0 ec 3d
       -0.014655112 -0.09811892 0.24248241 0.1155718
0002d0 5c 62 8f bc f6 d2 d9 bc de b3 11 3e 30 18 85 3d
       -0.017502956 -0.026589852 0.1422877 0.06498754
0002e0 07 6f 20 3e 25 ff 03 3e b0 2f fa bc 74 cc da bc
       0.15667354 0.12890299 -0.030540317 -0.026708819
0002f0 2a 57 d6 bd 7f ee 8c 3d 4b 91 5d 3c 65 94 80 be
       -0.10465844 0.06881427 0.01352341 -0.25113216
000300 2d a7 8b be 04 84 d3 be 78 0e 52 be b0 33 a4 3e
       -0.27275982 -0.41311657 -0.20513332 0.32070684
000310 38 d4 8d 3e 97 0b 2b 3f 8a 29 58 be f9 c6 2d 3b
       0.27700973 0.6681456 -0.21109596 0.0026516302
000320 87 69 06 be 0a 92 4c be aa 9c c4 bd 2c 8f b2 bd
       -0.13126193 -0.19977584 -0.09600194 -0.08718714
000330 24 07 97 bd d1 0c b6 3d b2 fd 3a bd 64 63 db 3d
       -0.07374409 0.08889163 -0.0456521 0.10712317
000340 05 1b 3c 3d 64 bd 83 3c 2e d4 77 ba 38 aa cd bc
       0.045924205 0.01608152 -0.00094539195 -0.02510558
000350 87 88 82 3c fe 90 ed bc 6f f2 94 3d 50 13 7b bd
       0.015934242 -0.028999802 0.07272803 -0.061297715
000360 b7 84 11 be 1d 15 21 be 9d 06 d2 3d 8b 14 d3 bd
       -0.14210783 -0.1573071 0.10255168 -0.10306653
000370 84 69 15 bc 0e a6 00 3e c6 ad 82 be d7 8b 0c be
       -0.009119395 0.12563345 -0.25523204 -0.1372522
000380 0c ad 9f bc f1 0e b3 3d db 10 fb bd 71 ec 0a bf
       -0.019491695 0.08743084 -0.12259074 -0.5426703
000390 51 da dc 3d 5a 17 d8 3d 18 82 f7 bb 1b 1e 80 3d
       0.10783828 0.10551329 -0.00755335 0.06255742
0003a0 57 6c fc 3d 4d 97 f8 3c ff 9b 55 3e 33 3a 8e 3d
       0.12325352 0.030345583 0.20860289 0.06944694
0003b0 f1 74 6e 3d 2d 45 7b bd 7d 78 5c bd 41 d9 a1 bd
       0.058216993 -0.061345268 -0.053825844 -0.07902766
0003c0 db b0 9f 3d 69 0b 7e 3e d6 d4 03 be 82 2f 55 39
       0.077974044 0.2480904 -0.12874159 0.00020330961
0003d0 a3 d6 fe 3b 22 41 2b 3d 5b 25 62 3e 4a 42 03 be
       0.0077770515 0.041810162 0.22084562 -0.12818256
0003e0 fc 6c e5 3a 05 e2 b0 bc 54 fc 88 bd 3e 82 89 3c
       0.0017503793 -0.02159215 -0.06688753 0.016785737
0003f0 e0 4a 0a be f4 34 45 be 20 15 65 3e 7e d4 20 be
       -0.13505125 -0.19258481 0.2237134 -0.1570606

actor.0.bias f4 [64]
000000 43 14 9a bd 04 48 02 3e 3e 59 fa 3d 77 70 59 3c
       -0.07523396 0.12722784 0.12224053 0.013271443
000010 b2 3b 93 bd 59 45 01 be 3b 61 0f 3e 81 a3 d0 3c
       -0.0718912 -0.1262411 0.14001934 0.02546859
000020 01 19 fe 3d c2 24 da bc b9 ea 2f bd 90 ef e4 bc
       0.12407113 -0.026628856 -0.04294846 -0.027946264
000030 0e 2f 50 3d 43 1a 22 3e b2 7d ae 3d e4 10 bd 3e
       0.050826125 0.1583033 0.08520068 0.3692695
000040 64 b3 72 3c cd d2 f7 3d c3 5d 04 be 77 59 94 3d
       0.014813278 0.12100754 -0.12926392 0.072436266
000050 f3 ad 01 be 20 13 f4 bc 7b f9 c3 3d 50 e9 f6 bd
       -0.12664013 -0.029794276 0.09569069 -0.120562196
000060 cd b8 2f 3d e3 91 09 3e 0a 26 ab 3d e7 fb eb 3d
       0.04290085 0.13434558 0.08356865 0.11522656
000070 85 a4 80 3d 24 a4 7c bc f5 15 b1 bd c8 b0 22 3e
       0.062813796 -0.015419994 -0.08646766 0.15887749
000080 38 d4 01 3d f2 99 8e bc 74 e0 94 3d 02 b0 eb bc
       0.03169653 -0.017407391 0.072693735 -0.02877045
000090 52 5b 14 3e 19 5d 26 3d 4c 3f 9d bd a0 fe 96 bd
       0.14487961 0.04061613 -0.076780885 -0.073727846
0000a0 5a 79 9c 3d d0 29 a6 3d 7d 19 0a bd f4 45 ca bc
       0.076403335 0.08113444 -0.033715714 -0.02469156
0000b0 c4 df 5c 3e ed f7 18 3e 8a bc ae bb 24 1b bf 3d
       0.21569735 0.14938326 -0.005332534 0.093313485
0000c0 a2 5f 26 3d bd 5f f5 3c 6e 8b 5d 3d 32 6f 8c bd
       0.040618546 0.029952878 0.05408805 -0.06857146
0000d0 92 77 05 3b e5 bf b0 3d 52 30 6c 3e 8c 5c 21 3e
       0.002036546 0.08630351 0.23065308 0.1575796
0000e0 5c 57 53 3d ec 1c f3 3d 48 da e4 bd 6a c2 41 3e
       0.051596984 0.11870751 -0.11174446 0.1892182
0000f0 cd ff 91 3d de 36 4e 3d 54 e9 de bc 23 16 45 bd
       0.07128868 0.050345294 -0.027210869 -0.048116814

actor.2.weight f4 [64, 64]
000000 05 f2 3e 3d 7d 33 c2 bd ef cf 78 3e c4 cc a0 bd
       0.046617527 -0.09482477 0.2429807 -0.07851556
000010 f4 b5 c4 3e e7 78 bc 3e 2d e4 0f 3d 3a bb 57 be
       0.3842007 0.3681099 0.035129715 -0.21067515
000020 90 47 4a 3e 8b 21 0f be c4 50 79 be 19 6d 9b bd
       0.19753861 -0.1397764 -0.24347216 -0.07589168
000030 9e ed 27 3d a1 0e 14 3c 54 f7 0b 3e 24 ec 8a bd
       0.040998094 0.009036691 0.13668567 -0.067833215
000040 51 29 17 be 9e 0e 9a 3e cd a6 62 3e 7f 8b d1 bc
       -0.14761855 0.30089277 0.22133942 -0.025579212
000050 33 95 d8 3e 90 04 fc bd 1d ad 6e 3e cf a5 30 be
       0.4230133 -0.12305558 0.23308225 -0.17250751
000060 43 3b 6d be 02 f9 f7 3d e6 e1 f3 3c 19 bb 8f 3e
       -0.23167138 0.12108041 0.029770803 0.28072432
000070 0a 93 f1 3d b0 88 bd 3e 6a 12 58 3e 58 bf a3 3e
       0.117956236 0.37018347 0.21100774 0.3198192
000080 11 5c 45 3c 55 32 9c 3e e4 dd 95 bd a7 1d 30 3d
       0.012045876 0.3050715 -0.07317713 0.04299703
000090 ff 28 18 3e 03 fb eb 38 80 8b 93 be 9c fc 6f 3d
       0.14859389 0.00011252428 -0.28817368 0.058590516
0000a0 9e 78 38 3d 9c ae 6c 3d ad 22 b0 3e 7f 6e a7 be
       0.045036905 0.057783708 0.34401456 -0.3270149
0000b0 df 49 56 be e3 8c e1 3d 6a 55 98 bc 27 a3 81 3e
       -0.20926617 0.110132 -0.018595416 0.25319788
0000c0 d9 0b 32 3e 47 2c 01 3e cd 40 30 3d 83 12 c4 3e
       0.17387332 0.12614547 0.04303055 0.38295373
0000d0 b3 19 ad 3e f4 37 6e 3e 87 a4 45 3e eb ab 1b 3e
       0.3380867 0.23263532 0.19301043 0.152023
0000e0 1e c5 64 be 0b 4f 07 be b6 bc 19 3e 26 3d 58 be
       -0.22340819 -0.13213746 0.15013394 -0.21117076
0000f0 3e 1a f9 3d 3c b8 98 bb cd c8 7a 3e a4 de fb bd
       0.121632084 -0.0046606343 0.24490662 -0.12298325
000100 36 d7 49 3e 15 f2 03 be ff 34 f9 bd d6 d9 91 3d
       0.19711003 -0.12885316 -0.12168311 0.07121627
000110 53 e2 38 be 7b f2 57 be b8 8a 80 3e 25 11 ab 3c
       -0.18055086 -0.21088593 0.25105834 0.020882199
000120 51 9e 88 3e 2a 9d a1 3e 55 e0 3a 3e 62 9b 26 3e
       0.26683286 0.3156522 0.18249638 0.16270211
000130 5b ce b8 3b 02 39 0d be 3b b8 b1 3e 42 94 73 3e
       0.005639834 -0.13791278 0.3471087 0.23787025
000140 cc 6e 98 3c d3 59 80 3e 97 29 a8 bd 46 75 19 3e
       0.01860752 0.2506853 -0.08211058 0.14986143
000150 27 18 82 be 1f f9 b9 3e 39 ef 88 be 18 af d0 bd
       -0.25409052 0.36322877 -0.26745012 -0.101896465
000160 97 f4 f7 3b 22 7b a5 3d 73 9b eb bd 2a 89 dc 3e
       0.007566999 0.08080126 -0.11504259 0.43073398
000170 df 3c 89 bd 8b 97 c1 3d df 8d 45 be 2b 81 05 be
       -0.06701063 0.09452733 -0.19292401 -0.13037555
000180 f2 05 eb 3c 43 1d f3 bc 79 cf fb 3d 2d fd 9d be
       0.028689358 -0.029677039 0.12295432 -0.3085722
000190 43 c8 91 3d 11 6d 44 be 67 66 b5 bd bd d6 34 be
       0.07118275 -0.1918223 -0.08857422 -0.17660041
0001a0 67 b1 41 bd b0 9b 86 bb a2 53 80 3d 4b 3d 4c be
       -0.047288325 -0.004107915 0.06265952 -0.19945256
0001b0 23 d0 a7 3d cc 7f 8a bd a9 4c cf 3d 03 e0 e6 bd
       0.08193996 -0.067626566 0.10122044 -0.112731956
0001c0 24 36 4c 3d bb 4a 0e 3e c5 95 70 be 2b 96 91 3d
       0.04985632 0.13895695 -0.23494633 0.071087204
0001d0 0b d2 4c 3e 38 7f 22 3d 8d f1 b1 3e a5 49 d9 3e
       0.20002 0.039672107 0.347546 0.42439
0001e0 ca 9e a7 bd 56 01 47 be 91 49 75 3c 29 42 4c 3e
       -0.081845835 -0.19434103 0.014971153 0.19947113
0001f0 9a 54 7b bd 51 01 4d bd 1c 0e 25 be aa 45 47 3e
       -0.06135998 -0.050050084 -0.16118664 0.19460168
000200 6d 3a 22 be fd f6 d2 3d db 23 a5 bb d5 a1 9b bc
       -0.158426 0.103010155 -0.0050396747 -0.018998066
000210 78 c3 ca 3e 25 79 83 3e e1 61 b4 bd 6c 4f b4 be
       0.39602256 0.25678363 -0.088077314 -0.35216844
000220 39 93 78 3d cb 36 86 be 40 d8 26 bd d2 58 4a be
       0.060687277 -0.2621368 -0.040733576 -0.19760445
000230 0f ba bb 3d e4 f5 d4 3d c7 04 04 3e 8f 43 9f be
       0.09166347 0.103984624 0.12892447 -0.3110623
000240 e0 da 68 be 40 9c 18 3e 8d 69 b4 3e 41 6b cb bd
       -0.22739744 0.14903355 0.3523678 -0.099325664
000250 3e a5 20 3e a4 82 58 be ed 3b 26 3e a4 ce 99 3d
       0.15688035 -0.21143585 0.16233797 0.07510117
000260 58 3e 2a be 97 b0 e3 3c a7 46 8c 3e e4 17 28 bc
       -0.16625345 0.027794166 0.27397653 -0.010259602
000270 44 f1 a2 3e 68 b3 88 3d 47 2f 8c 3e c5 9d 9f 3e
       0.31824696 0.06674844 0.2737982 0.31175056
000280 d1 8e d3 bd b8 8f 29 3e 50 14 6c be 7c cf 83 3c
       -0.103299744 0.1655873 -0.23054624 0.016090147
000290 a1 b4 08 3e 4b 1b 5c 3b 41 78 b9 3e 89 cb fd bd
       0.13350154 0.0033585604 0.3622456 -0.12392337
0002a0 bc da 69 bd ea a8 9b bc c3 dd 39 3e a6 85 ee 3d
       -0.057093367 -0.019001443 0.18151002 0.11646585
0002b0 98 f5 a5 be 39 a2 35 3e ab c5 b0 be 93 16 55 3e
       -0.32413936 0.17737664 -0.3452581 0.20809393
0002c0 3f 05 28 3e c6 b8 0f 3e a5 9b 80 3e 99 53 35 3e
       0.16408251 0.14035329 0.25118747 0.17707671
0002d0 f2 50 9f 3d ad 18 3b be a2 d3 7b be 9f d9 9e bd
       0.07779111 -0.18271132 -0.2459245 -0.07756352
0002e0 ff d6 db 3d 2f 7e 05 3e cd e5 98 3e 2f 03 67 be
       0.107343666 0.13036416 0.29862824 -0.22559808
0002f0 76 63 0f bd ac e4 4d 3e 78 e7 08 bd be dc 9d bd
       -0.035006963 0.20106763 -0.03342387 -0.07708119
000300 6c e5 25 3d d7 a5 7b 3e 24 db 7a 3e 44 26 fd 3e
       0.040501997 0.24574982 0.24497658 0.49443257
000310 2d 47 c0 bc 6e 87 07 3d 64 21 18 3d d0 80 b8 3e
       -0.02347144 0.03308814 0.03714122 0.36035776
000320 57 af 6d 3d ec 05 a9 3e be 48 33 3d 36 1b 02 3e
       0.058028545 0.3301233 0.043770544 0.12705693
000330 eb 5e 0d 3a 55 60 ad 3e 73 d9 c8 3e bd 8e dc bd
       0.0005392867 0.33862558 0.392284 -0.10769413
000340 07 4a 23 3e df f2 6b 3e 45 b4 c3 bd a1 b2 90 3e
       0.15946208 0.23041867 -0.09555868 0.28261283
000350 8a 7e 63 bd 25 8d 6f 3d 0d 67 65 bc 5c 8a 53 3e
       -0.0555406 0.058484215 -0.01400162 0.20658249
000360 fd bf e6 3e 35 bc 87 3e f6 c0 a7 3d b9 40 83 be
       0.4506835 0.26510778 0.08191101 -0.25635317
000370 d9 94 7f bd 83 16 3f be a1 b8 b5 3d 1e a5 98 3d
       -0.06239781 -0.18660931 0.08873106 0.074533686
000380 57 e1 a5 3e c1 1f 4a 3e df 18 be 3e d8 0b 2e 3e
       0.32398483 0.19738676 0.3712835 0.16996706
000390 58 6d fd bd d2 3a 22 be 11 67 27 3d 5d ca 5d 3e
       -0.12374371 -0.1584275 0.040869776 0.21659227
0003a0 9e eb c9 3d 83 a2 62 3e bc c9 2e be 95 19 68 3e
       0.098593935 0.22132306 -0.17069143 0.22666009
0003b0 5b 26 0b 3e 69 12 cd bd 6f 0d 10 bc d2 4b 9c bc
       0.1358885 -0.10013277 -0.008792265 -0.019079123
0003c0 6e b0 cd bd 61 8a d5 3d 55 07 81 be b2 4c 51 3d
       -0.10043417 0.10426784 -0.25200906 0.051098533
0003d0 86 79 50 be 1e 3e c6 bd 54 01 99 3d 45 19 01 be
       -0.20358858 -0.09679817 0.074709564 -0.12607296
0003e0 5b c0 2e be c6 99 85 3e 60 d1 44 be cf b1 b8 3d
       -0.17065565 0.26093882 -0.19220495 0.09018289
0003f0 58 85 a1 3e 4d 12 73 3e ce 9e 18 3e 03 42 8d 3d
       0.31547046 0.2373745 0.14904329 0.06897356

actor.2.bias f4 [64]
000000 89 95 61 3c 7e 01 04 3e f7 c5 ea 3d f8 91 bf bc
       0.013768562 0.12891194 0.1146354 -0.023385033
000010 6c 86 8e 3d 52 41 f1 3d 2d b0 18 3a f4 23 f4 3c
       0.06959233 0.11780037 0.0005824592 0.0298023
000020 bb 1b cc bd a4 25 d6 bc 57 38 e8 bd 63 25 c7 3d
       -0.09966227 -0.026140995 -0.11338871 0.09723928
000030 1a da 70 bd df ef f9 bd 2b 8d 10 3c d0 5f ae 3d
       -0.058801748 -0.12203955 0.00882272 0.085143685
000040 a9 c9 d6 bd 95 38 7f 3d 1f 0c 1b 3d 3a 12 4c 3c
       -0.10487682 0.06230982 0.037853356 0.012455517
000050 18 9c e2 bd f1 2a 85 3c db 3a c0 bb d7 3c ad bc
       -0.11064929 0.016255828 -0.005866391 -0.021147175
000060 48 42 74 3e 40 f4 7d 3d 0f 71 97 3d bc 39 8d bd
       0.2385341 0.062000513 0.07394611 -0.068957776
000070 f8 04 39 be 69 c9 2d 3c 70 53 a4 bc 9c ac bc 3b
       -0.18068302 0.010607102 -0.020059317 0.0057578813
000080 98 cf 9d bd aa 56 02 bd 6b 23 9f bc d5 a5 13 3e
       -0.07705611 -0.03182093 -0.019426068 0.14418729
000090 80 4c aa 3c c5 5f 24 3d c3 02 14 3e 50 12 52 bd
       0.020788431 0.040130395 0.14454179 -0.051286995
0000a0 15 bd 98 3d ef 4f 18 be 52 f9 05 3e 84 7a c3 bd
       0.074579395 -0.14874242 0.1308339 -0.095448524
0000b0 1f fb 19 3d 8a 6e 62 bd e5 a8 10 be a2 70 73 bd
       0.037593003 -0.0552812 -0.14126928 -0.059433587
0000c0 58 08 77 bd d5 5e d7 3d 43 d5 46 3e cd 34 0b be
       -0.06031069 0.10516135 0.1941729 -0.1359436
0000d0 0b 22 c1 3b ec 0a e8 bd ed 3a f2 3d 9b 6e c1 3d
       0.005893951 -0.11330208 0.118276455 0.094449244
0000e0 8d e3 3c bd d5 cc 57 3d ff 29 3e 3e 38 84 0c bb
       -0.046115447 0.052685577 0.18570708 -0.0021441113
0000f0 dc f8 8d bd f5 8a 8a 3c e7 37 11 3e da b0 dc 3d
       -0.06932232 0.016911963 0.14181481 0.10775919

actor.4.weight f4 [36, 64]
000000 2f 47 8e 3d 81 8a 43 bf 59 6e c1 3e bd 03 6d bf
       0.06947171 -0.76383215 0.377795 -0.9258383
000010 d8 e0 8b 3e a0 cb 2b bd 09 b0 d7 3e 39 85 09 3f
       0.2731998 -0.04194224 0.42126492 0.53718907
000020 f8 7a 9b bd ad 69 d0 bd 19 04 88 bc 04 66 cc 3e
       -0.07591814 -0.10176406 -0.016603516 0.39921582
000030 a2 a0 61 bd b2 95 c0 be 89 46 ec bb d3 71 a4 3e
       -0.055084832 -0.37614208 -0.007210557 0.3211809
000040 e7 2c bb 3d 1e 52 09 bf 33 c6 fb bd 4d 54 1a 3f
       0.09139424 -0.53640926 -0.12293663 0.6028488
000050 a7 f5 83 3d cd 84 66 bf 3c 8a 4c bb db e0 c0 be
       0.06443339 -0.9004639 -0.0031210324 -0.3767155
000060 f1 bb 08 3e 3b 5a bb 3d 82 69 b9 3c b1 71 09 3f
       0.13352944 0.091480695 0.022633318 0.53689104
000070 e9 46 09 bf 07 a0 84 be e5 d1 4d 3e 01 71 52 bd
       -0.53623825 -0.2590334 0.200996 -0.0513773
000080 77 c6 69 bf a2 4a 79 bc 97 40 f0 3c b1 98 4a be
       -0.9131846 -0.015215548 0.029327674 -0.1978481
000090 1d a3 1c 3d 16 88 0b 3e 04 fc a6 3e 9f f8 b8 3d
       0.038241494 0.13626131 0.32614148 0.09031796
0000a0 7c 45 91 be 67 2b 8f 3e 25 45 38 bf 4a ce 81 bd
       -0.28373325 0.279628 -0.71980506 -0.06338175
0000b0 be b5 33 bd e9 12 3a 3d f3 7c 10 bf 4c 9a e4 bd
       -0.043874495 0.04542819 -0.5644066 -0.11162242
0000c0 c0 0c b6 bd 6e 1f f8 3d ae bb 81 bf 72 88 7b bd
       -0.088891506 0.1211537 -1.01354 -0.06140942
0000d0 d2 90 48 3e 8f ed b9 bd a8 a2 7d 3e e3 f2 8b 3e
       0.19586495 -0.09078514 0.2476908 0.27333745
0000e0 ce 3a 93 bd 39 6b 9f bd 91 04 94 be 6a 1d 8f bd
       -0.071889505 -0.07784123 -0.28909734 -0.06988032
0000f0 f2 f2 1b bd 2f c8 4a bc 96 08 52 3e 95 67 a0 3e
       -0.038073488 -0.012376829 0.20511088 0.31329027
000100 ef a3 92 be 56 c6 4e bf db f8 a5 bd 3b 10 cb 3e
       -0.28640696 -0.80771387 -0.08104106 0.3966082
000110 cb 22 39 be ac cf ce be f2 2b b0 be f2 d4 9d 3d
       -0.18079679 -0.40392816 -0.34408528 0.07706632
000120 e5 fc 0f bd e8 35 d8 3e 78 17 0e 3e ae 98 39 bc
       -0.03515329 0.42228627 0.1387614 -0.011327906
000130 a6 33 97 3e 6c 5a 87 3e fa 6e 36 3d 91 fe 07 bf
       0.29531592 0.26436174 0.04453943 -0.5312281
000140 53 30 cc bd 8e 1d 09 3f 06 be 31 bf c3 8d 9b be
       -0.099701546 0.5356072 -0.6943058 -0.30381593
000150 4c a0 14 3d 6b 26 4d be 18 b8 f3 3c 58 db 29 3e
       0.036285684 -0.20034187 0.029750869 0.16587579
000160 90 3c 25 bf ba 32 09 3e 9b 35 c5 bc a3 7e f7 3e
       -0.64545536 0.13398257 -0.024073413 0.48338804
000170 07 02 db 3e 09 42 4b be f5 23 04 bf 4d 1b 0e bf
       0.42774984 -0.19849409 -0.51617366 -0.5551041
000180 61 68 b5 be 6a e3 83 bd 79 92 14 3e 7e de 5b bf
       -0.35431197 -0.0643986 0.14509 -0.8588637
000190 29 1c 0b 3e 01 f0 92 3e c3 a2 cb 3e f3 c5 e1 bd
       0.13584961 0.28698733 0.39772615 -0.11024084
0001a0 0a 62 00 3e bf 90 11 3e 2a 1e 55 bf 55 24 20 bd
       0.12537399 0.14215373 -0.8324915 -0.03909715
0001b0 78 f9 48 3d 9a 63 46 3d 26 6a 85 be 98 41 09 3d
       0.049066037 0.04843483 -0.26057547 0.03350982
0001c0 29 60 eb 3c 4e e4 ab 3e ae b6 ac be ea 17 d7 bc
       0.028732376 0.3357262 -0.33733124 -0.02625652
0001d0 1d ff 50 3e 5f c3 da 3d 33 d5 01 3f b4 4a 2e be
       0.20409818 0.10681795 0.5071594 -0.17020684
0001e0 66 bb 4f bd 3c 01 8b bc 14 f4 54 bf 94 5e 04 3e
       -0.050715826 -0.016968362 -0.83184934 0.12926704
0001f0 94 a4 9c 3e 30 8b 4f 3e 3e dd 4f bd ce 44 38 be
       0.30594313 0.2026794 -0.050748102 -0.17994997
000200 45 33 d4 3e f5 20 1f bf 20 33 ff 3e 85 18 04 be
       0.41445366 -0.62159663 0.49843693 -0.12899978
000210 92 39 05 bf ad a4 c4 3e 62 8b 43 3e 21 d2 25 be
       -0.5204097 0.38406888 0.19096139 -0.16193439
000220 f9 88 a1 3d c2 17 0c be 2a db f5 3d 12 be c7 3e
       0.078874536 -0.13680938 0.12004693 0.390122
000230 a1 11 d8 3e 6d 79 1d be 4f 1a ca 3d 8a b0 1e be
       0.4220095 -0.15378352 0.09868299 -0.15497032
000240 54 e0 d4 3c 47 2b e1 3d a3 ef f3 3e 37 59 6d 3e
       0.025985874 0.109945826 0.47643766 0.23178564
000250 98 ce e3 3d ef 2b 0a bf 5d fc fe 3d 43 08 c0 be
       0.11123389 -0.5397329 0.12450478 -0.37506303
000260 5a c7 77 3c 3a fe a0 3d e1 31 4a 3d 14 da f1 3d
       0.015123213 0.0786099 0.049363974 0.11809173
000270 c5 fc 57 3e e3 46 4a be 55 9f 4b 3e b1 0d b3 be
       0.21092518 -0.19753604 0.19884999 -0.34971383
000280 0b d1 80 be 8d a2 15 3c 6f 91 ea 3d 77 d8 9c be
       -0.25159487 0.009132993 0.114535205 -0.306339
000290 70 fe 01 3e ff 8a 10 3e c6 23 98 3e 06 26 c2 3d
       0.12694716 0.14115523 0.29714793 0.09479909
0002a0 b1 6c 8b 3e dd 1a 94 bd f7 c2 1e bf f6 fe 9a 3c
       0.27231362 -0.07231686 -0.6201624 0.018920403
0002b0 39 cd 2c be 17 98 2e 3c b6 ec c0 3e 34 05 ef 3d
       -0.16875161 0.010656378 0.37680596 0.11670914
0002c0 8a db 96 3d 91 0d c8 3e ab 5e 28 bf b5 74 0e 3d
       0.073660925 0.3907285 -0.6576945 0.03477927
0002d0 3b 71 51 3e a4 f3 c8 bc 37 68 4f be 43 3c 08 3f
       0.2045335 -0.02453024 -0.20254599 0.5321695
0002e0 18 8b b3 bd 89 94 f4 bd 3c 3f 69 bf 15 d4 ea bc
       -0.087667644 -0.11942393 -0.91112113 -0.028665582
0002f0 44 f1 e7 bd 6a 95 ac 3e 25 5a 18 3e 56 d3 84 be
       -0.11325315 0.33707744 0.14878137 -0.25942487
000300 bf 48 89 3e 00 0d 99 be cd b0 20 3d cf 1b a4 bd
       0.26813313 -0.2989273 0.03923111 -0.080131166
000310 35 db 9c bd 57 f6 f0 3d b6 f2 3c 3e 21 8a 06 3e
       -0.07658998 0.117657356 0.18451962 0.1313863
000320 68 a9 3a bd e1 fe 80 3e 18 cd b0 3d 82 ca 1b bb
       -0.045571715 0.25194457 0.086328685 -0.0023771827
000330 78 19 b4 3e 5c ca 6b be e1 f4 6b 3d 1a 84 5a 3e
       0.3517568 -0.23026413 0.05760658 0.21339455
000340 9b 90 4b bd f4 4e f6 bc 90 45 5f be 98 7b 8d bd
       -0.049698453 -0.030066945 -0.2180388 -0.06908339
000350 8c d8 39 bd 43 e5 1b bf b3 c8 e2 3b 2c b3 c1 3e
       -0.04537253 -0.608967 0.006920898 0.3783201
000360 f0 5a 88 3d 6f 5d 68 bd 57 d5 92 bc 54 3b 79 bd
       0.0665797 -0.05672973 -0.017923994 -0.060847595
000370 61 79 fe 3d 5e 6c f7 3d dc a9 98 3e 48 69 0d bf
       0.12425495 0.12081216 0.29817092 -0.5523877
000380 28 ef cf bc e7 45 d1 3d 14 32 75 bd ab 03 fb be
       -0.025382593 0.10218411 -0.05986221 -0.49026236
000390 80 5f 4e bd 9a 06 a0 3d 0f 27 00 3e 68 12 9e bd
       -0.050384045 0.07813759 0.125149 -0.077183545
0003a0 5a 60 3f be be 72 f3 3e 8f b4 ae be 06 70 99 bd
       -0.18689099 0.4754848 -0.3412213 -0.0749207
0003b0 9a 5c 81 bd db 91 19 3d 5a 61 d6 3d ed 68 93 bd
       -0.063164905 0.037492614 0.10467787 -0.071977474
0003c0 50 2f 79 bd d9 bc 74 3e 05 ce 1f bf e2 37 e2 bd
       -0.060836136 0.23900165 -0.62423736 -0.11045815
0003d0 06 e4 ad 3e dd c2 5b 3d 8e 6d fb 3d 0e a3 61 3e
       0.3396303 0.053652633 0.12276755 0.22034857
0003e0 63 5a 13 3e b2 ee ba bd e8 1f 03 bf 5e f7 62 bb
       0.14389949 -0.09127559 -0.5122056 -0.0034632306
0003f0 c1 77 53 be 6f 7c a3 3e 69 33 a3 bd af b6 2e be
       -0.20651151 0.31930873 -0.0796879 -0.17061876

actor.4.bias f4 [36]
000000 54 f9 1f be 3d b9 73 be c9 f9 02 be d6 40 86 be
       -0.15622455 -0.23801132 -0.12790598 -0.2622134
000010 24 5a 1f 3e 71 60 ac bb 40 1e 04 3e 44 bd 49 3e
       0.1556173 -0.00526052 0.12902164 0.19701105
000020 45 ba a5 3b 6e 01 43 bc 08 74 57 3b f6 8a 90 3c
       0.0050576054 -0.011902196 0.0032875556 0.017644387
000030 e6 36 09 3e 0e 83 ff 3d ec 26 52 3e 2d e9 06 3d
       0.13399848 0.124761686 0.2052266 0.032937218
000040 ab 4b cf be d1 ca b0 be 90 62 b4 be 6c ac 6a be
       -0.40487418 -0.34529737 -0.35231447 -0.22917336
000050 23 45 04 bf 51 0c cd 3c 55 56 55 3d fc e9 55 be
       -0.51667994 0.025030287 0.052084286 -0.20890039
000060 9f ae 4b 3e 74 90 f3 3d 76 c0 c9 3d 7f b5 97 bc
       0.19890831 0.118927866 0.09851162 -0.018519161
000070 82 d4 d4 bc 08 b1 e2 3d f9 41 45 3d de 4e 1e bd
       -0.025980238 0.11068922 0.04815862 -0.038649432
000080 26 47 60 3d 17 3b 58 3e b3 0e 79 3e a9 79 29 3e
       0.054755352 0.21116291 0.24322014 0.16550316

critic.0.weight f4 [64, 62]
000000 c8 60 9c 3d 6a 19 ab 3d 31 d8 ab bd 6c 5b 1b 3c
       0.07635647 0.08354457 -0.083908446 0.009482246
000010 48 eb b2 bd f7 ee e8 bc 6f f6 9a ba 35 9d db 3c
       -0.087362826 -0.02843426 -0.001182271 0.02680836
000020 8e 90 ad bd 6a 77 58 bd c0 e8 18 be 39 03 10 be
       -0.08474837 -0.052848257 -0.14932537 -0.1406373
000030 4d 35 ba bd 3a 98 4f bc 14 72 e6 bd ae be b6 bd
       -0.090921976 -0.012670571 -0.112522274 -0.08923088
000040 fe 10 09 bc ab 20 dd bd 13 fe f7 bd c8 76 b6 3d
       -0.008365868 -0.107972465 -0.12109008 0.089093745
000050 0c 4a bb bd 7c 17 b6 3d d6 10 10 3c 3e 3c 98 bc
       -0.09144983 0.08891198 0.0087930765 -0.018583413
000060 ef 3e c9 3d 27 17 cb bd c0 34 79 3d b3 99 ad 3d
       0.09826457 -0.09916525 0.060841322 0.084765814
000070 98 eb 92 3c 8d 35 02 be c5 89 73 3c 00 f4 8c bd
       0.017934605 -0.1271574 0.01486439 -0.06882477
000080 f2 fb c0 bd 9a a3 b1 3d 52 32 b7 bc 73 eb af 3d
       -0.09423055 0.08673783 -0.022362862 0.0858983
000090 16 0d 8c bd 74 b4 66 bd a6 84 a6 bb 8f 62 0c bd
       -0.068384334 -0.056324437 -0.005081731 -0.03427368
0000a0 f3 22 f5 3d 40 ca 83 3d de be 15 3e 35 c6 be bd
       0.11969557 0.064350605 0.14623591 -0.09315149
0000b0 e9 b0 8d 3a dd a0 88 3d 7d 0d 7a ba 0d 1f d9 bd
       0.001081017 0.06671307 -0.0009538753 -0.106016256
0000c0 58 66 d4 3d 5f 8b 20 be a4 d5 ba bd bb 55 e5 bd
       0.10371083 -0.15678166 -0.0912278 -0.111979924
0000d0 12 b7 00 3d d2 03 a0 3c 3a d8 e5 bd d6 42 97 bd
       0.03142459 0.019533072 -0.112228826 -0.07385795
0000e0 e3 2d 2d 3d 8a 36 30 3d 7f 85 3d be 42 58 3c bd
       0.04228009 0.043020763 -0.18507956 -0.045982607
0000f0 4e ee a1 bd f1 a3 65 bd dd 19 e7 bd cc bf 83 3d
       -0.07906781 -0.05606455 -0.1128423 0.06433067
000100 28 39 8d bc 13 25 4d bd 23 6a 25 be da 4c 0e 3e
       -0.017239168 -0.050084185 -0.16153769 0.13896504
000110 69 94 fd 3d 7e bb 47 3d 27 d9 8e be d2 ea bc be
       0.123818226 0.04876279 -0.2790005 -0.36897904
000120 80 da 8e bc 7c c1 56 3e 4a c8 e6 bd 75 7c b5 3d
       -0.017438173 0.20972246 -0.11268671 0.08861629
000130 19 06 b0 3b 3f 3d e4 3d a3 f5 d4 3d fb 2e df 3d
       0.0053718206 0.11144494 0.10398414 0.10897633
000140 bf 91 8b 3d 45 04 df bb 5d 60 05 bd 76 59 f8 bd
       0.06814908 -0.006805929 -0.032562602 -0.12126438
000150 e2 da 88 3d 00 cd eb bc a8 10 a3 3c ed f3 ea bc
       0.066823736 -0.028784275 0.019905403 -0.028680766
000160 15 fc a7 3d bd 3a 84 3b 81 9d 45 3e 99 79 58 3e
       0.08202378 0.0040353225 0.19298364 0.21140136
000170 91 72 76 3e 1d 71 e5 3e 73 dd 70 3d 5f 54 99 bd
       0.24067141 0.4481286 0.05880494 -0.07486796
000180 b5 e9 b6 3d e7 7b c9 3d ca 6c 19 be 1a 50 da be
       0.08931295 0.098380856 -0.14982906 -0.42639238
000190 82 0a 89 3c 86 ba 04 3e 82 d2 0e 3d 15 a6 80 be
       0.016728643 0.12961778 0.034868725 -0.2512671
0001a0 3a 9a d9 bc 0e c6 23 be 72 b2 dc be 1f 71 91 be
       -0.026562799 -0.1599352 -0.43104893 -0.28406617
0001b0 07 de eb 3c ef d4 92 3d b7 2e 6f bd 11 63 72 bd
       0.028792394 0.0716952 -0.05839416 -0.05917651
0001c0 37 21 0b bd 58 3e ef bd b0 1b 3f bd 26 90 0c be
       -0.033967223 -0.11681813 -0.046657264 -0.13726863
0001d0 44 2e 56 be 81 ff 98 bd f3 0c 68 3e 8e 46 48 3d
       -0.20916086 -0.074706085 0.2266119 0.04889541
0001e0 72 c0 ee 3b 48 8f 14 3e 5a 78 4d 3c 5f f4 9b bd
       0.007286125 0.14507782 0.012540901 -0.076149695
0001f0 1a 4f d7 bd 14 23 a3 3d 1f 64 d7 3d 23 24 47 3d
       -0.10513134 0.07965675 0.105171435 0.048618447
000200 a7 1b 9a bd 13 64 8d be be 60 6e ba 77 e6 57 be
       -0.075248055 -0.27615413 -0.0009093395 -0.21084009
000210 68 14 85 3d 28 b7 4b be 6c 9c bd bb e1 78 c0 bd
       0.06498033 -0.19894087 -0.005786469 -0.09398056
000220 5f ed 16 be 43 f6 d0 3c cb b0 04 bd b7 18 db bd
       -0.14738987 0.025508052 -0.032395165 -0.10698073
000230 01 1f a3 bc 0a a1 99 bd de 74 f2 3d 9b 83 d3 bd
       -0.019912245 -0.07501419 0.11838697 -0.10327836
000240 2b c6 f2 3d 77 ec af bc ce 58 bc 3c 04 7c e2 3d
       0.11854204 -0.02147506 0.022991564 0.1105881
000250 c3 b2 70 bd ad bd 40 bd c4 37 57 3d c2 ca 03 bd
       -0.05876423 -0.04705589 0.052543417 -0.032175787
000260 07 89 58 bd f9 85 03 3d ee 5f 10 bd 51 14 2b bb
       -0.052865054 0.03211019 -0.035247736 -0.0026104639
000270 a6 e6 63 bd c6 7e 53 3d fd 69 49 3c 22 0e c8 bd
       -0.055639885 0.051634572 0.012293336 -0.097683206
000280 9a 6b 96 bd 49 bd a0 bc 06 63 23 be 05 9b 77 3d
       -0.07344742 -0.019621508 -0.15955743 0.060450573
000290 82 0b 5e be 5d 89 2b be 47 4b f7 3c b6 63 c4 3c
       -0.21684077 -0.16751619 0.030187262 0.023973327
0002a0 3b 96 bd 3d 4f d7 9d bd e9 3f a5 bd 8f 90 47 bd
       0.0925717 -0.077070825 -0.080688305 -0.048721846
0002b0 e5 9a fd bd 90 86 1b 3d b9 49 52 bd 0a f4 37 3d
       -0.123830594 0.037970126 -0.05133984 0.04491047
0002c0 de 67 77 3d 85 18 1b 3d 99 3f ca bc 02 18 0a be
       0.06040179 0.03786518 -0.024688529 -0.13485721
0002d0 bc 5d 42 bd b5 a2 e9 bb a4 32 0e be e0 83 a0 3d
       -0.047452673 -0.007129992 -0.13886505 0.07837653
0002e0 b2 67 45 3d 68 13 12 bc 5d 8e eb bd c2 11 ef bd
       0.048194595 -0.00891576 -0.11501763 -0.11673309
0002f0 8d ab d9 bd 5c f5 b5 3d 39 b1 8b bc 24 c9 08 be
       -0.10628424 0.08884689 -0.01705228 -0.13357979
000300 d7 51 da bd 78 f5 e2 bc 03 8b 25 bc d9 1b 4d be
       -0.10660141 -0.02770494 -0.010103944 -0.20030154
000310 5a 7a 23 be d9 9e 1c bd 50 1b ff bd ac 52 c9 bd
       -0.15964642 -0.038237426 -0.12456381 -0.098302215
000320 0c 08 d8 3d cc e4 56 3d 91 5f 1b bd 4b 6d a1 bd
       0.1054841 0.05246429 -0.037932936 -0.07882174
000330 82 c9 ab bd 45 23 b8 3d da a5 ac 3c 59 b8 2a 3d
       -0.08388044 0.08991102 0.021075178 0.041679714
000340 d5 03 bd bd b2 e2 c0 3c 8d b4 e7 3d 4d 75 8e 3d
       -0.092292465 0.023545597 0.11313734 0.06955967
000350 4c 09 b6 bb 37 79 6f bd d0 be 84 3e ec 28 a7 bd
       -0.0055553075 -0.05846521 0.25926828 -0.08162102
000360 bb 5d 3c bd b5 1d 94 bd 0b 87 13 bd a7 04 a4 bb
       -0.045987826 -0.07232229 -0.03601746 -0.0050054374
000370 5b dd f4 bc 8e 49 9a bd 6c 19 0d be b4 68 3c bd
       -0.029890707 -0.07533561 -0.13779229 -0.04599829
000380 a8 bc e0 bc d5 cc f4 3d fd 9d d4 3b 57 78 e5 be
       -0.027433708 0.11953131 0.0064885602 -0.44818375
000390 00 d2 d9 bd f8 db 5d bc dc 27 1c bd 17 60 af bd
       -0.106357574 -0.013541214 -0.03812395 -0.085632496
0003a0 38 88 12 bd 27 dd 86 3c 88 9d 31 bd 3b cd 5f bd
       -0.03577444 0.016462876 -0.043363124 -0.054639082
0003b0 91 f5 03 3b 75 98 94 bd bd 15 b7 3d 32 5d 8a bd
       0.0020135383 -0.07255641 0.08939693 -0.06756057
0003c0 d8 0b 54 be 2f 59 83 bd 14 f8 70 bd 13 47 a0 bc
       -0.20707643 -0.06413495 -0.058830336 -0.01956514
0003d0 ef b7 bf 3b e5 37 c3 3d 60 21 f3 bd d4 66 58 bc
       0.005850784 0.095321454 -0.118716 -0.01320811
0003e0 3e f8 8b 3d 01 79 b8 3d d0 2e ea bd c8 31 a8 bd
       0.06834458 0.09007455 -0.1143471 -0.0821262
0003f0 d7 d8 f1 bd 0c e2 5b bd f8 24 64 3d aa b5 e1 3d
       -0.11808937 -0.053682372 0.05569932 0.11020978

critic.0.bias f4 [64]
000000 a3 19 40 be 9b 10 8e 3d f0 7b 46 be 83 c3 23 3b
       -0.1875978 0.06936761 -0.19383216 0.002498836
000010 0f 2e 99 bd 34 87 19 bd 6a 97 b6 bd c0 52 6b be
       -0.07479488 -0.037482455 -0.08915599 -0.22980785
000020 ef 7d 3b be 94 07 52 bd cd c0 e6 bd bd 0e 8c bc
       -0.18309759 -0.05127676 -0.112672426 -0.017096872
000030 91 e5 99 bd 0d cf 24 be ea cd c4 bd a5 d7 33 3d
       -0.075144894 -0.16094609 -0.096095875 0.043906827
000040 73 1f 0c be bb 5f c3 bd dc 37 0e be f9 7e 82 bd
       -0.13683872 -0.095397435 -0.13888496 -0.06371874
000050 e1 a9 9c bd c2 90 aa bb 61 55 18 bd a8 17 b9 b9
       -0.07649589 -0.0052052448 -0.0371908 -0.00035303575
000060 2c 54 d4 bc a0 d9 ab bd 04 48 27 be 89 4e 62 b9
       -0.025919043 -0.08391118 -0.16336066 -0.00021582296
000070 02 c9 2d bd 48 f2 50 3c e8 33 4c bd 7f e5 0a be
       -0.042428024 0.012753077 -0.04985419 -0.13564108
000080 ab 4d 67 bd 2f f0 be bd 09 cb fc bd db 57 2c bd
       -0.056470554 -0.09323155 -0.123434134 -0.042075973
000090 31 23 3b bd 70 4c 44 bd 0f 98 ce bc 14 f0 fe 3d
       -0.045687858 -0.04792446 -0.025218992 0.12448135
0000a0 24 e5 0f be 3f 87 bf bc 89 d2 32 bd 68 0b 53 bc
       -0.14052254 -0.02337992 -0.043657813 -0.012881137
0000b0 b3 2b 4f be f9 22 84 bd 20 ec 80 3d f2 71 0b 3d
       -0.20231514 -0.06451983 0.06295037 0.034044214
0000c0 a3 67 1c 3d 34 6d ed bb 8a 1e 82 3d 2f 15 f1 bd
       0.038184773 -0.007245684 0.06353481 -0.117716186
0000d0 62 c3 8f bc ff 9a 0b be f0 bb 44 be 81 14 f1 bd
       -0.01754922 -0.13633345 -0.19212317 -0.11771489
0000e0 10 bb 35 bd d7 4d 9d bd 77 fb 15 be 91 62 30 b9
       -0.04436785 -0.076808624 -0.14646707 -0.00016821387
0000f0 5d ec 83 3e 0c 2c 8c bd 2e 20 46 be 9a b8 b8 bd
       0.25766268 -0.06844339 -0.19348213 -0.09019585

critic.2.weight f4 [64, 64]
000000 07 14 6d bd 71 1c 06 3e 4f 6c 9b 3c ad 56 8b bb
       -0.057880428 0.13096787 0.018972544 -0.004252276
000010 8b 63 87 bd a8 bf cb bc c4 f2 f4 bd cf 35 ec 3d
       -0.06610783 -0.024871662 -0.11960366 0.11533701
000020 d6 6c 7c be 92 80 77 bd 65 15 3e bd 47 07 72 3e
       -0.24650893 -0.06042535 -0.046407122 0.23635589
000030 db 8e 95 bd e8 1d e6 3d 11 db 01 bd 58 14 05 bd
       -0.07302638 0.11236173 -0.03170306 -0.032490104
000040 69 0a 89 3d 9a b5 ec 3d fa 0c 05 be 57 70 69 3e
       0.06691439 0.11558075 -0.12993231 0.2279676
000050 eb fb d2 bd 6f 79 9c be 2f b3 c2 bb b5 8a 0d 3e
       -0.10301956 -0.30561396 -0.0059417705 0.13822444
000060 60 96 ea bd ba 9c c6 3c 28 cb 5c be 6a ea 2b bd
       -0.11454463 0.024244655 -0.21561873 -0.0419716
000070 e3 4f d4 bc 46 77 d6 3d b4 ca 84 3c 8d c6 ac bd
       -0.025917 0.10471968 0.016209938 -0.08436308
000080 0a 1a 6f 3e 32 f6 c1 bb 94 c0 08 bd f6 0a 47 3d
       0.23349777 -0.0059192413 -0.03338678 0.048594438
000090 85 9f 91 be 11 30 39 3d e8 af 49 bd 19 a8 ba be
       -0.28442016 0.045211855 -0.049240023 -0.36456373
0000a0 b7 e1 94 bd 69 cb c6 3d ab 2d 2e 3d f9 b7 c3 be
       -0.07269614 0.09706766 0.04252402 -0.38226297
0000b0 a9 36 ba bc 41 33 0c be a1 50 54 bd 39 a7 25 be
       -0.022731142 -0.13691427 -0.051834706 -0.16177072
0000c0 e1 51 66 3e 0a b1 dd 3a c5 62 31 3e 13 c1 29 3e
       0.22492172 0.0016913724 0.17322834 0.16577558
0000d0 f6 75 03 be ef a9 bf bd 30 4a ed bd 67 c9 bb 3d
       -0.12837967 -0.09358584 -0.11586416 0.09169274
0000e0 d7 e8 75 bd 60 03 06 3e fb b0 e6 bd d6 be 81 bd
       -0.060036507 0.13087225 -0.11264225 -0.06335227
0000f0 8e e0 2a be 3a ca 1f be 2e 2b e2 3d 59 7e 92 bd
       -0.16687223 -0.15604487 0.11043392 -0.07153005
000100 c3 cf 94 3c a9 6a e3 bc d9 52 18 bd 5f 26 5a bd
       0.018165475 -0.02776082 -0.037188385 -0.05325925
000110 40 af ff bd dc 97 81 bd 4a b1 9f bd 50 a2 04 3e
       -0.12484598 -0.06327793 -0.07797487 0.12952542
000120 d4 e8 8e bd 76 45 ef bd 96 d9 e8 bd 7c f6 95 bd
       -0.06978002 -0.116831705 -0.11369626 -0.07322404
000130 94 6c 3e bd 98 aa fa bd f1 59 b3 bd 2b 0d 21 bd
       -0.046490267 -0.122395694 -0.08757389 -0.0393192
000140 27 9b a6 3d bb 08 b4 bd 34 8f 0f bc 72 4c a3 3d
       0.08135062 -0.08790728 -0.00876217 0.07973565
000150 59 79 ad 3d 3b 7a 32 3c a1 6a 54 3d b4 60 f7 bc
       0.08470411 0.0108934 0.0518595 -0.030197479
000160 ef 8f 9f bd 49 bc f5 bd 86 2b 00 be 04 10 8f 3d
       -0.07791125 -0.11998803 -0.12516603 0.069854766
000170 94 c1 92 bc d5 8d fd bd e7 37 bb bd 40 d5 34 bd
       -0.01791457 -0.12380568 -0.09141522 -0.044148684
000180 a3 61 0d 3e 85 c0 a6 bb 5f fc 90 bb 81 55 89 bc
       0.13806777 -0.005088868 -0.004424616 -0.016764404
000190 89 6c 0c bd 2f 1b 92 3c 83 c2 4f 3c 61 ec 15 bd
       -0.034283195 0.017835228 0.012680653 -0.03660238
0001a0 50 cf ff 3d 21 a3 e0 3c ad 37 a3 bb ea 8c cf 3c
       0.124907136 0.027421536 -0.0049810023 0.025335748
0001b0 23 d3 8e 3d db eb 19 bd 42 5b 12 bd 0b 9d 91 bd
       0.06973865 -0.037578445 -0.03573156 -0.07110032
0001c0 2a d1 94 bd 20 ee 10 bc 69 59 ab bd 49 47 a1 3d
       -0.072664574 -0.008845836 -0.08366663 0.07874925
0001d0 db e1 d5 bd 4e d0 a9 bd f4 69 7f bc 79 bc 6e 3d
       -0.10443469 -0.08291684 -0.015589226 0.05828521
0001e0 b3 10 ad bd 53 60 55 bd 66 33 a8 3d 8d 8c fa bd
       -0.08450451 -0.052093815 0.082129285 -0.12233839
0001f0 c7 80 f6 3d b4 a1 64 3c 02 bf 33 3c 30 12 b0 bb
       0.12036281 0.013954569 0.010970833 -0.005373262
000200 ca 6c d2 3c 0d 88 f6 3d 07 0d ed 3c 85 27 63 3d
       0.02568664 0.120376684 0.028936876 0.05545761
000210 33 ef 50 be bd e1 e1 bb 0c 5d 3a 3d e3 11 c4 bc
       -0.20403747 -0.006893365 0.045498893 -0.02393431
000220 1c bd c5 b9 c6 7c 03 3d 08 8f 62 3c 10 ac 6a be
       -0.00037715666 0.032101415 0.013828047 -0.22917199
000230 1e 0e 64 bd b3 1c 87 3c 5b fe fd 3c 7f 8f 25 bd
       -0.055677526 0.016493177 0.031005075 -0.04042005
000240 5e 05 38 be 65 e9 2c 3d 31 03 a2 bd f0 9d 01 be
       -0.17970797 0.04221477 -0.07910765 -0.12657905
000250 58 52 da bc 9c c8 26 3e 79 f7 85 3e 22 83 45 3d
       -0.026650593 0.16287464 0.2616537 0.04822076
000260 41 f4 08 be bd 9c ee 3d 57 5a 32 3d cd 2a 34 be
       -0.13374425 0.11650989 0.043543186 -0.17594452
000270 bc 7c 2d 3d cb eb 33 be 67 b8 be 3d 0c c0 15 be
       0.042355284 -0.17570417 0.09312516 -0.14624041
000280 58 89 3e 3d e9 08 39 bd 88 00 76 3d 75 22 8d be
       0.0465177 -0.045174513 0.0600591 -0.2756535
000290 37 e7 c8 3d fd 77 83 3d 8b 7b a5 bd cf fe c1 bd
       0.09809726 0.0641937 -0.080802046 -0.09472429
0002a0 e3 ae 93 3b 8c c8 f8 3d 9f 17 6b bd 25 42 d1 bd
       0.004506932 0.12147626 -0.057395574 -0.10217694
0002b0 8f 8f 20 bd 94 a6 9f 3d 72 c2 6f 3e fc c1 33 3d
       -0.03919941 0.07795444 0.23414019 0.04388617
0002c0 c8 c1 f8 3d fd d2 3f be 45 d5 a3 3c 69 37 3a be
       0.12146336 -0.1873283 0.019999156 -0.181852
0002d0 55 1c 01 bc 4f b5 d4 3c bf 39 f9 bc 8e 1f f9 3d
       -0.00788029 0.02596536 -0.030423043 0.12164222
0002e0 f6 90 a7 bd d1 6e 0f be 21 10 fe bd c9 ce a0 3c
       -0.08181946 -0.14007117 -0.1240542 0.019629853
0002f0 4f bd 81 3e b0 80 22 bd b9 8c 81 3d 41 97 1b be
       0.25339743 -0.039673507 0.06325669 -0.15194418
000300 43 0e 2e 3c fb 15 aa bd 20 60 13 be 5c 45 58 bd
       0.010623517 -0.08304974 -0.14392138 -0.05280052
000310 d6 f7 0e bd 62 00 e0 bd 72 34 0a 3d 6e ee 4e bd
       -0.034904324 -0.10937573 0.033741422 -0.050520353
000320 d7 11 02 be d1 bd b2 bd 85 0a 32 bc 03 0d bf bd
       -0.12702118 -0.08727611 -0.010866766 -0.09328654
000330 4b 67 9a 3d f7 12 58 be bc f0 cb 3d 1d f2 bd 3d
       0.07539233 -0.21100985 0.09958026 0.09274695
000340 8f 4c 7a 3d 82 b0 c5 bd fb a2 3b be 63 ff 25 3b
       0.06110817 -0.09652807 -0.18323891 0.0025329224
000350 aa 83 65 bb a4 b8 1d 3d 22 53 c0 bd 43 0c 37 bc
       -0.0035021105 0.038506165 -0.09390856 -0.011172357
000360 93 c3 fe bd f0 db e1 bd c7 cb 17 bd 4c df 2b bc
       -0.124396466 -0.11028278 -0.03705957 -0.01049025
000370 d9 fd 06 3c bb 41 08 be 82 ca c0 3d 8b 5c 0e be
       0.008239233 -0.13306324 0.09413625 -0.1390249
000380 66 6f ce ba 24 fc 9c 3d 30 f8 d2 bd f8 d3 23 be
       -0.0015749752 0.076652795 -0.10301244 -0.15998828
000390 21 c0 a3 bc b0 ec 0c be 13 eb ba bd 78 71 f2 bd
       -0.019989075 -0.13762164 -0.09126868 -0.11838049
0003a0 3c e2 86 bd 7b 66 09 3e 4e d9 db bd 20 1a 23 3d
       -0.065861195 0.13418 -0.10734807 0.039819837
0003b0 cb d2 09 be fa d2 bf 3d 13 df fa bd 5f 93 93 bc
       -0.13459317 0.093664125 -0.12249579 -0.018014608
0003c0 4a 74 26 bd a3 d4 3a bd 00 dd 12 be 11 b5 96 bd
       -0.040638246 -0.045612942 -0.14342117 -0.073587544
0003d0 98 23 d0 3a 89 5c 43 3d 14 1d 8b bd 1c fe db 3d
       0.0015879748 0.04769567 -0.067926556 0.10741827
0003e0 99 81 8e bd 05 5f eb 3d b2 1c ec bd c6 ee 54 bd
       -0.069583125 0.11492733 -0.11528911 -0.051985525
0003f0 d5 9f bf bd fe c8 85 bd 36 ad a4 3d 1a d2 00 3e
       -0.093566574 -0.06532477 0.0804085 0.12580147

critic.2.bias f4 [64]
000000 cf f4 54 3c 1a 9d c0 bd 6c 03 5b 3b c0 b7 b9 bd
       0.01299782 -0.09404965 0.0033418788 -0.09068251
000010 14 05 3a be 97 56 1f be fa 95 c5 bd 13 bc 29 be
       -0.18166 -0.15560375 -0.096477464 -0.16575651
000020 6c 0d cb bd 1a 67 ef bc 5d 06 29 bc be 13 ce b9
       -0.099146694 -0.029223967 -0.0103164585 -0.0003930609
000030 ad 5a f9 bc b8 3a f3 bc 67 71 c3 3c 19 2f 57 bd
       -0.030438745 -0.029691085 0.023857785 -0.05253515
000040 ec 3b ae bd a8 1e b4 bd c4 d7 18 bd a3 8a ad bd
       -0.08507523 -0.0879491 -0.037315145 -0.084737085
000050 01 48 0a bd 24 37 10 bd 82 48 57 bd 32 c0 07 be
       -0.033760075 -0.035208836 -0.052559383 -0.1325691
000060 34 30 da 3b 27 11 66 bc b5 5f c4 bd 59 b4 85 bd
       0.0066585783 -0.014042175 -0.09588567 -0.06528539
000070 b8 e8 8d bd e7 ed 1a bd a2 17 d1 3c 1e a3 91 bd
       -0.06929153 -0.037824538 0.025523964 -0.0711119
000080 45 37 1b bd 44 d0 95 bc aa e1 75 bc 21 d4 99 bd
       -0.037894506 -0.018287785 -0.015007416 -0.075111635
000090 95 7e f1 bd 84 0a 8c bd 1c dd 67 bb c4 2d 80 3c
       -0.11791722 -0.06837943 -0.0035379594 0.015646823
0000a0 0e a1 2d bd e2 16 b4 bd 13 1b 32 3d f1 3b 37 bd
       -0.04238992 -0.08793427 0.04348285 -0.0447349
0000b0 35 9e 92 bc 3a 15 8d 3d dd 5f 0e be c4 55 a2 bd
       -0.017897705 0.06888814 -0.13903756 -0.07926515
0000c0 db 9d c4 bd 41 e7 23 3d 9d ff 41 3d 9b b8 03 be
       -0.09600421 0.040015463 0.047362912 -0.1286339
0000d0 87 81 81 bd 4d f3 cf bd 33 e9 a9 bd f3 c2 9f bd
       -0.063235335 -0.10153828 -0.08296432 -0.078008555
0000e0 48 73 c7 bc 99 c5 95 bc 8f d6 d7 bc e5 d4 f3 bc
       -0.024346963 -0.018282698 -0.026347427 -0.029764602
0000f0 fe ee f5 bd 5d d5 72 3d d3 70 e0 bd a0 c0 08 be
       -0.12008475 0.05928551 -0.109590195 -0.1335473

critic.4.weight f4 [1, 64]
000000 bd 4d ac bd 79 f9 15 bc 0a 54 6f 3d 88 2b aa bc
       -0.08413265 -0.009153717 0.058429755 -0.02077271
000010 1b f6 74 bd 00 8a 27 bb ec fa 9a 3d 83 7d c7 3d
       -0.059805017 -0.0025564432 0.07567391 0.09740736
000020 ff c8 e8 3d 85 1a 15 be 0d e9 b8 3a 26 d1 f9 3a
       0.11366462 -0.14560898 0.001410754 0.0019059523
000030 8b 94 3e 3b 99 dd 66 bc 39 b9 14 be 93 aa 87 bc
       0.0029080238 -0.014090919 -0.14523782 -0.016560828
000040 86 d0 d5 bb d7 f9 21 3a f6 a1 1e 3c db b0 60 3c
       -0.006525102 0.00061788916 0.009682169 0.013714041
000050 56 ff 8b 3b 83 a1 a4 3b 25 90 02 be 7e 66 b9 3d
       0.004272382 0.0050241365 -0.127503 0.09052752
000060 5c 53 af 3c 32 30 28 be b5 dd 7f 3b 4c e8 f1 bd
       0.021402054 -0.16424635 0.003904206 -0.11811885
000070 6f e7 36 bb 9e fa bc bb d7 89 b3 bd 3a af 6d bd
       -0.0027908941 -0.0057671806 -0.08766525 -0.058028437
000080 dc 81 39 bd f8 e5 d2 3d 3c 77 bc 3b 3d ef 03 bd
       -0.04528986 0.10297769 0.0057515185 -0.032210577
000090 fc 9e d5 ba fd d3 cb bd 36 65 7e be 07 e2 26 3e
       -0.0016297991 -0.09952543 -0.24843296 0.1629716
0000a0 61 db d6 3c f2 e1 9f 3d 6b 30 bb 3d 7c c3 93 3b
       0.026227655 0.078067675 0.09140094 0.0045093875
0000b0 94 59 ea bd ce cc bd 3d fc 01 9d bb 53 cd cf 3c
       -0.11442867 0.09267579 -0.0047914963 0.02536646
0000c0 64 cb 2d 3b d4 30 f7 bd 1d c5 0e be 7e c5 16 bb
       0.0026518935 -0.1206986 -0.1394238 -0.0023005898
0000d0 02 16 cb 3d ff 35 ac ba a4 86 5a ba 9c b1 f4 3b
       0.09916307 -0.0013138651 -0.0008336103 0.0074674617
0000e0 7a 34 1a bb 23 2b 8d 3b 88 af b7 bd c1 08 cd 3a
       -0.0023529814 0.004308121 -0.08969027 0.0015642868
0000f0 40 c7 12 bd 13 e3 13 3e 21 07 a9 bd 50 ff b3 bd
       -0.03583455 0.1444209 -0.08253313 -0.08788931
