CybORG/CybORG/Models/bline_train/60000.pth (torch, 78565 bytes, 11 tensors)

actor.0.weight f4 [64, 62]
00000000: ed40 79ba e786 8b3d 2a12 d6bd 3c6a bfbd
00000010: 92fc b1be 490d 0dbe 9b9d eebc 5028 513e
00000020: a5ca 59be e1db 4fbe a94e 21be 9934 b2be
00000030: 4ed1 31be ea5d a43d 18e3 09be 40fc a1bc
00000040: 81a6 4d3d 4d10 9c3d 7754 b0bd 4686 62bd
00000050: 5df1 3c3d 15fb d73d 861c d6bc 12a2 c23d
00000060: 58b1 a7bc c02c 5c3c cf82 eb3d 9948 f1bd
00000070: 279e 00bf 51ff 923c 32dd 113e d097 193f
00000080: cf96 a8bd 3376 6fbd b9b6 b5bd 9498 f3bd
00000090: 0cbd e43e bd2e 323f 0605 b93d b647 c83c
000000a0: 0002 dd3c da5e e53e 87e6 003e 6eb5 c8bb
000000b0: 948d 92bd babd 4ebe da6f e13d c7a7 1c3d
000000c0: 680b 8e3d a7eb ae3d 0bab f33d e0fd 5b3e
000000d0: 8474 4e3d 916e 04be 534c 023d 1c78 f2bb
000000e0: 425e 9b3e 70a7 c9bd c659 19be a1e1 b7bd
000000f0: c515 7e3e 1820 643e 9411 9abd 6327 1d3d
00000100: 1bc9 8e3d 8d50 83bc f161 71bd 577f 483e
00000110: 53d8 aa3e 3dc0 493e aa92 20bc 4bfb 9a3e
00000120: 5cd5 4c3e 4cec 383f 5f77 fc3d b65b 14be
00000130: d2d0 1f3e 2038 7bbb 4d6a 3f3c b5b7 a2bd
00000140: d565 f2bd f417 e73d 48c4 c53d 05ba 01be
00000150: 23bb c23c 6643 afbc fb34 abbc 271f 6ebd
00000160: 120b 483d 510e 9abd 8f2c 773d 8d1a 653e
00000170: 2af6 983e ebb1 f63e 95b6 00be 40b9 a8bd
00000180: b6de 813d 05c1 d93c d4a6 59be 268c 4abe
00000190: 0abe 2f3e e9ec 403d 21ac 06be ca09 bbbe
000001a0: ede4 06be f918 18bd 7ea1 fb3b 2e1e 0b3e
000001b0: 3de4 513d 6edf 2c3e 341f c3bc c7e1 f93d
000001c0: 0035 a0bc e12b 673e 723e b23d ce2f b0be
000001d0: 7f3d 0fbe b10f bb3d 6a78 3c3e a8c0 f63c
000001e0: 4117 51bd edf5 cbbd 9d74 cf3d b476 213e
000001f0: 3e7f f9bd 2929 9abd 3f38 02bd 8964 7dbd
00000200: 709a 90bd 54f6 8dbe 5e21 92be dc26 c4be
00000210: 7693 99be 410a 74bb d801 2c3e 1f72 233e
00000220: 5778 50be 03c7 79be 3203 823e f122 a93e
00000230: 0c60 f63d f82c a53d 5cf0 f63d 177c 16bc
00000240: 6aa6 e9bd 869c 76bd d419 b13d 1ed1 57ba
00000250: a747 81bd 9850 c7bd 5f69 f3bd fc85 dbbd
00000260: cd87 7a3e a531 6b3d 2fd1 2d3d 4abd 72bd
00000270: 4e3e a23d 1c87 cbbd b6f2 dbbc 80ec 52bd
00000280: 361a b2be 072b d7be ef63 42bd 34cb 6dbd
00000290: dfd8 4ebe 1d05 23bf 2d15 643c 074b 073e
000002a0: a855 79be e727 d8bd c669 203e ba43 033e
000002b0: 5975 ca3d 6cf4 29bb 5b48 babd 4b55 053e
000002c0: ff1b 70bc 678a 88bd 862d 3b3e 3f31 b83d
000002d0: 872c 7e3c f6d2 d9bc dd1d 063e 03ca 123d
000002e0: 8d9c 573e 69f6 163e b02f fabc 74cc dabc
000002f0: 2a57 d6bd 7fee 8c3d 36c5 34bd a82d 91be
00000300: 1cfa bfbe 0493 e1be 8df8 86bd 5a82 ad3e
00000310: 29c5 6d3e 77b0 2c3f 6440 59be 1c92 183d
00000320: d571 37be 6a30 2ebe aa9c c4bd 2c8f b2bd
00000330: 2407 97bd d10c b63d b2fd 3abd 6463 db3d
00000340: 051b 3c3d 64bd 833c 2ed4 77ba 38aa cdbc
00000350: 8788 823c fe90 edbc 2ff4 ae3d 5e6b 6abc
00000360: b784 11be 8e83 36be 9d06 d23d 8b14 d3bd
00000370: 8469 15bc 0ea6 003e 2df9 63be bc7e 42be
00000380: 93c5 56bc 9017 d53d 32da 1bbe f07b 0bbf
00000390: bc84 9a3d a8c6 cc3d 1138 80bd 337a 6f3d
000003a0: b714 fc3d 1a45 0d3d d1a7 5d3e f245 9a3b
000003b0: a505 db3d 49db 8abd 7d78 5cbd 30e1 d9bd
000003c0: 757c aa3d a5e0 733e 4a09 9cbd 822f 5539
000003d0: 6384 6e3c 8c37 763b 3a7e 623e 9a0b e8bd
000003e0: fc6c e53a 05e2 b0bc 54fc 88bd 3e82 893c
000003f0: b507 0ebe 0cf8 f8bd 75ec f63d 9663 ccbd
-0.0009508271 0.0681284 -0.10452683 -0.093464345 -0.34763008 -0.13774599 -0.029127887 0.20425534
-0.21268709 -0.20298721 -0.15752663 -0.34805754 -0.17365 0.08025725 -0.13465536 -0.019773602
0.05020762 0.076202966 -0.086098604 -0.055303834 0.04612862 0.10545937 -0.026136648 0.09503569
-0.020470306 0.013438404 0.11499559 -0.11781425 -0.5024132 0.01794401 0.14244536 0.5999727
-0.082318895 -0.058462333 -0.08872742 -0.11894336 0.4467548 0.69602567 0.09034161 0.024448257
0.026978493 0.44798928 0.12587939 -0.0061251437 -0.0715591 -0.20189562 0.11007662 0.038245942
0.06935769 0.08541041 0.11897858 0.21483564 0.050404087 -0.12932803 0.03181107 -0.007399572
0.3034535 -0.09846389 -0.14975652 -0.08978582 0.24812992 0.22277868 -0.07522884 0.03836764
0.069719516 -0.01602962 -0.058931295 0.19579826 0.33368167 0.1970224 -0.009800592 0.30269846
0.20003265 0.7223556 0.12327456 -0.1448811 0.15607002 -0.0038333014 0.011683059 -0.079451956
-0.11835829 0.112838656 0.09656578 -0.12668617 0.023770874 -0.021394443 -0.020899286 -0.058135178
0.048838682 -0.07522262 0.06034523 0.2237341 0.29875308 0.48182616 -0.1256965 -0.08238459
0.06341307 0.026581297 -0.21255046 -0.19780025 0.17162338 0.047100935 -0.131516 -0.36530906
-0.13173266 -0.03713319 0.0076791635 0.13585731 0.051243056 0.16882107 -0.02381859 0.12201267
-0.019556522 0.22575332 0.08703317 -0.34411472 -0.13988303 0.09133852 0.1840531 0.030121163
-0.051047567 -0.09959016 0.10129664 0.15767938 -0.12182473 -0.07527382 -0.03179192 -0.061863456
-0.070607066 -0.27726996 -0.28541082 -0.38310897 -0.29995316 -0.0037237557 0.16797578 0.15961502
-0.20358406 -0.24392323 0.25393063 0.3303447 0.12030038 0.08065218 0.12057564 -0.009184859
-0.11408694 -0.060207866 0.086475044 -0.000823276 -0.06312495 -0.09732169 -0.11885332 -0.10718915
0.24465866 0.05742039 0.04243582 -0.05926255 0.0792204 -0.099378794 -0.026849132 -0.051495075
-0.34785622 -0.42025015 -0.047458585 -0.058055118 -0.20199917 -0.6367968 0.013921064 0.13212214
-0.24349082 -0.10554486 0.1566535 0.12818804 0.098856635 -0.002593304 -0.09095832 0.13020818
-0.014655112 -0.06667023 0.18279085 0.08993768 0.015513546 -0.026589852 0.1309733 0.035837185
0.21055813 0.14742436 -0.030540317 -0.026708819 -0.10465844 0.06881427 -0.044133388 -0.28355145
-0.37495506 -0.44057477 -0.06590376 0.33888513 0.23219742 0.67456764 -0.2121597 0.037248716
-0.17914517 -0.17010656 -0.09600194 -0.08718714 -0.07374409 0.08889163 -0.0456521 0.10712317
0.045924205 0.01608152 -0.00094539195 -0.02510558 0.015934242 -0.028999802 0.08542668 -0.014307825
-0.14210783 -0.17823622 0.10255168 -0.10306653 -0.009119395 0.12563345 -0.22263022 -0.18993658
-0.013108629 0.10404885 -0.15219954 -0.5448599 0.07544848 0.09998828 -0.06260694 0.058466148
0.123086385 0.03448973 0.21646048 0.004708045 0.10694436 -0.067801066 -0.053825844 -0.10638654
0.083245195 0.23816164 -0.07618959 0.00020330961 0.014557931 0.003756973 0.22118464 -0.11330338
0.0017503793 -0.02159215 -0.06688753 0.016785737 -0.13870127 -0.12156686 0.12056819 -0.09979932

actor.0.bias f4 [64]
00000000: 4a60 36bd 838b 9c3d e934 023e baa6 a0bb
00000010: ff0a 01bd 7bd7 eabd 7baf b23d 88f3 92b7
00000020: 9b66 b13d 9ef4 9dbd c0e2 e4bc 4daa ddbd
00000030: d99c 313d d872 af3d 35ff edba 854e b83e
00000040: 6936 87bd a4cc aa3d 25ff 16be 4312 933d
00000050: 9abf 0ebe 0a1d 103d 968b f53d a39f 17be
00000060: a6e4 133d 6323 033e 5076 c93c 3748 f03d
00000070: 444a 903d eb93 f9bb 9cab e2bd 2666 e03d
00000080: f138 1fbc 22ea 663c 40df 573d d39d 3b3d
00000090: 9ae4 113e 4236 a6ba 91f5 5fbd e9c0 cebd
000000a0: c8b5 b33d e7ce 8f3d cd69 a1bc 3bc3 3abd
000000b0: 4069 603e 1384 f03d 01dd 6bbc dec7 e13c
000000c0: c1e4 f73c 8f52 19bb 4ce5 983c 4aec 72bd
000000d0: 5baf 28bd 95a5 213c 697d 073e c410 813d
000000e0: 70b0 263d 541f d53d 775d 41be 94d7 3d3e
000000f0: 474b b93d adf0 3f3c 88ad 2e3d 106c 5fbd
-0.044525422 0.07643797 0.12715496 -0.004902688 -0.031504627 -0.11466881 0.087248765 -1.751796e-05
0.086621486 -0.07712673 -0.027940154 -0.10823498 0.043362472 0.085668266 -0.0018157723 0.35997406
-0.06602175 0.08339813 -0.14745767 0.071812175 -0.13940278 0.035183944 0.119895145 -0.1480699
0.036106728 0.12806468 0.024592549 0.11732524 0.07045415 -0.00761651 -0.11067888 0.10956983
-0.009718166 0.014093908 0.052703142 0.04580481 0.14247361 -0.0012680965 -0.05467755 -0.100953884
0.087749064 0.07021885 -0.01970377 -0.045596343 0.2191515 0.11743941 -0.014395953 0.027561124
0.030260446 -0.0023395156 0.018664025 -0.059307374 -0.041182857 0.009866138 0.13231434 0.06302026
0.040695608 0.10406366 -0.1888331 0.18539268 0.09047561 0.011715096 0.04264596 -0.054546416

actor.2.weight f4 [64, 64]
00000000: 7ab7 3abc 6802 07be 5815 263e 0989 d0bd
00000010: 1d2e bf3e 11b4 a93e ed68 073d e11e 88be
00000020: 22d3 903e 23a2 5bbe e926 9dbe a97e 39bd
00000030: 8f16 34bd 4139 8b3b a73b 8c3d 785f e8bd
00000040: ba4c 30be e6c0 9f3e 3ac3 8b3e d5e6 9abd
00000050: 92ff b63e b17c 58be a4a9 903e 3011 64be
00000060: a758 95be 1dc7 443d a238 a53c e585 4a3e
00000070: baa8 f13d 38f9 9c3e 8c11 783e 1bfb a43e
00000080: 12b9 32bc be81 763e 2929 bcbd 9a3c 6bbd
00000090: 5530 433e bf6a 9bbd 290a 7cbe d1b6 1fbc
000000a0: 78b4 153d 55aa dc3d 602a d43e 8e32 b1be
000000b0: 4a35 7cbe a453 3e3d a900 eebc 701c 6c3e
000000c0: 1ba7 c13d 0740 d13d 685b 353d 628e af3e
000000d0: 66c0 7f3e 0219 4c3e 660d 423e 5b62 383e
000000e0: 06fb 89be 6ef2 06be 5ee6 283e ad7d 87be
000000f0: cb55 8a3d 75ed 10bd 19ee 863e e5b1 febd
00000100: 8dfe 6d3e fcce b7bd 2964 ffbd 047f ab3d
00000110: 8709 5ebe d7b8 25be 9429 8a3e 2607 393d
00000120: a805 683e 14fb be3e 38c3 903e 7bfe 1d3e
00000130: 68db 52bc 181a b7bd 904c bd3e 5ddf 803e
00000140: ab18 88ba 44e9 873e e81e f6bc 2b54 1e3e
00000150: c267 81be 67e4 cb3e a5b9 51be bd2b 95bd
00000160: dadf be3d f40a 133e d083 6cbd 16d7 f73e
00000170: fbb9 12bc 8ead e43d b7c2 0ebe 3e8d 87bd
00000180: b6cf 243d 82c6 8abd 6436 093e 212a 6cbe
00000190: 5128 1e3e 63b7 38be 0a96 a63c a1a9 dbbd
000001a0: 18f2 37bd efca 573d 66ac bc3d 53ee c7bd
000001b0: 85b2 b63d e0f8 14bb 5397 b63d 2297 07be
000001c0: 326b ea3d 9736 1c3e d909 61be b067 d63d
000001d0: 8fa4 823e a7d9 653d 99ab ad3e b9fc ca3e
000001e0: e5dc 7d3d da72 3ebe 4d1c a03d 6506 3a3e
000001f0: 8379 56bd ae86 413c ff00 44be 958a 673e
00000200: 88df 4bbe 3c67 943d 7f2f 1b3d 2140 523d
00000210: 60fa da3e 96b4 a13e 0597 00be 56e5 cebe
00000220: 7c05 593c 0885 a1be 1efd 6abd 29eb 45be
00000230: 1eb2 e23d 8935 043e 00f5 1c3e 4d85 a3be
00000240: 65e7 70be c460 3d3e 39c6 d13e e782 97bd
00000250: b725 333e 7288 88be 8cdc 413e 0d65 1f3e
00000260: 2f84 0dbe 0d8e 9a3d e3ef a73e 9d9e 003c
00000270: 430b b93e 68af f33d a28d a83e 685f a43e
00000280: bf62 fabd 9130 533e 8ae3 34be 551a d33d
00000290: 1e4f fc3d 2bf7 49bb c97d b93e 3772 3cbd
000002a0: 0ca7 a6bd 578d 91bd 884b 503e fe5f e23d
000002b0: e14e bebe 0ff1 6b3e 4014 c0be b943 7b3e
000002c0: 2f85 743e 5ffe 163e 9061 893e 87cf 4d3e
000002d0: 7bb7 7d3d 47b4 59be e93d 8dbe 012f 27be
000002e0: 5a9d f63d 5c6a 493e b302 773e 2041 8bbe
000002f0: 5d97 00bd bf2c 803e 4a20 1abd 6b0a 26bc
00000300: 49a4 073e a1d6 8b3e 92f0 803e c793 f83e
00000310: 59bd 063d df8d 223d 7f97 833d 9939 a33e
00000320: 610c 48bc 153b bd3e 61df 813d ce80 db3d
00000330: a3f3 153d fc26 a63e 5adb fe3e cf66 0abe
00000340: 2258 363e a527 353e afc4 15be 104d 8d3e
00000350: a7f2 8c3c f81c 993c c81e 7abd 1fcb 6a3e
00000360: 84c6 ea3e 81b9 b03e 7de7 313d 8955 85be
00000370: 9fd5 52bd d422 4dbe 9b57 943d 63ba 2a3d
00000380: 0511 b03e 72b3 8b3e e428 de3e 29fb 323e
00000390: 67fc 1fbe 5d23 dabd 02b7 59bc f5f4 343e
000003a0: 1b1c 6b3d 5d91 563e 1d79 3fbe cce0 593e
000003b0: afad c23d 212c 23be 0f20 95bb cbdf bc3b
000003c0: c7ab f1bd dfe9 063e 9680 9abe f3f7 b43d
000003d0: ae3d 6bbe f7c9 20be 9ff1 723c dddb 3dbe
000003e0: 8863 73be 0f7b 9a3e e28f 61be 3d81 4b3d
000003f0: 5e39 a83e 0d92 833e 7f1d 343e c4a6 c73d
-0.011396283 -0.13184512 0.1621908 -0.101823874 0.3733987 0.33145192 0.03305905 -0.2658606
0.28286082 -0.21448569 -0.3069375 -0.04528681 -0.043966826 0.0042487686 0.06847315 -0.11346334
-0.17216769 0.31201857 0.27297384 -0.07563559 0.3574186 -0.21141316 0.28254426 -0.22272182
-0.291692 0.04804145 0.020168606 0.19777639 0.1179976 0.3065889 0.24225444 0.32222828
-0.010908382 0.2407293 -0.09187538 -0.05743084 0.19061406 -0.075887196 -0.24613251 -0.009748177
0.03654906 0.10774676 0.4143858 -0.34608883 -0.24629703 0.046466485 -0.02905305 0.23057723
0.09455701 0.1021729 0.044276625 0.34288317 0.24975738 0.19931415 0.18950424 0.1800627
-0.26949328 -0.13178417 0.16494128 -0.2646307 0.06754645 -0.035382707 0.2635353 -0.124362744
0.23241635 -0.08975026 -0.12470276 0.08373836 -0.21683322 -0.16183792 0.26984847 0.045172833
0.22658408 0.37300932 0.2827394 0.15429108 -0.012869693 -0.08940524 0.36972475 0.25170413
-0.0010383328 0.26545155 -0.030044034 0.15461795 -0.25274473 0.39822695 -0.20480974 -0.07283733
0.0932004 0.14359647 -0.057742894 0.48406285 -0.008955474 0.111659154 -0.13941465 -0.06618737
0.04023715 -0.067761436 0.13399655 -0.23062946 0.15445067 -0.18038706 0.020335216 -0.107257135
-0.044908613 0.052683767 0.0921257 -0.097622536 0.08920769 -0.002273135 0.089155816 -0.13241246
0.11446227 0.152552 -0.21976413 0.104689956 0.25516173 0.056115773 0.3391998 0.39645937
0.06197824 -0.185985 0.07817898 0.18166502 -0.052361976 0.011811895 -0.19141005 0.22611459
-0.19909489 0.07246253 0.037887093 0.05133069 0.42769146 0.3158309 -0.1255761 -0.40409344
0.0132459365 -0.31546807 -0.057370298 -0.19327988 0.110691294 0.12911047 0.15327835 -0.31937638
-0.2352577 0.18493944 0.40971544 -0.073980145 0.17494856 -0.266666 0.18931788 0.15565892
-0.13819955 0.07546625 0.32800207 0.007850316 0.36141405 0.118986905 0.32920557 0.3210404
-0.122258656 0.20623995 -0.17664924 0.10307757 0.12319778 -0.003081749 0.3622878 -0.04600736
-0.081373304 -0.071070366 0.20341313 0.11053465 -0.37169555 0.23041175 -0.3751545 0.24537553
0.2387893 0.14745472 0.26832247 0.20098697 0.06194256 -0.21260177 -0.27586296 -0.16326524
0.12041731 0.19669479 0.24122123 -0.27198124 -0.03139435 0.2503414 -0.03762845 -0.01013432
0.13246264 0.27312186 0.2518354 0.48550245 0.03289542 0.03968608 0.0642538 0.3187988
-0.012209983 0.3695914 0.06341434 0.10717927 0.036609303 0.32451618 0.49776727 -0.13515781
0.17807057 0.17690904 -0.1462581 0.27597857 0.01720555 0.018690571 -0.06106451 0.22929047
0.4585458 0.34516528 0.043433655 -0.2604182 -0.051473256 -0.20032817 0.07243272 0.04168166
0.34387985 0.27285343 0.43390572 0.17478622 -0.15623628 -0.10651276 -0.013288261 0.17671569
0.05739985 0.20953889 -0.18698545 0.2127716 0.09505784 -0.15934803 -0.004550941 0.005763983
-0.11800342 0.13175152 -0.30176228 0.08836355 -0.22972748 -0.15702043 0.014828115 -0.18540902
-0.23768437 0.3017201 -0.22027543 0.049683798 0.32856268 0.25697365 0.17589377 0.09748605

actor.2.bias f4 [64]
00000000: 6e9e d6bc adf5 153e ae75 f13d 0a7d 3ebd
00000010: 948f 693d 2058 823d 7f74 8fbc 0439 b43d
00000020: bb1b ccbd ae2f a7bd 5738 e8bd 35d3 003e
00000030: 2e30 d5bd f0ad b6bd 2b8d 103c 3b9d 4a3d
00000040: a9c9 d6bd 3634 e23c dffa f63a 005f aabc
00000050: 189c e2bd 1922 d63c 7686 c0bb 803f 86bc
00000060: ab70 203e a9f5 893d 0f71 973d 24c3 17bd
00000070: b810 76be 1922 303b 6273 59bc 10e9 c9bd
00000080: afc3 7dbd 58ef 4ebd 6b23 9fbc 32df 853c
00000090: 804c aa3c c0f4 163c c0fb fc3d 5012 52bd
000000a0: 61bb 9d3d d78b fbbd 7287 013e 847a c3bd
000000b0: 1ffb 193d 8a6e 62bd 4d86 c8bd 1da1 e7bc
000000c0: 5808 77bd 620e 533d 534d 393e cd34 0bbe
000000d0: e32e f8bb ec0a e8bd cbaf 693d 1efc e63d
000000e0: 1273 80bd d5cc 573d a5bc 3c3e 3884 0cbb
000000f0: ea4b 2ebd a40b a03c 8e2a b13d c78e 2f3d
-0.026198592 0.14644499 0.11790024 -0.046505965 0.057021692 0.06364465 -0.017511604 0.08799937
-0.09966227 -0.08163391 -0.11338871 0.12580569 -0.1040958 -0.08919895 0.00882272 0.049466353
-0.10487682 0.027612787 0.0018843076 -0.020797253 -0.11064929 0.026139306 -0.005875404 -0.016387701
0.1566798 0.06736309 0.07394611 -0.037051335 -0.24029815 0.0026875793 -0.013272138 -0.09858906
-0.061954197 -0.050521225 -0.019426068 0.01634178 0.020788431 0.009213626 0.12352705 -0.051286995
0.07701755 -0.12282532 0.12649325 -0.095448524 0.037593003 -0.0552812 -0.09791241 -0.028275067
-0.06031069 0.05152739 0.18095903 -0.1359436 -0.0075739487 -0.11330208 0.057052415 0.11278556
-0.06271948 0.052685577 0.18431337 -0.0021441113 -0.042552866 0.0195368 0.08650695 0.042860772

actor.4.weight f4 [36, 64]
00000000: b39d 923d 05f4 61bf 66de e53e 687e 82bf
00000010: 08db 933e 9d41 67bd bfff e13e 5c5d 103f
00000020: f87a 9bbd 3720 e5bd 1904 88bc 69f8 de3e
00000030: 4b03 ccbd ed13 ecbe 8946 ecbb e66c b23e
00000040: e72c bb3d 345a 1bbf 49f3 1cbe 27b1 2d3f
00000050: a7f5 833d 40c0 86bf e2e4 49bb 7a77 dcbe
00000060: bd42 173e 08c8 a23d 8269 b93c 3d30 133f
00000070: de5a 1bbf 1776 bdbe e71d 593e 6119 c8bd
00000080: 8a39 82bf 0f4b 79bc 9740 f03c ec77 87be
00000090: 1da3 1c3d 3076 183e b9b9 b73e 9ff8 b83d
000000a0: 6dd4 9fbe bd7e 9a3e 2c32 58bf 4ace 81bd
000000b0: beb5 33bd e912 3a3d b3b4 23bf 66ca 14be
000000c0: c00c b6bd 76de ea3d 1363 95bf 7288 7bbd
000000d0: 3f07 5b3e 8fed b9bd c8a9 783e 5e8a 853e
000000e0: 863a 93bd 396b 9fbd 241e bcbe 6a1d 8fbd
000000f0: 1034 eabd a451 c1bd 7fc8 793e 44dc a43e
00000100: 7134 b6be dbdb 65bf 21a8 0cbe de1e bd3e
00000110: 1378 6cbe c767 eebe 349a c1be aa63 d93d
00000120: e5fc 0fbd ec11 fb3e 7817 0e3e 2789 42bd
00000130: 818f a13e 1832 8a3e fa6e 363d 6347 eebe
00000140: 5330 ccbd 1120 0a3f e988 48bf 543f 83be
00000150: 4ca0 143d b1e4 8cbe 28b8 f33c a34a 3d3e
00000160: 0345 34bf c575 5d3e 9b35 c5bc d5b4 f63e
00000170: 2f2a ea3e 4535 50be 6622 f7be 2550 07bf
00000180: 3feb efbe efe3 83bd 7992 143e 1508 5cbf
00000190: 291c 0b3e 29b1 893e f913 c03e f3c5 e1bd
000001a0: d6d1 1b3e d7b5 163e 643f 62bf 5524 20bd
000001b0: 78f9 483d 9a63 463d 49c3 8abe 83f4 4dbd
000001c0: 2960 eb3c 4607 a83e ca81 dbbe ea17 d7bc
000001d0: 83b0 3a3e 5fc3 da3d fb7a f53e fb6d 54be
000001e0: 12bb 4fbd 3c01 8bbc cf68 74bf 945e 043e
000001f0: cd69 993e ebc8 6d3e 99ba 91bc 34b4 87be
00000200: 67a5 b93e 656b 48bf cb46 f83e db3b 58be
00000210: 19bb 0ebf 3be4 af3e 0a4a 193e 62b6 5bbe
00000220: f988 a13d ddca 07be 2adb f53d 0bb0 a93e
00000230: 7f49 df3e d31f 5cbe 4f1a ca3d 980c 64be
00000240: 54e0 d43c 8422 cd3d 654a ca3e f8c0 533e
00000250: 98ce e33d 7315 29bf 0ed5 fe3d 1659 c0be
00000260: a03f 25bd 3279 4bbd e131 4a3d 8d39 9d3d
00000270: 9c9c 563e 791a 3fbe 6921 3d3e 3649 b9be
00000280: dd43 b3be 16a1 153c 6f91 ea3d c231 b5be
00000290: 70fe 013e a62c ac3d ef7f 773e 0626 c23d
000002a0: 0798 803e 7dc0 adbd f887 43bf f6fe 9a3c
000002b0: 39cd 2cbe 1798 2e3c 70de b43e 4ff0 9d3c
000002c0: 8adb 963d 0fcc c03e 3db8 50bf b574 0e3d
000002d0: 57a5 233e a4f3 c8bc 039a 90be fe27 083f
000002e0: bc8a b3bd 8994 f4bd f91f 8abf 15d4 eabc
000002f0: d50a 29be 0e93 a43e ff99 d53d a379 a3be
00000300: d005 9b3e 3047 c4be 8ca0 053d 319b 17be
00000310: b416 b0bd c1f3 d23d 7dee 3f3e 6ffc 0a3e
00000320: 68a9 3abd 37d3 903e 18cd b03d a609 0fbd
00000330: 4ac7 b13e 7110 b7be e1f4 6b3d f5b1 833e
00000340: 9b90 4bbd 3b94 67bd 13e1 90be 2470 f8bd
00000350: 8cd8 39bd 74ed 25bf 5c1a e33b 00b9 cc3e
00000360: a657 393d 3e67 5ebd 57d5 92bc fa2e 06be
00000370: f799 c53d a880 f43d a1cf a73e c804 16bf
00000380: 7497 8bbd 6e44 d13d 1432 75bd d8ef 0ebf
00000390: 805f 4ebd e58d 573d 8680 bd3d 6812 9ebd
000003a0: b034 42be 0c33 f33e ba5a e0be 0670 99bd
000003b0: 9a5c 81bd db91 193d 1749 9c3d 2b95 a6bd
000003c0: 502f 79bd aeca 5d3e e266 3cbf e237 e2bd
000003d0: 9825 a53e ddc2 5b3d a0de 813d 254b 503e
000003e0: 975a 133e b2ee babd c996 20bf 5ef7 62bb
000003f0: 0413 acbe 78da 9c3e 3230 b3bd 18fa 6fbe
0.07158985 -0.8826297 0.4489624 -1.0194826 0.28878045 -0.056459058 0.4414043 0.56392455
-0.07591814 -0.11187785 -0.016603516 0.43548897 -0.099615656 -0.46108952 -0.007210557 0.34848708
0.09139424 -0.60684514 -0.15327181 0.6784844 0.06443339 -1.052742 -0.003080659 -0.43059903
0.14771552 0.07948309 0.022633318 0.5749548 -0.6068553 -0.37004158 0.21202813 -0.09770466
-1.017381 -0.015215649 0.029327674 -0.2645868 0.038241494 0.14888835 0.35883883 0.09031796
-0.31216756 0.3017482 -0.84451556 -0.06338175 -0.043874495 0.04542819 -0.639476 -0.14530334
-0.088891506 0.11468212 -1.167086 -0.06140942 0.21389483 -0.09078514 0.24283516 0.26082128
-0.07188897 -0.07784123 -0.36741745 -0.06988032 -0.114357114 -0.094394 0.2439289 0.321993
-0.35586885 -0.897886 -0.13736011 0.36937612 -0.2309268 -0.4656355 -0.3781296 0.106147125
-0.03515329 0.4903711 0.1387614 -0.04749408 0.31554797 0.26991343 0.04453943 -0.4653884
-0.099701546 0.5395518 -0.7833391 -0.25634253 0.036285684 -0.27518228 0.029750898 0.18485503
-0.70417804 0.21626957 -0.024073413 0.4818484 0.4573531 -0.2033282 -0.4826843 -0.52856666
-0.46859166 -0.06439959 0.14509 -0.8594983 0.13584961 0.26892975 0.37515238 -0.11024084
0.15216765 0.14717804 -0.88377976 -0.03909715 0.049066037 0.04843483 -0.27102116 -0.050282013
0.028732376 0.3281805 -0.4287246 -0.02625652 0.18231396 0.10681795 0.4794539 -0.20745079
-0.050715514 -0.016968362 -0.95472425 0.12926704 0.29963532 0.23221175 -0.017789172 -0.26504672
0.36259004 -0.7828887 0.4849151 -0.21116583 -0.5575424 0.34353814 0.1496965 -0.21456292
0.078874536 -0.1326098 0.12004693 0.33142123 0.4361076 -0.21496515 0.09868299 -0.22270429
0.025985874 0.10016349 0.39509884 0.2067908 0.11123389 -0.66048354 0.12442981 -0.37567967
-0.04034388 -0.049676128 0.049363974 0.076769926 0.20958179 -0.18662442 0.18469776 -0.36188668
-0.35012713 0.009132644 0.114535205 -0.35389525 0.12694716 0.084069535 0.24169897 0.09479909
0.25115988 -0.0848398 -0.76379347 0.018920403 -0.16875161 0.010656378 0.35325956 0.019279627
0.073660925 0.37655684 -0.81531125 0.03477927 0.15981041 -0.02453024 -0.28242502 0.53186023
-0.08766696 -0.11942393 -1.0791007 -0.028665582 -0.16508038 0.32143444 0.10429763 -0.3192874
0.30277872 -0.38335562 0.032623813 -0.14805295 -0.0859808 0.103003986 0.1874332 0.13572858
-0.045571715 0.28286144 0.086328685 -0.03492131 0.34722358 -0.3575473 0.05760658 0.25721708
-0.049698453 -0.056537848 -0.28296718 -0.12130764 -0.04537253 -0.6481545 0.0069306325 0.39984894
0.045249604 -0.05429768 -0.017923994 -0.13103858 0.09648507 0.11938602 0.32775596 -0.58601046
-0.06815997 0.1021813 -0.05986221 -0.5583472 -0.050384045 0.052625556 0.092530295 -0.077183545
-0.18965411 0.47499883 -0.4381922 -0.0749207 -0.063164905 0.037492614 0.07631128 -0.0813392
-0.060836136 0.21659347 -0.73594487 -0.11045815 0.32255244 0.053652633 0.063412905 0.20341165
0.14390026 -0.09127559 -0.6273008 -0.0034632306 -0.33608258 0.30635428 -0.08749427 -0.23435247

actor.4.bias f4 [36]
00000000: 2fd9 1bbe eecf a0be ca4a 87be 30d6 9ebe
00000010: d251 193e cf66 553d f2a3 423e 052e 013e
00000020: 190a 3cbc 9206 c2bd 2d32 a53c 390c 5239
00000030: a5c5 273e 90d4 353e 2ddb 153e 280d b83b
00000040: b85a fbbe f9a4 eabe f39b 00bf f58b 83be
00000050: 4950 07bf 19a2 d83d 62bd c03d 5a19 f3bc
00000060: 7846 4d3e d939 1c3e 58b4 dc3d c608 0a3c
00000070: df7a 22ba 9d1c f63d 6bc9 ef3d b844 e5bc
00000080: f93f 473e aa48 5e3e cf0e 013e 2eec 023e
-0.15219568 -0.31408638 -0.26424247 -0.31022787 0.14972618 0.0521 0.19007853 0.12615211
-0.011477017 -0.094739094 0.020165527 0.00020031714 0.16383989 0.17756867 0.1463439 0.0056168027
-0.4909265 -0.4582899 -0.5023796 -0.25692716 -0.5285688 0.10577793 0.09411122 -0.029675175
0.20046413 0.15256442 0.10776585 0.008424943 -0.0006198119 0.12017176 0.11708339 -0.02798687
0.19457997 0.21707407 0.12603305 0.12785408

critic.0.weight f4 [64, 62]
00000000: c860 9c3d 6a19 ab3d 31d8 abbd 6c5b 1b3c
00000010: 48eb b2bd f7ee e8bc 6ff6 9aba 359d db3c
00000020: 8e90 adbd 6a77 58bd c0e8 18be 3903 10be
00000030: 4d35 babd 3a98 4fbc 1472 e6bd aebe b6bd
00000040: fe10 09bc ab20 ddbd 13fe f7bd c876 b63d
00000050: 0c4a bbbd 7c17 b63d d610 103c 3e3c 98bc
00000060: ef3e c93d 2717 cbbd c034 793d b399 ad3d
00000070: 98eb 923c 8d35 02be c589 733c 00f4 8cbd
00000080: f2fb c0bd 9aa3 b13d 5232 b7bc 73eb af3d
00000090: 160d 8cbd 74b4 66bd a684 a6bb 8f62 0cbd
000000a0: 8abb f33d 40ca 833d e1f0 143e 35c6 bebd
000000b0: e9b0 8d3a dda0 883d 7d0d 7aba 0d1f d9bd
000000c0: 5866 d43d 5f8b 20be a4d5 babd bb55 e5bd
000000d0: 12b7 003d d203 a03c 3ad8 e5bd d642 97bd
000000e0: e32d 2d3d 8a36 303d 7f85 3dbe 4926 3fbd
000000f0: 4eee a1bd f1a3 65bd dd19 e7bd ccbf 833d
00000100: 2839 8dbc 1325 4dbd 02ee 2dbe 755b 023e
00000110: fdd3 043e 08bf 623d a753 a5be b1fc ccbe
00000120: 7ca2 ecbb 32b5 803e 1451 ecbd fe03 6f3d
00000130: 7dcb f63c e249 d63d a3f5 d43d fb2e df3d
00000140: bf91 8b3d 4504 dfbb 5d60 05bd 7659 f8bd
00000150: e2da 883d 00cd ebbc a810 a33c edf3 eabc
00000160: 15fc a73d bd3a 843b ccb7 563e f0e7 293e
00000170: 9172 763e d182 cf3e 73dd 703d 5f54 99bd
00000180: b5e9 b63d e77b c93d 3416 41be 8662 f2be
00000190: b421 2a3c 5ae9 183e 9839 3e3d 12ce a4be
000001a0: e5d6 dabc 11d7 04be 72b2 dcbe 1f71 91be
000001b0: 308e 04bc f99f 3a3d cdc3 8bbc 8be1 87bc
000001c0: c88b 61bd 2d7f cfbd b01b 3fbd 6910 0fbe
000001d0: 30d9 3cbe 064d 2d3d 4756 813e 8e46 483d
000001e0: b45a b43c b641 2c3e 428d ccbc 1492 86bd
000001f0: 1a4f d7bd 1423 a33d 1f64 d73d 2324 473d
00000200: a71b 9abd 1364 8dbe 3c42 83bd 77e6 57be
00000210: 6814 853d 28b7 4bbe 6c9c bdbb e178 c0bd
00000220: 5fed 16be 43f6 d03c cbb0 04bd b718 dbbd
00000230: 011f a3bc 0aa1 99bd de74 f23d 9b83 d3bd
00000240: 2bc6 f23d 77ec afbc ce58 bc3c 047c e23d
00000250: c3b2 70bd adbd 40bd c437 573d c2ca 03bd
00000260: 0789 58bd f985 033d ee5f 10bd 5114 2bbb
00000270: a6e6 63bd c67e 533d fd69 493c 220e c8bd
00000280: 9a6b 96bd 49bd a0bc 0663 23be 059b 773d
00000290: 820b 5ebe 5d89 2bbe 1e97 913c 2a4b 8d3c
000002a0: b9e9 443e 275b 89bd abc0 d7bd 6a21 60bd
000002b0: e59a fdbd 9086 1b3d b949 52bd 0af4 373d
000002c0: de67 773d 36c4 8a3b f674 f5bc ed66 2abe
000002d0: 12f4 a0bd b5a2 e9bb a432 0ebe 0831 903d
000002e0: d5f6 d73d 6813 12bc 5d8e ebbd c211 efbd
000002f0: 8dab d9bd 5cf5 b53d 39b1 8bbc 24c9 08be
00000300: d751 dabd 76f5 e2bc 038b 25bc d91b 4dbe
00000310: 5a7a 23be d99e 1cbd 501b ffbd ac52 c9bd
00000320: 5f10 b23d 2596 803d 915f 1bbd 4b6d a1bd
00000330: 82c9 abbd 4523 b83d daa5 ac3c 59b8 2a3d
00000340: d503 bdbd b2e2 c03c 8db4 e73d 4d75 8e3d
00000350: 4c09 b6bb 3779 6fbd 75cc 833e ec28 a7bd
00000360: bb5d 3cbd b51d 94bd 0b87 13bd a704 a4bb
00000370: 5bdd f4bc 8e49 9abd 6c19 0dbe b468 3cbd
00000380: e50d e0bc 6aba b03d 7b98 94bc 5778 e5be
00000390: 9255 e2bd a7e0 a1bc dc27 1cbd 1760 afbd
000003a0: 3888 12bd 27dd 863c 889d 31bd 3bcd 5fbd
000003b0: f24a b4ba 4b5c b4bd bd15 b73d 4e74 91bd
000003c0: 2300 68be b31e a7bd 1626 77bd 1347 a0bc
000003d0: d787 3ebd 3c63 a43d 6021 f3bd be4e 49bd
000003e0: 3ef8 8b3d 0179 b83d d02e eabd c831 a8bd
000003f0: d7d8 f1bd 0ce2 5bbd 44af 633d 6145 e03d
0.07635647 0.08354457 -0.083908446 0.009482246 -0.087362826 -0.02843426 -0.001182271 0.02680836
-0.08474837 -0.052848257 -0.14932537 -0.1406373 -0.090921976 -0.012670571 -0.112522274 -0.08923088
-0.008365868 -0.107972465 -0.12109008 0.089093745 -0.09144983 0.08891198 0.0087930765 -0.018583413
0.09826457 -0.09916525 0.060841322 0.084765814 0.017934605 -0.1271574 0.01486439 -0.06882477
-0.09423055 0.08673783 -0.022362862 0.0858983 -0.068384334 -0.056324437 -0.005081731 -0.03427368
0.119010046 0.064350605 0.14545013 -0.09315149 0.001081017 0.06671307 -0.0009538753 -0.106016256
0.10371083 -0.15678166 -0.0912278 -0.111979924 0.03142459 0.019533072 -0.112228826 -0.07385795
0.04228009 0.043020763 -0.18507956 -0.04666737 -0.07906781 -0.05606455 -0.1128423 0.06433067
-0.017239168 -0.050084185 -0.16985324 0.127302 0.12971492 0.055357963 -0.32290384 -0.40036538
-0.007221518 0.2513824 -0.11538902 0.058353417 0.030126328 0.10463311 0.10398414 0.10897633
0.06814908 -0.006805929 -0.032562602 -0.12126438 0.066823736 -0.028784275 0.019905403 -0.028680766
0.08202378 0.0040353225 0.2096855 0.16592383 0.24067141 0.40529492 0.05880494 -0.07486796
0.08931295 0.098380856 -0.18856126 -0.47340792 0.010384012 0.14932767 0.046441644 -0.3218847
-0.026713798 -0.12972666 -0.43104893 -0.28406617 -0.008090541 0.045562718 -0.017061139 -0.01658704
-0.055064946 -0.10131679 -0.046657264 -0.13971104 -0.18442225 0.042309783 0.25261137 0.04889541
0.022015907 0.16821942 -0.0249697 -0.06570831 -0.10513134 0.07965675 0.105171435 0.048618447
-0.075248055 -0.27615413 -0.064091176 -0.21084009 0.06498033 -0.19894087 -0.005786469 -0.09398056
-0.14738987 0.025508052 -0.032395165 -0.10698073 -0.019912245 -0.07501419 0.11838697 -0.10327836
0.11854204 -0.02147506 0.022991564 0.1105881 -0.05876423 -0.04705589 0.052543417 -0.032175787
-0.052865054 0.03211019 -0.035247736 -0.0026104639 -0.055639885 0.051634572 0.012293336 -0.097683206
-0.07344742 -0.019621508 -0.15955743 0.060450573 -0.21684077 -0.16751619 0.017772254 0.017247755
0.19229783 -0.06706839 -0.105347954 -0.054719366 -0.123830594 0.037970126 -0.05133984 0.04491047
0.06040179 0.004234816 -0.029962998 -0.16640826 -0.07859053 -0.007129992 -0.13886505 0.07040602
0.10545126 -0.00891576 -0.11501763 -0.11673309 -0.10628424 0.08884689 -0.01705228 -0.13357979
-0.10660141 -0.027704936 -0.010103944 -0.20030154 -0.15964642 -0.038237426 -0.12456381 -0.098302215
0.08694529 0.06278638 -0.037932936 -0.07882174 -0.08388044 0.08991102 0.021075178 0.041679714
-0.092292465 0.023545597 0.11313734 0.06955967 -0.0055553075 -0.05846521 0.25741926 -0.08162102
-0.045987826 -0.07232229 -0.03601746 -0.0050054374 -0.029890707 -0.07533561 -0.13779229 -0.04599829
-0.027350375 0.08629306 -0.018139115 -0.44818375 -0.110514775 -0.019760443 -0.03812395 -0.085632496
-0.03577444 0.016462876 -0.043363124 -0.054639082 -0.0013755246 -0.08806666 0.08939693 -0.071022615
-0.22656302 -0.08160152 -0.060339056 -0.01956514 -0.046516266 0.0802674 -0.118716 -0.04914736
0.06834458 0.09007455 -0.1143471 -0.0821262 -0.11808937 -0.053682372 0.05558707 0.10950733

critic.0.bias f4 [64]
00000000: aec9 40be 2322 c43d 5f41 44be e212 3abc
00000010: ef10 2ebd 76e0 6abd 151f 70bd f5a5 63be
00000020: 4881 3fbe da08 593c fe9c c1bc 1e41 afbc
00000030: 2da6 96bd 4daa 36be f3cd c4bd 9b32 3a3d
00000040: 338e 29be 2292 c3bd c70d 23be f38a 8fbd
00000050: 9341 0bbd 7e12 833b 6a79 38bd d901 dcbb
00000060: 1337 40bc 0bf6 47bd 759f 3ebe 4c30 403c
00000070: 7d48 95bd 8f01 3c3c e833 4cbd dd9c 40be
00000080: 202a 66bc f7c4 f0bd bf3f 15be 2efe 7dbd
00000090: c608 3ebd d54d d8bd 9f74 e9bb eef2 003e
000000a0: 24e5 0fbe 76fe 273a 8868 07bd 46cd 1fbc
000000b0: b32b 4fbe bf9c 85bd 5eda a23d 1fa8 a33c
000000c0: be11 4a3c e7da b6bd 6797 543d 65f4 e9bd
000000d0: 0827 f6bc bbdb e8bd 65d5 59be e1b3 eebd
000000e0: 5828 3fbd 0b1d 9abd da4d 2ebe cb1d 163c
000000f0: 8759 8b3e b774 79bd 1522 7cbe c478 c7bd
-0.18826935 0.095768236 -0.19165562 -0.011357041 -0.042496618 -0.05734297 -0.058623392 -0.22231276
-0.1870166 0.013246739 -0.02363443 -0.021393355 -0.07355914 -0.17838402 -0.09609594 0.045458417
-0.16558151 -0.09549357 -0.15923224 -0.07008924 -0.033998083 0.004000007 -0.045037664 -0.0067140874
-0.011731881 -0.04881863 -0.18615516 0.011730265 -0.07289217 0.011474981 -0.04985419 -0.18809839
-0.014048129 -0.11756318 -0.14575098 -0.062009983 -0.046395086 -0.1056172 -0.007124498 0.1259267
-0.14052254 0.0006408462 -0.033058673 -0.009753531 -0.20231514 -0.065240376 0.079518065 0.019977627
0.012333332 -0.08928471 0.0519022 -0.11423568 -0.030047908 -0.11370035 -0.2127281 -0.11655403
-0.046669334 -0.07525071 -0.17021886 0.009162377 0.2721674 -0.060902324 -0.24622376 -0.09739831

critic.2.weight f4 [64, 64]
00000000: 0714 6dbd 83e7 063e 4f6c 9b3c 5d73 01bb
00000010: 44ef e3bd e449 b2bc 9d37 16be 42f9 843d
00000020: 75d5 62be c69c 33be cd9c 2f3d f43b 823e
00000030: 296d a5bd 9768 bf3d 11db 01bd 6e4c bcbc
00000040: 3a6a 8f3d 2ce1 ec3d 140b f4bd 9f15 613e
00000050: 7892 cdbd f03c 8bbe 6410 a63b fc46 423e
00000060: 28a8 91bd 7308 f73c 5956 87be bc0b 3bbd
00000070: 09dc 67bd b521 d33d b4ca 843c 8c1d 93bd
00000080: 02cd 763e 1142 42bd e1da cdbd 1149 c43d
00000090: 70d9 8dbe 450b f33c a11f 25bd fb1b acbe
000000a0: b7e1 94bd 5b05 133e b014 543d 8c81 c0be
000000b0: a936 babc 47fd cdbd a984 e8ba 643a 1cbe
000000c0: 8e15 543e 9589 373d 907b 413e e64b 2c3e
000000d0: c281 0bbe 752d 83bd 3ac6 56bd 03d8 d83d
000000e0: 5f87 a1bc bea4 313e a40c 8dbd ec1c 72bd
000000f0: a00c 50be 1757 44be 6fac 273e aaec e6bc
00000100: c3cf 943c a96a e3bc d952 18bd 5f26 5abd
00000110: 40af ffbd dc97 81bd 4ab1 9fbd 50a2 043e
00000120: d4e8 8ebd 7645 efbd 96d9 e8bd 7cf6 95bd
00000130: 946c 3ebd 98aa fabd f159 b3bd 2b0d 21bd
00000140: 279b a63d bb08 b4bd 348f 0fbc 724c a33d
00000150: 5979 ad3d 3b7a 323c a16a 543d b460 f7bc
00000160: ef8f 9fbd 49bc f5bd 862b 00be 0410 8f3d
00000170: 94c1 92bc d58d fdbd e737 bbbd 40d5 34bd
00000180: a361 0d3e 85c0 a6bb 5ffc 90bb 8155 89bc
00000190: 896c 0cbd 2f1b 923c 83c2 4f3c 61ec 15bd
000001a0: 50cf ff3d 21a3 e03c ad37 a3bb ea8c cf3c
000001b0: 23d3 8e3d dbeb 19bd 425b 12bd 0b9d 91bd
000001c0: 2ad1 94bd 20ee 10bc 6959 abbd 4947 a13d
000001d0: dbe1 d5bd 4ed0 a9bd f469 7fbc 79bc 6e3d
000001e0: b310 adbd 5360 55bd 6633 a83d 8d8c fabd
000001f0: c780 f63d b4a1 643c 02bf 333c 3012 b0bb
00000200: e62e cd3c edf1 903d 7a00 dc3c db74 3b3d
00000210: 8057 70be bde1 e1bb 0c5d 3a3d e311 c4bc
00000220: d680 dc3b 0283 6a3d 866b 97bd 7e00 7fbe
00000230: 87f7 6abd 49ee 5e3d 31fe fd3c 85d5 1c3d
00000240: 5e05 38be 65e9 2c3d 73ed a3bd 6dd2 9cbd
00000250: af28 29bd d7f1 333e cac2 8b3e ef23 1a3d
00000260: 3ec5 06be fcf4 d73d 4733 0c3d 3bb2 41be
00000270: 323b c63c b1ec 2abe 67b8 be3d 0cc0 15be
00000280: 3e0d 243c a03c 72bd d4df 783d edca 99be
00000290: a9fc d63d 533e 4d3d dc85 f5bd 0f02 1cbd
000002a0: e3ae 933b 3e7d 053e b9a7 5dbd 0a16 fabd
000002b0: 8f8f 20bd b624 973d 0775 693e f3f9 97bd
000002c0: 8852 fa3d 7642 4abe 6efe c13c e7e2 3cbe
000002d0: 3488 07bc 5b75 143d e039 f9bc b375 f13d
000002e0: c18b efbc 0cf1 93be 2110 febd 117b 7f3c
000002f0: d7d4 883e 807e 38bd c8cd 403d 4197 1bbe
00000300: 430e 2e3c 23d3 b0bd 2060 13be cc52 66bd
00000310: c863 1fbd 6200 e0bd 7e0f f53c 1709 54bd
00000320: d711 02be d1bd b2bd 850a 32bc c359 c4bd
00000330: 6877 9e3d f712 58be bcf0 cb3d 1df2 bd3d
00000340: 819e 723d 82b0 c5bd fba2 3bbe 5bc7 28ba
00000350: d1d3 c7bb a4b8 1d3d 2253 c0bd ae47 67bc
00000360: 93c3 febd af4f e3bd f22c 29bd 9806 42bc
00000370: d9fd 063c a5cf 0abe 82ca c03d 4884 11be
00000380: 666f ceba 24fc 9c3d 33b2 dbbd f8d3 23be
00000390: 21c0 a3bc b0ec 0cbe 13eb babd 7871 f2bd
000003a0: 3ce2 86bd 7b66 093e 6f8a dfbd b755 163d
000003b0: cbd2 09be fad2 bf3d 6101 01be 4687 a9bc
000003c0: 4a74 26bd ed69 47bd 5cd2 15be 11b5 96bd
000003d0: fd07 88ba 895c 433d 141d 8bbd 305f d53d
000003e0: 2f45 96bd 055f eb3d b21c ecbd c6ee 54bd
000003f0: d59f bfbd fec8 85bd 7664 9e3d 2405 fb3d
-0.057880428 0.13174252 0.018972544 -0.00197526 -0.11129621 -0.02176375 -0.14669652 0.06492855
-0.2215174 -0.17540273 0.042874146 0.25436366 -0.08077461 0.09346121 -0.03170306 -0.022985663
0.07002683 0.115663856 -0.119161755 0.21980904 -0.10037702 -0.2719493 0.005067872 0.18972391
-0.071121514 0.030155396 -0.26433066 -0.045665488 -0.056606326 0.103091635 0.016209938 -0.0718337
0.24101642 -0.047426287 -0.100515135 0.09584249 -0.27704954 0.02966846 -0.040313367 -0.33615097
-0.07269614 0.14357512 0.05177754 -0.37598836 -0.022731142 -0.100580744 -0.0017739731 -0.1525665
0.20711347 0.044808943 0.18894792 0.16825828 -0.13623717 -0.064051546 -0.052435137 0.10588076
-0.01971787 0.17348 -0.06887177 -0.059109613 -0.20317316 -0.19173847 0.16374372 -0.028189022
0.018165475 -0.02776082 -0.037188385 -0.05325925 -0.12484598 -0.06327793 -0.07797487 0.12952542
-0.06978002 -0.116831705 -0.11369626 -0.07322404 -0.046490267 -0.122395694 -0.08757389 -0.0393192
0.08135062 -0.08790728 -0.00876217 0.07973565 0.08470411 0.0108934 0.0518595 -0.030197479
-0.07791125 -0.11998803 -0.12516603 0.069854766 -0.01791457 -0.12380568 -0.09141522 -0.044148684
0.13806777 -0.005088868 -0.004424616 -0.016764404 -0.034283195 0.017835228 0.012680653 -0.03660238
0.124907136 0.027421536 -0.0049810023 0.025335748 0.06973865 -0.037578445 -0.03573156 -0.07110032
-0.072664574 -0.008845836 -0.08366663 0.07874925 -0.10443469 -0.08291684 -0.015589226 0.05828521
-0.08450451 -0.052093815 0.082129285 -0.12233839 0.12036281 0.013954569 0.010970833 -0.005373262
0.025046777 0.07077394 0.026855696 0.04576574 -0.23470879 -0.006893365 0.045498893 -0.02393431
0.0067292256 0.057253845 -0.07393555 -0.24902532 -0.057364967 0.054426465 0.031004997 0.038289566
-0.17970797 0.04221477 -0.08004274 -0.07657323 -0.041298565 0.17572723 0.2729705 0.037631925
-0.1316118 0.10544774 0.03422859 -0.18915646 0.024198148 -0.16691853 0.09312516 -0.14624041
0.010012923 -0.059139848 0.060760334 -0.30037633 0.1049741 0.050108265 -0.11988422 -0.0380879
0.004506932 0.13036057 -0.05411503 -0.12211235 -0.03919941 0.07380049 0.22798549 -0.07420721
0.12222773 -0.19751915 0.023680892 -0.18445931 -0.008272219 0.03624473 -0.030423105 0.117900275
-0.029241445 -0.28894842 -0.1240542 0.015593306 0.26724884 -0.045042515 0.04707125 -0.15194418
0.010623517 -0.08634021 -0.14392138 -0.056231305 -0.03891352 -0.10937573 0.029914614 -0.05176648
-0.12702118 -0.08727611 -0.010866766 -0.09587433 0.07737619 -0.21100985 0.09958026 0.09274695
0.059233192 -0.09652807 -0.18323891 -0.00064383977 -0.0060982485 0.038506165 -0.09390856 -0.014116211
-0.124396466 -0.11099183 -0.04130263 -0.011842392 0.008239233 -0.13555773 0.09413625 -0.14210618
-0.0015749752 0.076652795 -0.10727348 -0.15998828 -0.019989075 -0.13762164 -0.09126868 -0.11838049
-0.065861195 0.13418 -0.10915076 0.036702838 -0.13459317 0.093664125 -0.12598182 -0.020694386
-0.040638246 -0.048685003 -0.14631027 -0.073587544 -0.0010378357 0.04769567 -0.067926556 0.10418546
-0.073374145 0.11492733 -0.11528911 -0.051985525 -0.093566574 -0.06532477 0.07734005 0.1225684

critic.2.bias f4 [64]
00000000: f19a 6d3d 1a9d c0bd 0185 0e3d 1813 c0bd
00000010: 1405 3abe 04e7 23be de01 a7bd e55d 5abe
00000020: 3dd0 cdbd bb38 86bc a2fc fbbc a72c 19bc
00000030: e80f 4cbd f9cd 82bd 1b6c 003d 3bac 99bd
00000040: ec3b aebd 8ea8 cfbd f2d1 a5bb 408b adbd
00000050: 0bb4 5cbc 1c4f 46bd 8c57 41bd ed50 52bd
00000060: 672b d63c 41ec 43bc 49ac bebd fb8c 0abd
00000070: df1f 90bd a3ba 36bd 739a 433d 1ea3 91bd
00000080: 3850 8abd d15c 8539 0965 14bd 21d4 99bd
00000090: ac33 f5bd bae2 43bd 902c 103c 3da2 663d
000000a0: b8a1 2dbd e216 b4bd 7f72 ae3d 6c1f 4abd
000000b0: e421 0f3d 1394 103d f849 13be c859 a2bd
000000c0: b5df ccbd dd0e 403d 6183 063d 8f04 0dbe
000000d0: cee7 483b 4df3 cfbd 33e9 a9bd 4f15 b5bd
000000e0: 4873 c7bc fb90 0cbd 5334 84bc 0760 a5bd
000000f0: ecb5 19be 6568 5abd d370 e0bd b8c2 09be
0.05800909 -0.09404965 0.03479481 -0.09378642 -0.18166 -0.16006094 -0.08154653 -0.2132488
-0.10049484 -0.016384473 -0.030760113 -0.009349025 -0.049819857 -0.063869424 0.031353097 -0.075035535
-0.08507523 -0.10139571 -0.005060428 -0.084738255 -0.01347066 -0.04841529 -0.04720263 -0.051346708
0.026143743 -0.011958183 -0.093102045 -0.033825856 -0.07037329 -0.044611584 0.047754716 -0.0711119
-0.06753582 0.0002543689 -0.036229167 -0.075111635 -0.11972746 -0.047823645 0.008799687 0.056307066
-0.042390555 -0.08793427 0.08517932 -0.049346372 0.03494443 0.035297465 -0.14383686 -0.07927281
-0.10003606 0.046889175 0.032840136 -0.1377127 0.0030655744 -0.10153828 -0.08296432 -0.08841955
-0.024346963 -0.03431795 -0.016138231 -0.080749564 -0.15010804 -0.053322215 -0.109590195 -0.13453186

critic.4.weight f4 [1, 64]
00000000: 5697 62bd 79f9 15bc 87fc 8f3d 326c 91bc
00000010: 1bf6 74bd 3093 193c 898d bc3d c1d0 8d3d
00000020: 955f 123e 5aba 1dbe 497b d13a d15b 6eba
00000030: 8d41 dc3b 6741 44bb 36b0 1dbe 39f0 cd3a
00000040: 86d0 d5bb 1813 263c 0455 873c d4b0 603c
00000050: 9dd2 743c b479 533b 9baa 02be 33ef 363e
00000060: 99b9 ed3c e359 21be 7e80 e33b 0858 eebd
00000070: 43e5 27bb 7ca6 a1bb 8f9d b3bd 3aaf 6dbd
00000080: d114 e43b 2433 e23d d545 d5bb 3def 03bd
00000090: f29f f53b a8e4 cbbd f401 81be 7cba 3a3e
000000a0: 54db d63c f2e1 9f3d 051d d13d 352c 943b
000000b0: e835 d0bd f06b 8b3d eafe a4ba a7cc cf3c
000000c0: 6834 743b 6fdc d1bd 7b1c 16be 088a 41bb
000000d0: fd0f 453e ff35 acba a486 5aba 2099 2f3d
000000e0: 7a34 1abb 947e 92ba 6fd2 a9bd 7c18 163b
000000f0: 39ee febb ed16 253d 2107 a9bd 5aa5 b3bd
-0.055320106 -0.009153717 0.07030588 -0.017751787 -0.059805017 0.009373471 0.09206683 0.06924582
0.14294274 -0.15403119 0.0015982176 -0.0009092661 0.0067216814 -0.002994621 -0.1539925 0.0015711851
-0.006525102 0.010136388 0.01652003 0.013714034 0.014942792 0.0032268586 -0.12760393 0.17864685
0.029019164 -0.15756945 0.0069428077 -0.116378844 -0.0025618828 -0.0049331766 -0.08770286 -0.058028437
0.0069604893 0.110449106 -0.006508569 -0.032210577 0.0074958736 -0.09955722 -0.25196803 0.182352
0.02622763 0.078067675 0.10210613 0.0045218715 -0.10166532 0.06807697 -0.0012588177 0.02536614
0.0037262682 -0.102471225 -0.14659302 -0.0029531736 0.1924438 -0.0013138651 -0.0008336103 0.04287064
-0.0023529814 -0.0011176639 -0.0829209 0.0022902777 -0.007779863 0.040305067 -0.08253313 -0.08771773
