CybORG/CybORG/Models/bline_train/70000.pth (torch, 78565 bytes, 11 tensors)

actor.0.weight f4 [64, 62]
00000000: ed40 79ba e786 8b3d 2a12 d6bd 3c6a bfbd
00000010: d0a7 b2be 5eb8 15be b0ad 71bd 7ee7 333e
00000020: 433c 79be 3fdd 4fbe f1dc 2abe 41c9 b9be
00000030: c081 4fbe 8ab4 913d d558 a1bd 2896 6bbd
00000040: 81a6 4d3d 4d10 9c3d 7754 b0bd 4686 62bd
00000050: 5df1 3c3d 15fb d73d 861c d6bc 12a2 c23d
00000060: 58b1 a7bc c02c 5c3c cf82 eb3d 9948 f1bd
00000070: 7f08 14bf abe7 35bc 32dd 113e ded8 243f
00000080: cf96 a8bd 3376 6fbd b9b6 b5bd 9498 f3bd
00000090: b20f f73e ceca 0a3f 62b6 a13d e145 1dbd
000000a0: 20d1 9b3d e44a 073f 41dd 803d 5660 0dbd
000000b0: f342 37bd f9e1 8fbe 2a42 0a3e 9d0b c73c
000000c0: 29ff 6bbc 15f7 a6bb bc24 f73d 743b b43d
000000d0: 8474 4e3d 2b0e 68be cd39 603c da42 cbbd
000000e0: 8fdd 7b3e 70a7 c9bd 72a0 03be 4fe5 a6bd
000000f0: 77fe 823e 486f e23d 9411 9abd 6327 1d3d
00000100: 1bc9 8e3d 8d50 83bc eb4a 8fbd 93f8 1f3e
00000110: 058f 9a3e 307e 5a3e 15b1 55bd 05d1 a13e
00000120: 778f 2a3e 32f6 393f 20f9 193e 0fff 49be
00000130: 3a59 483e a144 77bd 4d6a 3f3c b5b7 a2bd
00000140: d565 f2bd f417 e73d 48c4 c53d 05ba 01be
00000150: 23bb c23c 6643 afbc fb34 abbc 271f 6ebd
00000160: 120b 483d 510e 9abd 0311 133d c260 2f3e
00000170: 2af6 983e 51ce d13e 95b6 00be 40b9 a8bd
00000180: b6de 813d 05c1 d93c dd9b 6ebe 28df 37be
00000190: 3b18 353e 3322 a03d 8fa7 30be ca09 bbbe
000001a0: c554 21be 2090 eabd 91c2 cdbc d9cf d53d
000001b0: 6a3c e83c f067 013e cab2 9abc f3ee f03d
000001c0: eaac b63c d90e 543e 723e b23d 7b7a bebe
000001d0: 4fbe 23be a8d6 ca3d f3d2 553e a8c0 f63c
000001e0: 37c6 c23c 452b 62be e472 473d e216 143e
000001f0: 3e7f f9bd 2929 9abd 3f38 02bd 8964 7dbd
00000200: 06a9 a3bd 7c8a 8fbe b713 9cbe 9805 eabe
00000210: 97e9 aabe 5e06 e7ba 355d 143e 588e 263e
00000220: e8d0 68be 717f 7dbe 4bf4 4d3e 58bf b53e
00000230: 0c60 f63d f82c a53d 5cf0 f63d 177c 16bc
00000240: 6aa6 e9bd 869c 76bd d419 b13d 1ed1 57ba
00000250: a747 81bd 9850 c7bd 5f69 f3bd fc85 dbbd
00000260: 28af 893e 5706 913d 2fd1 2d3d 1e2f ccbd
00000270: 4e3e a23d 1c87 cbbd b6f2 dbbc 80ec 52bd
00000280: 08e1 c8be 5f16 d4be c0c2 d23c d3dc 73bd
00000290: 59b1 85be 5221 23bf 4860 aabc d8d6 7d3d
000002a0: b670 54be 2d78 83bd 0f6d 093e f07b 1a3e
000002b0: c071 023d 2744 89bd b3cf b8bd cfd2 803d
000002c0: ff1b 70bc 1bd1 babd 45dc 263e 40ab d13d
000002d0: 2f8d 983d f6d2 d9bc 9773 f13d b853 95bc
000002e0: d8cc 6c3e 4c65 c03d b02f fabc 74cc dabc
000002f0: 2a57 d6bd 7fee 8c3d 4bdd dbbd a5b7 94be
00000300: c4dc a8be 671f 0bbf 21a4 dabd bffb c93e
00000310: 2700 233e 5e15 323f 8e9d 5ebe 3323 67bd
00000320: 8112 2cbe 37fd 84be aa9c c4bd 2c8f b2bd
00000330: 2407 97bd d10c b63d b2fd 3abd 6463 db3d
00000340: 051b 3c3d 64bd 833c 2ed4 77ba 38aa cdbc
00000350: 8788 823c fe90 edbc 7827 c83d 018a 2fbd
00000360: b784 11be b258 85be 9d06 d23d 8b14 d3bd
00000370: 8469 15bc 0ea6 003e d5d5 8cbe d42d 21be
00000380: ac7f 93bb d697 113d 959b 47be eeb7 0abf
00000390: d11e 0c3e 1387 a63d 1efd 53bd 20bc 4f3d
000003a0: 9a01 f03d a751 983c 30c8 873e 2e8a 473d
000003b0: 15ab 843e 1484 213c 7d78 5cbd 4d61 b7bd
000003c0: 772f 783d 65e0 923e b152 a3bd 822f 5539
000003d0: 3ddb 71bd fd67 b0bb ef54 663e c28d c0bc
000003e0: fc6c e53a 05e2 b0bc 54fc 88bd 3e82 893c
000003f0: 2775 1abe e71a 88be 9364 733d 3bd8 a1bd
-0.0009508271 0.0681284 -0.10452683 -0.093464345 -0.34893656 -0.14621112 -0.059003532 0.17568776
-0.24339394 -0.20299242 -0.16685845 -0.36286357 -0.2026434 0.07114513 -0.078782715 -0.057516247
0.05020762 0.076202966 -0.086098604 -0.055303834 0.04612862 0.10545937 -0.026136648 0.09503569
-0.020470306 0.013438404 0.11499559 -0.11781425 -0.57825464 -0.011102597 0.14244536 0.64393413
-0.082318895 -0.058462333 -0.08872742 -0.11894336 0.48254162 0.54215705 0.07896115 -0.03839672
0.07608247 0.5284865 0.06292201 -0.0345157 -0.044741582 -0.2810209 0.13501802 0.02429753
-0.014404097 -0.0050953724 0.120675534 0.08800402 0.050404087 -0.22661655 0.013685656 -0.0992486
0.24596237 -0.09846389 -0.12854174 -0.08149206 0.25584766 0.110563815 -0.07522884 0.03836764
0.069719516 -0.01602962 -0.06996711 0.15622167 0.3018724 0.21337199 -0.05217083 0.31604782
0.1665629 0.7264129 0.1503644 -0.19726203 0.19565287 -0.060368184 0.011683059 -0.079451956
-0.11835829 0.112838656 0.09656578 -0.12668617 0.023770874 -0.021394443 -0.020899286 -0.058135178
0.048838682 -0.07522262 0.035904896 0.17126754 0.29875308 0.4097772 -0.1256965 -0.08238459
0.06341307 0.026581297 -0.23301645 -0.17956221 0.17685024 0.07819023 -0.17251419 -0.36530906
-0.15754993 -0.11453271 -0.02511719 0.104400344 0.02834912 0.12637305 -0.018884081 0.11764326
0.022299249 0.20708789 0.08703317 -0.3720282 -0.15990566 0.09904224 0.20881252 0.030121163
0.023776157 -0.22086819 0.048693553 0.14461854 -0.12182473 -0.07527382 -0.03179192 -0.061863456
-0.07991223 -0.28035343 -0.3048379 -0.45707393 -0.3338134 -0.0017625799 0.1448868 0.16265237
-0.22735941 -0.24755646 0.20112722 0.35497546 0.12030038 0.08065218 0.12057564 -0.009184859
-0.11408694 -0.060207866 0.086475044 -0.000823276 -0.06312495 -0.09732169 -0.11885332 -0.10718915
0.26891446 0.07081287 0.04243582 -0.099699244 0.0792204 -0.099378794 -0.026849132 -0.051495075
-0.39234185 -0.41423318 0.02572763 -0.059536766 -0.26111868 -0.6372272 -0.020797864 0.06197247
-0.20746121 -0.06419406 0.13420509 0.15086341 0.03184676 -0.06702452 -0.090239905 0.062902085
-0.014655112 -0.09121915 0.16294964 0.102377415 0.07448804 -0.026589852 0.11789625 -0.018228397
0.23125017 0.09394321 -0.030540317 -0.026708819 -0.10465844 0.06881427 -0.10735568 -0.2904636
-0.3298093 -0.5434479 -0.10675836 0.3944988 0.15918027 0.69563854 -0.2173979 -0.056430053
-0.16803934 -0.25974438 -0.09600194 -0.08718714 -0.07374409 0.08889163 -0.0456521 0.10712317
0.045924205 0.01608152 -0.00094539195 -0.02510558 0.015934242 -0.028999802 0.09773153 -0.04285622
-0.14210783 -0.26044232 0.10255168 -0.10306653 -0.009119395 0.12563345 -0.2750689 -0.15740138
-0.0045013037 0.035545193 -0.19492944 -0.54186904 0.1368363 0.08131232 -0.051755063 0.05071652
0.117190555 0.018593622 0.26519918 0.048715763 0.25911775 0.00985815 -0.053825844 -0.089541055
0.06059214 0.28686824 -0.079747565 0.00020330961 -0.059046973 -0.00538349 0.22493337 -0.023505095
0.0017503793 -0.02159215 -0.06688753 0.016785737 -0.15083753 -0.26583025 0.059422087 -0.07902571

actor.0.bias f4 [64]
00000000: f472 09be 51ad 323d 9328 be3d 108a 97bc
00000010: 7353 b3bc ccb5 dabd cfc3 863d c757 48bd
00000020: ec2f 8a3d 87d6 4fbd 45f4 0bbc 7bfe 17be
00000030: 7c7d 323c 1f9e e63d 8998 583c a98d 9f3e
00000040: e675 0bbe 9a69 c93b d72a e1bd c3f7 4f3d
00000050: 18a6 22be cfc6 8cbb 2e5f 063e 2892 16be
00000060: ad5a 11bc c31e f33d 03ec 363d beb2 e83d
00000070: ccb3 3f3b 0b5d 88bd 7536 afbd 5f17 d73d
00000080: 47d9 2f3d 8f4a 8f3c 5ab1 043e 56f0 753d
00000090: a66c 053e 6036 c33d ee5a 93bd a032 0bbe
000000a0: b625 003e 5b94 883c 7b26 c7bc 2be9 0c3c
000000b0: 6220 093e b2cf 983d e06d 0bbd 4c58 433d
000000c0: ebf7 313d 1821 503d d59d 893d cc76 65bd
000000d0: 2534 0cbd 07ed c1bc aa70 ab3d b951 8d3c
000000e0: 1bc1 463d 8dfa 9b3d 3019 51be e537 243e
000000f0: 5283 c03d 1100 11bd 621a a8bc 3c8b 01bd
-0.13422757 0.04362232 0.09285083 -0.01849845 -0.021890378 -0.10679206 0.06580316 -0.048911836
0.067474216 -0.0507417 -0.008542125 -0.1484317 0.010894176 0.11260628 0.013219961 0.31162766
-0.13619193 0.006146622 -0.10994499 0.050773393 -0.15883672 -0.004296161 0.13122246 -0.14704192
-0.008871716 0.11871102 0.044658672 0.11362217 0.0029251454 -0.066583715 -0.08555309 0.105025046
0.04293182 0.017491607 0.12958279 0.060043655 0.13029727 0.095318556 -0.07195078 -0.1359353
0.12514386 0.016672304 -0.024310341 0.008600513 0.1339126 0.0746149 -0.03404033 0.04769163
0.043449324 0.05081281 0.06719557 -0.056021497 -0.034229416 -0.023672594 0.08371098 0.017250882
0.048524003 0.07616148 -0.20419765 0.16036947 0.09400047 -0.035400454 -0.020520393 -0.031626925

actor.2.weight f4 [64, 64]
00000000: 8a67 9a3d eb14 84bd e31c 823e 9c3a 7ebd
00000010: 0e24 013f 33e2 cc3e a570 8d3d 08e2 50be
00000020: 893f 963e d1b1 e0bd 1c6b 5dbe a089 c5bd
00000030: 52f5 5e3d 39c8 4f3d ab24 e03d 7cb6 f5bd
00000040: ad91 21be 39db 9e3e 359d c33e c121 01bd
00000050: 7833 e93e f709 38be f085 bf3e 38d4 5fbe
00000060: f63e 81be 52fa a13d 0757 cd3d 1fbf 3e3e
00000070: e699 223e 81ec a93e b3df ac3e cd97 c33e
00000080: ac6d 94bd 7f34 c93e 8f38 3ebd 2f6c 01bd
00000090: a5cc 7f3e 95dd 163a b6bd 3dbe 05f4 c53d
000000a0: 512f 5d3d a59a 2d3e e2b4 e83e e83f 4dbe
000000b0: 6356 73be 8456 d33d c8a4 00bd 3e6a 5f3e
000000c0: f803 5f3d ed88 c63d eaba cd3d 2b3b d73e
000000d0: ba0d 6e3e 9b94 583e 7996 213e 20bd 1d3e
000000e0: f0a4 5abe 0350 80bd 8d31 0b3e 130d 7bbe
000000f0: a449 2d3e 8509 65bd 89fa 9c3e 95c6 36bc
00000100: 4559 443e b4d0 cebd b811 cfbd 1492 003e
00000110: 9390 19be abfd a0bd 4c1b 6b3e 0657 ac3c
00000120: c5eb 313e 955d a63e 2986 8a3e cd64 253e
00000130: 366b 73bd f426 14bd bb1c ba3e f958 8b3e
00000140: 074c 103c e27c 563e fec5 c8bd fa01 263e
00000150: bcc4 93be 0211 d13e 9ab3 0dbe a325 08be
00000160: ef9b f53d b0d4 713e 123a eabd 9ccd fe3e
00000170: 6ca7 88bc 56b8 b73d 65e7 23be 7cd9 96bd
00000180: e727 bc3d 5b8c 12b8 7695 a13d 8f2a 48be
00000190: 25a5 333e 714d 8fbe 909e 6b3d 10d5 d7bd
000001a0: dc0c dfbd f14a 413d 15d3 e13d ab46 43be
000001b0: c002 d93d 01b8 4e3c b2b4 3c3d 5ed7 dbbd
000001c0: fee7 e03d 64eb 3b3d 2b7e 60be 3758 193e
000001d0: 086a 7c3e 4786 793d f016 983e 899d 9a3e
000001e0: 90c6 843d f62c 47be f318 0a3d 86ac 463e
000001f0: 2012 46bd aad2 793d 8f1f 37be 843b 4e3e
00000200: 59fc 05be 66b9 113e 664b f73d 76bd d43d
00000210: 991a 173f aa67 c43e bdab a2bd b202 a2be
00000220: 46cb 9c3d 39d0 85be 8f28 023c 4022 26be
00000230: 83be 3b3e 994e 183e 86c7 593e 0cd4 60be
00000240: cb38 2ebe 8490 1f3e 6765 eb3e 2baa 8e3d
00000250: 00c5 893e cb77 afbd 7e46 833e da65 5c3e
00000260: 384c a2bd b7e3 8d3d e6f3 c73e e087 d83c
00000270: d500 d13e a087 0f3e 4dba d23e c732 b43e
00000280: 46e4 d3bd daf8 903e 3a45 c2bd e667 4b3e
00000290: e581 5a3e 4f34 da3d b0b1 c63e 5000 8ebc
000002a0: e07b 1c3d 0c3a 09be 65d1 913e a7c5 213e
000002b0: 9da8 a1be 6ff3 833e 51bb 65be 7eff 933e
000002c0: 229b 9f3e e164 6d3e 7c7f b23e 89d2 913e
000002d0: 5bb3 d5bc 7626 0cbe 9b5e 6fbe 21e9 82be
000002e0: f438 4a3e 7a58 7b3e 6c87 af3e 36a4 e1bd
000002f0: c45d 843d 497e 8a3e 534e 25bc 92fc d83d
00000300: 99ff 053e 86c5 973e 0d4f 673e 64db 0e3f
00000310: 7aba 8dbb c07a 563d f9ba ae3c f9de 933e
00000320: 46c9 af3c e63d e33e d007 173e aa3b a53d
00000330: 2374 9e3b 156a e23e 2e0d 013f 1690 19be
00000340: d309 423e bc57 3a3e dce0 3ebe be7f 843e
00000350: 1e70 1b3b 9245 19bc 3f2a c0bb bb47 623e
00000360: 542c fb3e a1e1 c73e 078a b03d 94d6 86be
00000370: 9397 cebc 648a 5ebe 49cf d03d 0200 783d
00000380: 9c5d da3e 2406 543e c5eb e13e 7396 413e
00000390: d4fe 25be 1e45 d6bd 8a07 503c 50e2 443e
000003a0: 9c45 1c3d 0e38 473e 9487 77be 2674 873e
000003b0: bdfe bf3d 6608 0ebe b330 86bd cfac 003c
000003c0: c20f 67bd 6793 d13d 9285 a8be 4496 d43d
000003d0: 0d69 73be 9609 05be f007 383d 67f7 03be
000003e0: 841a 3fbe ace2 b53e 3c5c 4fbe d7a6 453d
000003f0: 155f ba3e 9d16 953e d4c6 753e af57 c23d
0.0753928 -0.06449302 0.25412664 -0.062067613 0.5044564 0.40016326 0.06906251 -0.20398724
0.29345348 -0.10971416 -0.2162289 -0.096453905 0.054433174 0.050728057 0.10944494 -0.11997697
-0.15778227 0.3102663 0.38205877 -0.03152633 0.4554708 -0.17972551 0.37406874 -0.21858299
-0.25243348 0.07909073 0.10026365 0.18627594 0.1587902 0.3318825 0.3376442 0.38201752
-0.07247481 0.39297864 -0.046440657 -0.031597313 0.2498041 0.0005755064 -0.185294 0.09665684
0.054000203 0.16953523 0.45450503 -0.2004391 -0.23763423 0.10319236 -0.031407148 0.21817872
0.054447144 0.09694085 0.10045417 0.4203733 0.23247424 0.21150438 0.15780057 0.15404177
-0.21351981 -0.06265261 0.13593121 -0.24516706 0.16922623 -0.05591728 0.30659893 -0.011155744
0.19174679 -0.10098401 -0.101108015 0.12555724 -0.14996557 -0.07860883 0.22959632 0.02103759
0.17375095 0.32493272 0.2705548 0.16151734 -0.059428416 -0.03616996 0.36350045 0.27216318
0.008807189 0.20946077 -0.09803389 0.16211691 -0.28861034 0.40833288 -0.13838044 -0.13295607
0.119926326 0.2361629 -0.11436857 0.49766243 -0.016681395 0.08970706 -0.16006239 -0.073657006
0.09187298 -3.493983e-05 0.078898355 -0.19547485 0.17543466 -0.2798877 0.057524264 -0.10538685
-0.108911246 0.04719061 0.11026589 -0.19069926 0.10596228 0.012617112 0.046070762 -0.107344374
0.10981749 0.045878783 -0.2192313 0.14975058 0.24649823 0.060919072 0.29705 0.30198315
0.06483185 -0.19450745 0.0337152 0.1940175 -0.04835713 0.06099192 -0.17883132 0.20139891
-0.13084544 0.1423088 0.12074928 0.10387699 0.5902496 0.3836034 -0.07942913 -0.3164268
0.07655959 -0.26135424 0.00794424 -0.16224003 0.18334393 0.14873733 0.21267518 -0.2195589
-0.17013852 0.15582472 0.459758 0.06966051 0.26908112 -0.085677706 0.2563972 0.21523228
-0.07924694 0.06928199 0.39053267 0.026431978 0.40820947 0.1401658 0.4115776 0.3519499
-0.10346274 0.2831486 -0.0948586 0.19863853 0.21338613 0.10654508 0.3880744 -0.017334133
0.038204074 -0.1340105 0.28480068 0.15798055 -0.31573954 0.25771663 -0.22434737 0.28905863
0.31173044 0.23183013 0.34862888 0.28480938 -0.0260865 -0.13686547 -0.23375933 -0.25568488
0.19748288 0.2454547 0.34283006 -0.11017649 0.06463197 0.27049473 -0.010089475 0.10595049
0.13085784 0.29642886 0.22588749 0.55803514 -0.0043252083 0.052363157 0.02132939 0.28881052
0.02145828 0.44383162 0.14749074 0.08068021 0.004835622 0.4422156 0.50410736 -0.1499637
0.1894906 0.1819753 -0.18640465 0.2587871 0.002371795 -0.009354966 -0.005864411 0.22097676
0.49057257 0.3903933 0.086200766 -0.26335585 -0.02521876 -0.2173248 0.101957865 0.060546882
0.42649543 0.20705467 0.4412519 0.18905048 -0.1621049 -0.10462402 0.01269711 0.19226956
0.038152322 0.19454977 -0.24172813 0.26455802 0.09374759 -0.13870391 -0.065522574 0.007853701
-0.056411512 0.10233193 -0.32914406 0.103802234 -0.23770542 -0.12991938 0.044929445 -0.12887345
-0.18662459 0.355245 -0.20250028 0.048254814 0.36400667 0.29118815 0.24001628 0.094893806

actor.2.bias f4 [64]
00000000: 75b9 c2bc 502f 2c3e 68ac 6b3e c33e cabc
00000010: f95a 3c3e 19e2 373d 82a6 90bd 8911 7e3d
00000020: c7f0 e5bd 9464 73bd 5738 e8bd 575a 1a3e
00000030: db72 10be d23e bebd ec02 bdbb b54d d23d
00000040: a9c9 d6bd 5aac 263e 89a3 3d3d 66ea b6bd
00000050: 189c e2bd 5f11 a33c 7686 c0bb a857 2abd
00000060: f72a 403e 028f 0e3e 0f71 973d d939 5cbd
00000070: 978b 9bbd 0eba 7ebc 52f4 683b eca5 02be
00000080: a59c a3bd d99b 4fbd d4a9 24bd fd7e 30bd
00000090: 0107 bfbb 54ce 1bbb 16ec a93d 5012 52bd
000000a0: e832 3a3d bd27 fabd 318e cd3d 847a c3bd
000000b0: 1ca4 993c 8a6e 62bd bd94 26be f6ea 94bd
000000c0: 5808 77bd 205d de3c 2c66 163e cd34 0bbe
000000d0: 3f22 25bc ec0a e8bd 86b8 d63b cebd f73c
000000e0: 1273 80bd d5cc 573d 70e3 093e e2b8 bcbc
000000f0: bed0 bebc 2a01 973d 3c5d c43d 6ccd bdbb
-0.023770073 0.16814923 0.23014987 -0.02468813 0.18394078 0.044893358 -0.07063009 0.06202844
-0.11227565 -0.05942209 -0.11338871 0.15073524 -0.14106314 -0.09289326 -0.0057681706 0.10268728
-0.10487682 0.16276684 0.046298537 -0.08931427 -0.11064929 0.019905744 -0.005875404 -0.0415875
0.1876639 0.1392174 0.07394611 -0.053766105 -0.07594984 -0.015547289 0.0035546017 -0.12758607
-0.07988862 -0.050685737 -0.040201023 -0.043089855 -0.0058296924 -0.0023774104 0.08296983 -0.051286995
0.045458704 -0.12214611 0.100368865 -0.095448524 0.018755011 -0.0552812 -0.16267677 -0.07271378
-0.06031069 0.027144015 0.14687413 -0.1359436 -0.010078966 -0.11330208 0.0065527586 0.030241873
-0.06271948 0.052685577 0.13465667 -0.023037378 -0.023292895 0.07373269 0.095880955 -0.0057923105

actor.4.weight f4 [36, 64]
00000000: 9ed1 e43d 5aa0 79bf cf84 dd3e d141 8fbf
00000010: 8dbf 723e 56e2 d73c 33cd d83e 7166 073f
00000020: 7df3 85bd 4297 f2bd 1904 88bc 736d d53e
00000030: 10e0 c3bd 5dd3 06bf 6187 a83c 5d2e bb3e
00000040: e72c bb3d 4de5 2ebf ac23 34be ea79 2e3f
00000050: a7f5 833d 60bb 90bf e2e4 49bb 2326 d7be
00000060: 04ab 0d3e 9c8a 49bc 8269 b93c 8225 0a3f
00000070: 25a7 2cbf 21c6 d0be d33e 803e e2f3 ccbd
00000080: de38 8ebf 0f4b 79bc f944 f03c 7376 9ebe
00000090: ae76 433d d601 1c3e 3c76 b23e 9ff8 b83d
000000a0: c63d 80be 5f53 8a3e cf0e 76bf 4ace 81bd
000000b0: a82f 513d e912 3a3d 6815 25bf d918 80be
000000c0: c00c b6bd 1edc a73d 7726 abbf 7288 7bbd
000000d0: e2fb 5b3e 8fed b9bd 4817 723e 08d1 853e
000000e0: 863a 93bd 396b 9fbd 87d2 eabe d81a 8fbd
000000f0: 382d e7bd 9bc9 353b 7081 6b3e b989 8b3e
00000100: 3ba5 9bbe 36fe 88bf 134c edbd 798d b03e
00000110: da47 95be 1956 e7be 9eda d0be 6bd7 9a3d
00000120: e5fc 0fbd bbbd f93e 7817 0e3e 9346 22bd
00000130: 2580 9c3e e499 8e3e f26e 363d 515a e4be
00000140: 5330 ccbd 7eed 053f 431c 5fbf 211b 3ebe
00000150: 4ca0 143d 4220 b5be 28b8 f33c a325 1f3e
00000160: b018 30bf 93f6 833e 9b35 c5bc 8f5d fc3e
00000170: ddcb dd3e a36d 7bbe c577 f7be a1d8 04bf
00000180: 3517 19bf efe3 83bd 7f92 143e f7fe 62bf
00000190: e21f 063e d10f 8b3e c9a3 be3e f3c5 e1bd
000001a0: 93ff 0d3e db5d e43d 258d 87bf 5524 20bd
000001b0: 1653 1b3e 9a63 463d b362 6ebe 3ae5 a1bd
000001c0: 2960 eb3c d98a a53e d425 0abf ea17 d7bc
000001d0: 8aac 403e 5fc3 da3d 0c57 f53e 423b 5cbe
000001e0: 12bb 4fbd 3c01 8bbc c844 88bf 3560 043e
000001f0: b092 9a3e dc94 6d3e 32e7 88bc dbd6 90be
00000200: e18a d63e 0270 70bf 88ef 0b3f 1487 2fbe
00000210: 1bd5 0dbf 6fe7 ca3e 4de4 423e b307 3abe
00000220: a988 a13d d072 b5bd 2adb f53d 4b07 c63e
00000230: 37d5 f63e f0e1 06be 9959 ca3d bb08 7bbe
00000240: 54e0 d43c 1b02 243e 7b61 d63e 3b0c 8d3e
00000250: 98ce e33d c910 3bbf 0ed5 fe3d 8b0d a9be
00000260: 1eed 4b3b 3cc8 11be e131 4a3d 1ec7 083e
00000270: 4637 933e 3b1d 25be 07e7 693e a827 c9be
00000280: 499a b9be 16a1 153c 8792 ea3d d5d5 c7be
00000290: 4953 023e 938a 143e b342 993e 0626 c23d
000002a0: c401 a23e a7d6 33bd 7308 62bf f6fe 9a3c
000002b0: a85e 04be 1798 2e3c cf17 d23e 8a92 f2bb
000002c0: 8adb 963d f892 d93e 219e 65bf b574 0e3d
000002d0: 4408 533e a4f3 c8bc 55e0 6dbe 7d49 143f
000002e0: bc8a b3bd 8994 f4bd a4c8 95bf b1b2 eabc
000002f0: 176b b4bd 2d4b c13e f340 933d 1a42 8bbe
00000300: b268 8d3e 113f 0abf 8d88 db3c 7304 39be
00000310: 72de f7bd 9440 c63d 8a86 5d3e 2314 353e
00000320: 4cad 3abd d527 b73e 18cd b03d f8cc bcbc
00000330: 436f ba3e 119d cabe abac 6e3d 3b23 8a3e
00000340: 9b90 4bbd e46a 7ebd c6af d1be e67f 1cbe
00000350: 8cd8 39bd 00c0 4fbf 5c1a e33b 6f42 e13e
00000360: a58e 7c3d b7a9 08be 57d5 92bc be23 eebd
00000370: 84ae ec3d 95e7 2f3e 6175 9c3e 638a 19bf
00000380: c895 10be 6e44 d13d 6e2a 75bd a1b6 1fbf
00000390: bf52 4cbd 315a 7d3d bb67 d63d 6812 9ebd
000003a0: 16d1 97be 8340 023f ee75 17bf 0670 99bd
000003b0: f835 3ebb db91 193d 2e4a 553d d0e8 dcbd
000003c0: 502f 79bd 80db 603e 8239 62bf e237 e2bd
000003d0: ad79 a93e ddc2 5b3d 7dd4 993d 923d 543e
000003e0: 975a 133e b2ee babd a3d0 49bf 8b2c 62bb
000003f0: 5b59 a7be 78b9 a03e 682a 87bd c222 5abe
0.11172794 -0.975103 0.43265387 -1.119196 0.23705883 0.026353043 0.42344055 0.5289069
-0.06540582 -0.118452564 -0.016603516 0.41685066 -0.09564221 -0.52666265 0.020572366 0.3655881
0.09139424 -0.68318635 -0.17591733 0.68154776 0.06443339 -1.1307182 -0.003080659 -0.42021284
0.13834769 -0.012301113 0.022633318 0.5396348 -0.6744254 -0.4077616 0.2504793 -0.100074545
-1.1111104 -0.015215649 0.029329764 -0.30949745 0.047720604 0.15235075 0.3485583 0.09031796
-0.2504713 0.27016732 -0.96116346 -0.06338175 0.05107084 0.04542819 -0.6448579 -0.25018957
-0.088891506 0.08196281 -1.3371114 -0.06140942 0.21482804 -0.09078514 0.23641694 0.2613604
-0.07188897 -0.07784123 -0.45863745 -0.06987542 -0.11287922 0.0027738574 0.22998595 0.27253512
-0.30399498 -1.0702579 -0.11586776 0.34482935 -0.2915638 -0.45182875 -0.40791792 0.07560619
-0.03515329 0.48777565 0.1387614 -0.039618086 0.30566517 0.27851784 0.0445394 -0.44600156
-0.099701546 0.5231551 -0.871525 -0.18565036 0.036285684 -0.35376173 0.029750898 0.15541701
-0.6878767 0.2577406 -0.024073413 0.4929013 0.43319598 -0.24553542 -0.48333564 -0.5189305
-0.59801036 -0.06439959 0.14509009 -0.88670295 0.130981 0.27160504 0.37234333 -0.11024084
0.13867025 0.11150714 -1.0589949 -0.03909715 0.15168414 0.04843483 -0.23279838 -0.079050496
0.028732376 0.32332495 -0.5396397 -0.02625652 0.18815818 0.10681795 0.47917974 -0.2150698
-0.050715514 -0.016968362 -1.064599 0.12927325 0.3019004 0.23201317 -0.016711805 -0.28288922
0.4190283 -0.9392091 0.5466237 -0.17141372 -0.554033 0.39629695 0.19032402 -0.18167
0.07887394 -0.08859789 0.12004693 0.3867744 0.48209545 -0.13172126 0.09880371 -0.24515049
0.025985874 0.16016428 0.41871247 0.27548394 0.11123389 -0.7307249 0.12442981 -0.33018145
0.0031116675 -0.1423654 0.049363974 0.13357207 0.28753108 -0.16124432 0.22842036 -0.39288068
-0.36250523 0.009132644 0.11453729 -0.39030328 0.12727083 0.14505987 0.299337 0.09479909
0.31641972 -0.04390588 -0.8829414 0.018920403 -0.12926733 0.010656378 0.4103379 -0.0074027227
0.073660925 0.4249494 -0.8969441 0.03477927 0.20608622 -0.02453024 -0.23230107 0.57924634
-0.08766696 -0.11942393 -1.1701856 -0.02864966 -0.08809488 0.37752667 0.071901225 -0.2719887
0.2761894 -0.5400248 0.02679851 -0.18068103 -0.12102975 0.09680286 0.21633354 0.17683463
-0.045575425 0.35772577 0.086328685 -0.023046955 0.3641301 -0.39572957 0.058270138 0.26980004
-0.049698453 -0.062113658 -0.40954417 -0.15283164 -0.04537253 -0.81152344 0.0069306325 0.43995997
0.061659474 -0.13345991 -0.017923994 -0.11627911 0.11556724 0.17178185 0.30558303 -0.59976786
-0.14119637 0.1021813 -0.059854917 -0.62388045 -0.0498836 0.06185359 0.10469004 -0.077183545
-0.29651707 0.5087969 -0.5916432 -0.0749207 -0.0029023867 0.037492614 0.052072696 -0.10786593
-0.060836136 0.21958733 -0.88369 -0.11045815 0.33100644 0.053652633 0.07511232 0.20726612
0.14390026 -0.09127559 -0.7883398 -0.0034511413 -0.3268536 0.313915 -0.06599885 -0.21302322

actor.4.bias f4 [36]
00000000: bee0 99be 9154 d9be e943 9bbe ac3b d7be
00000010: 843a 273e b0a2 8b3d 545e 153e cc5a f43d
00000020: e3d4 583d 78fe b5bd 5a25 7f3d 5aef 5b3d
00000030: 1131 1c3e 075b 723e d23f 593e 4c4d 51bb
00000040: f74f 09bf 1e77 e8be 58f1 13bf 9d40 c7be
00000050: eb0a 1ebf 02d3 e9bb 9654 de3d 5aa2 e33d
00000060: f4cf 3c3e 648e 053e 74e7 e73d e934 8f3c
00000070: 01ae 033d 3b3f e83d 2dd9 3b3e 4cf5 b2bd
00000080: a195 e03d f59d 8c3e e207 f73d 6874 673e
-0.30054277 -0.42447332 -0.3032525 -0.42037714 0.16330916 0.068181396 0.14586765 0.11931381
0.0529374 -0.08886427 0.06229148 0.05369506 0.15253092 0.23667537 0.21215752 -0.0031936942
-0.5363764 -0.4540338 -0.57790136 -0.38916484 -0.6173541 -0.00713575 0.10855977 0.111149505
0.18438703 0.13042599 0.11323443 0.017481284 0.032148365 0.11340185 0.18344565 -0.08738193
0.109660394 0.27464262 0.120620504 0.22602999

critic.0.weight f4 [64, 62]
00000000: c860 9c3d 6a19 ab3d 31d8 abbd 6c5b 1b3c
00000010: 48eb b2bd f7ee e8bc 6ff6 9aba 359d db3c
00000020: 8e90 adbd 6a77 58bd c0e8 18be 3903 10be
00000030: 4d35 babd 3a98 4fbc 1472 e6bd aebe b6bd
00000040: fe10 09bc ab20 ddbd 13fe f7bd c876 b63d
00000050: 0c4a bbbd 7c17 b63d d610 103c 3e3c 98bc
00000060: ef3e c93d 2717 cbbd c034 793d b399 ad3d
00000070: 98eb 923c 8d35 02be c589 733c 00f4 8cbd
00000080: f2fb c0bd 9aa3 b13d 5232 b7bc 73eb af3d
00000090: 160d 8cbd 74b4 66bd a684 a6bb 8f62 0cbd
000000a0: 8abb f33d 40ca 833d e1f0 143e 35c6 bebd
000000b0: e9b0 8d3a dda0 883d 7d0d 7aba 0d1f d9bd
000000c0: 5866 d43d 5f8b 20be a4d5 babd bb55 e5bd
000000d0: 12b7 003d d203 a03c 3ad8 e5bd d642 97bd
000000e0: e32d 2d3d 8a36 303d 7f85 3dbe 4926 3fbd
000000f0: 4eee a1bd f1a3 65bd dd19 e7bd ccbf 833d
00000100: 2839 8dbc 1325 4dbd 2e35 15be 66f8 1b3e
00000110: ffdb e43d 73df 843d 9ff2 c9be aa65 f2be
00000120: 7657 b73a 21ab 723e bf5e 9bbd a11d 743d
00000130: 3e27 6b3d 0e4f e03d a3f5 d43d fb2e df3d
00000140: bf91 8b3d 4504 dfbb 5d60 05bd 7659 f8bd
00000150: e2da 883d 00cd ebbc a810 a33c edf3 eabc
00000160: 15fc a73d bd3a 843b dffe 463e fadc 453e
00000170: 9172 763e 11ef ec3e 73dd 703d 5f54 99bd
00000180: b5e9 b63d e77b c93d e466 45be 1cc2 f2be
00000190: 7d04 0dbd cf74 b73d d75f 4d3d 318a d9be
000001a0: 7322 62bc 7694 0cbe 72b2 dcbe 1f71 91be
000001b0: cdd3 2dbd 0f0e aabb 746e 153b 3957 453a
000001c0: dda3 85bd 0ad8 babd b01b 3fbd d91c 28be
000001d0: 4ce3 3bbe 0f79 923b ebd4 823e 8e46 483d
000001e0: ef26 15bd 8dc5 3a3e 8389 92bd 6588 18bd
000001f0: 1a4f d7bd 1423 a33d 1f64 d73d 2324 473d
00000200: a71b 9abd 1364 8dbe 80f2 abbd 77e6 57be
00000210: 6814 853d 28b7 4bbe 6c9c bdbb e178 c0bd
00000220: 5fed 16be 43f6 d03c cbb0 04bd b718 dbbd
00000230: 011f a3bc 0aa1 99bd de74 f23d 9b83 d3bd
00000240: 2bc6 f23d 77ec afbc ce58 bc3c 047c e23d
00000250: c3b2 70bd adbd 40bd c437 573d c2ca 03bd
00000260: 0789 58bd f985 033d ee5f 10bd 5114 2bbb
00000270: a6e6 63bd c67e 533d fd69 493c 220e c8bd
00000280: 9a6b 96bd 49bd a0bc 0663 23be 059b 773d
00000290: 820b 5ebe 5d89 2bbe 5068 393c 5120 423c
000002a0: c5f2 1e3e 9c88 afbd cf3f aebd 3264 9cbd
000002b0: e59a fdbd 9086 1b3d b949 52bd 0af4 373d
000002c0: de67 773d e9a9 ef3a d794 05bd 2078 33be
000002d0: a8cc a9bd b5a2 e9bb a432 0ebe f003 833d
000002e0: b604 7e3d 6813 12bc 5d8e ebbd c211 efbd
000002f0: 8dab d9bd 5cf5 b53d 39b1 8bbc 24c9 08be
00000300: d751 dabd 76f5 e2bc 038b 25bc d91b 4dbe
00000310: 5a7a 23be d99e 1cbd 501b ffbd ac52 c9bd
00000320: 0ffc 8f3d 44dc 5f3d 915f 1bbd 4b6d a1bd
00000330: 82c9 abbd 4523 b83d daa5 ac3c 59b8 2a3d
00000340: d503 bdbd b2e2 c03c 8db4 e73d 4d75 8e3d
00000350: 4c09 b6bb 3779 6fbd e4f8 823e ec28 a7bd
00000360: bb5d 3cbd b51d 94bd 0b87 13bd a704 a4bb
00000370: 5bdd f4bc 8e49 9abd 6c19 0dbe b468 3cbd
00000380: e50d e0bc db42 9b3d 40ab 31bd 5778 e5be
00000390: 6935 f4bd 55c8 04bd dc27 1cbd 1760 afbd
000003a0: 3888 12bd 27dd 863c 889d 31bd 3bcd 5fbd
000003b0: 8d46 5bbc 445f b4bd bd15 b73d 2067 94bd
000003c0: 2300 68be e38e a8bd b682 7cbd 1347 a0bc
000003d0: 2cf0 62bd eb0c b03d 6021 f3bd b020 6cbd
000003e0: 3ef8 8b3d 0179 b83d d02e eabd c831 a8bd
000003f0: d7d8 f1bd 0ce2 5bbd 44af 633d 6145 e03d
0.07635647 0.08354457 -0.083908446 0.009482246 -0.087362826 -0.02843426 -0.001182271 0.02680836
-0.08474837 -0.052848257 -0.14932537 -0.1406373 -0.090921976 -0.012670571 -0.112522274 -0.08923088
-0.008365868 -0.107972465 -0.12109008 0.089093745 -0.09144983 0.08891198 0.0087930765 -0.018583413
0.09826457 -0.09916525 0.060841322 0.084765814 0.017934605 -0.1271574 0.01486439 -0.06882477
-0.09423055 0.08673783 -0.022362862 0.0858983 -0.068384334 -0.056324437 -0.005081731 -0.03427368
0.119010046 0.064350605 0.14545013 -0.09315149 0.001081017 0.06671307 -0.0009538753 -0.106016256
0.10371083 -0.15678166 -0.0912278 -0.111979924 0.03142459 0.019533072 -0.112228826 -0.07385795
0.04228009 0.043020763 -0.18507956 -0.04666737 -0.07906781 -0.05606455 -0.1128423 0.06433067
-0.017239168 -0.050084185 -0.14571068 0.15231475 0.111747734 0.06487932 -0.39442918 -0.4734319
0.0013987857 0.23698093 -0.07586431 0.05959857 0.05741047 0.109525785 0.10398414 0.10897633
0.06814908 -0.006805929 -0.032562602 -0.12126438 0.066823736 -0.028784275 0.019905403 -0.028680766
0.08202378 0.0040353225 0.19433163 0.19322577 0.24067141 0.46276143 0.05880494 -0.07486796
0.08931295 0.098380856 -0.19277531 -0.4741372 -0.03442811 0.08957826 0.050140228 -0.42488244
-0.013802159 -0.13728508 -0.43104893 -0.28406617 -0.042438317 -0.005189664 0.002280143 0.0007527951
-0.06525395 -0.091232374 -0.046657264 -0.16417255 -0.18348426 0.0044699977 0.2555307 0.04889541
-0.036414083 0.18239422 -0.071551345 -0.03723945 -0.10513134 0.07965675 0.105171435 0.048618447
-0.075248055 -0.27615413 -0.083958626 -0.21084009 0.06498033 -0.19894087 -0.005786469 -0.09398056
-0.14738987 0.025508052 -0.032395165 -0.10698073 -0.019912245 -0.07501419 0.11838697 -0.10327836
0.11854204 -0.02147506 0.022991564 0.1105881 -0.05876423 -0.04705589 0.052543417 -0.032175787
-0.052865054 0.03211019 -0.035247736 -0.0026104639 -0.055639885 0.051634572 0.012293336 -0.097683206
-0.07344742 -0.019621508 -0.15955743 0.060450573 -0.21684077 -0.16751619 0.011316374 0.011848525
0.15522297 -0.08570978 -0.08508264 -0.07636298 -0.123830594 0.037970126 -0.05133984 0.04491047
0.06040179 0.001828489 -0.032612648 -0.17526293 -0.08290988 -0.007129992 -0.13886505 0.063972354
0.06201621 -0.00891576 -0.11501763 -0.11673309 -0.10628424 0.08884689 -0.01705228 -0.13357979
-0.10660141 -0.027704936 -0.010103944 -0.20030154 -0.15964642 -0.038237426 -0.12456381 -0.098302215
0.07030498 0.05465342 -0.037932936 -0.07882174 -0.08388044 0.08991102 0.021075178 0.041679714
-0.092292465 0.023545597 0.11313734 0.06955967 -0.0055553075 -0.05846521 0.25580513 -0.08162102
-0.045987826 -0.07232229 -0.03601746 -0.0050054374 -0.029890707 -0.07533561 -0.13779229 -0.04599829
-0.027350375 0.07581111 -0.043376207 -0.44818375 -0.1192425 -0.032417614 -0.03812395 -0.085632496
-0.03577444 0.016462876 -0.043363124 -0.054639082 -0.01338352 -0.08807233 0.08939693 -0.07246232
-0.22656302 -0.082303785 -0.061648093 -0.01956514 -0.055404827 0.08596214 -0.118716 -0.05764836
0.06834458 0.09007455 -0.1143471 -0.0821262 -0.11808937 -0.053682372 0.05558707 0.10950733

critic.0.bias f4 [64]
00000000: aec9 40be b5a8 d63d e01a 71be 09d5 b8bc
00000010: 9440 c0bd 05e1 6abd 6149 93bd 4c41 6dbe
00000020: e400 45be 47bf 76bd a2e1 54bd 72d9 81bc
00000030: 2f7e 91bd c961 76be f3cd c4bd f332 c53c
00000040: 8985 59be 2292 c3bd c0c1 19be 6e01 4fbd
00000050: c7d8 67bd 8952 003c 8a83 52bd f52c 2fbd
00000060: 1382 283c 0462 cfbd 33a5 67be 842d 113c
00000070: fc5d ccbd 9c60 ca3c e833 4cbd dd9c 40be
00000080: 53cf 67bd 0de3 bfbd 16f9 27be f6b2 c5bd
00000090: d0f6 32bd 8b14 d4bd 7cc5 f0ba f5c9 d03d
000000a0: 24e5 0fbe 92a4 90bb f61e 0dbd f833 b5bc
000000b0: b32b 4fbe 7ca6 9bbd 507e bf3d edc8 973b
000000c0: 2ae7 8d3c 39dd 93bd 012d 973d 9a5c c1bd
000000d0: 5ccb 2f3d 07e5 febd 53bc 3abe 9864 bcbd
000000e0: 9971 84bd c942 f9bc b678 4dbe b20c be3c
000000f0: f75c 943e 57a7 9cbd ad52 72be d544 b2bd
-0.18826935 0.10481397 -0.23545408 -0.02256252 -0.09387317 -0.0573435 -0.0719173 -0.2316944
-0.19238621 -0.06024101 -0.051972993 -0.015850756 -0.07104146 -0.2406074 -0.09609594 0.024072146
-0.21242346 -0.09549357 -0.15015316 -0.050538473 -0.05660322 0.007832178 -0.051394977 -0.042767484
0.010284918 -0.10126117 -0.22621612 0.008860949 -0.099788636 0.02470427 -0.04985419 -0.18809839
-0.056594204 -0.093694784 -0.16403612 -0.09653275 -0.04369241 -0.10355481 -0.0018369402 0.1019477
-0.14052254 -0.0044141496 -0.034453355 -0.022119507 -0.20231514 -0.07600114 0.09350264 0.0046321065
0.017322142 -0.07219929 0.07381631 -0.094414905 0.042918548 -0.12446027 -0.18235902 -0.09198874
-0.064669795 -0.030427353 -0.20065579 0.023199413 0.28977177 -0.07649105 -0.23664351 -0.08704535

critic.2.weight f4 [64, 64]
00000000: 0714 6dbd d2c3 de3d 4f6c 9b3c e161 96bb
00000010: 72c6 e8bd 5649 b2bc ba6e 16be 42f9 843d
00000020: 5d35 a1be a17f 29be 178b c53d 3060 673e
00000030: 64b7 80bd ddbb e03d 11db 01bd 582e 51bd
00000040: e276 553d 2ce1 ec3d f030 a9bd 5ec4 993e
00000050: 3ca6 15be 0a76 b7be 6959 90bd 9d76 433e
00000060: 681f 98bc 0b4d de3c c05a 78be ffbe 7bbd
00000070: e474 5cbd af01 d53d b4ca 843c 8c1d 93bd
00000080: b0f1 343e b796 36bd e1da cdbd 17d3 b23d
00000090: 2d00 aebe f867 d03c ae24 c2bd 20ac b2be
000000a0: b7e1 94bd 4c6f ac3d 346b 343d 0b6f cfbe
000000b0: a936 babc 34be 10be df4a 21bd 7487 03be
000000c0: 6cf0 403e c11f 913c f1f5 2e3e 0034 573e
000000d0: ef7d 1bbe 2ebd f7bd 498b d0bc 9d55 a03d
000000e0: e629 b9bc 14bb 833e a8d6 e1bd fd2a 90bd
000000f0: a00c 50be d1ec 3fbe 050b 1b3e 5133 59bd
00000100: c3cf 943c a96a e3bc d952 18bd 5f26 5abd
00000110: 40af ffbd dc97 81bd 4ab1 9fbd 50a2 043e
00000120: d4e8 8ebd 7645 efbd 96d9 e8bd 7cf6 95bd
00000130: 946c 3ebd 98aa fabd f159 b3bd 2b0d 21bd
00000140: 279b a63d bb08 b4bd 348f 0fbc 724c a33d
00000150: 5979 ad3d 3b7a 323c a16a 543d b460 f7bc
00000160: ef8f 9fbd 49bc f5bd 862b 00be 0410 8f3d
00000170: 94c1 92bc d58d fdbd e737 bbbd 40d5 34bd
00000180: a361 0d3e 85c0 a6bb 5ffc 90bb 8155 89bc
00000190: 896c 0cbd 2f1b 923c 83c2 4f3c 61ec 15bd
000001a0: 50cf ff3d 21a3 e03c ad37 a3bb ea8c cf3c
000001b0: 23d3 8e3d dbeb 19bd 425b 12bd 0b9d 91bd
000001c0: 2ad1 94bd 20ee 10bc 6959 abbd 4947 a13d
000001d0: dbe1 d5bd 4ed0 a9bd f469 7fbc 79bc 6e3d
000001e0: b310 adbd 5360 55bd 6633 a83d 8d8c fabd
000001f0: c780 f63d b4a1 643c 02bf 333c 3012 b0bb
00000200: e62e cd3c f1fe 123d 8f49 d23c 8d96 033d
00000210: daed 81be bde1 e1bb 15d1 973b e311 c4bc
00000220: 0339 3bbc 9d61 7c3d 9a16 3cbe efe0 7cbe
00000230: 3046 8cbd de57 dd3d 31fe fd3c e980 3d3d
00000240: 5e05 38be 65e9 2c3d 75d8 abbd 83c9 66be
00000250: 373c 84bc e524 2b3e 7307 853e fff1 fc3b
00000260: aa3f bcbd 8893 2f3d 5bd9 a43d 4f1c 55be
00000270: d5c0 c93c 6558 4ebe 67b8 be3d 0cc0 15be
00000280: 3388 833b 20f6 ddbd d4df 783d 36a2 afbe
00000290: 5754 c33d 3927 5a38 8c90 27be f713 133d
000002a0: e3ae 933b d5ea e93d fa9f 9cbd 2b16 05be
000002b0: 8f8f 20bd 29cf 873d 2dc5 653e abf6 4abe
000002c0: c6a0 c33d e9c8 72be 89dd c03c ae18 90be
000002d0: b6cb 0c3d e59e c43c a813 4a3c 81b7 f93d
000002e0: 064a 7cbd 6934 16bf 2110 febd fd75 d73c
000002f0: 9be1 8c3e b659 6bbd 5fce c13c 25ca 30be
00000300: 430e 2e3c 23d3 b0bd 2060 13be cc52 66bd
00000310: c863 1fbd 6200 e0bd 7e0f f53c 1709 54bd
00000320: d711 02be d1bd b2bd 850a 32bc c359 c4bd
00000330: 6877 9e3d f712 58be bcf0 cb3d 1df2 bd3d
00000340: 819e 723d 82b0 c5bd fba2 3bbe 5bc7 28ba
00000350: d1d3 c7bb a4b8 1d3d 2253 c0bd ae47 67bc
00000360: 93c3 febd af4f e3bd f22c 29bd 9806 42bc
00000370: d9fd 063c a5cf 0abe 82ca c03d 4884 11be
00000380: 666f ceba 24fc 9c3d 33b2 dbbd f8d3 23be
00000390: 21c0 a3bc b0ec 0cbe 13eb babd 7871 f2bd
000003a0: 3ce2 86bd 7b66 093e 6f8a dfbd b755 163d
000003b0: cbd2 09be fad2 bf3d 6101 01be 4687 a9bc
000003c0: 4a74 26bd ed69 47bd 5cd2 15be 11b5 96bd
000003d0: fd07 88ba 895c 433d 141d 8bbd 305f d53d
000003e0: 2f45 96bd 055f eb3d b21c ecbd c6ee 54bd
000003f0: d59f bfbd fec8 85bd 7664 9e3d 2405 fb3d
-0.057880428 0.108771935 0.018972544 -0.004589305 -0.113659754 -0.021763485 -0.14690676 0.06492855
-0.31486025 -0.16552593 0.0964567 0.22595286 -0.06284979 0.10973332 -0.03170306 -0.051069587
0.05211533 0.115663856 -0.08261287 0.3003263 -0.14614195 -0.35832244 -0.07048304 0.19088216
-0.018569663 0.027136346 -0.24253368 -0.061461445 -0.053822413 0.10400712 0.016209938 -0.0718337
0.17670321 -0.044577327 -0.100515135 0.087316684 -0.3398451 0.025440201 -0.09479652 -0.34896946
-0.07269614 0.08419666 0.04404755 -0.40514407 -0.022731142 -0.14135057 -0.039378043 -0.1284464
0.18841714 0.017715337 0.17086007 0.2101593 -0.15184759 -0.1209663 -0.025457041 0.078288294
-0.022602987 0.25728667 -0.110272706 -0.07039449 -0.20317316 -0.18742682 0.15140922 -0.053027455
0.018165475 -0.02776082 -0.037188385 -0.05325925 -0.12484598 -0.06327793 -0.07797487 0.12952542
-0.06978002 -0.116831705 -0.11369626 -0.07322404 -0.046490267 -0.122395694 -0.08757389 -0.0393192
0.08135062 -0.08790728 -0.00876217 0.07973565 0.08470411 0.0108934 0.0518595 -0.030197479
-0.07791125 -0.11998803 -0.12516603 0.069854766 -0.01791457 -0.12380568 -0.09141522 -0.044148684
0.13806777 -0.005088868 -0.004424616 -0.016764404 -0.034283195 0.017835228 0.012680653 -0.03660238
0.124907136 0.027421536 -0.0049810023 0.025335748 0.06973865 -0.037578445 -0.03573156 -0.07110032
-0.072664574 -0.008845836 -0.08366663 0.07874925 -0.10443469 -0.08291684 -0.015589226 0.05828521
-0.08450451 -0.052093815 0.082129285 -0.12233839 0.12036281 0.013954569 0.010970833 -0.005373262
0.025046777 0.035887662 0.025669841 0.032126 -0.2537678 -0.006893365 0.004633079 -0.02393431
-0.011427167 0.06161653 -0.18367997 -0.2469518 -0.06849325 0.10807775 0.031004997 0.046265516
-0.17970797 0.04221477 -0.08390895 -0.22537808 -0.016141994 0.16713293 0.25982246 0.007719278
-0.091918305 0.042865306 0.0804927 -0.2081158 0.024628082 -0.20150907 0.09312516 -0.14624041
0.004014039 -0.1083796 0.060760334 -0.34303445 0.09537571 5.201178e-05 -0.16363734 0.03590771
0.004506932 0.11421744 -0.076477006 -0.12996738 -0.03919941 0.066313095 0.22438498 -0.19820659
0.095521495 -0.23709454 0.023543136 -0.2814383 0.03437396 0.024001548 0.012333788 0.12193204
-0.06159403 -0.5867372 -0.1240542 0.026301378 0.27515873 -0.057458602 0.023657976 -0.17264612
0.010623517 -0.08634021 -0.14392138 -0.056231305 -0.03891352 -0.10937573 0.029914614 -0.05176648
-0.12702118 -0.08727611 -0.010866766 -0.09587433 0.07737619 -0.21100985 0.09958026 0.09274695
0.059233192 -0.09652807 -0.18323891 -0.00064383977 -0.0060982485 0.038506165 -0.09390856 -0.014116211
-0.124396466 -0.11099183 -0.04130263 -0.011842392 0.008239233 -0.13555773 0.09413625 -0.14210618
-0.0015749752 0.076652795 -0.10727348 -0.15998828 -0.019989075 -0.13762164 -0.09126868 -0.11838049
-0.065861195 0.13418 -0.10915076 0.036702838 -0.13459317 0.093664125 -0.12598182 -0.020694386
-0.040638246 -0.048685003 -0.14631027 -0.073587544 -0.0010378357 0.04769567 -0.067926556 0.10418546
-0.073374145 0.11492733 -0.11528911 -0.051985525 -0.093566574 -0.06532477 0.07734005 0.1225684

critic.2.bias f4 [64]
00000000: fd52 ff3c 1a9d c0bd f9ce 263d 1813 c0bd
00000010: 4314 43be fe20 34be 2694 aabd 549f 71be
00000020: 8695 d2bd 8a2d cbbc 63e4 58bd d867 48bd
00000030: b410 4cbd 91eb 9abd 1d4f 833d 8aa4 acbd
00000040: ec3b aebd 7a27 d7bd b9ec c73b bbd3 e0bd
00000050: 1cdb 54bd 9709 4fbd 608e 76bd 71e1 02be
00000060: 6361 03bd 9c95 02bc 4a00 f4bd 4074 64bc
00000070: 9bab cfbd a9be 36bd 12bd 5d3c e542 81bd
00000080: a424 62bd 9902 af3c 2765 14bd 21d4 99bd
00000090: ac33 f5bd e2e2 5dbc ed03 233c 380b b73d
000000a0: b8a1 2dbd 13fc debd 5bc5 fe3d c5a1 4bbd
000000b0: 122d 033d c449 0f3d 0a12 27be c859 a2bd
000000c0: b5df ccbd 5a08 ab39 318f 113d a204 0dbe
000000d0: 5769 083c 7e5c 85bd 33e9 a9bd d90e 01be
000000e0: 4873 c7bc 5241 10bd d2cb 2cbc 0760 a5bd
000000f0: ecb5 19be 4038 59bd d370 e0bd b8c2 09be
0.031167502 -0.09404965 0.04072473 -0.09378642 -0.19050698 -0.1759071 -0.08329038 -0.23595935
-0.102824256 -0.024801988 -0.05295218 -0.048927158 -0.049820617 -0.07564462 0.06411574 -0.08429821
-0.08507523 -0.105055764 0.0061012176 -0.109778844 -0.05196677 -0.050546255 -0.060194373 -0.12781312
-0.032075297 -0.00797024 -0.11914118 -0.013943732 -0.10140153 -0.04461542 0.013533847 -0.06311587
-0.055210724 0.021363543 -0.03622928 -0.075111635 -0.11972746 -0.013542863 0.009949666 0.08937687
-0.042390555 -0.10887923 0.12439986 -0.049714822 0.032025404 0.034982458 -0.16315475 -0.07927281
-0.10003606 0.00032621884 0.03553695 -0.13771299 0.008325896 -0.06511782 -0.08296432 -0.1260332
-0.024346963 -0.035218544 -0.010546641 -0.080749564 -0.15010804 -0.05303216 -0.109590195 -0.13453186

critic.4.weight f4 [1, 64]
00000000: 9cb2 34bd 79f9 15bc fb18 883d 326c 91bc
00000010: 9632 74bd d9a7 0f3d 51c1 513d ed8e 373d
00000020: fdc0 113e 6c0b 1fbe ab72 223b 5501 0ebb
00000030: 6c46 dc3b 627d 8c3a f32c 26be 4005 083b
00000040: 86d0 d5bb df72 61b9 626a e43c f77e 7d3b
00000050: 9bf3 6d3a bed7 d63a aee3 eabd 10a6 af3d
00000060: 462a 4a3b d45e 1ebe f26a e33b 395b c8bd
00000070: fa0f 4dbc 7da3 a1bb 6c8f 87bd fd03 52bd
00000080: b7fd 88bd 530b e03d 7645 d5bb 3def 03bd
00000090: f29f f53b ef5e d1bd b702 83be e3dc 3f3e
000000a0: 54db d63c e638 793d 26e9 bb3d 02ec 983b
000000b0: bf47 afbd 3102 ba3d 9ba6 18bd a7cc cf3c
000000c0: 6834 743b d282 c1bd 1c10 09be c299 41bb
000000d0: b259 2f3e 47ad 3f3d a486 5aba 1a5b 003d
000000e0: 7a34 1abb 1da3 e33a 604c 9fbd 7c18 163b
000000f0: 39ee febb b7a3 273d 2107 a9bd 5aa5 b3bd
-0.044115648 -0.009153717 0.0664539 -0.017751787 -0.059618555 0.03507218 0.05120975 0.04481404
0.14233775 -0.15531701 0.0024787586 -0.0021668274 0.006722262 0.0010718519 -0.16228084 0.0020755082
-0.006525102 -0.00021500465 0.027882759 0.0038680413 0.00090771326 0.00163912 -0.11469208 0.08576596
0.003084795 -0.15465862 0.006940239 -0.09783024 -0.012516016 -0.0049328194 -0.066191524 -0.051273335
-0.06689017 0.1093966 -0.0065085245 -0.032210577 0.0074958736 -0.10223185 -0.2558801 0.18736605
0.02622763 0.06084528 0.09175329 0.004666806 -0.08558606 0.09082449 -0.037268262 0.02536614
0.0037262682 -0.0944878 -0.13385051 -0.002954111 0.1712406 0.04679611 -0.0008336103 0.03133688
-0.0023529814 0.0017367337 -0.07778239 0.0022902777 -0.007779863 0.040927615 -0.08253313 -0.08771773
