CybORG/CybORG/Models/bline_train/80000.pth (torch, 78565 bytes, 11 tensors)

actor.0.weight f4 [64, 62]
00000000: ed40 79ba e786 8b3d 2a12 d6bd 3c6a bfbd
00000010: 3e90 a6be 6465 05be 8e28 1cbe c894 623e
00000020: 433c 79be 3fdd 4fbe 7baf 76be 431d f9be
00000030: 74c2 71be 7ffc b33d a958 a1bd ae44 34bd
00000040: 81a6 4d3d 4d10 9c3d 7754 b0bd 4686 62bd
00000050: 5df1 3c3d 15fb d73d 861c d6bc 12a2 c23d
00000060: 58b1 a7bc c02c 5c3c cf82 eb3d 9948 f1bd
00000070: b340 21bf aea4 edbc 32dd 113e dcc5 223f
00000080: cf96 a8bd 3376 6fbd b9b6 b5bd 9498 f3bd
00000090: 7e93 fb3e bb8d ff3e 0455 9b3d 2ff9 f73b
000000a0: 0745 7f3d 4ba1 083f cb83 683c c668 903b
000000b0: 77f1 63bc 6491 d9be 8d32 d33d 051f eaba
000000c0: 7b9e 703d 96f6 3e3e a2a0 5b3e 2ca1 6c3e
000000d0: 8474 4e3d ae5b e5bd b7b7 ddbc 1c20 0bbd
000000e0: 7392 ac3e 70a7 c9bd c92e e1bd ffe4 b6bd
000000f0: db0c 903e 353e 0c3e 9411 9abd 6327 1d3d
00000100: 1bc9 8e3d 8d50 83bc 144e f7bd 23f6 e13d
00000110: 2297 b83e f362 4e3e 1938 b6bd 4743 b83e
00000120: 93bf e93d 752f 423f a473 423e 6836 16be
00000130: a856 483e 105c 06bc 4d6a 3f3c b5b7 a2bd
00000140: d565 f2bd f417 e73d 48c4 c53d 05ba 01be
00000150: 23bb c23c 6643 afbc fb34 abbc 271f 6ebd
00000160: 120b 483d 510e 9abd 9cf0 74bc 470c 1c3e
00000170: 2af6 983e af95 ec3e 95b6 00be 40b9 a8bd
00000180: b6de 813d 05c1 d93c 0d86 86be 3e7d 37be
00000190: 85ef d03d 2d92 fe3d 8fa7 30be ca09 bbbe
000001a0: 16ad 24be 59c3 b9bd 5379 1cbd e987 ff3d
000001b0: a0cf 4a3d 967a 4f3e 9498 b2bc df6e 213e
000001c0: 27b3 333d 6f12 203e 723e b23d e537 cfbe
000001d0: 07ed 30be 1250 013e 79fd 243e a8c0 f63c
000001e0: 93fa 883d 27d4 69be 018e 933d 075f c33d
000001f0: 3e7f f9bd 2929 9abd 3f38 02bd 8964 7dbd
00000200: 2be8 9bbc 40fa 9dbe abf7 a9be e447 b8be
00000210: 912a eebe 2719 1ebd bf34 b53d d8fb fb3d
00000220: c6ea 60be b147 5bbe 0fed 4d3e 1baf c23e
00000230: 0c60 f63d f82c a53d 5cf0 f63d 177c 16bc
00000240: 6aa6 e9bd 869c 76bd d419 b13d 1ed1 57ba
00000250: a747 81bd 9850 c7bd 5f69 f3bd fc85 dbbd
00000260: cdc8 b73e c26a 893d 2fd1 2d3d 65de 86bd
00000270: 4e3e a23d 1c87 cbbd b6f2 dbbc 80ec 52bd
00000280: 0a24 ebbe 5f16 d4be 3317 0c3d 66d3 b0bd
00000290: 1179 89be 5221 23bf ad27 d3bc c153 afbb
000002a0: 6a00 7fbe 1364 09bd 06fd ac3d 2c10 453d
000002b0: 2aa6 16bd 349b f1bd 0920 bbbd bad2 333e
000002c0: ff1b 70bc 2df6 febd 9768 133e 51e5 003e
000002d0: 1bd9 8dbc f6d2 d9bc 2cbf f73d 063b 81bd
000002e0: 6dbe b03d 4efa 493e b02f fabc 74cc dabc
000002f0: 2a57 d6bd 7fee 8c3d 13ac 10be c0a9 93be
00000300: 1a7b c6be 59d4 1abf ade1 4dbe fcb1 cd3e
00000310: b2f7 383e 0633 3f3f 9194 45be 0c55 943d
00000320: e201 2cbe fc1f 0fbe aa9c c4bd 2c8f b2bd
00000330: 2407 97bd d10c b63d b2fd 3abd 6463 db3d
00000340: 051b 3c3d 64bd 833c 2ed4 77ba 38aa cdbc
00000350: 8788 823c fe90 edbc 743f 093e c264 26bc
00000360: b784 11be d5a4 62be 9d06 d23d 8b14 d3bd
00000370: 8469 15bc 0ea6 003e 8955 5bbe c7a6 f6bd
00000380: 45e4 64bd d16c 8c3d 8144 78bd 9eb9 16bf
00000390: e535 4a3e 832b 233d 989e a0bd be1b 703d
000003a0: 895b 2d3e 16b7 9cbc 7260 443e 65e1 223d
000003b0: 7a34 b33e e537 4f3d 7d78 5cbd e1dc 09be
000003c0: d276 723d 6ec3 953e 7a6a 25be 822f 5539
000003d0: 6e35 b7bc 1bf1 403d 3234 233e ca27 5b3b
000003e0: fc6c e53a 05e2 b0bc 54fc 88bd 3e82 893c
000003f0: 5863 c4bd 44d2 49be b375 103e c245 4bbd
-0.0009508271 0.0681284 -0.10452683 -0.093464345 -0.32531923 -0.13026959 -0.15249845 0.22127068
-0.24339394 -0.20299242 -0.24090378 -0.48655137 -0.23609334 0.08788394 -0.07878239 -0.04401081
0.05020762 0.076202966 -0.086098604 -0.055303834 0.04612862 0.10545937 -0.026136648 0.09503569
-0.020470306 0.013438404 0.11499559 -0.11781425 -0.6298935 -0.02900919 0.14244536 0.6358316
-0.082318895 -0.058462333 -0.08872742 -0.11894336 0.49135965 0.4991282 0.07584575 0.007567547
0.06232169 0.53371114 0.014191578 0.004407021 -0.01391255 -0.42493737 0.10312376 -0.0017862028
0.05874489 0.18648753 0.21447995 0.23108357 0.050404087 -0.11199127 -0.027065141 -0.03396617
0.33705482 -0.09846389 -0.10995252 -0.08930396 0.28134808 0.13695605 -0.07522884 0.03836764
0.069719516 -0.01602962 -0.12075439 0.11033275 0.36052805 0.20154934 -0.088974185 0.3598883
0.11413493 0.75853664 0.18989426 -0.14669192 0.19564307 -0.00820066 0.011683059 -0.079451956
-0.11835829 0.112838656 0.09656578 -0.12668617 0.023770874 -0.021394443 -0.020899286 -0.058135178
0.048838682 -0.07522262 -0.014949944 0.15239058 0.29875308 0.4620795 -0.1256965 -0.08238459
0.06341307 0.026581297 -0.26274148 -0.1791887 0.10201935 0.124302246 -0.17251419 -0.36530906
-0.16081652 -0.09070463 -0.03820164 0.12477095 0.049514413 0.20261607 -0.02180127 0.1576495
0.043872025 0.15632032 0.08703317 -0.40472332 -0.17277919 0.126282 0.16112317 0.030121163
0.06688418 -0.22834836 0.072048195 0.095396094 -0.12182473 -0.07527382 -0.03179192 -0.061863456
-0.019031605 -0.30854988 -0.33196768 -0.35992348 -0.4651685 -0.038598206 0.08847951 0.12303895
-0.21964559 -0.21414067 0.20109962 0.3802422 0.12030038 0.08065218 0.12057564 -0.009184859
-0.11408694 -0.060207866 0.086475044 -0.000823276 -0.06312495 -0.09732169 -0.11885332 -0.10718915
0.35895386 0.067098156 0.04243582 -0.06585387 0.0792204 -0.099378794 -0.026849132 -0.051495075
-0.45925933 -0.41423318 0.034201812 -0.08634071 -0.2685018 -0.6372272 -0.025775755 -0.0053505604
-0.24902502 -0.033542704 0.08446698 0.048111126 -0.03677956 -0.11797181 -0.091369696 0.17560855
-0.014655112 -0.12449298 0.14395367 0.12587477 -0.017315438 -0.026589852 0.1209701 -0.06310086
0.08630071 0.1972439 -0.030540317 -0.026708819 -0.10465844 0.06881427 -0.14128141 -0.28840446
-0.38765794 -0.60480267 -0.2010562 0.40174854 0.18063238 0.7468723 -0.19294955 0.07242784
-0.16797593 -0.13977045 -0.09600194 -0.08718714 -0.07374409 0.08889163 -0.0456521 0.10712317
0.045924205 0.01608152 -0.00094539195 -0.02510558 0.015934242 -0.028999802 0.13403112 -0.0101558585
-0.14210783 -0.22133191 0.10255168 -0.10306653 -0.009119395 0.12563345 -0.21419348 -0.12043529
-0.055881757 0.068566926 -0.060612205 -0.5887698 0.19747122 0.039836418 -0.07842749 0.058620207
0.16929449 -0.01913027 0.19177416 0.039765734 0.35000974 0.050590415 -0.053825844 -0.13463165
0.059195347 0.29250664 -0.16153899 0.00020330961 -0.022364344 0.047104936 0.1593788 0.0033440464
0.0017503793 -0.02159215 -0.06688753 0.016785737 -0.09589261 -0.19709116 0.14107399 -0.049627073

actor.0.bias f4 [64]
00000000: 93c1 c5bd 35b3 b73c e4c3 4b3d 9f5f ddbc
00000010: 3ca3 2abd 7fc8 dabd 06c3 16bd 1953 1bbd
00000020: 3026 31bc 195d 183d 0b2c 983d 62d2 48be
00000030: 2868 fa3c 6a48 933d 334e 733c 95fa ba3e
00000040: 76d1 adbd b07e af3c 2c93 1dbe dcc1 8d3d
00000050: 02fe 02be 6a2f 60bc 491a 783d 3fb6 e9bd
00000060: ee19 0ebd 0bbc 883d 746e 643d c5d0 1c3e
00000070: 4186 60bc bf85 90bd c529 d9bc c371 c13d
00000080: 6e8f b43d 2b5d eebc e722 613d c920 64bc
00000090: d93f 193e efcd 463d 33c4 dfbc acf8 58bd
000000a0: 64b4 a83d 82e8 0cbc 88c1 1dbd 7919 81bd
000000b0: 540a 293e 05cc ac3d d390 3bbd f1ca 0d3d
000000c0: 0282 4c3d 59f4 e5bc c891 3a3d d965 a7bd
000000d0: 7586 3bbd 4beb 9abd 5fd2 403c 8292 c43c
000000e0: 9298 893d d0d0 163d ea86 02be 4b76 593e
000000f0: 89d4 8fbc e69c 283a 4a34 26bd 15ee 553c
-0.09656062 0.02242432 0.049747363 -0.027023135 -0.04165958 -0.10682773 -0.036807083 -0.037921045
-0.010812327 0.03719816 0.074302755 -0.19611505 0.030567244 0.07191546 0.014850187 0.36519304
-0.08487217 0.021422714 -0.15388173 0.06921741 -0.12792209 -0.013683179 0.060571942 -0.11411714
-0.034692697 0.06676491 0.0557694 0.15314014 -0.013703884 -0.0705676 -0.026509175 0.094455265
0.088164195 -0.02909716 0.054964926 -0.013923832 0.14965762 0.048536237 -0.027315235 -0.052971527
0.08237532 -0.008600356 -0.038514644 -0.06303687 0.16507846 0.08437351 -0.045792412 0.034617368
0.049928673 -0.028070616 0.045549184 -0.08173723 -0.045782525 -0.0756441 0.011768906 0.023995642
0.067185536 0.036820233 -0.12746778 0.21236531 -0.0175574 0.0006432071 -0.04057721 0.013057251

actor.2.weight f4 [64, 64]
00000000: 6234 053e d5cf 44bd e495 4e3e 7a30 fbbd
00000010: 977c f53e 01df de3e 9b82 9c3c 49ca 46be
00000020: 0315 8a3e 4e62 01be 7b52 87be ec2b ef3b
00000030: 20cf 243d 7451 7d3d fb9c ca3d 99f1 2ebe
00000040: f7f9 3abe 669b 993e 6ad9 b13e d5d8 a2bd
00000050: 1f77 033f 9280 5cbe fda5 b03e d2f5 79be
00000060: a2b9 8cbe fc49 4d3d de27 3f3d 4e14 023e
00000070: 50cc 323e 006d a63e 7b1b b33e 9095 ae3e
00000080: 6b04 28be 8ff4 953e a3e1 6ebd 47ba 60bd
00000090: 7e29 4d3e 29fd 62bd 5051 8dbe f56a 7c3d
000000a0: 5e59 3e3d 05d8 183e 7b2c c93e 6f5a 50be
000000b0: 974e 9bbe ea6a 443d 61a9 1abd ec77 683e
000000c0: ac8f a23c ce62 b73c 489f f23d ac33 de3e
000000d0: a189 283e a1f1 2c3e dc20 ec3d 21df fb3d
000000e0: e8e9 67be aee4 8ebd cfa8 473e 8734 95be
000000f0: c8ee 123e 0fd1 2fbe a182 9a3e 8ede 99b8
00000100: 1145 063e 1bd5 dabd 5845 a3bd 4695 243e
00000110: 2d55 01be 9741 b3bd eba2 403e 9a61 83bd
00000120: 5946 173e 88a6 d63e 6744 973e 8970 df3d
00000130: 72a4 32bc c870 80bd 37fa ac3e d47d 913e
00000140: b81e ee3c cf82 373e 30f5 a7bd 6c0a 263e
00000150: d3e7 b7be 0b0f c43e 3a0e 17be 3a40 d8bd
00000160: 2208 0f3e b8ef 8a3e dbd6 d6bd 6747 0c3f
00000170: aa02 15bd fc5a 953d d86d 0dbe f880 81bd
00000180: c022 4e3e 958f 0b3d 9df7 d33d 1df1 34be
00000190: c33d 373e 70ee 81be d071 cc3d 93e2 e93b
000001a0: 2875 29be 3ce2 57bb 81a6 fc3d d8c6 3cbe
000001b0: 9804 f43d 4361 b03c 697e be3c d629 eabd
000001c0: f22c 123e bf96 c3bc 3f7c 8cbe 7462 263e
000001d0: f77d 823e b39a 9d3c 685c 823e 77e8 933e
000001e0: b041 4a3d 3e90 4ebe 1a9d 50bc 0d78 533e
000001f0: 2380 4bbd 32a7 563d ee28 58be de4c 423e
00000200: d11b fcbd effd dd3d 7d2f 953d b0b7 8e3d
00000210: 9525 1e3f 0919 bf3e a4e9 e2bd 3c9e cdbe
00000220: f4d8 ed3d e465 97be a3dd e1bc 26fe 35be
00000230: 501c 313e 63e4 ee3d 64f7 543e 0b4e 8fbe
00000240: 5a02 3bbe 0853 1a3e 6287 013f 4906 043d
00000250: 5793 803e ad94 1bbe 5af3 673e 2f23 183e
00000260: f441 06be f5e5 073e 5147 dd3e 2afd 0d3d
00000270: a229 dc3e 449a c73d 2e29 b83e a7f3 a83e
00000280: d3a5 ddbd ac26 713e 3b06 ccbd 42aa 373e
00000290: 72c0 4e3e f027 2d3d d01a d03e 16df 5fbd
000002a0: 99c6 9fbc f227 29be 5b38 9f3e 7c70 093e
000002b0: 7695 c7be 7d70 633e 915b 99be ccc2 9e3e
000002c0: eb0f a53e af27 363e a224 703e 1824 813e
000002d0: f865 b9bb 4589 5bbe d88a 75be de59 4abe
000002e0: 49ca 1c3e f94c 793e b1e5 d33e f92c 17be
000002f0: e4e9 313d 0413 813e 0234 52bd bbf2 b63d
00000300: 84fd 5d3d d061 923e 474d 383e ac07 e93e
00000310: 0f35 63bd 7021 ac3b dda6 b73c 0bf5 7e3e
00000320: e9f0 9f3b 166f a23e 7694 ea3d f58f c63d
00000330: b405 023d cdb1 c73e 5bbd 0e3f 5908 4abe
00000340: 3dfc 163e 7355 563e cc41 0abe c216 483e
00000350: 5579 b4bd ad9e a2bd c721 8ebc c9bf 4a3e
00000360: eda2 de3e abc1 a93e 9783 e43d a220 99be
00000370: 6bd9 16bd 5e0d 79be 311e a43d 80ef c03d
00000380: 00e3 bc3e b223 683e a3c7 d23e b413 fc3d
00000390: a560 2ebe 3dd8 27be 4abd 153d e63c 703d
000003a0: 9d40 813d a950 2d3e 1d60 7cbe 01ed 563e
000003b0: 4b58 1a3d c011 f9bd df04 a7bd 3140 ac3d
000003c0: ecb0 9ebd 117b 193e 4037 bcbe 9268 8a3d
000003d0: cb8d 8ebe 3470 1dbe 0f0c 843d c38f 22be
000003e0: 34b1 64be 6a5e bd3e 9545 29be 4f5a bd3b
000003f0: e9e8 b53e 4b58 aa3e fff0 283e 5574 893d
0.13008264 -0.048049767 0.20174366 -0.122651055 0.47946617 0.43529513 0.019105246 -0.19413103
0.26969156 -0.12635157 -0.26430115 0.007298937 0.040236592 0.061845258 0.09893223 -0.1708435
-0.18259417 0.30001372 0.34736186 -0.07951514 0.5135364 -0.2153342 0.3450164 -0.2441018
-0.27485377 0.050119385 0.04666888 0.12703058 0.17460752 0.32505035 0.34981903 0.34098482
-0.16407935 0.29288146 -0.058320653 -0.054865148 0.2003536 -0.055417214 -0.276011 0.06162544
0.046471946 0.14926155 0.39291748 -0.20346998 -0.30333397 0.047953524 -0.03775919 0.22701997
0.019843899 0.022385981 0.11846787 0.43398798 0.16458751 0.16889049 0.11529705 0.12298418
-0.22647822 -0.06977211 0.19497989 -0.29141638 0.143489 -0.17169593 0.30177787 -7.3370626e-05
0.13112284 -0.10685178 -0.07972211 0.16072568 -0.12630148 -0.08752745 0.18812148 -0.064151004
0.14772929 0.41923928 0.29544374 0.10910136 -0.010903465 -0.06271511 0.3378465 0.28416312
0.029067382 0.17920993 -0.08201063 0.16214913 -0.35919055 0.38292727 -0.14751521 -0.10559125
0.13967946 0.27136016 -0.10490199 0.5479645 -0.036379494 0.072927445 -0.13811433 -0.06323427
0.20130444 0.034072477 0.10349963 -0.17670102 0.17894654 -0.25377226 0.099826455 0.0071376055
-0.16548598 -0.0032941243 0.123364456 -0.18435228 0.11914939 0.021530753 0.023253636 -0.11433761
0.14274958 -0.023875592 -0.27438542 0.16248494 0.2548673 0.019238805 0.25461125 0.28888294
0.04937905 -0.20172212 -0.012732768 0.20651264 -0.049682748 0.052405544 -0.21109363 0.18974635
-0.12309993 0.108394496 0.07284448 0.06968629 0.61776096 0.37323788 -0.1107972 -0.40159786
0.11613646 -0.29569924 -0.027571505 -0.17772731 0.17295957 0.11664655 0.20797497 -0.2798923
-0.18262616 0.15070736 0.505972 0.032232556 0.2511241 -0.15193434 0.22651425 0.14857171
-0.13111097 0.13271315 0.43218473 0.034665264 0.43000513 0.09746221 0.35968918 0.32998392
-0.10822644 0.23549908 -0.09962126 0.17936042 0.201906 0.042274415 0.40645456 -0.05465611
-0.019503878 -0.16519144 0.31097683 0.13421816 -0.38981217 0.2221088 -0.29952672 0.31007993
0.32238707 0.17788576 0.23451474 0.2522285 -0.0056579076 -0.21439083 -0.23978746 -0.19760844
0.1531154 0.24345769 0.41386178 -0.1476325 0.043435946 0.2520982 -0.05131913 0.08933016
0.05419685 0.2859025 0.17998229 0.45513666 -0.055470522 0.0052530095 0.022418434 0.24898164
0.0048810137 0.31725377 0.11454098 0.096954264 0.03174372 0.3900284 0.55757684 -0.19729747
0.14744659 0.20931034 -0.13501662 0.19539931 -0.08812205 -0.07940421 -0.01735009 0.19799723
0.43483678 0.3315557 0.11157911 -0.2990771 -0.03682844 -0.24321505 0.08013571 0.09420681
0.36891937 0.22669867 0.41167936 0.123084456 -0.17029054 -0.16391082 0.036557473 0.058651827
0.06311152 0.169253 -0.2464604 0.20988847 0.03768186 -0.12161589 -0.08155226 0.08410681
-0.07748589 0.14988352 -0.36760902 0.067582265 -0.27842554 -0.15374833 0.064476125 -0.15875153
-0.22333223 0.36986095 -0.1653045 0.005778588 0.3552926 0.33270487 0.16498183 0.06711642

actor.2.bias f4 [64]
00000000: c10d 96bd 0344 363e 1344 553e 1e65 7fbd
00000010: b64b 0f3e dfe0 993c 1e1e 99bd eb1d 583d
00000020: b305 e6bd 421f 993d 5738 e8bd 4a42 b53d
00000030: 8dbe 1fbe e407 9d3b b55c 57bc 2235 143d
00000040: c45b f4bd 8619 cd3d 695f f93c 04f4 12be
00000050: 189c e2bd fa84 033e 7686 c0bb 3d43 263d
00000060: fede 9c3e 32fa db3d 0f71 973d 7144 ecbc
00000070: 768f bd3b 2cd3 2b3c ddf3 34bd 184f f8bd
00000080: 9256 fcbd d99b 4fbd d4a9 24bd 1e1c 8dbd
00000090: 0107 bfbb 7bf4 7bbd 0b6b a23c 5012 52bd
000000a0: 4049 a73d 8106 02be d866 1a3e 847a c3bd
000000b0: b2a4 993c 8a6e 62bd ce80 4ebe 2302 8dbd
000000c0: cd45 a6bd ff28 9d3c bd17 2c3e cd34 0bbe
000000d0: 0684 76bd ec0a e8bd ce0f 4d3d 1479 683d
000000e0: 1273 80bd d5cc 573d 7d76 1a3e 42b9 bcbc
000000f0: d39b 90bc a53a 253b 63f9 313e 07b0 2abd
-0.07326842 0.17799382 0.2082675 -0.062352292 0.13993725 0.018783985 -0.074764475 0.052762907
-0.11231556 0.07476665 -0.11338871 0.08850534 -0.15600033 0.0047922004 -0.013144662 0.036183484
-0.119315654 0.10014634 0.030441003 -0.14350897 -0.11064929 0.12843695 -0.005875404 0.040591467
0.3063888 0.1074108 0.07394611 -0.02884123 0.005784924 0.010487359 -0.04417788 -0.12124461
-0.123211995 -0.050685737 -0.040201023 -0.068901286 -0.0058296924 -0.06151245 0.019826433 -0.051286995
0.08168268 -0.12697794 0.15078294 -0.095448524 0.01875529 -0.0552812 -0.20166323 -0.06885173
-0.08118782 0.019184588 0.1680593 -0.1359436 -0.0601845 -0.11330208 0.0500639 0.056756094
-0.06271948 0.052685577 0.15084262 -0.023037557 -0.017652428 0.0025211957 0.1738029 -0.04167178

actor.4.weight f4 [36, 64]
00000000: 35ef f23d f96b 87bf 664e dd3e 3a85 9bbf
00000010: feed 643e e099 4d3c 2ca4 e03e cefd 0b3f
00000020: c0e1 85bd 123b 83be 1904 88bc 54cf d53e
00000030: a0f5 debd f276 00bf 865d b43c 7d41 be3e
00000040: 852a bb3d 448d 31bf e267 92be 2524 323f
00000050: a7f5 833d 49b5 9cbf e2e4 49bb 5d12 b0be
00000060: 49bc f93d cf4f 4fbd 8269 b93c e5b2 0d3f
00000070: 3f6b 4dbf 9f87 d2be 9913 813e a5ac 8abd
00000080: 851c a0bf 0f4b 79bc f944 f03c 3375 9ebe
00000090: ae76 433d f223 163e 93cb ae3e 9ff8 b83d
000000a0: 12c1 a4be 9d4d 9c3e 4a08 90bf 4ace 81bd
000000b0: f62f 513d e912 3a3d 65de 3fbf 4c18 80be
000000c0: 350d b6bd 11f9 ab3d 0138 c2bf 7288 7bbd
000000d0: f0bd 523e 8fed b9bd 9fd7 773e f670 403e
000000e0: 863a 93bd 396b 9fbd 400d 08bf d81a 8fbd
000000f0: e124 dabd de44 43bd 18a2 6a3e 5290 9b3e
00000100: e8d8 98be 0827 91bf e05e 1dbe 243d bc3e
00000110: a470 c7be 18bd d9be 6939 efbe 3601 113d
00000120: e5fc 0fbd 6a0e 043f 7817 0e3e d170 a4bc
00000130: 3b35 c23e e042 a13e f26e 363d 4409 eebe
00000140: 5330 ccbd b0c2 033f 037f 77bf 7c54 a3bd
00000150: 4ca0 143d ef05 e2be 28b8 f33c 419b 343e
00000160: e9ae 43bf f504 903e 9b35 c5bc 35d6 013f
00000170: 3a45 d03e 0fa9 7cbe 7c29 fbbe f82f 13bf
00000180: 9e9d 35bf efe3 83bd 7f92 143e 72fa 62bf
00000190: e21f 063e b17f 9f3e 2d57 d23e f3c5 e1bd
000001a0: cf5a 373e 7c30 d13d 3817 9bbf 5524 20bd
000001b0: 3753 1b3e 9a63 463d fee0 44be 6def a2bd
000001c0: 7a30 eb3c 00fe b53e 66c6 22bf ea17 d7bc
000001d0: 7e0d 683e 5fc3 da3d b2f5 053f bafa 48be
000001e0: 12bb 4fbd 3c01 8bbc f730 9bbf 3560 043e
000001f0: b2d9 ae3e 174f 963e 4a6f dfbd 4ad4 9dbe
00000200: efd7 ea3e a912 77bf 7051 153f 6c82 27be
00000210: a901 febe 223a ea3e cac4 6b3e 3e76 08be
00000220: a988 a13d 453b 71bd 2adb f53d a950 e53e
00000230: 8a44 063f bfde 8ebd 1959 ca3d e9ac 1dbe
00000240: 24e0 d43c f855 0f3e 08b6 c43e 3c81 b73e
00000250: 98ce e33d a4d7 53bf 0ed5 fe3d 639b 96be
00000260: d0af bd3d ad15 0ebd e131 4a3d edf8 353e
00000270: e540 873e 8bfd 4fbe 1262 8e3e 148e d4be
00000280: a56f e1be 16a1 153c 8792 ea3d f311 c8be
00000290: 4953 023e b723 543e f6c3 ba3e 0626 c23d
000002a0: 10e7 ad3e 3bae e83b 3322 71bf f6fe 9a3c
000002b0: 905e 04be 1798 2e3c dc14 f23e 3621 f2bb
000002c0: 07ce 963d a602 f03e 9776 70bf b574 0e3d
000002d0: 6b87 873e a4f3 c8bc c09b 26be c872 253f
000002e0: bc8a b3bd 8994 f4bd dcef 99bf b1b2 eabc
000002f0: d759 02bd ff9e da3e 9eec 333e 4d65 6cbe
00000300: 1987 963e 6d13 27bf efb4 873c 9d96 4ebe
00000310: f6e3 07be a8c7 fd3d 5650 7e3e b42e 513e
00000320: 6ead 3abd f473 c63e 18cd b03d 5a02 6db9
00000330: 9d4c cd3e 2477 d8be a5d1 6e3d 2ef4 863e
00000340: c490 4bbd 1599 8ebd 0650 febe beea 83bd
00000350: 8cd8 39bd 914f 6cbf 5c1a e33b dea8 f13e
00000360: 4d66 853d 75b5 36be 57d5 92bc ee07 d4bd
00000370: 9c90 e03d ae5c 323e 44b6 953e 1e8b 25bf
00000380: bf0a 2ebe 6e44 d13d 6e2a 75bd 195b 25bf
00000390: bf52 4cbd 1e3b c43d 4ef0 183e 6812 9ebd
000003a0: 97a6 bdbe 823e 0b3f a8cc 2dbf 0670 99bd
000003b0: 5b3b 3ebb db91 193d 30b8 bb3d 51e8 dcbd
000003c0: e142 79bd 4714 7b3e be9b 70bf e237 e2bd
000003d0: 9d8b bc3e ddc2 5b3d 6ad2 f53d 7a6e 843e
000003e0: 975a 133e b2ee babd 088f 63bf 8b2c 62bb
000003f0: 5be8 9dbe 07a3 b33e 642d cfbd be9b 40be
0.11862031 -1.0579826 0.43223876 -1.2150033 0.22356412 0.012548894 0.43875253 0.5468415
-0.06537199 -0.25631005 -0.016603516 0.4175974 -0.10886693 -0.50181496 0.022017252 0.3715934
0.09138969 -0.6935618 -0.2859488 0.695864 0.06443339 -1.2242824 -0.003080659 -0.3438901
0.12194116 -0.05061322 0.022633318 0.55351096 -0.8024177 -0.41119096 0.25210264 -0.067712106
-1.2508703 -0.015215649 0.029329764 -0.3094879 0.047720604 0.1466215 0.3413969 0.09031796
-0.3217855 0.30527964 -1.125253 -0.06338175 0.05107113 0.04542819 -0.7494872 -0.25018537
-0.08889238 0.08397115 -1.5173341 -0.06140942 0.20580268 -0.09078514 0.24203347 0.18793091
-0.07188897 -0.07784123 -0.5314522 -0.06987542 -0.10651565 -0.0476731 0.22913396 0.30383545
-0.29852986 -1.1340036 -0.15368223 0.36765397 -0.38953125 -0.4252708 -0.46723488 0.035401545
-0.03515329 0.51584494 0.1387614 -0.020073326 0.37931237 0.31496334 0.0445394 -0.46491444
-0.099701546 0.51468945 -0.9667818 -0.079750985 0.036285684 -0.44145152 0.029750898 0.1763735
-0.76438767 0.28128782 -0.024073413 0.5071748 0.40677816 -0.24673866 -0.49055088 -0.5749507
-0.7094363 -0.06439959 0.14509009 -0.886634 0.130981 0.31152108 0.41082135 -0.11024084
0.17905734 0.10214326 -1.2116461 -0.03909715 0.15168463 0.04843483 -0.19226453 -0.07955823
0.028709639 0.3554535 -0.6358398 -0.02625652 0.22661397 0.10681795 0.52328026 -0.19626895
-0.050715514 -0.016968362 -1.2124318 0.12927325 0.34150463 0.29357216 -0.109098986 -0.30826026
0.4586787 -0.9651285 0.5832739 -0.16358346 -0.49610642 0.45747477 0.23024288 -0.13326356
0.07887394 -0.058894414 0.12004693 0.447881 0.5244833 -0.06976079 0.09880275 -0.15397991
0.025985785 0.13997638 0.3842013 0.35840786 0.11123389 -0.82750916 0.12442981 -0.29415426
0.09262049 -0.03468864 0.049363974 0.17770739 0.26416698 -0.20311563 0.27809197 -0.41514647
-0.4403049 0.009132644 0.11453729 -0.39076194 0.12727083 0.20716749 0.3647763 0.09479909
0.3396535 0.007100848 -0.9419281 0.018920403 -0.12926698 0.010656378 0.4728154 -0.007389213
0.07363515 0.4687702 -0.93930954 0.03477927 0.26470503 -0.02453024 -0.16270351 0.6462827
-0.08766696 -0.11942393 -1.2026324 -0.02864966 -0.03182396 0.4269943 0.17570731 -0.23085518
0.29399946 -0.65264016 0.016565768 -0.20174642 -0.13270554 0.12391597 0.24835333 0.20427972
-0.04557555 0.3876034 0.086328685 -0.00022602957 0.40097514 -0.42278397 0.0583054 0.2635817
-0.049698606 -0.06962792 -0.49670428 -0.06441258 -0.04537253 -0.9230891 0.0069306325 0.47199148
0.06513653 -0.17842658 -0.017923994 -0.10353075 0.10965082 0.17418167 0.2924062 -0.646654
-0.16996287 0.1021813 -0.059854917 -0.6459213 -0.0498836 0.09581588 0.14935419 -0.077183545
-0.3704116 0.54392254 -0.67890406 -0.0749207 -0.0029027078 0.037492614 0.0916599 -0.10786498
-0.060854796 0.24519454 -0.93987644 -0.11045815 0.36825266 0.053652633 0.12003024 0.25865537
0.14390026 -0.09127559 -0.88890123 -0.0034511413 -0.30841336 0.35085317 -0.101160794 -0.18809411

actor.4.bias f4 [36]
00000000: 410a d3be c4e2 08bf 28db a1be 7266 02bf
00000010: 08a4 223e d982 4a3d 7388 353e cb6a f43d
00000020: 60f0 003e 20d1 81bd 9731 783b b087 3f3d
00000030: 1891 c83d 5e56 173e 36b2 2e3e c954 003d
00000040: de53 17bf 7442 06bf bb27 04bf e333 ffbe
00000050: f952 1cbf 0a6f 5a3d 776c 6e3d 3f05 583d
00000060: 274a 2b3e ca07 3e3e 9b01 fb3d 97bb c8bc
00000070: e107 823d fc31 393e 8bff 893e 3282 00bc
00000080: 5e1c 883d 61eb a53e 614c 8d3e 966c 283e
-0.4121876 -0.53471017 -0.31612515 -0.5093757 0.15882885 0.049441192 0.17727832 0.11934432
0.12591696 -0.063387156 0.0037871355 0.04676026 0.097932994 0.1477904 0.1706017 0.031330857
-0.59112346 -0.5244515 -0.51623124 -0.49844274 -0.61064106 0.05332855 0.05820891 0.052739378
0.16727506 0.18557659 0.122561656 -0.024503512 0.06349159 0.18085474 0.26952776 -0.007843541
0.066460356 0.32406142 0.27597335 0.16447672

critic.0.weight f4 [64, 62]
00000000: c860 9c3d 6a19 ab3d 31d8 abbd 6c5b 1b3c
00000010: 48eb b2bd f7ee e8bc 6ff6 9aba 359d db3c
00000020: 8e90 adbd 6a77 58bd c0e8 18be 3903 10be
00000030: 4d35 babd 3a98 4fbc 1472 e6bd aebe b6bd
00000040: fe10 09bc ab20 ddbd 13fe f7bd c876 b63d
00000050: 0c4a bbbd 7c17 b63d d610 103c 3e3c 98bc
00000060: ef3e c93d 2717 cbbd c034 793d b399 ad3d
00000070: 98eb 923c 8d35 02be c589 733c 00f4 8cbd
00000080: f2fb c0bd 9aa3 b13d 5232 b7bc 73eb af3d
00000090: 160d 8cbd 74b4 66bd a684 a6bb 8f62 0cbd
000000a0: 8abb f33d 40ca 833d e1f0 143e 35c6 bebd
000000b0: e9b0 8d3a dda0 883d 7d0d 7aba 0d1f d9bd
000000c0: 5866 d43d 5f8b 20be a4d5 babd bb55 e5bd
000000d0: 12b7 003d d203 a03c 3ad8 e5bd d642 97bd
000000e0: e32d 2d3d 8a36 303d 7f85 3dbe 4926 3fbd
000000f0: 4eee a1bd f1a3 65bd dd19 e7bd ccbf 833d
00000100: 2839 8dbc 1325 4dbd 224a 1dbe 7bdf 133e
00000110: 30e2 283e 3eb8 763d 9ff2 c9be aa65 f2be
00000120: 9696 ee3b 0eaa 803e 2a4b 10be c3a7 3dbb
00000130: c609 6b3d c424 d23c a3f5 d43d fb2e df3d
00000140: bf91 8b3d 4504 dfbb 5d60 05bd 7659 f8bd
00000150: e2da 883d 00cd ebbc a810 a33c edf3 eabc
00000160: 15fc a73d bd3a 843b 22b0 0f3e 3045 823e
00000170: 9172 763e d651 043f 73dd 703d 5f54 99bd
00000180: b5e9 b63d e77b c93d d566 45be 1cc2 f2be
00000190: 51a7 42bc c32e 883d 1b07 e73c fb8b d9be
000001a0: ac65 8bbc c2ff 15be 72b2 dcbe 1f71 91be
000001b0: a74d d6bd 8668 003a b460 503d 66bd 363c
000001c0: d7cd 01be 2530 c2bd b01b 3fbd 1763 27be
000001d0: 7816 48be 3d74 5dbd adb4 7e3e 8e46 483d
000001e0: 75a3 7abd a195 383e 9219 96bd 8ac9 39bd
000001f0: 1a4f d7bd 1423 a33d 1f64 d73d 2324 473d
00000200: a71b 9abd 1364 8dbe 80f2 abbd 77e6 57be
00000210: 6814 853d 28b7 4bbe 6c9c bdbb e178 c0bd
00000220: 5fed 16be 43f6 d03c cbb0 04bd b718 dbbd
00000230: 011f a3bc 0aa1 99bd de74 f23d 9b83 d3bd
00000240: 2bc6 f23d 77ec afbc ce58 bc3c 047c e23d
00000250: c3b2 70bd adbd 40bd c437 573d c2ca 03bd
00000260: 0789 58bd f985 033d ee5f 10bd 5114 2bbb
00000270: a6e6 63bd c67e 533d fd69 493c 220e c8bd
00000280: 9a6b 96bd 49bd a0bc 0663 23be 059b 773d
00000290: 820b 5ebe 5d89 2bbe 5068 393c 5120 423c
000002a0: b171 0c3e c288 afbd f43f aebd 5464 9cbd
000002b0: e59a fdbd 9086 1b3d b949 52bd 0af4 373d
000002c0: de67 773d 770c 6f3b d794 05bd 2078 33be
000002d0: a8cc a9bd b5a2 e9bb a432 0ebe f003 833d
000002e0: af0e 3e3d 6813 12bc 5d8e ebbd c211 efbd
000002f0: 8dab d9bd 5cf5 b53d 39b1 8bbc 24c9 08be
00000300: d751 dabd 76f5 e2bc 038b 25bc d91b 4dbe
00000310: 5a7a 23be d99e 1cbd 501b ffbd ac52 c9bd
00000320: 0ffc 8f3d 44dc 5f3d 915f 1bbd 4b6d a1bd
00000330: 82c9 abbd 4523 b83d daa5 ac3c 59b8 2a3d
00000340: d503 bdbd b2e2 c03c 8db4 e73d 4d75 8e3d
00000350: 4c09 b6bb 3779 6fbd e4f8 823e ec28 a7bd
00000360: bb5d 3cbd b51d 94bd 0b87 13bd a704 a4bb
00000370: 5bdd f4bc 8e49 9abd 6c19 0dbe b468 3cbd
00000380: e50d e0bc db42 9b3d 33dc 20be 5778 e5be
00000390: d9f7 e1bd 7294 463d dc27 1cbd 1760 afbd
000003a0: 3888 12bd 27dd 863c 889d 31bd 3bcd 5fbd
000003b0: 8d46 5bbc 445f b4bd bd15 b73d 2067 94bd
000003c0: 4860 6dbe e38e a8bd b682 7cbd 1347 a0bc
000003d0: 2cf0 62bd 27b8 b43d 6021 f3bd b020 6cbd
000003e0: 3ef8 8b3d 0179 b83d d02e eabd c831 a8bd
000003f0: d7d8 f1bd 0ce2 5bbd 44af 633d 6145 e03d
0.07635647 0.08354457 -0.083908446 0.009482246 -0.087362826 -0.02843426 -0.001182271 0.02680836
-0.08474837 -0.052848257 -0.14932537 -0.1406373 -0.090921976 -0.012670571 -0.112522274 -0.08923088
-0.008365868 -0.107972465 -0.12109008 0.089093745 -0.09144983 0.08891198 0.0087930765 -0.018583413
0.09826457 -0.09916525 0.060841322 0.084765814 0.017934605 -0.1271574 0.01486439 -0.06882477
-0.09423055 0.08673783 -0.022362862 0.0858983 -0.068384334 -0.056324437 -0.005081731 -0.03427368
0.119010046 0.064350605 0.14545013 -0.09315149 0.001081017 0.06671307 -0.0009538753 -0.106016256
0.10371083 -0.15678166 -0.0912278 -0.111979924 0.03142459 0.019533072 -0.112228826 -0.07385795
0.04228009 0.043020763 -0.18507956 -0.04666737 -0.07906781 -0.05606455 -0.1128423 0.06433067
-0.017239168 -0.050084185 -0.1536031 0.1444072 0.16492534 0.0602343 -0.39442918 -0.4734319
0.007281135 0.2512974 -0.14091173 -0.0028939105 0.057382368 0.025652297 0.10398414 0.10897633
0.06814908 -0.006805929 -0.032562602 -0.12126438 0.066823736 -0.028784275 0.019905403 -0.028680766
0.08202378 0.0040353225 0.14032033 0.2544341 0.24067141 0.5168737 0.05880494 -0.07486796
0.08931295 0.098380856 -0.19277509 -0.4741372 -0.011880712 0.06649544 0.02820163 -0.4248961
-0.017016254 -0.14648345 -0.43104893 -0.28406617 -0.1046403 0.00048983877 0.050873473 0.011153555
-0.12676178 -0.09481839 -0.046657264 -0.16346394 -0.19539821 -0.05406593 0.2487361 0.04889541
-0.06119104 0.18025829 -0.07329096 -0.04535822 -0.10513134 0.07965675 0.105171435 0.048618447
-0.075248055 -0.27615413 -0.083958626 -0.21084009 0.06498033 -0.19894087 -0.005786469 -0.09398056
-0.14738987 0.025508052 -0.032395165 -0.10698073 -0.019912245 -0.07501419 0.11838697 -0.10327836
0.11854204 -0.02147506 0.022991564 0.1105881 -0.05876423 -0.04705589 0.052543417 -0.032175787
-0.052865054 0.03211019 -0.035247736 -0.0026104639 -0.055639885 0.051634572 0.012293336 -0.097683206
-0.07344742 -0.019621508 -0.15955743 0.060450573 -0.21684077 -0.16751619 0.011316374 0.011848525
0.13715245 -0.08571006 -0.08508292 -0.076363236 -0.123830594 0.037970126 -0.05133984 0.04491047
0.06040179 0.0036475935 -0.032612648 -0.17526293 -0.08290988 -0.007129992 -0.13886505 0.063972354
0.046400722 -0.00891576 -0.11501763 -0.11673309 -0.10628424 0.08884689 -0.01705228 -0.13357979
-0.10660141 -0.027704936 -0.010103944 -0.20030154 -0.15964642 -0.038237426 -0.12456381 -0.098302215
0.07030498 0.05465342 -0.037932936 -0.07882174 -0.08388044 0.08991102 0.021075178 0.041679714
-0.092292465 0.023545597 0.11313734 0.06955967 -0.0055553075 -0.05846521 0.25580513 -0.08162102
-0.045987826 -0.07232229 -0.03601746 -0.0050054374 -0.029890707 -0.07533561 -0.13779229 -0.04599829
-0.027350375 0.07581111 -0.15709 -0.44818375 -0.11033601 0.048481412 -0.03812395 -0.085632496
-0.03577444 0.016462876 -0.043363124 -0.054639082 -0.01338352 -0.08807233 0.08939693 -0.07246232
-0.2318126 -0.082303785 -0.061648093 -0.01956514 -0.055404827 0.08824187 -0.118716 -0.05764836
0.06834458 0.09007455 -0.1143471 -0.0821262 -0.11808937 -0.053682372 0.05558707 0.10950733

critic.0.bias f4 [64]
00000000: aec9 40be 4bd4 cb3d 29c6 7fbe e451 aabc
00000010: d556 c8bd 05e1 6abd 19a3 83bc 6d10 84be
00000020: 1b6a 57be b2e5 2dbd dbb9 823b 51b3 c8ba
00000030: 8dcc 7dbd 96ef 6fbe d419 f7b9 53da ca3c
00000040: ebf1 58be 2292 c3bd a64b 03be 1520 19bd
00000050: 4556 91bd 2f69 88bb c5b3 30bd 67b7 b23c
00000060: bab2 7e3d 187a 82bd cc33 8ebe c7a2 463c
00000070: 9a5e ccbd 83e0 d43b e833 4cbd dd9c 40be
00000080: 59ee 81bd 1d1a dfbd 16f9 27be b886 cfbd
00000090: 8e95 1fbd f145 f8bd 8c9f b93c 2d03 293e
000000a0: 24e5 0fbe 15c3 133b 1b51 72bd 9088 77bc
000000b0: b32b 4fbe c587 60bd 4003 d83d a5f5 cab9
000000c0: e96d 083c e11e efbd 8cdb 6b3d c59e e6bd
000000d0: ba31 913d 9740 02be 6907 52be 5380 e5bd
000000e0: 9c2e 2bbd 8ebb ef3b 7eda 51be ff47 3a3d
000000f0: e504 9e3e e80f e9bc 416e 8cbe 28dd 01be
-0.18826935 0.09952601 -0.24977936 -0.020791002 -0.09782187 -0.0573435 -0.016068982 -0.25793782
-0.2103657 -0.042455383 0.003989441 -0.001531223 -0.061962653 -0.23431239 -0.00047130755 0.024762308
-0.21186034 -0.09549357 -0.12821826 -0.03738411 -0.07096533 -0.0041629295 -0.04314019 0.021815969
0.062182166 -0.06370944 -0.27773893 0.01212377 -0.09978981 0.0064964904 -0.04985419 -0.18809839
-0.06344289 -0.108936526 -0.16403612 -0.101331174 -0.038960986 -0.12122715 0.022659086 0.16505118
-0.14052254 0.0022546698 -0.05915938 -0.015108243 -0.20231514 -0.05481698 0.10547495 -0.00038711462
0.008326986 -0.116758116 0.057582423 -0.11260752 0.07089563 -0.12719952 -0.20510639 -0.112061165
-0.041792497 0.0073160594 -0.20493504 0.045478817 0.3086311 -0.028449968 -0.27427867 -0.1268202

critic.2.weight f4 [64, 64]
00000000: 0714 6dbd f60c ee3d 4f6c 9b3c e161 96bb
00000010: 6fb1 eabd 5649 b2bc ba6e 16be 42f9 843d
00000020: ee0d b3be 1f57 21be 21ce 1f3e b321 633e
00000030: 1bc3 75bd 0f62 ff3d cc19 18be 12bd 9dbd
00000040: 480f 4a3d 2ce1 ec3d 9077 2cbe a4c3 a43e
00000050: 91da 0cbe 15bb d1be e535 13be bac4 053e
00000060: 144c a2bd 3f29 6a3c 87f1 75be b777 a6bd
00000070: e474 5cbd 0ff1 c53d b4ca 843c 8c1d 93bd
00000080: 8985 2d3e f710 95bd e1da cdbd 0a26 b13d
00000090: aede c1be 29c0 11bc e8e7 0dbe 2a7c bfbe
000000a0: b7e1 94bd 072a 523d f878 4b3d 8424 f0be
000000b0: a936 babc fa85 21be 89d3 91bc 390f b9bd
000000c0: b057 fd3d 74b9 9a3d ca3a 343e f820 463e
000000d0: 580a cfbd 7c5a 2dbe 5f26 d03c 9758 ab3d
000000e0: 10dd 66bc 8e05 7d3e 368c 40be 9cbf 98bd
000000f0: a00c 50be d733 a8be 683b 163e 4cfe 5ebd
00000100: c3cf 943c a96a e3bc d952 18bd 5f26 5abd
00000110: 40af ffbd dc97 81bd 4ab1 9fbd 50a2 043e
00000120: d4e8 8ebd 7645 efbd 96d9 e8bd 7cf6 95bd
00000130: 946c 3ebd 98aa fabd f159 b3bd 2b0d 21bd
00000140: 279b a63d bb08 b4bd 348f 0fbc 724c a33d
00000150: 5979 ad3d 3b7a 323c a16a 543d b460 f7bc
00000160: ef8f 9fbd 49bc f5bd 862b 00be 0410 8f3d
00000170: 94c1 92bc d58d fdbd e737 bbbd 40d5 34bd
00000180: a361 0d3e 85c0 a6bb 5ffc 90bb 8155 89bc
00000190: 896c 0cbd 2f1b 923c 83c2 4f3c 61ec 15bd
000001a0: 50cf ff3d 21a3 e03c ad37 a3bb ea8c cf3c
000001b0: 23d3 8e3d dbeb 19bd 425b 12bd 0b9d 91bd
000001c0: 2ad1 94bd 20ee 10bc 6959 abbd 4947 a13d
000001d0: dbe1 d5bd 4ed0 a9bd f469 7fbc 79bc 6e3d
000001e0: b310 adbd 5360 55bd 6633 a83d 8d8c fabd
000001f0: c780 f63d b4a1 643c 02bf 333c 3012 b0bb
00000200: e62e cd3c 174f 4abc 8f49 d23c f5b0 253d
00000210: 48ed 9dbe bde1 e1bb ecfb 4bbd 392e 55bc
00000220: df1f d4bc 3b51 833d 3125 48be ef19 73be
00000230: 6fda c4bd c467 c13d 3a7a b03c d46b 2e3d
00000240: 5e05 38be 65e9 2c3d 0fd0 b9bd c3c9 8fbe
00000250: e1aa 13bd bf0a 1d3e 3571 883e d552 903c
00000260: 6190 b8bd 2207 db3c 58ad 903d 2ad2 f5bd
00000270: b5c0 c93c dd0f 22be 67b8 be3d 0cc0 15be
00000280: a844 bcbb bf05 febd d4df 783d 3895 b3be
00000290: cf6d b23d e476 e83a 2c0c 87bd 6acc 923d
000002a0: e3ae 933b bb97 cc3d 8fb0 b6bd 924b 0bbe
000002b0: 8f8f 20bd d707 963d 110c 643e 8f44 57be
000002c0: 5e79 8c3d 97bd 9cbe 66ff 983c 6c2a 61be
000002d0: 984d 473d 2de3 eb3c 4b15 4a3c b490 ee3d
000002e0: 11a7 87bc 20fb 2abf 2110 febd b4d9 f43d
000002f0: a463 8c3e 55fd c4bd 43ff 1939 5ad7 1dbe
00000300: 430e 2e3c 23d3 b0bd 2060 13be cc52 66bd
00000310: c863 1fbd 6200 e0bd 7e0f f53c 1709 54bd
00000320: d711 02be d1bd b2bd 850a 32bc c359 c4bd
00000330: 6877 9e3d f712 58be bcf0 cb3d 1df2 bd3d
00000340: 819e 723d 82b0 c5bd fba2 3bbe 5bc7 28ba
00000350: d1d3 c7bb a4b8 1d3d 2253 c0bd ae47 67bc
00000360: 93c3 febd af4f e3bd f22c 29bd 9806 42bc
00000370: d9fd 063c a5cf 0abe 82ca c03d 4884 11be
00000380: 666f ceba 24fc 9c3d 33b2 dbbd f8d3 23be
00000390: 21c0 a3bc b0ec 0cbe 13eb babd 7871 f2bd
000003a0: 3ce2 86bd 7b66 093e 6f8a dfbd b755 163d
000003b0: cbd2 09be fad2 bf3d 6101 01be 4687 a9bc
000003c0: 4a74 26bd ed69 47bd 5cd2 15be 11b5 96bd
000003d0: fd07 88ba 895c 433d 141d 8bbd 305f d53d
000003e0: 2f45 96bd 055f eb3d b21c ecbd c6ee 54bd
000003f0: d59f bfbd fec8 85bd 7664 9e3d 2405 fb3d
-0.057880428 0.11623566 0.018972544 -0.004589305 -0.11459624 -0.021763485 -0.14690676 0.06492855
-0.34971565 -0.1575589 0.15605976 0.22180824 -0.06000052 0.12469875 -0.1485359 -0.07702078
0.04933098 0.115663856 -0.16842484 0.32180512 -0.13755251 -0.40963045 -0.14376028 0.13063326
-0.07924667 0.01429206 -0.24017917 -0.081283025 -0.053822413 0.09665119 0.016209938 -0.0718337
0.16945471 -0.072786264 -0.100515135 0.086498335 -0.37865204 -0.008895912 -0.13857996 -0.37399417
-0.07269614 0.05130961 0.04967591 -0.4690286 -0.022731142 -0.15773764 -0.017801063 -0.090361066
0.12370241 0.075549036 0.17600551 0.19348514 -0.10109395 -0.16929048 0.025408922 0.083665065
-0.014090791 0.2470915 -0.18803486 -0.074584216 -0.20317316 -0.3285205 0.14671099 -0.054441735
0.018165475 -0.02776082 -0.037188385 -0.05325925 -0.12484598 -0.06327793 -0.07797487 0.12952542
-0.06978002 -0.116831705 -0.11369626 -0.07322404 -0.046490267 -0.122395694 -0.08757389 -0.0393192
0.08135062 -0.08790728 -0.00876217 0.07973565 0.08470411 0.0108934 0.0518595 -0.030197479
-0.07791125 -0.11998803 -0.12516603 0.069854766 -0.01791457 -0.12380568 -0.09141522 -0.044148684
0.13806777 -0.005088868 -0.004424616 -0.016764404 -0.034283195 0.017835228 0.012680653 -0.03660238
0.124907136 0.027421536 -0.0049810023 0.025335748 0.06973865 -0.037578445 -0.03573156 -0.07110032
-0.072664574 -0.008845836 -0.08366663 0.07874925 -0.10443469 -0.08291684 -0.015589226 0.05828521
-0.08450451 -0.052093815 0.082129285 -0.12233839 0.12036281 0.013954569 0.010970833 -0.005373262
0.025046777 -0.012347958 0.025669841 0.040451963 -0.30845094 -0.006893365 -0.0498008 -0.013011509
-0.025894104 0.06411978 -0.19545437 -0.23740362 -0.096119754 0.0944362 0.021542657 0.0425833
-0.17970797 0.04221477 -0.09072887 -0.2808362 -0.036051635 0.1533613 0.2664887 0.017617622
-0.09011913 0.0267368 0.07064313 -0.12002976 0.024628023 -0.15826364 0.09312516 -0.14624041
-0.005745489 -0.1240344 0.060760334 -0.35074782 0.087123506 0.0017735627 -0.065941185 0.07167895
0.004506932 0.09989878 -0.08920395 -0.13603047 -0.03919941 0.07325714 0.22270228 -0.21022247
0.068590865 -0.30613396 0.018676471 -0.21988839 0.048657984 0.02879485 0.012334178 0.11648694
-0.016559156 -0.66789436 -0.1240542 0.11955586 0.2741977 -0.09618632 0.0001468631 -0.15414181
0.010623517 -0.08634021 -0.14392138 -0.056231305 -0.03891352 -0.10937573 0.029914614 -0.05176648
-0.12702118 -0.08727611 -0.010866766 -0.09587433 0.07737619 -0.21100985 0.09958026 0.09274695
0.059233192 -0.09652807 -0.18323891 -0.00064383977 -0.0060982485 0.038506165 -0.09390856 -0.014116211
-0.124396466 -0.11099183 -0.04130263 -0.011842392 0.008239233 -0.13555773 0.09413625 -0.14210618
-0.0015749752 0.076652795 -0.10727348 -0.15998828 -0.019989075 -0.13762164 -0.09126868 -0.11838049
-0.065861195 0.13418 -0.10915076 0.036702838 -0.13459317 0.093664125 -0.12598182 -0.020694386
-0.040638246 -0.048685003 -0.14631027 -0.073587544 -0.0010378357 0.04769567 -0.067926556 0.10418546
-0.073374145 0.11492733 -0.11528911 -0.051985525 -0.093566574 -0.06532477 0.07734005 0.1225684

critic.2.bias f4 [64]
00000000: ea86 f43c 1a9d c0bd 1063 5b3d 1813 c0bd
00000010: 0837 61be 5f11 46be 6435 bdbd 9c32 83be
00000020: 1a99 d2bd f8d2 1cbd 3f5b 56bd 7055 a83c
00000030: b410 4cbd 4deb 9abd a72a 6f3d c7f5 bcbd
00000040: ec3b aebd 7a27 d7bd 69b1 023d 57d6 e0bd
00000050: 5dd3 66bd f95a 9fbd 0429 5d3b 9a02 0fbe
00000060: e8b8 5ebd 6dda 0c3c abb2 f0bd cbf9 3dbc
00000070: d8d5 d0bd 2c8b 78bd 954f ca3b 63e5 edbd
00000080: db83 dbbd c408 4a3d 2765 14bd 21d4 99bd
00000090: ac33 f5bd 8720 54bc 0a3d 21ba 8bdb bd3d
000000a0: b8a1 2dbd 6bfc debd 3dd5 043e fa4b 68bd
000000b0: 1ea5 b5bc b446 d33a 784c 36be c859 a2bd
000000c0: f077 c1bd f0e3 753d 3d45 7b3d a46b 1abe
000000d0: 53a3 4c3d b0fd f4bd 33e9 a9bd 3be7 30be
000000e0: 4873 c7bc 66b8 22bd a1e1 a53b 0760 a5bd
000000f0: ecb5 19be 9e19 46bd d370 e0bd b8c2 09be
0.029849488 -0.09404965 0.05356127 -0.09378642 -0.21993649 -0.19342564 -0.09238699 -0.2562455
-0.10283108 -0.038287133 -0.052333113 0.020548552 -0.049820617 -0.07564411 0.058390286 -0.09226566
-0.08507523 -0.105055764 0.031907473 -0.10978382 -0.056353915 -0.077810235 0.003374637 -0.13965836
-0.05437556 0.008596999 -0.11752828 -0.0115952 -0.101970375 -0.0606796 0.0061740377 -0.11616018
-0.10718509 0.049324766 -0.03622928 -0.075111635 -0.11972746 -0.012947208 -0.0006150758 0.0927039
-0.042390555 -0.10887989 0.12971969 -0.056713082 -0.02217346 0.0016119094 -0.17802608 -0.07927281
-0.094467044 0.06003183 0.061345328 -0.15080124 0.049960446 -0.119624496 -0.08296432 -0.17275707
-0.024346963 -0.039726637 0.0050622975 -0.080749564 -0.15010804 -0.048364274 -0.109590195 -0.13453186

critic.4.weight f4 [1, 64]
00000000: f0b0 26bd 79f9 15bc f461 813d 326c 91bc
00000010: f1c1 19bd f819 e93c 437c 2e3d 4067 663c
00000020: e5c0 113e ebaa 28be 5bda 993b 8dbf 97bd
00000030: 6c46 dc3b 30c3 8b3a a0f3 3abe be02 0fbb
00000040: 86d0 d5bb c074 61b9 0865 9b3d 7e4d 7d3b
00000050: b491 84b9 59cd 88bc 1212 c3bd 8418 9d3d
00000060: d37e 54bc 3bab 1cbe 9de2 8c3d 264a c7bd
00000070: 98c2 45bc c958 7abb 4b83 a6bd ec2f c1bd
00000080: f299 f4bd 2eaf df3d 7645 d5bb 3def 03bd
00000090: f29f f53b d32e d6bd 9979 84be 0bd3 463e
000000a0: 54db d63c 6138 793d f016 b83d 0f03 c2bb
000000b0: 3702 8fbd a363 893d ccae d3bc a7cc cf3c
000000c0: 15cd 913d 0581 04be f5b1 e7bd 1e0d 15bb
000000d0: 5df8 203e d39f 8f3d a486 5aba 530e 9e3c
000000e0: 7a34 1abb 6763 a13d 2000 90bd 7c18 163b
000000f0: 39ee febb bdc7 383d 2107 a9bd 5aa5 b3bd
-0.040696084 -0.009153717 0.06317511 -0.017751787 -0.037538473 0.028454766 0.042598974 0.014062703
0.1423374 -0.1647145 0.0046952195 -0.07409582 0.006722262 0.0010663029 -0.18256998 -0.0021821703
-0.006525102 -0.00021501165 0.075876296 0.0038650925 -0.0002528556 -0.01669948 -0.09524931 0.076706916
-0.01296969 -0.15299694 0.068791606 -0.097309396 -0.012070321 -0.0038199893 -0.08130511 -0.094329685
-0.11943425 0.10922085 -0.0065085245 -0.032210577 0.0074958736 -0.1045815 -0.25874022 0.19416444
0.02622763 0.060844783 0.0898875 -0.005920775 -0.06982844 0.06708457 -0.025840186 0.02536614
0.071191944 -0.12939842 -0.113132395 -0.0022743414 0.15719743 0.07012906 -0.0008336103 0.01929394
-0.0023529814 0.078802876 -0.07031274 0.0022902777 -0.007779863 0.04511236 -0.08253313 -0.08771773
