CybORG/CybORG/Models/bline_train/90000.pth (torch, 78565 bytes, 11 tensors)

actor.0.weight f4 [64, 62]
-0.0009508271 0.0681284 -0.10452683 -0.093464345 -0.3362909 -0.1823696 -0.060531072 0.22328593
-0.24877754 -0.20299242 -0.24097994 -0.48662764 -0.25295284 0.12628967 -0.07760561 -0.01578164
0.05020762 0.076202966 -0.086098604 -0.055303834 0.04612862 0.10545937 -0.026136648 0.09503569
-0.020470306 0.013438404 0.11499559 -0.11781425 -0.594555 -0.09822948 0.14244536 0.61149144
-0.082318895 -0.058462333 -0.08872742 -0.11894336 0.626429 0.56329554 0.1435423 0.15866026
0.09788427 0.51765275 0.06420492 0.07509108 -0.057442524 -0.41835594 0.043050025 -0.08215898
0.11584151 0.22613998 0.24767005 0.25715077 0.050404087 -0.12586756 0.112242766 -0.13885146
0.2846444 -0.09846389 0.0013871588 -0.032782193 0.18935807 0.2031363 -0.07522884 0.03836764
0.069719516 -0.01602962 -0.10954204 0.12154727 0.35164908 0.21129309 -0.057109747 0.39133352
0.14144042 0.83137727 0.17166518 -0.22721292 0.19615342 -0.078540266 0.011683059 -0.079451956
-0.11835829 0.112838656 0.09656578 -0.12668617 0.023770874 -0.021394443 -0.020899286 -0.058135178
0.048838682 -0.07522262 0.04197249 0.09979502 0.29875308 0.4191276 -0.1256965 -0.08238459
0.06341307 0.026581297 -0.2783846 -0.18060468 0.008922862 0.063776754 -0.17251419 -0.36530906
-0.14887893 -0.08602122 -0.09095384 0.14825323 0.020986695 0.2017466 0.02256557 0.25561747
0.06009403 0.15503961 0.08703317 -0.4450976 -0.18759093 0.031918615 0.1787737 0.030121163
0.008753216 -0.21674639 0.023294136 0.14066446 -0.12182473 -0.07527382 -0.03179192 -0.061863456
-0.077477016 -0.30866966 -0.38763475 -0.3320349 -0.4832023 -0.050181318 0.13138597 0.14503722
-0.27362427 -0.18648575 0.19931693 0.42445904 0.12030038 0.08065218 0.12057564 -0.009184859
-0.11408694 -0.060207866 0.086475044 -0.000823276 -0.06312495 -0.09732169 -0.11885332 -0.10718915
0.33763698 0.122755244 0.04243582 -0.0105410265 0.0792204 -0.099378794 -0.026849132 -0.051495075
-0.48311675 -0.41423318 -0.03173913 -0.12660098 -0.26880637 -0.6372272 -0.03667235 0.051903915
-0.2500393 -0.036059372 0.13480389 0.025061624 -0.03922658 -0.12072149 -0.10266088 0.12408269
-0.014655112 -0.17487392 0.14949812 0.075582206 0.008599693 -0.026589852 0.064656034 -0.008758741
0.10369804 0.1596494 -0.030540317 -0.026708819 -0.10465844 0.06881427 -0.21018733 -0.28840446
-0.41036427 -0.6221683 -0.07775925 0.42793792 0.20768227 0.81145424 -0.24509229 0.054961987
-0.16779035 -0.1676866 -0.09600194 -0.08718714 -0.07374409 0.08889163 -0.0456521 0.10712317
0.045924205 0.01608152 -0.00094539195 -0.02510558 0.015934242 -0.028999802 0.09494737 0.029833127
-0.14210783 -0.21175976 0.10255168 -0.10306653 -0.009119395 0.12563345 -0.24239448 0.072764
-0.17618823 0.057227097 0.041657865 -0.58745563 0.29420668 0.025816258 -0.08924689 0.10016246
0.22349215 -0.050346415 0.15040974 7.4600655e-05 0.35184938 -0.02032551 -0.053825844 -0.19740234
0.04573167 0.22602473 -0.074953444 0.00020330961 -0.056222975 0.06752732 0.12898685 -0.043030795
0.0017503793 -0.02159215 -0.06688753 0.016785737 -0.116712846 -0.24568816 0.09067681 -0.13226248
00000000: ed40 79ba e786 8b3d 2a12 d6bd 3c6a bfbd
00000010: 522e acbe 19bf 3abe 6eef 77bd 11a5 643e
00000020: 8abf 7ebe 3fdd 4fbe 72c3 76be 4227 f9be
00000030: 0983 81be 1452 013e b1ef 9ebd 7f48 81bc
00000040: 81a6 4d3d 4d10 9c3d 7754 b0bd 4686 62bd
00000050: 5df1 3c3d 15fb d73d 861c d6bc 12a2 c23d
00000060: 58b1 a7bc c02c 5c3c cf82 eb3d 9948 f1bd
00000070: c234 18bf 8a2c c9bd 32dd 113e b48a 1c3f
00000080: cf96 a8bd 3376 6fbd b9b6 b5bd 9498 f3bd
00000090: a75d 203f 2334 103f c1fc 123e d677 223e
000000a0: 8c77 c83d e484 043f de7d 833d 5ac9 993d
000000b0: da48 6bbd c032 d6be 3955 303d f842 a8bd
000000c0: 503e ed3d 3d91 673e 389d 7d3e 44a9 833e
000000d0: 8474 4e3d 6de3 00be 89df e53d 142f 0ebe
000000e0: e9bc 913e 70a7 c9bd 53d1 b53a 9f46 06bd
000000f0: 15e7 413e f602 503e 9411 9abd 6327 1d3d
00000100: 1bc9 8e3d 8d50 83bc 9457 e0bd c6ed f83d
00000110: 590b b43e 375d 583e e9eb 69bd de5c c83e
00000120: c2d5 103e 24d5 543f ffc8 2f3e 81aa 68be
00000130: 71dc 483e b8d9 a0bd 4d6a 3f3c b5b7 a2bd
00000140: d565 f2bd f417 e73d 48c4 c53d 05ba 01be
00000150: 23bb c23c 6643 afbc fb34 abbc 271f 6ebd
00000160: 120b 483d 510e 9abd 58eb 2b3d 5561 cc3d
00000170: 2af6 983e e597 d63e 95b6 00be 40b9 a8bd
00000180: b6de 813d 05c1 d93c 6d88 8ebe 6ff0 38be
00000190: 3231 123c 639d 823d 8fa7 30be ca09 bbbe
000001a0: b873 18be e52b b0bd 0246 babd b2cf 173e
000001b0: 4aec ab3c a996 4e3e 6edb b83c 4be0 823e
000001c0: 2825 763d b4c2 1e3e 723e b23d d5e3 e3be
000001d0: d617 40be 18bd 023d 7410 373e a8c0 f63c
000001e0: a669 0f3c c4f2 5dbe 58d3 be3c 580a 103e
000001f0: 3e7f f9bd 2929 9abd 3f38 02bd 8964 7dbd
00000200: 45ac 9ebd f309 9ebe 1078 c6be 7a00 aabe
00000210: 4b66 f7be ed8a 4dbd 0b8a 063e a384 143e
00000220: 7b18 8cbe 1ff6 3ebe bd19 4c3e b252 d93e
00000230: 0c60 f63d f82c a53d 5cf0 f63d 177c 16bc
00000240: 6aa6 e9bd 869c 76bd d419 b13d 1ed1 57ba
00000250: a747 81bd 9850 c7bd 5f69 f3bd fc85 dbbd
00000260: c1de ac3e 1a67 fb3d 2fd1 2d3d 45b4 2cbc
00000270: 4e3e a23d 1c87 cbbd b6f2 dbbc 80ec 52bd
00000280: 145b f7be 5f16 d4be e400 02bd b0a3 01be
00000290: fda0 89be 5221 23bf bf35 16bd 3399 543d
000002a0: 2705 80be feb2 13bd 080a 0a3e 094e cd3c
000002b0: 0dac 20bd d43c f7bd de3f d2bd 111f fe3d
000002c0: ff1b 70bc 2612 33be 0916 193e d8ca 9a3d
000002d0: bae5 0c3c f6d2 d9bc 626a 843d d380 0fbc
000002e0: a35f d43d 227b 233e b02f fabc 74cc dabc
000002f0: 2a57 d6bd 7fee 8c3d 593b 57be c0a9 93be
00000300: 441b d2be 6c46 1fbf 3e40 9fbd ae1a db3e
00000310: a9aa 543e 77bb 4f3f 79f9 7abe d21f 613d
00000320: 3cd1 2bbe 09b6 2bbe aa9c c4bd 2c8f b2bd
00000330: 2407 97bd d10c b63d b2fd 3abd 6463 db3d
00000340: 051b 3c3d 64bd 833c 2ed4 77ba 38aa cdbc
00000350: 8788 823c fe90 edbc c473 c23d 9a64 f43c
00000360: b784 11be 8dd7 58be 9d06 d23d 8b14 d3bd
00000370: 8469 15bc 0ea6 003e 4236 78be 4b05 953d
00000380: b06a 34be f666 6a3d 70a1 2a3d 7e63 16bf
00000390: 42a2 963e 9e7c d33c 13c7 b6bd fa21 cd3d
000003a0: 20db 643e 0b38 4ebd 0305 1a3e ec72 9c38
000003b0: 9a25 b43e af81 a6bc 7d78 5cbd d723 4abe
000003c0: 2251 3b3d 0773 673e 3181 99bd 822f 5539
000003d0: 104a 66bd c34b 8a3d 2115 043e 0f41 30bd
000003e0: fc6c e53a 05e2 b0bc 54fc 88bd 3e82 893c
000003f0: 2507 efbd ad95 7bbe c3b4 b93d d16f 07be

actor.0.bias f4 [64]
-0.06794711 -0.0343817 0.031199457 -0.08176029 -0.12236465 -0.13039488 0.017014181 -0.020025562
-0.053007416 -0.03605871 0.035640463 -0.119143 0.08015941 0.030384943 -0.037758008 0.39295003
-0.045652054 0.07218784 -0.14255928 0.108461276 -0.154602 -0.08644875 0.028174104 -0.16506886
-0.0626034 0.0739669 -0.05915967 0.19660336 -0.040723614 -0.0031002732 -0.069045156 0.041895155
0.069006905 -0.048625477 0.03966542 -0.08819146 0.06808389 0.11986081 -0.07565325 -0.03419355
0.051821034 -0.03577799 -0.060205203 -0.070728496 0.20349574 0.0586126 -0.016702857 -0.007259564
-0.015237133 0.004207516 0.060356114 -0.095571764 -0.030399628 -0.12398195 0.005061445 -0.02475348
0.029509837 -0.0038102167 -0.17210835 0.21954113 -0.04817814 -0.049474716 -0.06449485 -0.03521872
00000000: db27 8bbd d3d3 0cbd 0196 ff3c f071 a7bd
00000010: 519a fabd 3c86 05be 5361 8b3c a60c a4bc
00000020: 4e1e 59bd 4cb2 13bd bcfb 113d 3f01 f4bd
00000030: 9e2a a43d d8e9 f83c 24a8 1abd bf30 c93e
00000040: a6fd 3abd 38d7 933d 0ffb 11be f220 de3d
00000050: fd4f 1ebe 0b0c b1bd 61cd e63c d007 29be
00000060: 3636 80bd f57b 973d 6951 72bd 6452 493e
00000070: cecd 26bd f42d 4bbb 8c67 8dbd 419a 2b3d
00000080: 7e53 8d3d 822b 47bd 3578 223d b99d b4bd
00000090: 916f 8b3d 9679 f53d 17f0 9abd 890e 0cbd
000000a0: 4b42 543d f18b 12bd bb99 76bd 1ada 90bd
000000b0: 3061 503e c413 703d 6ed4 88bc a3e1 edbb
000000c0: 2ba5 79bc 34df 893b f937 773d 21bb c3bd
000000d0: a408 f9bc 40ea fdbd 7ada a53b cfc7 cabc
000000e0: 9dbe f13c d4b4 79bb 2c3d 30be 64cf 603e
000000f0: 7156 45bd 00a6 4abd e015 84bd 8141 10bd

actor.2.weight f4 [64, 64]
0.08342419 -0.13491184 0.18815497 -0.15189861 0.41597506 0.41523123 -0.022087635 -0.22819646
0.2620732 -0.17138618 -0.330092 -0.00917136 -0.035379995 0.029601945 0.06387638 -0.21812063
-0.20712826 0.32731864 0.3356067 -0.13277204 0.5013015 -0.22053434 0.3167542 -0.33253378
-0.32022637 0.030185852 -0.016197462 0.09134636 0.101326846 0.26161298 0.31635097 0.30754393
-0.18140088 0.22785492 -0.10685131 -0.105476454 0.12999648 -0.13761917 -0.29978502 -0.038632948
0.000759888 0.12661715 0.34895855 -0.26737198 -0.34956414 -0.007166299 -0.10130463 0.19935569
0.010056881 -0.009139657 0.06425069 0.42684695 0.16592902 0.1527584 0.097621664 0.11904113
-0.3011523 -0.12850168 0.16418241 -0.32520896 0.1343215 -0.20522591 0.23261285 -0.05421462
0.20990111 -0.112083375 -0.08042535 0.12743358 -0.18713272 -0.13201705 0.21892682 -0.09713065
0.16221993 0.42838013 0.23437041 0.10153086 -0.07703593 -0.09004229 0.40396386 0.22652698
-0.09288811 0.2139694 -0.08576216 0.07324793 -0.39981553 0.27437598 -0.13857475 -0.17665093
0.11418899 0.28503463 -0.05297966 0.49864438 -0.028973615 -0.0047677523 -0.13747121 -0.061635252
0.1684696 0.021339018 0.123718634 -0.17368753 0.16416647 -0.36714417 0.11982493 -0.066008635
-0.16278328 -0.0112458095 0.13154754 -0.19755751 -0.014568679 0.03451484 -0.016297897 -0.14852849
0.13128474 0.005859595 -0.31403962 0.15513302 0.19270095 0.010833959 0.25564274 0.25995162
0.039233193 -0.22349244 -0.03950501 0.15220042 -0.031833116 0.063287444 -0.2918617 0.18107288
-0.14671506 0.076860264 0.014759721 -0.04737549 0.6236758 0.3479333 -0.13830931 -0.49445933
0.11382731 -0.3862801 -0.11958239 -0.14466237 0.06804365 0.026943317 0.15202926 -0.3517089
-0.283985 0.048091568 0.48764178 -0.036917828 0.2743074 -0.16678196 0.18927428 0.10125255
-0.19796827 0.07891115 0.36321464 -0.012750773 0.3534603 0.03395239 0.26226434 0.23186937
-0.23299767 0.17161411 -0.1688341 0.16269197 0.12827654 -0.01149799 0.28573895 -0.13530229
-0.075740956 -0.19347681 0.2681963 0.085149586 -0.4854781 0.19405165 -0.35028097 0.31548032
0.29916385 0.11951081 0.2095675 0.23961844 -0.033536017 -0.23560701 -0.24426718 -0.22425489
0.08338884 0.16736718 0.40982023 -0.21821971 -0.012945291 0.12825993 -0.0935422 0.016273769
0.13562761 0.28576007 0.14394033 0.33894524 -0.02840654 0.024527384 -0.005897612 0.2946223
0.028437786 0.19580515 0.10030149 0.07898257 0.06549127 0.35525933 0.52851725 -0.1785911
0.1842142 0.24293724 -0.14443494 0.21486537 -0.12501925 -0.14821011 -0.011028391 0.11253342
0.42568952 0.28534827 0.09849772 -0.40483317 -0.047732696 -0.3071278 0.055485215 0.07278799
0.34490252 0.20146602 0.3732191 0.10598376 -0.18604957 -0.17206424 -0.015371301 -0.06543822
0.12336201 0.11963465 -0.22518376 0.22359222 0.026388755 -0.15476653 -0.009802334 0.11517807
-0.16055763 0.11763779 -0.3533945 0.059638765 -0.3379526 -0.17998296 -0.01874737 -0.20415625
-0.22958392 0.32763448 -0.16504055 0.04281404 0.36034647 0.3302877 0.1095169 0.052678738
00000000: 4dda aa3d 5426 0abe b2ab 403e 4f8b 1bbe
00000010: affa d43e 3099 d43e 21f1 b4bc 55ac 69be
00000020: 752e 863e dc7f 2fbe d201 a9be 7943 16bc
00000030: 9dea 10bd c77f f23c 9fd1 823d 045b 5fbe
00000040: 6e19 54be 4f96 a73e a4d4 ab3e 65f5 07be
00000050: 4c55 003f c1d3 61be 9b2d a23e de41 aabe
00000060: b6f4 a3be 5248 f73c 8ab0 84bc cd13 bb3d
00000070: 7384 cf3d 23f2 853e c1f8 a13e 6676 9d3e
00000080: 27c1 39be cd52 693e dcd4 dabd 0a04 d8bd
00000090: cc1d 053e 0aec 0cbe 6c7d 99be 953d 1ebd
000000a0: 3833 473a eda7 013e b2aa b23e fbe4 88be
000000b0: 12fa b2be 46d3 eabb cd78 cfbd e623 4c3e
000000c0: 9ec5 243c 80be 15bc de95 833d af8b da3e
000000d0: 4ce9 293e b36c 1c3e deed c73d d6cb f33d
000000e0: a230 9abe f295 03be 6f1f 283e ca81 a6be
000000f0: 938b 093e be26 52be 1032 6e3e 2610 5ebd
00000100: 51f0 563e f88b e5bd 0cb6 a4bd f37d 023e
00000110: b89f 3fbe 7a2f 07be 5a2e 603e 6fec c6bd
00000120: fb1c 263e a454 db3e ccfe 6f3e 69ef cf3d
00000130: 03c5 9dbd 1868 b8bd 5ad4 ce3e b0f6 673e
00000140: 1f3c bebd cb1a 5b3e 12a4 afbd 0303 963d
00000150: 9fb4 ccbe 027b 8c3e 8ae6 0dbe fbe3 34be
00000160: ebdb e93d 0ff0 913e 3301 59bd 514e ff3e
00000170: 135a edbc ce3a 9cbb 41c5 0cbe 3f75 7cbd
00000180: 4b83 2c3e 2acf ae3c 3260 fd3d 25db 31be
00000190: 411b 283e 52fa bbbe c666 f53d 892f 87bd
000001a0: a9b0 26be 5840 38bc 66b4 063e 844c 4abe
000001b0: 78b1 6ebc 6f5f 0d3d 2b83 85bc da17 18be
000001c0: 826f 063e d801 c03b cdc9 a0be 31db 1e3e
000001d0: 6653 453e eb80 313c 9be3 823e 6118 853e
000001e0: fcb2 203d 34db 64be 01d0 21bd 6dda 1b3e
000001f0: 7163 02bd d99c 813d e66e 95be 2b6b 393e
00000200: 793c 16be ea68 9d3d c2d2 713c cd0c 42bd
00000210: 38a9 1f3f 5024 b23e f5a0 0dbe c629 fdbe
00000220: 4b1e e93d 81c6 c5be 9de7 f4bd 5f22 14be
00000230: 785a 8b3d 3bb8 dc3c 8fad 1b3e 3013 b4be
00000240: 7b66 91be aafb 443d 2fac f93e 2637 17bd
00000250: 0572 8c3e e4c8 2abe 1ed1 413e 7f5d cf3d
00000260: 32b8 4abe 2b9c a13d 45f7 b93e 9ee8 50bc
00000270: c0f8 b43e a911 0b3d 8347 863e 2a6f 6d3e
00000280: f196 6ebe 9cbb 2f3e d9e2 2cbe b998 263e
00000290: ed5a 033e 1162 3cbc 604c 923e af8c 0abe
000002a0: 131e 9bbd c91e 46be 0751 893e e862 ae3d
000002b0: 9690 f8be 7ab5 463e 0758 b3be a386 a13e
000002c0: 012c 993e 15c2 f43d dd98 563e 895e 753e
000002d0: 105d 09bd f742 71be 2d21 7abe 13a3 65be
000002e0: c5c7 aa3d 4d62 2b3e f5d3 d13e fd74 5fbe
000002f0: 7c18 54bc 9256 033e 0e93 bfbd 9150 853c
00000300: f7e1 0a3e 254f 923e 1865 133e 3b8a ad3e
00000310: d5b4 e8bc a7ed c83c c140 c1bb bcd8 963e
00000320: 5cf6 e83c 2581 483e de6a cd3d 9dc1 a13d
00000330: 4920 863d 8de4 b53e e84c 073f 96e0 36be
00000340: a6a2 3c3e 8ac4 783e c1e6 13be ab05 5c3e
00000350: 0c05 00be 64c4 17be 6db0 34bc ec77 e63d
00000360: faf3 d93e 2b19 923e 2cb9 c93d 4b46 cfbe
00000370: 5c83 43bd db3f 9dbe 7744 633d df11 953d
00000380: 1097 b03e 1c4d 4e3e 9316 bf3e 030e d93d
00000390: c783 3ebe 9c31 30be e9d7 7bbc 7904 86bd
000003a0: 39a5 fc3d 0303 f53d 9296 66be 5cf5 643e
000003b0: 3b2d d83c 1e7b 1ebe f899 20bc 7be2 eb3d
000003c0: 3869 24be 15ec f03d 20f0 b4be c747 743d
000003d0: 2008 adbe 744d 38be 1694 99bc 560e 51be
000003e0: 0c18 6bbe b5bf a73e 6400 29be c65d 2f3d
000003f0: 557f b83e 781b a93e 654a e03d a9c5 573d

actor.2.bias f4 [64]
-0.14283402 0.13876511 0.09463965 -0.06197087 0.11582285 0.002560593 -0.05314757 -0.008229402
-0.11231556 0.030318331 -0.11338871 0.07362409 -0.19089934 -0.07935935 -0.013144662 0.009717461
-0.12549451 0.04793763 0.023382707 -0.1859612 -0.11064929 0.12478981 -0.005875404 0.06200009
0.27175418 0.078249305 0.06461134 -0.048039176 -0.02536609 -0.029549358 -0.014170105 -0.13943365
-0.16558637 0.08666993 -0.040201023 -0.05876772 -0.0058296924 -0.0658622 0.051042687 -0.051286995
0.08336571 -0.14179635 0.16396375 -0.095448524 0.01875529 -0.0552812 -0.18572073 0.014531539
-0.0811879 0.13120998 0.24018097 -0.17694262 -0.10283824 -0.11330208 0.087121755 0.023687545
-0.06271948 0.052685577 0.20335957 -0.023037557 -7.9131176e-05 -0.023664901 0.14933899 -0.004914919
00000000: 1543 12be 7118 0e3e 6fd2 c13d 2bd5 7dbd
00000010: 8834 ed3d 9fcf 273b 44b1 59bd 9dd4 06bc
00000020: b305 e6bd 265e f83c 5738 e8bd 3ac8 963d
00000030: 1e7b 43be 2887 a2bd b55c 57bc fc35 1f3c
00000040: a281 00be 405a 443d 178d bf3c 9d6c 3ebe
00000050: 189c e2bd cd91 ff3d 7686 c0bb cef3 7d3d
00000060: 5d23 8b3e 2c41 a03d f352 843d bac4 44bd
00000070: 8ccc cfbc 7f11 f2bc ba29 68bc b2c7 0ebe
00000080: 798f 29be 0180 b13d d4a9 24bd 6cb6 70bd
00000090: 0107 bfbb c3e2 86bd 2312 513d 5012 52bd
000000a0: a4bb aa3d 1033 11be 1de6 273e 847a c3bd
000000b0: b2a4 993c 8a6e 62bd 932d 3ebe b115 6e3c
000000c0: d745 a6bd e95b 063e 00f2 753e 7230 35be
000000d0: db9c d2bd ec0a e8bd e46c b23d 620c c23c
000000e0: 1273 80bd d5cc 573d 7e3d 503e 42b9 bcbc
000000f0: 3af3 a5b8 e5dc c1bc 52ec 183e 540d a1bb

actor.4.weight f4 [36, 64]
0.109881744 -1.1611211 0.44506845 -1.3001188 0.23767576 0.0079826955 0.46521622 0.5641296
-0.06537199 -0.2824592 -0.016603516 0.42169735 -0.07752499 -0.5353158 0.022017252 0.36160052
0.09138794 -0.6819035 -0.23578249 0.721046 0.06443339 -1.3032496 -0.003080659 -0.34475982
0.111029394 0.011621345 0.022636605 0.5817776 -0.81695557 -0.36553925 0.23874946 -0.026822425
-1.2824572 0.035511635 0.029329764 -0.29148054 0.047720604 0.15746202 0.35546878 0.09031796
-0.3886858 0.33797014 -1.2653694 -0.06338175 0.05107113 0.04542819 -0.8223713 -0.32551882
-0.08889238 0.14049986 -1.6844697 -0.06142037 0.20978792 -0.09078514 0.21073411 0.18742925
-0.07188897 -0.07784123 -0.59345335 -0.06987542 -0.13625383 -0.105096206 0.23725697 0.35312214
-0.29793555 -1.1819925 -0.17835999 0.39249963 -0.4314103 -0.46677154 -0.44599503 0.042005654
-0.03515329 0.5721133 0.1387614 -0.0069320546 0.41473347 0.32269648 0.0445394 -0.4792897
-0.099701546 0.5643084 -0.9344091 -0.12535752 0.036285684 -0.39255163 0.029750898 0.2081232
-0.85093194 0.3167633 -0.02647972 0.5436683 0.45070878 -0.23339054 -0.5246701 -0.5746875
-0.70158774 -0.060104586 0.14509009 -0.8850085 0.130981 0.32933077 0.42170405 -0.11024084
0.17477536 0.11838735 -1.2608157 -0.03909715 0.15168463 0.04843483 -0.21538614 -0.05300616
0.028709639 0.40835097 -0.70353484 -0.027469289 0.24938044 0.10681795 0.53378236 -0.21131758
-0.050715514 -0.016968362 -1.255409 0.12927325 0.35266066 0.28548336 -0.09332734 -0.2938374
0.48280138 -1.0231166 0.588793 -0.16093631 -0.50992537 0.47081256 0.22153698 -0.14418913
0.07887394 -0.049270254 0.12004693 0.4549592 0.5548307 -0.087914884 0.09880275 -0.1543046
0.025985755 0.12130468 0.41633537 0.34058735 0.11123389 -0.94685656 0.12442981 -0.31188056
0.085650384 0.015781654 0.08004655 0.16424145 0.24934962 -0.20518607 0.3086677 -0.4055617
-0.49182078 -0.0012553302 0.11453729 -0.38964847 0.12727083 0.21617861 0.37375897 0.09479909
0.39183792 -0.0023898792 -1.0118072 0.018920403 -0.12926698 0.010656378 0.5139735 -0.068299696
0.07363515 0.45563418 -0.97989744 0.071773104 0.27482906 -0.02453024 -0.15420309 0.66607594
-0.08766696 -0.11942393 -1.2786646 -0.02864966 -0.028896937 0.45789924 0.18892936 -0.24158424
0.29945695 -0.77839696 0.0053109895 -0.23665233 -0.17949207 0.10348091 0.2638154 0.22116995
-0.04557555 0.36364684 0.086328685 -0.010994608 0.41882488 -0.4554769 0.0583054 0.26535255
-0.04969865 -0.06741411 -0.5634883 -0.0640719 -0.04537253 -1.0387721 0.0069306325 0.47692487
0.020721521 -0.21648039 -0.016244065 -0.09712537 0.08482488 0.17274348 0.27949962 -0.6853024
-0.19996764 0.004911652 -0.059854917 -0.6227291 -0.0498836 0.08095133 0.1384743 -0.077183545
-0.38563222 0.5625745 -0.8404526 -0.0749207 -0.0029027078 0.037492614 0.07131112 -0.1506367
-0.060854796 0.22412582 -1.1030142 -0.10889782 0.3643663 0.053652633 0.08088389 0.25454047
0.14390026 -0.09127559 -1.0558777 -0.0034511413 -0.3746857 0.33763775 -0.17079294 -0.1695507
00000000: ae09 e13d 9e9f 94bf 03e0 e33e 4b6a a6bf
00000010: 4661 733e dac9 023c d230 ee3e cc6a 103f
00000020: c0e1 85bd 7e9e 90be 1904 88bc b7e8 d73e
00000030: 6cc5 9ebd 750a 09bf 865d b43c b423 b93e
00000040: 9a29 bb3d 3a91 2ebf f770 71be 7896 383f
00000050: a7f5 833d e2d0 a6bf e2e4 49bb 5c84 b0be
00000060: 6163 e33d 7467 3e3c 6770 b93c 60ef 143f
00000070: 0024 51bf f627 bbbe bd7a 743e b4ba dbbc
00000080: 8f27 a4bf a674 113d f944 f03c f03c 95be
00000090: ae76 433d b93d 213e 0100 b63e 9ff8 b83d
000000a0: d301 c7be 6c0a ad3e a0f7 a1bf 4ace 81bd
000000b0: f62f 513d e912 3a3d ed86 52bf 67aa a6be
000000c0: 350d b6bd 32df 0f3e b49c d7bf ed93 7bbd
000000d0: a5d2 563e 8fed b9bd afca 573e 74ed 3f3e
000000e0: 863a 93bd 396b 9fbd 8fec 17bf d81a 8fbd
000000f0: 2086 0bbe ae3c d7bd 7ef3 723e 6dcc b43e
00000100: 028b 98be 884b 97bf 00a4 36be b6f5 c83e
00000110: d0e1 dcbe aefc eebe 7659 e4be 1f0e 2c3d
00000120: e5fc 0fbd 0476 123f 7817 0e3e 4a26 e3bb
00000130: f257 d43e 7938 a53e f26e 363d 7665 f5be
00000140: 5330 ccbd 8476 103f 6f35 6fbf b95d 00be
00000150: 4ca0 143d 87fc c8be 28b8 f33c 401e 553e
00000160: add6 59bf cd2e a23e ffeb d8bc d92d 0b3f
00000170: 4dc3 e63e eefd 6ebe c850 06bf b81e 13bf
00000180: 419b 33bf 3a30 76bd 7f92 143e eb8f 62bf
00000190: e21f 063e 0b9e a83e 98e9 d73e f3c5 e1bd
000001a0: 50f8 323e 1175 f23d 6962 a1bf 5524 20bd
000001b0: 3753 1b3e 9a63 463d 2f8e 5cbe fd1c 59bd
000001c0: 7a30 eb3c 6113 d13e dc1a 34bf 4607 e1bc
000001d0: 965d 7f3e 5fc3 da3d f6a5 083f a363 58be
000001e0: 12bb 4fbd 3c01 8bbc 3eb1 a0bf 3560 043e
000001f0: f08f b43e e02a 923e 6822 bfbd db71 96be
00000200: be31 f73e 7cf5 82bf 23bb 163f 7dcc 24be
00000210: 788a 02bf 580e f13e 97da 623e 51a6 13be
00000220: a988 a13d 9bcf 49bd 2adb f53d 6af0 e83e
00000230: 6209 0e3f b80c b4bd 1959 ca3d 0602 1ebe
00000240: 14e0 d43c 976e f83d e929 d53e 7761 ae3e
00000250: 98ce e33d 3165 72bf 0ed5 fe3d cfae 9fbe
00000260: 7869 af3d 8748 813c 72ef a33d e92e 283e
00000270: 8255 7f3e 4c1c 52be b109 9e3e c8a5 cfbe
00000280: efcf fbbe e489 a4ba 8792 ea3d 0180 c7be
00000290: 4953 023e ed5d 5d3e 565d bf3e 0626 c23d
000002a0: fb9e c83e 859f 1cbb e682 81bf f6fe 9a3c
000002b0: 905e 04be 1798 2e3c c493 033f b6e0 8bbd
000002c0: 07ce 963d e248 e93e 8fda 7abf c7fd 923d
000002d0: 65b6 8c3e a4f3 c8bc 6ae7 1dbe f483 2a3f
000002e0: bc8a b3bd 8994 f4bd 48ab a3bf b1b2 eabc
000002f0: 45b9 ecbc c571 ea3e b376 413e dc61 77be
00000300: 6c52 993e 0645 47bf cf07 ae3b fd54 72be
00000310: c5cc 37be cded d33d d012 873e 607a 623e
00000320: 6ead 3abd eb2f ba3e 18cd b03d ba22 34bc
00000330: 3770 d63e 4534 e9be a5d1 6e3d 4adc 873e
00000340: d090 4bbd 6910 8abd c540 10bf 2138 83bd
00000350: 8cd8 39bd 7cf6 84bf 5c1a e33b 7f2f f43e
00000360: 2ec0 a93c 09ad 5dbe 4612 85bc aae9 c6bd
00000370: abb8 ad3d abe3 303e 931a 8f3e fa6f 2fbf
00000380: 51c4 4cbe ecf1 a03b 6e2a 75bd 2d6b 1fbf
00000390: bf52 4cbd d0c9 a53d 35cc 0d3e 6812 9ebd
000003a0: 9671 c5be e204 103f e727 57bf 0670 99bd
000003b0: 5b3b 3ebb db91 193d 910b 923d 8240 1abe
000003c0: e142 79bd 3d81 653e 922f 8dbf d205 dfbd
000003d0: 388e ba3e ddc2 5b3d 74a6 a53d 2153 823e
000003e0: 975a 133e b2ee babd 0027 87bf 8b2c 62bb
000003f0: ced6 bfbe dbde ac3e 58e4 2ebe b39e 2dbe

actor.4.bias f4 [36]
-0.50519896 -0.5580384 -0.34025487 -0.6486053 0.29991892 0.10942442 0.09238076 0.18031746
0.10130159 -0.05217188 0.12462802 0.091418885 0.060580887 0.28784537 0.21066682 0.054949567
-0.73114395 -0.57839566 -0.50253814 -0.571301 -0.5293504 0.054783266 0.14876868 0.060187522
0.17898646 0.14734514 0.16252646 0.02558609 -0.011888869 0.12862465 0.1748086 -0.086236484
0.11252194 0.18758829 0.22977467 0.16038617
00000000: b854 01bf 9bdb 0ebf e335 aebe ff0a 26bf
00000010: f98e 993e e919 e03d 2032 bd3d 24a5 383e
00000020: 3577 cf3d 2eb2 55bd fa3c ff3d d339 bb3d
00000030: aa23 783d 7860 933e 0bb9 573e cc12 613d
00000040: 402c 3bbf bd11 14bf 57a6 00bf c840 12bf
00000050: 8283 07bf 6b64 603d d156 183e 3187 763d
00000060: 3a48 373e a5e1 163e 566d 263e eb99 d13c
00000070: 88c9 42bc 2eb6 033e 0701 333e c19c b0bd
00000080: e771 e63d 2517 403e 0d4a 6b3e 463c 243e

critic.0.weight f4 [64, 62]
0.07635647 0.08354457 -0.083908446 0.009482246 -0.087362826 -0.02843426 -0.001182271 0.02680836
-0.08474837 -0.052848257 -0.14932537 -0.1406373 -0.090921976 -0.012670571 -0.112522274 -0.08923088
-0.008365868 -0.107972465 -0.12109008 0.089093745 -0.09144983 0.08891198 0.0087930765 -0.018583413
0.09826457 -0.09916525 0.060841322 0.084765814 0.017934605 -0.1271574 0.01486439 -0.06882477
-0.09423055 0.08673783 -0.022362862 0.0858983 -0.068384334 -0.056324437 -0.005081731 -0.03427368
0.119010046 0.064350605 0.14545013 -0.09315149 0.001081017 0.06671307 -0.0009538753 -0.106016256
0.10371083 -0.15678166 -0.0912278 -0.111979924 0.03142459 0.019533072 -0.112228826 -0.07385795
0.04228009 0.043020763 -0.18507956 -0.04666737 -0.07906781 -0.05606455 -0.1128423 0.06433067
-0.017239168 -0.050084185 -0.15235183 0.14566138 0.22951217 0.075936876 -0.39442918 -0.4734319
0.00668224 0.24732986 -0.14969467 -0.013342455 0.093295395 0.0049207914 0.10398414 0.10897633
0.06814908 -0.006805929 -0.032562602 -0.12126438 0.066823736 -0.028784275 0.019905403 -0.028680766
0.08202378 0.0040353225 0.008771151 0.22720157 0.24067141 0.5016298 0.05880494 -0.07486796
0.08931295 0.098380856 -0.19277509 -0.4741372 -0.05428962 0.051620953 0.015163005 -0.4248961
-0.049809538 -0.17085491 -0.43104893 -0.28406617 -0.16168667 -0.053035803 0.0049457736 -0.02439209
-0.0910254 -0.11073721 -0.046657264 -0.19475673 -0.20203902 -0.15589234 0.18764192 0.04889541
-0.093234226 0.18248148 -0.12548596 -0.05443853 -0.10513134 0.07965675 0.105171435 0.048618447
-0.075248055 -0.27615413 -0.083958626 -0.21084009 0.06498033 -0.19894087 -0.005786469 -0.09398056
-0.14738987 0.025508052 -0.032395165 -0.10698073 -0.019912245 -0.07501419 0.11838697 -0.10327836
0.11854204 -0.02147506 0.022991564 0.1105881 -0.05876423 -0.04705589 0.052543417 -0.032175787
-0.052865054 0.03211019 -0.035247736 -0.0026104639 -0.055639885 0.051634572 0.012293336 -0.097683206
-0.07344742 -0.019621508 -0.15955743 0.060450573 -0.21684077 -0.16751619 0.011316374 0.011848525
0.13715245 -0.08571006 -0.08508292 -0.076363236 -0.123830594 0.037970126 -0.05133984 0.04491047
0.06040179 0.0036475935 -0.032612648 -0.17526293 -0.08290988 -0.007129992 -0.13886505 0.063972354
0.046400722 -0.00891576 -0.11501763 -0.11673309 -0.10628424 0.08884689 -0.01705228 -0.13357979
-0.10660141 -0.027704936 -0.010103944 -0.20030154 -0.15964642 -0.038237426 -0.12456381 -0.098302215
0.07030498 0.05465342 -0.037932936 -0.07882174 -0.08388044 0.08991102 0.021075178 0.041679714
-0.092292465 0.023545597 0.11313734 0.06955967 -0.0055553075 -0.05846521 0.25580513 -0.08162102
-0.045987826 -0.07232229 -0.03601746 -0.0050054374 -0.029890707 -0.07533561 -0.13779229 -0.04599829
-0.027350375 0.07581111 -0.21984135 -0.44818375 -0.11277355 0.04964654 -0.03812395 -0.085632496
-0.03577444 0.016462876 -0.043363124 -0.054639082 -0.01338352 -0.08807233 0.08939693 -0.07246232
-0.26505098 -0.082303785 -0.061648093 -0.01956514 -0.055404827 0.054443642 -0.118716 -0.05764836
0.06834458 0.09007455 -0.1143471 -0.0821262 -0.11808937 -0.053682372 0.0022266887 0.05615451
00000000: c860 9c3d 6a19 ab3d 31d8 abbd 6c5b 1b3c
00000010: 48eb b2bd f7ee e8bc 6ff6 9aba 359d db3c
00000020: 8e90 adbd 6a77 58bd c0e8 18be 3903 10be
00000030: 4d35 babd 3a98 4fbc 1472 e6bd aebe b6bd
00000040: fe10 09bc ab20 ddbd 13fe f7bd c876 b63d
00000050: 0c4a bbbd 7c17 b63d d610 103c 3e3c 98bc
00000060: ef3e c93d 2717 cbbd c034 793d b399 ad3d
00000070: 98eb 923c 8d35 02be c589 733c 00f4 8cbd
00000080: f2fb c0bd 9aa3 b13d 5232 b7bc 73eb af3d
00000090: 160d 8cbd 74b4 66bd a684 a6bb 8f62 0cbd
000000a0: 8abb f33d 40ca 833d e1f0 143e 35c6 bebd
000000b0: e9b0 8d3a dda0 883d 7d0d 7aba 0d1f d9bd
000000c0: 5866 d43d 5f8b 20be a4d5 babd bb55 e5bd
000000d0: 12b7 003d d203 a03c 3ad8 e5bd d642 97bd
000000e0: e32d 2d3d 8a36 303d 7f85 3dbe 4926 3fbd
000000f0: 4eee a1bd f1a3 65bd dd19 e7bd ccbf 833d
00000100: 2839 8dbc 1325 4dbd 1e02 1cbe 4228 153e
00000110: 3d05 6b3e cb84 9b3d 9ff2 c9be aa65 f2be
00000120: b1f6 da3b 0a44 7d3e 8f49 19be 509a 5abc
00000130: a811 bf3d 973e a13b a3f5 d43d fb2e df3d
00000140: bf91 8b3d 4504 dfbb 5d60 05bd 7659 f8bd
00000150: e2da 883d 00cd ebbc a810 a33c edf3 eabc
00000160: 15fc a73d bd3a 843b e0b4 0f3c 87a7 683e
00000170: 9172 763e d06a 003f 73dd 703d 5f54 99bd
00000180: b5e9 b63d e77b c93d d566 45be 1cc2 f2be
00000190: cb5e 5ebd 7e70 533d 416e 783c fb8b d9be
000001a0: 1605 4cbd 97f4 2ebe 72b2 dcbe 1f71 91be
000001b0: 3191 25be 123c 59bd 2810 a23b ecd1 c7bc
000001c0: 866b babd 31ca e2bd b01b 3fbd 4f6e 47be
000001d0: 51e3 4ebe 3ea2 1fbe 3425 403e 8e46 483d
000001e0: 96f1 bebd 6ddc 3a3e 647f 00be f0fa 5ebd
000001f0: 1a4f d7bd 1423 a33d 1f64 d73d 2324 473d
00000200: a71b 9abd 1364 8dbe 80f2 abbd 77e6 57be
00000210: 6814 853d 28b7 4bbe 6c9c bdbb e178 c0bd
00000220: 5fed 16be 43f6 d03c cbb0 04bd b718 dbbd
00000230: 011f a3bc 0aa1 99bd de74 f23d 9b83 d3bd
00000240: 2bc6 f23d 77ec afbc ce58 bc3c 047c e23d
00000250: c3b2 70bd adbd 40bd c437 573d c2ca 03bd
00000260: 0789 58bd f985 033d ee5f 10bd 5114 2bbb
00000270: a6e6 63bd c67e 533d fd69 493c 220e c8bd
00000280: 9a6b 96bd 49bd a0bc 0663 23be 059b 773d
00000290: 820b 5ebe 5d89 2bbe 5068 393c 5120 423c
000002a0: b171 0c3e c288 afbd f43f aebd 5464 9cbd
000002b0: e59a fdbd 9086 1b3d b949 52bd 0af4 373d
000002c0: de67 773d 770c 6f3b d794 05bd 2078 33be
000002d0: a8cc a9bd b5a2 e9bb a432 0ebe f003 833d
000002e0: af0e 3e3d 6813 12bc 5d8e ebbd c211 efbd
000002f0: 8dab d9bd 5cf5 b53d 39b1 8bbc 24c9 08be
00000300: d751 dabd 76f5 e2bc 038b 25bc d91b 4dbe
00000310: 5a7a 23be d99e 1cbd 501b ffbd ac52 c9bd
00000320: 0ffc 8f3d 44dc 5f3d 915f 1bbd 4b6d a1bd
00000330: 82c9 abbd 4523 b83d daa5 ac3c 59b8 2a3d
00000340: d503 bdbd b2e2 c03c 8db4 e73d 4d75 8e3d
00000350: 4c09 b6bb 3779 6fbd e4f8 823e ec28 a7bd
00000360: bb5d 3cbd b51d 94bd 0b87 13bd a704 a4bb
00000370: 5bdd f4bc 8e49 9abd 6c19 0dbe b468 3cbd
00000380: e50d e0bc db42 9b3d 171e 61be 5778 e5be
00000390: d2f5 e6bd 2c5a 4b3d dc27 1cbd 1760 afbd
000003a0: 3888 12bd 27dd 863c 889d 31bd 3bcd 5fbd
000003b0: 8d46 5bbc 445f b4bd bd15 b73d 2067 94bd
000003c0: c3b4 87be e38e a8bd b682 7cbd 1347 a0bc
000003d0: 2cf0 62bd 4c00 5f3d 6021 f3bd b020 6cbd
000003e0: 3ef8 8b3d 0179 b83d d02e eabd c831 a8bd
000003f0: d7d8 f1bd 0ce2 5bbd a3ed 113b 4502 663d

critic.0.bias f4 [64]
-0.18826935 0.096451595 -0.24977936 -0.054988373 -0.087068856 -0.0573435 0.026896438 -0.25793782
-0.19420753 -0.04971286 0.024862189 -0.04401566 -0.073555686 -0.19300488 -0.05777309 0.007867139
-0.19694552 -0.09549357 -0.17365448 -0.03891735 -0.09852843 -0.008871504 -0.04711889 -0.04177991
0.026959041 -0.09030624 -0.2809637 0.015751773 -0.09978981 0.03476417 -0.04985419 -0.18809839
-0.09861781 -0.12273343 -0.16403612 -0.07961004 -0.033718422 -0.135756 0.0109692635 0.17443013
-0.14052254 0.007774891 -0.08307284 0.023327265 -0.20231514 -0.068372525 0.09673064 0.009574902
-0.03175629 -0.13963097 0.018060103 -0.10729678 -0.018017635 -0.13472407 -0.23638864 -0.12537606
0.0068143387 0.030169073 -0.19301374 0.049211625 0.31585625 -0.012529677 -0.2764981 -0.110599115
00000000: aec9 40be 6a88 c53d 29c6 7fbe 7d3b 61bd
00000010: 2851 b2bd 05e1 6abd eb55 dc3c 6d10 84be
00000020: 57de 46be b69f 4bbd caab cb3c c449 34bd
00000030: 5da4 96bd 12a3 45be 7aa3 6cbd 2ce5 003c
00000040: 16ac 49be 2292 c3bd 7bd2 31be cd67 1fbd
00000050: 46c9 c9bd c959 11bc bdff 40bd 6921 2bbd
00000060: 35d9 dc3c 7af2 b8bd 79da 8fbe dd09 813c
00000070: 9a5e ccbd e064 0e3d e833 4cbd dd9c 40be
00000080: 22f8 c9bd aa5b fbbd 16f9 27be 970a a3bd
00000090: 541c 0abd 9f03 0bbe 6db8 333c d09d 323e
000000a0: 24e5 0fbe 83c4 fe3b 1822 aabd d218 bf3c
000000b0: b32b 4fbe e506 8cbd b71a c63d 0de0 1c3c
000000c0: e212 02bd 6cfb 0ebe c8f2 933c 6abe dbbd
000000d0: b899 93bc 1bf5 09be dd0f 72be 9562 00be
000000e0: d14a df3b 2225 f73c 65a5 45be 2192 493d
000000f0: e9b7 a13e 4649 4dbc 2991 8dbe ca81 e2bd

critic.2.weight f4 [64, 64]
-0.057880428 0.09021878 0.018972544 -0.004589305 -0.18634224 -0.021763485 -0.17993389 0.06492855
-0.4065349 -0.15147917 0.14173836 0.17148602 -0.09245149 0.049910203 -0.08444683 -0.13651353
0.042878155 0.115663856 -0.13002142 0.36868778 -0.17443381 -0.4388567 -0.10893587 0.13625853
-0.038651332 -0.01899779 -0.24099877 -0.14976802 -0.053822413 0.05039281 0.016209938 -0.0718337
0.1210433 -0.09953002 -0.100515135 0.08576631 -0.42045844 0.009232519 -0.22961938 -0.39100456
-0.07269614 0.014614832 0.01377853 -0.49215728 -0.022731142 -0.16314757 -0.029904023 -0.12304777
0.11236565 0.117264085 0.16080381 0.16427957 -0.12060079 -0.14502688 0.016523061 0.060623482
-0.04637136 0.29640588 -0.17450367 -0.13500632 -0.20317316 -0.45150524 0.16100682 -0.08515193
0.018165475 -0.02776082 -0.037188385 -0.05325925 -0.12484598 -0.06327793 -0.07797487 0.12952542
-0.06978002 -0.116831705 -0.11369626 -0.07322404 -0.046490267 -0.122395694 -0.08757389 -0.0393192
0.08135062 -0.08790728 -0.00876217 0.07973565 0.08470411 0.0108934 0.0518595 -0.030197479
-0.07791125 -0.11998803 -0.12516603 0.069854766 -0.01791457 -0.12380568 -0.09141522 -0.044148684
0.13806777 -0.005088868 -0.004424616 -0.016764404 -0.034283195 0.017835228 0.012680653 -0.03660238
0.124907136 0.027421536 -0.0049810023 0.025335748 0.06973865 -0.037578445 -0.03573156 -0.07110032
-0.072664574 -0.008845836 -0.08366663 0.07874925 -0.10443469 -0.08291684 -0.015589226 0.05828521
-0.08450451 -0.052093815 0.082129285 -0.12233839 0.12036281 0.013954569 0.010970833 -0.005373262
0.025046777 -0.03195723 0.025669841 0.046690185 -0.30844703 -0.006893365 -0.07615212 -0.013011509
-0.034024287 0.108971745 -0.13848348 -0.20256835 -0.0031463231 0.03527032 -0.027348617 0.16752088
-0.10534154 0.04221477 -0.0009178517 -0.24993752 -0.16884202 0.14141244 0.25824502 -0.016667515
-0.106053144 -0.048238117 0.0706573 -0.13451648 0.024628023 -0.20345713 0.09312516 -0.14624041
-0.018059157 -0.12403462 0.060760334 -0.28643042 0.08011756 0.0017734737 -0.05974476 0.089978255
0.004506932 0.08478679 -0.11039474 -0.15763289 -0.03919941 0.077508576 0.22739214 -0.13520524
0.07935613 -0.27668172 0.0777165 -0.305061 0.06262302 0.10853259 0.012334178 0.21518056
0.012292177 -0.6250219 -0.1240542 0.096390195 0.27608484 -0.10789577 0.01610121 -0.10925369
0.010623517 -0.10427702 -0.14392138 -0.0835158 -0.03891352 -0.10937573 0.029914614 -0.05176648
-0.13112307 -0.08727611 -0.046914708 -0.09587433 0.07737619 -0.15041207 0.14976178 0.09274695
0.059233192 -0.09652807 -0.18323891 -0.012058456 -0.0060982485 0.047449786 -0.13249926 -0.014116211
-0.124396466 -0.12126567 -0.04130263 0.027112281 0.008239233 -0.095314026 0.09413625 -0.14210618
-0.0015749752 0.076652795 -0.10727348 -0.15998828 -0.01621169 -0.13762164 -0.09126868 -0.11838049
-0.065861195 0.14481498 -0.10915076 0.036702838 -0.13459317 0.07687478 -0.14855278 -0.04232111
-0.040638246 -0.048685003 -0.14631027 -0.08385414 -0.015154726 0.04769567 -0.067926556 0.10418546
-0.073374145 0.11642366 -0.11528911 -0.05167333 -0.11247205 -0.05328492 0.07734005 0.1225684
00000000: 0714 6dbd a0c4 b83d 4f6c 9b3c e161 96bb
00000010: 80d0 3ebe 5649 b2bc 9740 38be 42f9 843d
00000020: 5825 d0be 5b1d 1bbe dc23 113e 089a 2f3e
00000030: 3557 bdbd a46e 4c3d 76f2 acbd 34ca 0bbe
00000040: 01a1 2f3d 2ce1 ec3d 5624 05be a5c4 bc3e
00000050: c79e 32be d3b1 e0be c519 dfbd 5b87 0b3e
00000060: dc50 1ebd 41a1 9bbc 62c8 76be ca5c 19be
00000070: e474 5cbd b168 4e3d b4ca 843c 8c1d 93bd
00000080: 8de5 f73d 65d6 cbbd e1da cdbd 3fa6 af3d
00000090: 5446 d7be fe43 173c 5821 6bbe c031 c8be
000000a0: b7e1 94bd 0c73 6f3c 58bf 613c 0afc fbbe
000000b0: a936 babc 2810 27be 48f9 f4bc 7800 fcbd
000000c0: f61f e63d 2728 f03d c1a9 243e e738 283e
000000d0: 8cfd f6bd ed81 14be 5f5b 873c 5450 783d
000000e0: e5ef 3dbd 83c2 973e 17b1 32be 193f 0abe
000000f0: a00c 50be b22b e7be f9de 243e 2364 aebd
00000100: c3cf 943c a96a e3bc d952 18bd 5f26 5abd
00000110: 40af ffbd dc97 81bd 4ab1 9fbd 50a2 043e
00000120: d4e8 8ebd 7645 efbd 96d9 e8bd 7cf6 95bd
00000130: 946c 3ebd 98aa fabd f159 b3bd 2b0d 21bd
00000140: 279b a63d bb08 b4bd 348f 0fbc 724c a33d
00000150: 5979 ad3d 3b7a 323c a16a 543d b460 f7bc
00000160: ef8f 9fbd 49bc f5bd 862b 00be 0410 8f3d
00000170: 94c1 92bc d58d fdbd e737 bbbd 40d5 34bd
00000180: a361 0d3e 85c0 a6bb 5ffc 90bb 8155 89bc
00000190: 896c 0cbd 2f1b 923c 83c2 4f3c 61ec 15bd
000001a0: 50cf ff3d 21a3 e03c ad37 a3bb ea8c cf3c
000001b0: 23d3 8e3d dbeb 19bd 425b 12bd 0b9d 91bd
000001c0: 2ad1 94bd 20ee 10bc 6959 abbd 4947 a13d
000001d0: dbe1 d5bd 4ed0 a9bd f469 7fbc 79bc 6e3d
000001e0: b310 adbd 5360 55bd 6633 a83d 8d8c fabd
000001f0: c780 f63d b4a1 643c 02bf 333c 3012 b0bb
00000200: e62e cd3c 96e5 02bd 8f49 d23c 353e 3f3d
00000210: c5ec 9dbe bde1 e1bb a5f5 9bbd 392e 55bc
00000220: 0d5d 0bbd 942c df3d 9dce 0dbe 146e 4fbe
00000230: 8b32 4ebb 9c77 103d 350a e0bc 988a 2b3e
00000240: 4ebd d7bd 65e9 2c3d fc9b 70ba 9fef 7fbe
00000250: ece4 2cbe 6cce 103e b138 843e 508a 88bc
00000260: 6432 d9bd 5595 45bd c6b4 903d b0be 09be
00000270: b5c0 c93c 1157 50be 67b8 be3d 0cc0 15be
00000280: ccf0 93bc dd05 febd d4df 783d 02a7 92be
00000290: ad14 a43d e773 e83a ecb6 74bd 8546 b83d
000002a0: e3ae 933b b2a4 ad3d a316 e2bd 846a 21be
000002b0: 8f8f 20bd d1bc 9e3d 7cd9 683e 3e73 0abe
000002c0: 7785 a23d 3aa9 8dbe d429 9f3d f530 9cbe
000002d0: 7f40 803d 5646 de3d 4b15 4a3c 4b58 5c3e
000002e0: 2165 493c 6f01 20bf 2110 febd 3968 c53d
000002f0: fe5a 8d3e 75f8 dcbd afe6 833c 66c0 dfbd
00000300: 430e 2e3c 318f d5bd 2060 13be 550a abbd
00000310: c863 1fbd 6200 e0bd 7e0f f53c 1709 54bd
00000320: 2045 06be d1bd b2bd a329 40bd c359 c4bd
00000330: 6877 9e3d 9f05 1abe 275b 193e 1df2 bd3d
00000340: 819e 723d 82b0 c5bd fba2 3bbe d590 45bc
00000350: d1d3 c7bb b55a 423d e3ad 07be ae47 67bc
00000360: 93c3 febd 235a f8bd f22c 29bd 931a de3c
00000370: d9fd 063c 0034 c3bd 82ca c03d 4884 11be
00000380: 666f ceba 24fc 9c3d 33b2 dbbd f8d3 23be
00000390: 61ce 84bc b0ec 0cbe 13eb babd 7871 f2bd
000003a0: 3ce2 86bd 614a 143e 6f8a dfbd b755 163d
000003b0: cbd2 09be 8670 9d3d 381e 18be e658 2dbd
000003c0: 4a74 26bd ed69 47bd 5cd2 15be b8bb abbd
000003d0: 874b 78bc 895c 433d 141d 8bbd 305f d53d
000003e0: 2f45 96bd 876f ee3d b21c ecbd 6aa7 53bd
000003f0: bf57 e6bd 4a41 5abd 7664 9e3d 2405 fb3d

critic.2.bias f4 [64]
-0.004489314 -0.09404965 0.040888716 -0.09482727 -0.21994011 -0.21889362 -0.11226107 -0.25631353
-0.10286809 -0.03639027 -0.072228804 -0.08858707 -0.049820617 -0.07564393 0.07010586 -0.109433815
-0.08507523 -0.13494237 0.011793539 -0.10978382 -0.0806412 -0.077810235 -0.024628809 -0.16111198
-0.084003925 0.01081036 -0.16247168 -0.022782786 -0.101970375 -0.008421836 -0.00014281148 -0.059080936
-0.141287 0.0661906 -0.03622928 -0.091616005 -0.11972746 -0.0009921937 0.010805882 0.095185764
-0.055377003 -0.10887989 0.10695547 -0.07051871 -0.0006815321 -0.04716994 -0.17802608 -0.112430625
-0.13737549 0.03979271 0.091529734 -0.15080124 0.048447553 -0.119624496 -0.08296432 -0.20870759
-0.024346963 -0.039833743 -0.03170255 -0.080749564 -0.15010804 -0.06929433 -0.109590195 -0.13453186
00000000: 181b 93bb 1a9d c0bd ed7a 273d cd34 c2bd
00000010: fb37 61be a625 60be 22e9 e5bd 873b 83be
00000020: 81ac d2bd f70d 15bd b2ec 93bd 236d b5bd
00000030: b410 4cbd 34eb 9abd a993 8f3d d61e e0bd
00000040: ec3b aebd 552e 0abe b039 413c 57d6 e0bd
00000050: 3727 a5bd f95a 9fbd 5bc2 c9bc 8afa 24be
00000060: 400a acbd f01d 313c fa5e 26be f7a2 babc
00000070: d8d5 d0bd befb 09bc aabf 15b9 dafe 71bd
00000080: 8aad 10be f08e 873d 2765 14bd 2ca1 bbbd
00000090: ac33 f5bd 7f0c 82ba 270b 313c c1f0 c23d
000000a0: ffd2 62bd 6bfc debd 780b db3d 1d6c 90bd
000000b0: d8a8 32ba 4435 41bd 784c 36be 0742 e6bd
000000c0: 29ac 0cbe aefd 223d f173 bb3d a46b 1abe
000000d0: f170 463d b0fd f4bd 33e9 a9bd 71b7 55be
000000e0: 4873 c7bc b528 23bd 88da 01bd 0760 a5bd
000000f0: ecb5 19be 30ea 8dbd d370 e0bd b8c2 09be

critic.4.weight f4 [1, 64]
-0.043902792 -0.009153717 0.050896227 -0.0051575475 -0.03753586 -0.019323269 0.04842367 0.013977845
0.14234206 -0.15837964 -0.011343097 -0.014936428 0.006722262 0.0010663049 -0.18978189 -0.010250101
-0.006525102 -0.0059857317 0.045507222 0.0038650925 0.004508425 -0.01669948 -0.054075785 0.060386766
0.01645836 -0.15002243 0.0037808279 -0.09471719 -0.012070321 -0.0844898 -0.06326495 -0.21003897
-0.15930232 0.114039786 -0.0065085245 -0.034784324 0.0074958736 -0.11313848 -0.25541174 0.19689342
0.011203181 0.060844783 0.08754648 0.010931634 -0.06302897 0.019863632 -0.025840186 -0.009601671
0.031458847 -0.12674148 -0.09183132 -0.0022743414 0.12398558 0.07012906 -0.0008336103 -0.020603286
-0.0023529814 0.07876785 -0.06444944 0.0022902777 -0.007779863 0.11334871 -0.08253313 -0.08771773
00000000: 6ad3 33bd 79f9 15bc 9078 503d a500 a9bb
00000010: 34bf 19bd d54b 9ebc e657 463d 5503 653c
00000020: 1ec2 113e 462e 22be 66d8 39bc ebb7 74bc
00000030: 6c46 dc3b 41c3 8b3a 2f56 42be 0af0 27bc
00000040: 86d0 d5bb f523 c4bb c865 3a3d 7e4d 7d3b
00000050: 69bb 933b 59cd 88bc 927e 5dbd 1d58 773d
00000060: afd3 863c 7b9f 19be c4c7 773b 16fb c1bd
00000070: 98c2 45bc fd08 adbd 0e91 81bd 7514 57be
00000080: 2620 23be b18d e93d 7645 d5bb 027a 0ebd
00000090: f29f f53b 26b5 e7bd 54c5 82be 6e9e 493e
000000a0: 8c8d 373c 6138 793d 924b b33d 991a 333c
000000b0: 5515 81bd 0eb9 a23c ccae d3bc 5450 1dbc
000000c0: feda 003d 85c8 01be 0f12 bcbd 1e0d 15bb
000000d0: 27ec fd3d d39f 8f3d a486 5aba 39c8 a8bc
000000e0: 7a34 1abb 0a51 a13d 11fe 83bd 7c18 163b
000000f0: 39ee febb 5e23 e83d 2107 a9bd 5aa5 b3bd
